paper/training_results/seed-5/momarl/checkpoints/mlp_(negotiation=False)_(num_agents=12)_(window=False)_(reduced_space=False)_(fixed_savings_rate=False)_(rewards=['inverse_global_temperature', 'global_economic_output'])(wgen=uniform)(num_ensembles=1)(seed=5)_2025-01-16_22:22:50_w=[0.591 0.409].pt (torch, 38076 bytes, 9 tensors)

network.MLP.0.weight f4 [64, 18]
000000 85 05 25 3d a9 5a 52 bf 53 4d d9 3d 05 ac b4 be
       0.040288467 -0.82169586 0.106104515 -0.3528749
000010 6f e3 b2 3e e2 00 c7 be 05 4e c1 bd fb 57 8c be
       0.34939143 -0.3886786 -0.09438709 -0.27410874
000020 ab 00 40 be 45 67 c3 be 3e 4e ad 3e 15 5a f3 bd
       -0.18750255 -0.38164726 0.33848757 -0.11882416
000030 bc f9 48 be 58 46 3d 3c 1b de ee bb d8 97 31 3e
       -0.19626516 0.011552416 -0.0072896606 0.1734308
000040 2e b6 12 be 0f f4 ac 3e ab 98 33 3e 5a d1 13 bb
       -0.14327309 0.33779952 0.17538707 -0.0022555203
000050 c7 c4 8b be 33 de 82 be 64 73 14 bf 00 a7 15 3e
       -0.27298567 -0.2556015 -0.5798857 0.14614487
000060 a4 c6 13 3e f8 31 38 be e6 54 4b 3e d5 ec fd bd
       0.14431244 -0.17987812 0.19856605 -0.12398688
000070 91 1e 67 3b f5 9e c6 3c 93 9b c9 3d 0d c7 0e 3e
       0.0035266022 0.024245718 0.098441266 0.1394312
000080 03 38 82 be 07 c1 81 3b 5d 35 91 3e a9 21 ac 3d
       -0.2543336 0.003959778 0.28361025 0.08404858
000090 6e bd bc 3c e3 3f b2 be e5 b4 0f 3e 34 c6 be bd
       0.023039546 -0.34814367 0.1403385 -0.09315148
0000a0 e4 e7 b2 bd 5e 8d ae be b4 b3 f7 bd 6c e1 4f 3e
       -0.08735636 -0.3409223 -0.120948225 0.20300835
0000b0 a5 9d 8a be 4c 7d 92 3e 5c 21 99 be 8b 94 cf 3d
       -0.27073398 0.2861122 -0.29908264 0.10135754
0000c0 b4 15 83 be b8 9b 92 be 1a f5 18 be ac 8b 85 bd
       -0.25602496 -0.2863443 -0.14937249 -0.06520781
0000d0 78 32 02 bf b3 62 8d be 0d 98 88 be 13 17 b1 3d
       -0.5085826 -0.27614364 -0.26678506 0.08646979
0000e0 9b f0 68 3c f7 c9 5e bf 66 d3 dd 3e f3 f6 43 be
       0.014217521 -0.87026924 0.43325347 -0.19137172
0000f0 93 f6 87 3e 6b 10 ca 3e 16 3d 85 3e 70 00 09 3e
       0.2655531 0.3946565 0.26023167 0.13379073
000100 31 d3 a6 3e 86 5c e5 3e 2b 7e e1 3d 31 6a ab be
       0.32583 0.44797152 0.11010393 -0.33479455
000110 eb ae 1e 3e 28 fb 61 3e 07 32 25 be 70 9f 25 be
       0.15496413 0.22068465 -0.16132365 -0.16174102
000120 6a 50 c7 bc 2b c3 b1 bd 0c b9 38 be e4 91 3e 3d
       -0.024330337 -0.086798035 -0.1803934 0.04652585
000130 42 c2 63 bc d5 25 6d bb fb 36 2f be af d2 64 3e
       -0.013901295 -0.003618588 -0.17110817 0.22345994
000140 62 37 00 be 35 a4 56 3d 6c c6 87 3d 9e b0 3d bd
       -0.12521127 0.052402694 0.06629643 -0.046311013
000150 87 f5 d0 3d c4 7c 94 3d c3 2a 3a 3d 21 81 e3 3d
       0.102030806 0.0725036 0.045450937 0.11108614
000160 d7 da 57 3e 52 64 df bc 1f 0f 94 bd b9 30 d9 3e
       0.21079575 -0.027269516 -0.072294466 0.42419985
000170 cf 57 ba 3d c0 e0 21 bf 26 31 c7 3d 65 5c 0b bf
       0.090987794 -0.63233566 0.09726171 -0.5443786
000180 4f b6 25 3e 7c d4 a4 3d da 4b d3 3e 5e 7c 1c be
       0.16182826 0.08048341 0.41268808 -0.15281817
000190 37 4b 8c 3e 8c a7 88 be e7 f3 47 be 1f e1 25 be
       0.27401134 -0.26690328 -0.19526635 -0.16199158
0001a0 5e 23 9c be 98 da 07 be 7f 39 8d be 90 c8 ab be
       -0.30495733 -0.1326698 -0.2758293 -0.33551455
0001b0 f3 29 ad bc f6 64 7d 3d ee 96 e1 3d 3a 7f 3f bd
       -0.021138167 0.061863862 0.11015116 -0.046752192
0001c0 a5 ef cc 3e 4d 5e 87 be aa 99 37 3e fc 22 b4 be
       0.40026584 -0.26439133 0.17929712 -0.3518294
0001d0 71 1b 33 bf 3e fc a1 be 90 e3 49 3c b3 6b e5 3e
       -0.6996375 -0.31637758 0.0123223215 0.4480873
0001e0 16 dc 5e 3e 30 9f d6 be 0c 2a 0f bf a1 75 85 be
       0.21763644 -0.41918325 -0.55923533 -0.26066306
0001f0 0e 3c 82 bc 77 de 86 3d 44 0a ea 3d 6c 91 ee be
       -0.015897777 0.065854006 0.11427739 -0.46595323
000200 f0 c6 99 3d c9 01 03 bf 3c 59 74 bc 1f 4c f2 bf
       0.075086474 -0.511746 -0.014913853 -1.892948
000210 ff 0a b4 bd d8 5d a3 3d 0c 14 91 3d c3 93 cb bd
       -0.0879116 0.07976884 0.07083902 -0.09940293
000220 31 e4 82 be 27 95 61 bd b0 47 26 bd 81 09 79 3d
       -0.2556472 -0.055073883 -0.04059571 0.06080008
000230 4e 5a 76 be 1b 8d f5 be 10 66 ff bd f6 16 4c be
       -0.24057886 -0.47959217 -0.12470639 -0.19930634
000240 e8 45 90 3d f2 42 37 bf 51 f6 6a be 5a 6e 0b bf
       0.070445836 -0.71586525 -0.22945525 -0.5446526
000250 3d 57 7e c0 8d cb fa 3e aa 76 09 3d bf ba 24 3d
       -3.9740746 0.48983422 0.033560432 0.040217157
000260 b8 3a 0d 3d 5a a9 44 bc f6 77 34 bb c8 e7 3c bd
       0.034479827 -0.012003267 -0.0027537323 -0.04611948
000270 63 1f 7f 3d aa e6 80 3d 1d 5f 36 be 96 52 00 3e
       0.062285792 0.06293996 -0.1780972 0.12531504
000280 c2 f8 c7 3d 97 ea 35 3d 4b 83 f9 bd eb 24 2b be
       0.09764244 0.044413175 -0.12183245 -0.16713302
000290 44 8e ad 3d b8 de 0a 3f 18 ac ec bf f6 93 99 3e
       0.08474401 0.5424609 -1.8490019 0.29995698
0002a0 8c 41 22 3e a3 bd f3 be c6 4f 69 bd 1c e1 2c be
       0.15845317 -0.4760562 -0.056960844 -0.16882747
0002b0 aa 39 19 be 0b e5 06 be 0b b9 4a bd 8d 93 1c be
       -0.14963403 -0.1317331 -0.049492877 -0.15290661
0002c0 30 e9 76 bd cc f0 31 3e d3 65 d5 3d 7d 9f 14 3d
       -0.06028098 0.17377013 0.10419812 0.036284912
0002d0 07 45 a7 be 8c e0 07 3e 38 d3 0d 3e 73 0c 35 c0
       -0.3266985 0.13269252 0.13850105 -2.8288848
0002e0 0b 72 37 3e c7 8e 0c bf 18 5b 2d 3d db e3 4e 3d
       0.17914598 -0.5490536 0.042323202 0.05051027
0002f0 65 7a b5 be 86 cb 7e 3e e6 ee df bd 3c 47 82 bd
       -0.35444942 0.24882326 -0.10934238 -0.06361243
000300 fa 52 43 bc c1 f4 4b 3c 13 33 0d bd 37 d0 57 be
       -0.011921639 0.012448491 -0.034472536 -0.21075521
000310 b9 2a e7 3c 75 a1 51 3c 85 37 6f 3d cc 31 8c 3e
       0.028218614 0.012794842 0.058402557 0.27381742
000320 b4 91 cf 3c 30 17 26 3e 53 c1 09 be 0f 0a 88 be
       0.025338031 0.16219783 -0.13452654 -0.26570174
000330 62 ed fa be bc a2 08 bf 7b bd 0a bd cf 68 aa bc
       -0.49009234 -0.5337331 -0.03387211 -0.02080193
000340 fd c3 69 be 9a 47 56 3e 60 b3 ed be bb ae 49 3e
       -0.2282867 0.20925751 -0.46425915 0.1969556
000350 96 b9 47 3d 91 ca 49 bf 2c ea 93 3e 2b f7 82 be
       0.048760973 -0.78824717 0.28889596 -0.255792
000360 cb a1 ea bd fe 82 41 3e 3e 7c 71 3d 61 52 91 be
       -0.11456641 0.18897626 0.058956377 -0.28383163
000370 0c 7f 2a 3e 10 85 22 bd 6d d5 ea bd e0 b8 65 3e
       0.16650027 -0.03967768 -0.11466489 0.22433805
000380 f0 03 88 bd 5c 1d c5 be 94 cf 3b 3e a1 d4 df bd
       -0.06641376 -0.38498962 0.18340904 -0.109292276
000390 c0 24 40 3e ae 42 9c be 13 f7 5f be 0e 58 8b 3e
       0.18764019 -0.30519623 -0.21871595 0.27215618
0003a0 b8 f6 d1 3d 48 3a d2 be dc c5 f2 bd 57 d0 0d 3e
       0.10252136 -0.4106009 -0.11854145 0.13849007
0003b0 fc 43 f9 3d 91 5f 54 bf e3 99 6e 3e 20 81 dd be
       0.1217117 -0.8295832 0.2330089 -0.43262577
0003c0 a0 87 f8 bc ae 47 25 bd 55 9c c7 3a 7a 7b 2a 3c
       -0.030338109 -0.040351562 0.0015229086 0.010405416
0003d0 3a 9c 1a bd df b7 1b 3e 7e 17 24 3d df 25 44 3e
       -0.037746646 0.1520686 0.040061466 0.19155072
0003e0 8e cf 28 bd 8d ab 17 3d 83 4f 18 3c 53 1b 08 3d
       -0.041213565 0.037028838 0.009296301 0.033229183
0003f0 89 93 c2 bd 55 75 0c be a9 3c 6a be fa d7 b4 3d
       -0.09500796 -0.13716634 -0.22874703 0.08830257

network.MLP.0.bias f4 [64]
000000 4e 8e 45 3e 26 d6 29 3e 12 10 eb 3d 62 3d 84 bd
       0.19292566 0.16585597 0.114776745 -0.0645702
000010 56 81 1e be a3 d2 32 3d f3 28 cd be db 86 de bc
       -0.15479025 0.04365791 -0.40070304 -0.027163913
000020 96 7e 33 bf dd e2 61 bf e6 23 5f 3d 48 6e 2e 3e
       -0.7011503 -0.8823679 0.054477595 0.17034256
000030 d2 9e 0b 3e 41 30 a0 3e 79 90 62 be 04 0f 0f bf
       0.13634804 0.31286815 -0.22125424 -0.5588229
000040 ff 53 5b be c5 64 5d be f1 6c 80 3e bc 11 81 3e
       -0.2141876 -0.21620472 0.25083116 0.25208843
000050 c8 90 46 bf f4 94 1f 3e a2 ea 96 3e 4f 6f 97 3e
       -0.7756467 0.15584165 0.29475886 0.2957711
000060 68 2e d1 bf ed e4 70 be b4 90 97 bd 16 09 22 be
       -1.6342287 -0.23524828 -0.07400647 -0.15823779
000070 b0 e0 2d bf e7 4f e5 be 0a 13 76 3e 2a 0e 57 be
       -0.6792097 -0.44787523 0.240307 -0.21001497
000080 18 b5 90 3e ff 2e 67 3d e5 c3 b3 3e 0b fe b1 3e
       0.28263164 0.056441303 0.35110393 0.34764132
000090 13 38 99 3e 5b ed af 3e 35 22 7e bf dd c6 ce be
       0.29925594 0.34360775 -0.99270946 -0.40386096
0000a0 84 d7 3b 3f ad 06 79 3e f8 50 ba 3e 5d 63 d9 3d
       0.73375726 0.24318953 0.363899 0.10614655
0000b0 97 a6 46 bd 10 df 7b 3e 87 42 86 bf b8 30 cc 3c
       -0.048498716 0.2459681 -1.0489053 0.024925575
0000c0 5f 65 fb bd ee dc d5 3e 27 7d 48 be b1 48 fb be
       -0.122751944 0.41770118 -0.19578992 -0.49078897
0000d0 45 16 b0 3e 12 93 11 be 27 08 4c 3e 6a 86 6f bc
       0.3439199 -0.14216259 0.19924985 -0.014619449
0000e0 4b 6b 8f 3c 67 e6 9b be b2 c6 5b 3e d8 56 8b 3e
       0.017507216 -0.3044922 0.21462515 0.27214694
0000f0 12 c4 33 3e 29 ff 43 3e 77 f3 00 3f 22 d9 2c 3c
       0.17555264 0.19140305 0.503715 0.010549815

network.MLP.2.weight f4 [64, 64]
000000 1b 8c 88 3e 9b 3f 8d bd c1 ed 93 3d be 82 15 bd
       0.26669392 -0.068968974 0.07223082 -0.03650164
000010 06 fa c2 3d d7 a5 c1 bd 26 bd 5f b9 82 76 52 3d
       0.095203444 -0.094554596 -0.000213374 0.05138255
000020 52 51 41 3e 14 b8 8e bd e0 0b 7a 3e d4 32 2e 3e
       0.18878677 -0.06968704 0.24418592 0.17011577
000030 af 87 2c 3e 2f 3f a5 bd 24 02 76 3d 8c 98 27 be
       0.16848634 -0.08068692 0.060060635 -0.16366786
000040 7b 52 b6 3b 36 b8 39 bc 91 74 a6 3d a2 61 97 3c
       0.0055640317 -0.011335423 0.08127702 0.018479172
000050 0c 07 c5 bd 39 55 f5 bd c8 ed 85 bc 4d 48 c9 bd
       -0.09620485 -0.119791456 -0.016348734 -0.098282434
000060 20 7d 37 3a f9 28 91 3d 76 39 80 be a1 c0 1e be
       0.0006999541 0.07087893 -0.2504384 -0.1550317
000070 25 aa a1 bd 6a 3e 09 3e 0a 8e ab be 2f db f1 bc
       -0.078937806 0.13402715 -0.33506805 -0.02952346
000080 68 52 f7 3c 84 f5 77 be 01 f9 60 bd da 7e 9b 3d
       0.030190662 -0.2421475 -0.05492497 0.075925544
000090 18 92 60 3d 30 53 6c 3d c0 79 de bc 7c 24 8c bd
       0.054826826 0.05769652 -0.027157664 -0.06842896
0000a0 46 cd 08 be cc 74 e4 bd 59 a0 c4 bd a4 30 f4 3d
       -0.13359556 -0.1115509 -0.096008964 0.1192334
0000b0 40 48 25 3d 4e b8 01 3e 65 b1 85 bd 3f 0c 07 bd
       0.040352106 0.12667963 -0.06527976 -0.032970663
0000c0 10 81 18 3d e8 50 c2 3d a6 07 12 be 63 1e 21 be
       0.03723246 0.09488088 -0.1426073 -0.15734248
0000d0 d3 35 9c 3d b8 8b 6b bd 0c 68 17 3c 68 e1 bb bc
       0.07627454 -0.057506293 0.009241115 -0.02293463
0000e0 9c e0 7a 3e 52 a9 ca 3d 12 54 9e bd 61 9d 4e 3d
       0.24499744 0.098955765 -0.07730879 0.050443057
0000f0 5b e8 de bd 28 56 a1 3e 94 13 b9 3e 6d de 84 3e
       -0.10884162 0.31511045 0.3614775 0.25950947
000100 93 0b ae 3d f1 b4 04 bc 5d 09 a3 bd b7 21 7d be
       0.08498301 -0.00809978 -0.0796077 -0.24719892
000110 40 e7 8b 3d 9a eb b0 bd 69 fb 95 bd a5 41 e8 bd
       0.06831217 -0.086386874 -0.07323343 -0.11340646
000120 ff 4e 2a 3f 7f c9 c2 3d b3 c6 22 bd f0 c3 d1 bd
       0.6652679 0.095110886 -0.039740276 -0.1024245
000130 3c 85 16 3e 5d c4 38 3d dc f0 43 bd 0b 4f 0e 3e
       0.14699262 0.04510914 -0.047837123 0.1389734
000140 4c e3 52 3e 34 fc f3 bb 23 58 2a be 5d bf 0c be
       0.2059452 -0.0074458364 -0.16635184 -0.13744874
000150 7d a0 b0 bc 89 72 81 3d 5d b5 50 bf e9 f7 ad bc
       -0.021560902 0.06320674 -0.8152674 -0.021236377
000160 42 4c cc bc e4 6e da bb 76 39 33 be 01 63 2d be
       -0.024938706 -0.006666051 -0.17502388 -0.16932298
000170 c1 ea d9 bd 1c 14 82 3e 03 7f 80 be 97 48 f0 3c
       -0.10640479 0.25405967 -0.25096902 0.029331489
000180 4c d1 78 be b9 a0 41 bf dc 6a 35 3d 24 8b 97 bd
       -0.2429859 -0.7563587 0.044291362 -0.07399586
000190 ac a8 f2 bc 6b a3 6b be a1 01 84 3e 97 ce 7c 3d
       -0.029621445 -0.23011558 0.25782493 0.061720457
0001a0 bf 62 23 3e f9 6b 61 3d a5 08 a2 be a1 08 09 be
       0.15955637 0.05503461 -0.3164722 -0.13382198
0001b0 88 5e e3 3c e8 e7 7d 3c ff 2f be 3d 73 0a 5c be
       0.027755037 0.015497185 0.09286498 -0.21488361
0001c0 d4 58 19 bc e9 84 59 bd c7 b0 1f 3f a4 d7 10 3d
       -0.009359557 -0.05310527 0.62379116 0.0353619
0001d0 55 9b c3 bb 70 6e bd bc c7 13 20 3d 30 2d 9a 3d
       -0.0059694448 -0.02312395 0.03908136 0.0752815
0001e0 91 04 98 bb 3b ad a0 be db 2f 84 3d 5c 07 20 be
       -0.0046392162 -0.31382164 0.0645444 -0.15627807
0001f0 1a 9f 58 be 3f 64 bb 3e bb c3 dc 3e 11 d5 4b 3e
       -0.21154442 0.3659992 0.4311808 0.19905497
000200 23 fa bb be b4 33 e7 bd 07 39 0a be 39 4d d3 3c
       -0.36714277 -0.112891585 -0.13498317 0.025793659
000210 a2 66 c4 3d 99 2e 90 3e 31 4b 3d 3e 04 18 b3 bf
       0.09589888 0.2816055 0.18485714 -1.3991704
000220 e3 20 67 3f 0d f3 44 3f 15 2f 1b be 01 79 8d 3d
       0.90284556 0.76933366 -0.15154679 0.06907845
000230 15 99 1a be 39 c5 32 3e 5c 9b 4a bd be a6 8f 3e
       -0.15097459 0.17458047 -0.04946457 0.28056902
000240 6d d3 ed 3c 3d c0 1e bf 98 1f 80 bd aa 0a bf bd
       0.02903148 -0.6201208 -0.06256026 -0.09328206
000250 9e 78 6f 3f 80 0d 2a bf 98 16 fd 3c c9 28 78 be
       0.9354342 -0.6642685 0.030894563 -0.24234308
000260 ef 6e 26 bd d4 05 fe ba 40 9a 0a 3f c3 93 e9 bd
       -0.04063314 -0.0019380399 0.54141617 -0.114051364
000270 24 fc 4e 3e 58 cc e9 3d 19 63 35 bf ff e3 dc bd
       0.20213372 0.114159286 -0.70854336 -0.10785674
000280 65 9e d6 bd 61 92 92 bd 62 bf 41 bf 76 c0 de be
       -0.1047943 -0.07156826 -0.7568265 -0.4350621
000290 59 c6 d0 3c 42 7c 68 3b 9e f5 c5 3d e1 84 92 be
       0.025485205 0.0035474454 0.096659884 -0.28617004
0002a0 cd 03 f2 3d b9 9f b9 bc 2e 81 52 be fc 03 76 bd
       0.11817131 -0.02265917 -0.2055709 -0.060062394
0002b0 48 b9 ad 3c 95 f6 31 be 44 12 cc 3f 91 74 9f 3e
       0.021206513 -0.1737922 1.5943074 0.3114362
0002c0 f7 be c6 bd b9 d3 1e be ff 19 1f 3e c8 80 04 3e
       -0.097043924 -0.15510453 0.1553726 0.12939751
0002d0 d7 84 db be dc 26 46 bd 9d 48 b4 bd 30 ff dc bd
       -0.42874786 -0.048376903 -0.088029124 -0.10790861
0002e0 fd b0 1d 3e 5b 79 b8 be c7 1d 31 3d d1 8b 48 be
       0.15399547 -0.36030087 0.04324129 -0.19584586
0002f0 90 63 a8 be 22 4f a0 bd 21 08 9e be 27 1c e5 3c
       -0.3288846 -0.078275934 -0.30865577 0.027967526
000300 93 ba 8c 3e c6 69 95 3e 94 39 fe 3d 28 49 74 be
       0.27486095 0.2918226 0.12413326 -0.23856032
000310 b6 8f bb 3d 92 e9 37 be e4 be 71 bd 4f 58 c1 3e
       0.0915827 -0.17960194 -0.059019938 0.37762687
000320 52 5f fe bd 2d ea ad 3d ec 9f 39 3e e5 3d f1 be
       -0.12420525 0.08491931 0.18127412 -0.47117534
000330 13 01 57 3d 21 36 c0 3d e0 bf af bd 89 21 cc be
       0.05249126 0.09385324 -0.08581519 -0.39869335
000340 ec c9 b7 3d e4 56 51 3e 1c 24 37 3e 32 f8 10 bd
       0.089740604 0.20443302 0.17884868 -0.035392947
000350 ab d0 13 be 86 5d 33 3e 7e 65 c4 3c 22 52 95 3d
       -0.1443507 0.17516145 0.023974176 0.07291056
000360 eb 8b a0 bd 8b 35 bd bd 3d 29 3c be a7 e4 03 3e
       -0.07839187 -0.09238728 -0.18375106 0.12880193
000370 d9 3c 57 be 56 04 75 bc 75 c7 b0 3e 8d 11 f6 3d
       -0.21019305 -0.014954647 0.34527174 0.12015066
000380 ed e0 6a 3e b7 58 f7 3d f0 84 11 3d fa 01 85 bd
       0.22937365 0.12077468 0.03552717 -0.064945176
000390 7b 97 2b 3e 94 14 fb 3d d7 0d 24 3e 22 e6 58 3c
       0.16757004 0.12259784 0.16020904 0.013238462
0003a0 ae 04 67 3d f8 40 c9 3d 47 b3 0a 3d 87 35 9d 3d
       0.056400947 0.09826845 0.03386238 0.07676225
0003b0 cc c0 b2 3d 31 b5 89 3e 24 24 56 bf 7d 20 b4 be
       0.08728179 0.2689605 -0.83648896 -0.35181037
0003c0 f3 a0 21 3c d8 86 8f 3e c9 8a 42 bd db a4 28 be
       0.009865033 0.28032565 -0.047495637 -0.16469137
0003d0 cf 56 28 3d 04 47 46 bd 4c 1c 9c 3e 9a 8e 8c 3d
       0.041098412 -0.04840757 0.3049034 0.068631366
0003e0 98 ff 07 3e ef 49 d5 3e 73 ac a4 bd 91 6b 34 3e
       0.13281095 0.4165797 -0.080407046 0.17619158
0003f0 f5 e8 68 3d 11 ec ec bb 63 82 97 3e d6 aa 21 3e
       0.05686279 -0.0072302897 0.29591665 0.15787825

network.MLP.2.bias f4 [64]
000000 a5 fb 90 3e 14 20 db 3c ef 55 b2 be c3 a7 e5 3e
       0.2831699 0.026748694 -0.34831187 0.44854555
000010 c4 0b 77 be 20 55 4b 3c 4b 22 2c 3c b9 2d 43 3f
       -0.24125582 0.012410432 0.010506223 0.7624164
000020 cc 72 06 3f a6 db 47 3e b8 75 65 3c de e8 ff 3c
       0.52518916 0.19517383 0.014005117 0.03123897
000030 59 d5 21 be 6c 47 88 3d 5c 37 99 be 48 aa 02 3f
       -0.15804042 0.06654248 -0.29925048 0.5104108
000040 a2 1f 5e 3c 78 50 8c 3f 96 7a ab bd e5 f6 6f 3d
       0.013557347 1.0962057 -0.08372991 0.058585066
000050 16 b4 27 3e 2a 6b bd 3e c7 4f 0f 3e 96 4e 48 bb
       0.16377291 0.36995822 0.13995276 -0.003056442
000060 41 69 58 be 42 49 58 3e 25 9a b2 3e 3d 5e 77 be
       -0.21133901 0.21121696 0.34883228 -0.24157043
000070 5b db 31 3f c3 65 e7 3d bd 75 98 bd ba d9 cc 3d
       0.69475335 0.112987064 -0.07444332 0.100024655
000080 dd d2 4c be 6c 6d 2e bd 10 23 8b 3e b4 54 8d bd
       -0.20002313 -0.04258482 0.27175188 -0.069009215
000090 bb fe ab 3e d0 2b 12 3e b1 57 bf be 90 2c 84 3e
       0.3359278 0.14274526 -0.3737159 0.25815248
0000a0 d2 d5 1b bf 61 16 01 3e 5b 07 fe 3d 78 aa b2 3d
       -0.6087314 0.12606193 0.12403747 0.087239206
0000b0 bf f5 d6 bd 4f 22 14 3d 03 a4 33 3b 4d 72 4d be
       -0.10496091 0.03616553 0.002741099 -0.20063134
0000c0 91 97 e7 3c a7 fc 16 3d fe 2d 54 be 69 4a c7 be
       0.028270515 0.03686204 -0.2072067 -0.38923958
0000d0 81 11 3e be 2c d8 03 3e 95 f4 37 bf f9 19 83 be
       -0.18561365 0.12875432 -0.7185758 -0.25605753
0000e0 d8 3d f7 be 58 e2 11 bd aa e7 f2 bd 0f e9 4f be
       -0.4828937 -0.03561625 -0.11860593 -0.20303749
0000f0 f8 aa 4c be 3f 4a aa bd 27 f4 aa be 25 3d ac 3e
       -0.19987094 -0.083149426 -0.33389398 0.336404

network.MLP.3.weight f4 [64]
000000 13 16 61 3f cc 54 e3 3f 78 7f b5 3e 84 e8 03 3f
       0.8792431 1.7760253 0.35448813 0.51526666
000010 00 31 a2 3f 3a 70 a7 3f ac f3 af 3f 50 1b 66 3f
       1.2671204 1.3081124 1.3746238 0.89885426
000020 54 32 52 3f 4f 3e ac 3f a9 2d c0 3f cc bf c7 3f
       0.82108045 1.3456515 1.5013934 1.5605407
000030 9b e6 82 3f 93 3d a9 3f 2c 2d 93 3f d2 ff 80 3f
       1.0226625 1.3221916 1.149816 1.007807
000040 c1 ab c6 3f e6 6f 08 3f 39 51 9d 3f 43 d8 b4 3f
       1.5521165 0.53295743 1.2290412 1.4128498
000050 9f 07 f2 3f c7 ac 25 3f 69 80 5c 3f ac bb ae 3f
       1.8908576 0.6471676 0.8613344 1.3651023
000060 b1 8e 7e 3f bc 35 be 3f e9 bd 50 3f 93 47 71 3f
       0.9943648 1.4860148 0.8153978 0.9424984
000070 0e 3d 2b 3f 16 c6 bc 3f 69 eb a5 3f 79 5d a9 3f
       0.6689004 1.4747951 1.2962466 1.323165
000080 d0 7d 8c 3f 18 7d d0 3f c5 b8 d7 3f 0c 83 87 3f
       1.0975895 1.6288176 1.6853262 1.0586867
000090 78 ce 9c 3f 9d f5 71 3f 1e 29 58 3f 15 1e 43 3f
       1.2250509 0.945154 0.8443774 0.76217777
0000a0 b8 67 ae 3e ef c1 d9 3f e0 a3 b2 3f ab 4d fb 3f
       0.34063506 1.7012309 1.3956261 1.9633077
0000b0 53 f5 8d 3f e8 29 c8 3f f2 0c ca 3f ce 81 a5 3f
       1.1090492 1.5637789 1.57852 1.2930238
0000c0 50 5d 7b 3f 7a 00 7b 3f 1e 67 bf 3f 9f 75 52 3f
       0.9818926 0.980476 1.4953344 0.82210726
0000d0 56 c6 a8 3f 27 f9 e8 3f 5f 58 5e 3f ff 9a bc 3f
       1.3185527 1.8201035 0.86853594 1.4734801
0000e0 4d bc 72 3f f9 d1 91 3f 73 89 a2 3f a9 4b d1 3f
       0.94818574 1.1392204 1.2698196 1.6351215
0000f0 ac 0e ac 3f 7d ba d5 3f a1 11 69 3f fc f4 6d 3f
       1.3441978 1.6697537 0.91042525 0.9295194

network.MLP.3.bias f4 [64]
000000 9a 89 f4 3d 0e 21 c3 bd 5b 25 2d 3e e9 34 ac bd
       0.11940308 -0.09527789 0.16908781 -0.08408529
000010 d6 60 33 3e 30 5b 53 be 1f cd b5 3c d2 f0 61 3e
       0.17517409 -0.20640254 0.022192536 0.22064522
000020 49 be ef 3d 8a 18 10 3e 6f bf fc 3c 13 f6 fe 3d
       0.11706216 0.14071861 0.030853001 0.12449279
000030 46 3b 54 3e c1 3a 09 be 34 e6 92 bd fb a4 68 3e
       0.20725736 -0.13401319 -0.07172814 0.22719185
000040 ca ad 77 bc b1 28 05 3d c3 e4 48 3d 55 d8 ec 3c
       -0.015117118 0.03250951 0.04904629 0.028911749
000050 97 2d 24 be de ab 57 be e8 c2 11 be 7d 59 80 be
       -0.16033016 -0.21061656 -0.14234507 -0.25068274
000060 9d 94 3e 3e 5a 15 04 3e fe 70 48 be fb c6 9a 3e
       0.18611379 0.1289877 -0.19574353 0.30229935
000070 b3 8a 48 be 58 9d f3 3d 5c f9 0e bd 00 78 59 bd
       -0.1958416 0.11895245 -0.034905776 -0.053092957
000080 87 2f b8 3d 62 9c 70 3d 1b 61 e8 3c c6 5b b0 3d
       0.0899344 0.05874289 0.028366616 0.086112544
000090 a6 45 ba 3d fb 98 5a 3e 3e 18 9a be a0 7f 20 3e
       0.09095316 0.2134742 -0.3009662 0.15673685
0000a0 ca cb f0 3e de 6c b0 3c d2 fc 9d 3d c7 00 d7 3c
       0.4703048 0.021536287 0.07714237 0.026245488
0000b0 ef 65 53 3e a8 03 f9 bd 29 76 ec 3c 6d b6 22 be
       0.20644353 -0.121589005 0.028864937 -0.15889902
0000c0 8f e0 27 3e 65 1a 8e be a3 53 a1 3c c9 4d 06 be
       0.16394256 -0.27754512 0.019693201 -0.1311561
0000d0 f0 43 96 be 38 47 8d bd 73 69 6c bd 6b d0 a4 bd
       -0.29348707 -0.068983495 -0.05771775 -0.08047565
0000e0 c3 be 88 be e9 a7 7f bd 8a 8e 5d be 66 01 3c 3e
       -0.2670804 -0.06241599 -0.21636406 0.18359908
0000f0 32 b0 2b be 18 a0 f6 bc e8 9a 32 be ea 3d 34 be
       -0.16766432 -0.030105636 -0.17441905 -0.17601743

critic.0.weight f4 [1, 64]
000000 bb e8 5d 3d fb 7c e7 bc bd b3 4b bd fe c9 43 3d
       0.054177027 -0.028257838 -0.04973196 0.047800057
000010 e0 9e 88 3c ae a1 0c bd 79 18 bd bc f2 25 9c 3e
       0.01667732 -0.034333877 -0.023082959 0.304977
000020 c4 bd 40 3e bd 0d 71 3d 6c ae b6 3c 21 d8 11 3d
       0.1882239 0.058850992 0.022299968 0.035606507
000030 20 f7 ba bc c9 72 c8 bb 95 fb 86 bd 95 f7 bb 3e
       -0.022822917 -0.006117199 -0.06590954 0.36712328
000040 e9 e5 bf bc 39 59 15 3e cc 42 74 3c f0 ba 2d 3a
       -0.02342506 0.14584817 0.014908504 0.0006627282
000050 b9 83 dc bb e6 87 5d 3d f3 49 bc 3c 1c 46 de ba
       -0.0067295698 0.05408468 0.02298448 -0.001695815
000060 a0 2a 1b bd a0 35 92 3d 15 72 e4 3c af 96 7c 3c
       -0.037882447 0.071391344 0.02788643 0.015416785
000070 54 c3 31 3e 96 3f ac 3c 8c d8 cd 3c f7 0e dc bc
       0.17359668 0.021026414 0.025127672 -0.026862605
000080 e6 29 54 bd 3b 7e c4 ba 23 c4 81 3c 62 20 4b bc
       -0.05179777 -0.0014991233 0.015840596 -0.012397857
000090 7a b3 c7 3c e9 df 5b 3c c0 e3 be be 43 11 0f 3e
       0.024377573 0.013420084 -0.37283134 0.13971429
0000a0 55 03 e9 bd d2 59 00 3d 92 96 42 3c 55 72 00 3c
       -0.11377589 0.03133566 0.011876719 0.007839759
0000b0 ba 40 b4 3b 71 68 ad bc 5a 64 f7 3c 1c 09 87 bc
       0.00550088 -0.021167966 0.030199219 -0.016483836
0000c0 ec e0 af 3d 94 0d 9f bc d1 ab 78 3c cf 9c 24 be
       0.08587822 -0.019415654 0.015177683 -0.16075443
0000d0 27 d8 b2 bd 15 22 ee bb 25 13 3b be 8f ef 49 bd
       -0.08732634 -0.0072672465 -0.18269022 -0.049300727
0000e0 47 a7 9a be a5 ec df bc 7e 73 37 bd f7 a1 f2 bc
       -0.30205747 -0.02733452 -0.044787876 -0.029618246
0000f0 b5 28 11 bd 7d ca 55 bd 5a 2c 72 be d1 27 fc 3c
       -0.035439212 -0.05219506 -0.23649731 0.030780705

actor.0.weight f4 [22, 64]
000000 93 96 9d 3d 92 09 51 bf aa e3 86 be 15 83 6b 3e
       0.076947354 -0.8165523 -0.2634557 0.22999223
000010 6c be c4 3c 6f 90 41 3f ff 6f 46 be 24 82 4e 3d
       0.024016581 0.75611013 -0.1937866 0.05041708
000020 43 08 e3 3d e0 b6 09 3e 5f a7 8e 3e ec de 15 be
       0.1108556 0.13448668 0.2786207 -0.14635819
000030 87 19 59 be e1 30 25 3f 26 61 03 bf 38 57 6f bd
       -0.21201144 0.6452771 -0.5132011 -0.058432788
000040 48 ae dc be 68 7e 9e bd 8b 7f a9 3d 96 a7 0e 3d
       -0.43101716 -0.07738954 0.0827628 0.03482779
000050 3c aa 95 3e 98 96 b8 3e b4 a1 d4 3c 60 69 c7 3b
       0.2923144 0.36052394 0.025956012 0.0060855597
000060 21 10 86 be 18 d3 29 be c5 dd d3 3d 73 42 b3 3e
       -0.2618418 -0.16584432 0.103450336 0.35011634
000070 27 f3 d8 3b e5 7f 18 bf 6e b8 5c 3e 10 15 f5 3e
       0.006620783 -0.5957015 0.2155473 0.47867632
000080 cd e7 56 3e 99 47 87 bb 53 f1 57 3e 00 b2 86 be
       0.20986862 -0.004128408 0.21088152 -0.26307678
000090 6f a1 a1 3e f8 16 d2 3e 3b c8 f4 3b c9 e5 c5 3d
       0.31568477 0.4103315 0.0074701584 0.09662969
0000a0 d8 f7 34 bc bf d0 8a be f1 03 45 3f 24 a3 d6 3d
       -0.011045419 -0.27112386 0.7695914 0.10480335
0000b0 8c c3 5c be 79 69 51 bf 22 4c 7c be 56 33 77 bd
       -0.2155897 -0.81801564 -0.24638417 -0.060351692
0000c0 d2 48 ac bd ad 8c e5 3d d3 c2 d2 be 3d 92 66 be
       -0.08412327 0.112084724 -0.41164264 -0.22516723
0000d0 a5 1e 48 bf 91 70 73 3d 8b dc 53 3d b9 1a f7 be
       -0.7817176 0.059433524 0.051723998 -0.48262575
0000e0 93 d8 a3 bd 17 f5 f2 bd 3e e3 e7 3e bd d5 e1 3d
       -0.08000293 -0.118631534 0.4529056 0.110270955
0000f0 35 76 e0 be c1 6d 11 be 52 be a0 bd 1e 9c 4f 3e
       -0.43840185 -0.14202024 -0.07848801 0.20274398
000100 cc 05 09 be b9 eb 1a be cc 8d 81 be 4f 43 d5 3c
       -0.13381118 -0.15128984 -0.25303495 0.026033072
000110 04 ac 30 be cc 82 a4 3e 37 67 a6 3e b2 f0 8d 3d
       -0.17253119 0.3213104 0.32500622 0.069306746
000120 3f 55 25 bc be 1a 4a 3e 42 ba 91 3e eb 50 81 3e
       -0.010091125 0.19736764 0.28462416 0.25257048
000130 78 c0 c4 3d 29 46 bf 3e 8b 26 64 3e 9f d9 f9 bb
       0.09607023 0.37358215 0.22280328 -0.0076248194
000140 e5 97 84 be c8 bd ab 3d 11 db 00 3e a4 77 33 3d
       -0.25897136 0.08385807 0.12583567 0.04381527
000150 f7 98 b4 be a1 90 92 3e f5 76 96 3d 2d da ac bc
       -0.35272953 0.28625968 0.07346908 -0.021100128
000160 28 30 96 be 91 39 55 3e d7 2d 8f 3d 3a f1 96 3d
       -0.29333615 0.20822741 0.06991165 0.07370229
000170 9b 1e 43 3d 87 9a b6 bc 3f 43 d7 3e da 72 8f 3e
       0.04763661 -0.022290481 0.42043492 0.28017312
000180 b7 8f 29 3e 7f 5c 6b bd 52 c4 5a 3e 4d d2 83 3e
       0.16558729 -0.057461258 0.21363953 0.25746384
000190 b5 e8 bf 3e df 4f 7d be 0c a2 03 be 65 46 03 3e
       0.3748223 -0.247375 -0.12854785 0.12819822
0001a0 ed 24 5f ba ee d7 f5 3e b8 22 b8 3e 0c 13 26 bf
       -0.0008512277 0.48016304 0.35963988 -0.64872813
0001b0 b5 aa 2a be f8 6b 5b 3d f1 33 03 3e 17 c3 9e be
       -0.16666682 0.053569764 0.12812783 -0.31008217
0001c0 a0 41 89 be 20 c4 0a 3e 6d 38 50 bd b1 f6 19 3d
       -0.2680788 0.13551378 -0.05083506 0.03758878
0001d0 16 86 27 be c0 68 86 3e 13 29 d1 bd 77 12 e8 be
       -0.16359743 0.26251793 -0.102129124 -0.45326588
0001e0 06 aa c6 bd d5 2a 8c be 82 a7 d0 be da 0b 1f bf
       -0.09700398 -0.27376428 -0.40752798 -0.6212746
0001f0 63 f1 c1 3e 06 a2 00 bf 6c 95 50 be e1 00 54 be
       0.37879476 -0.5024723 -0.203695 -0.2070346
000200 4d 11 fe 3d d0 2c 59 3e e9 ee 6f bd b1 82 01 3d
       0.124056436 0.21208501 -0.05857745 0.031618778
000210 73 e2 c1 3e 9d 4e d2 3d 38 01 84 bd 71 97 bf 3d
       0.3786808 0.102689005 -0.06445545 0.09355057
000220 5e 5c 41 3e 14 23 67 3e 56 aa 81 3e c0 b5 41 3f
       0.18882892 0.22571975 0.25325269 0.75667953
000230 dc 59 e5 bd 1e bd e4 3d 78 39 a1 be 17 df 21 3d
       -0.1119878 0.11168884 -0.31489158 0.039519396
000240 30 74 ea 3d b4 b3 1f 3e 16 12 a4 3d 34 d9 17 bf
       0.11447942 0.15595895 0.08011262 -0.593158
000250 8f 41 42 be b9 e4 05 3e dc db 43 3d 3c c6 57 3c
       -0.18970321 0.13075532 0.047817096 0.013169821
000260 96 d6 46 3d 6b 04 7b bc 68 cc bb 3d 15 be 49 bc
       0.04854449 -0.015320878 0.09169847 -0.0123133855
000270 58 1e 0a be e1 4b be 3e 0f b6 82 bd d5 4b 9a be
       -0.13488138 0.37167266 -0.06382381 -0.3013598
000280 8e 18 f5 3e 8f 0e 6e 3e b3 da f4 be 43 14 29 3e
       0.47870296 0.23247741 -0.47823104 0.16511635
000290 3f 80 3e bd 34 ce 62 be e3 87 7e 3b cb 86 4f bd
       -0.046509024 -0.22148973 0.003883832 -0.050665658
0002a0 d4 09 8d bd 9a 0d 2c bf 01 b4 f9 bd 47 48 b1 be
       -0.0688664 -0.67208254 -0.12192536 -0.34625456
0002b0 f7 98 e1 bd d8 88 ec be 5b e1 05 3e 37 c3 8c 3c
       -0.11015504 -0.46198153 0.13074248 0.01718293
0002c0 46 c4 d1 3e fe c5 b1 3e 40 49 c2 3e 9c fc eb bd
       0.40970057 0.3472137 0.3794651 -0.11522791
0002d0 7a 9c bc be 27 1a 0c bf 0e 1a cb bc b5 83 01 3a
       -0.36838132 -0.54727405 -0.024792697 0.00049405853
0002e0 c3 74 76 bd 26 c6 79 be c0 ce f8 3d d5 5e e7 3e
       -0.060169946 -0.24391994 0.121488094 0.4518954
0002f0 01 b2 6b 3e ce 75 b0 be b5 00 e6 3c e0 0c a3 3b
       0.23017122 -0.34464878 0.028076509 0.0049759
000300 14 1c 2f 39 7d 5d e3 bd fa 89 7b 3d 07 07 d7 bc
       0.0001669976 -0.11101816 0.06141088 -0.026248468
000310 17 3d 38 be df 0e 45 3d f7 ab 2d be f3 15 f1 3b
       -0.17992054 0.048109885 -0.1696013 0.007357353
000320 f9 18 26 3e 67 61 52 be 0e 4b 77 3e 84 cc 03 bd
       0.16220464 -0.20544969 0.24149725 -0.032177463
000330 34 b7 27 be ca 9b 13 3c 17 ac 20 be e8 85 68 bc
       -0.1637848 0.009009311 -0.15690647 -0.014192082
000340 5b 0c 3e bd 0a 33 02 3e 01 fe 9b 3d 2a 00 0d be
       -0.0463985 0.12714782 0.07616807 -0.13769594
000350 c8 28 1c be b0 35 21 3e 21 87 2e be 21 2d 62 3d
       -0.15249932 0.15743136 -0.17043735 0.05521882
000360 d1 bf 24 3c 66 42 f2 3d e3 da 9b 3e 1b a2 92 be
       0.010055498 0.11829071 0.30440435 -0.28639302
000370 4c a6 7a bd 17 0a 80 be 98 f5 88 3e a2 d3 27 bf
       -0.06119375 -0.25007698 0.26749873 -0.655573
000380 f5 e4 62 3e 1a 33 55 bd 04 0f 2e 3e 75 97 21 be
       0.22157653 -0.052050687 0.16997916 -0.15780433
000390 6e e5 9d be fe a7 5d 3c 59 bb 4b 3e bb 83 80 3d
       -0.30839103 0.013528822 0.19895686 0.062751256
0003a0 78 1b 08 3d 20 af e4 3d 3c 4c 85 bd 4b 9a e2 be
       0.03322932 0.11166215 -0.06508681 -0.4425834
0003b0 4c 8b e7 bd f3 d1 b0 3d 48 a2 76 bd 4d f4 d8 be
       -0.11305866 0.08633795 -0.060213357 -0.42373887
0003c0 62 c3 21 3e e8 81 7d 3d 07 32 19 be db 78 df 3d
       0.15797189 0.061891466 -0.1496049 0.10911723
0003d0 6a d4 0a be d4 b1 80 be dd 5a 89 3d 9b f1 9f 3e
       -0.13557592 -0.25135672 0.06706784 0.31239018
0003e0 18 c1 1a 3d 70 f3 94 be 36 38 bb 3e 6f b4 10 3f
       0.037781805 -0.29091978 0.36566323 0.5652532
0003f0 88 64 6f be 5e 88 86 be a8 35 7d ba 2d bc 46 3e
       -0.23378193 -0.26275915 -0.00096591795 0.19407721

actor.0.bias f4 [22]
000000 76 6a cf 3c 71 76 1d 3b 00 9f 3f 3c 26 3b 30 bd
       0.02531932 0.0024026895 0.011695623 -0.04302516
000010 e7 fc 44 3d 26 9b ac 3d 94 57 ba bd 84 54 77 bd
       0.04809275 0.0842803 -0.090987355 -0.060383335
000020 7f fa 99 3d 2e 27 a0 bc 73 47 92 3b 52 64 00 3d
       0.075184815 -0.019549932 0.004464084 0.031345673
000030 bf c2 40 bd ae 8c 07 bd 7d ac 81 bd ae ef ac bd
       -0.047060724 -0.033093147 -0.06331728 -0.08444153
000040 0c 65 1e 3d dd 6c c2 3b 3b cf ab bd 90 01 eb 3c
       0.038670585 0.0059333877 -0.083891355 0.028687268
000050 aa 85 00 3e c6 65 e0 3d
       0.12550989 0.10956912
