paper/training_results/seed-5/momarl/checkpoints/mlp_(negotiation=False)_(num_agents=12)_(window=False)_(reduced_space=False)_(fixed_savings_rate=False)_(rewards=['inverse_global_temperature', 'global_economic_output'])(wgen=uniform)(num_ensembles=1)(seed=5)_2025-01-16_22:22:49_w=[0.3176 0.6824].pt (torch, 38168 bytes, 9 tensors)

network.MLP.0.weight f4 [64, 18]
000000 b2 d4 bf 3d 78 a2 c5 3e 95 d0 80 be 5e a2 16 bf
       0.0936674 0.38600516 -0.25159135 -0.588415
000010 0a c2 24 3e 76 68 99 3d 3c 34 31 be 8c 81 b2 3d
       0.16089645 0.074906275 -0.17305082 0.08716115
000020 09 b4 2f be ad 2f 80 3e 78 05 29 3e c1 f8 a7 be
       -0.17158522 0.25036374 0.16505992 -0.32806972
000030 4b 2a ac 3e ac 90 d5 3e 89 ca 74 bf 1b 16 e1 bd
       0.33626017 0.41711938 -0.95621544 -0.109905444
000040 4e 40 0d 3f 31 62 2b be 09 fb 1c bf 57 6e 76 be
       0.55176246 -0.16736676 -0.6132055 -0.24065529
000050 c4 78 86 3d 4e 34 c3 bf 51 e7 4a 3d 29 38 0d bf
       0.06566003 -1.5250337 0.049537007 -0.5516382
000060 93 52 98 3d 41 d3 22 3f ee cb 39 bf ff 82 a4 3d
       0.07437625 0.636036 -0.72576797 0.08032798
000070 0e 4f bd bd a4 98 d2 3e 4f 0a 4c be 17 c8 84 3e
       -0.09243594 0.4113208 -0.19925807 0.25933906
000080 69 d2 99 bd f3 6c 64 be e5 ef 85 3e 4f 08 95 3e
       -0.07510836 -0.22307186 0.26159588 0.291079
000090 a5 a7 81 bc a2 31 6b be 7e b9 e3 3d 3d c9 a6 3e
       -0.01582701 -0.22968152 0.11119364 0.32575408
0000a0 ae 59 6f be 44 99 e5 be c7 24 66 bd 9d 99 5b 3e
       -0.23374054 -0.44843495 -0.056187417 0.21445318
0000b0 07 5a b2 3e 52 f4 8f 3e 80 43 a3 3d 55 48 1a be
       0.3483431 0.2811609 0.07971859 -0.15066655
0000c0 4b da 01 be 5a 97 08 be 54 5d a4 3d b4 ef b9 be
       -0.12680928 -0.13338986 0.080256134 -0.3631569
0000d0 6e b1 be bd ff 5f 85 bc b3 bd 04 be 08 ab 0b be
       -0.09311186 -0.016281126 -0.1296299 -0.13639462
0000e0 14 3c 22 bd 7f 2b 42 3e 65 38 00 3e 54 09 1e be
       -0.039608076 0.18961905 0.12521513 -0.15433246
0000f0 5f f9 32 3d 45 a8 d9 bd ae 08 9a 3d d0 d3 c1 3c
       0.04369485 -0.10627798 0.07521187 0.02366057
000100 ab c0 81 be 24 6e 27 be 48 b4 97 bd 1d 28 19 3e
       -0.25342306 -0.16350609 -0.07407433 0.14956708
000110 dd 09 20 be 26 7d be bc e5 f2 77 bd 6e 2e fd bd
       -0.15628763 -0.023253035 -0.060534377 -0.123623714
000120 c0 62 7e bd 38 94 4d bf 62 da f7 bc 5d 29 ae be
       -0.062105894 -0.8030429 -0.0302555 -0.34015933
000130 9d e1 6d be d4 32 d2 3d 0c 58 8d 3e f3 5c f9 be
       -0.23230596 0.10263601 0.27606237 -0.48703727
000140 8e 80 a3 3d 2f 19 d1 3e 1d 2e 13 bf 41 9c 60 bd
       0.07983504 0.40839526 -0.5749224 -0.054836515
000150 4b 90 92 3d 16 ba a4 3e 63 09 ee 3d c7 de 40 3e
       0.07156428 0.32173222 0.11622884 0.18834983
000160 75 88 e6 3e 77 00 ff 3e 9d a3 b1 bd 8f e1 89 bd
       0.45025983 0.49805042 -0.08673785 -0.06732475
000170 a1 3f 9f 3d 1f d0 32 bf 6a ee 13 be 27 ec 67 be
       0.07775808 -0.6984882 -0.14446416 -0.22648679
000180 88 ea 9c bf 48 21 0d bd 98 6d 9f be 23 05 bf bd
       -1.2259073 -0.034455568 -0.311383 -0.093271516
000190 ae f4 8b 3e d2 77 f1 3d 57 a4 7d bf f7 41 da be
       0.27335113 0.11790432 -0.9907889 -0.42628452
0001a0 fa f2 67 bc 8a 59 62 bf 32 b7 3d 3e c0 f6 39 3f
       -0.014157051 -0.88417876 0.18526915 0.72642136
0001b0 67 cc bb 3d 73 53 4d 3e 5d 7f 45 be 79 96 85 bf
       0.09169846 0.20051365 -0.19286866 -1.0436546
0001c0 96 04 4c 3f 74 aa 5d bd fa 2e 79 bd 81 a6 21 3e
       0.796945 -0.054117635 -0.060835816 0.15786172
0001d0 bb 6f 96 3d f0 88 26 3e 46 f4 ba 3d 9b 61 28 3d
       0.0734553 0.16263175 0.09128623 0.04110871
0001e0 47 e5 08 3e 25 4b 35 3e 7f c7 fc 3e 93 a1 b8 bd
       0.13368712 0.17704447 0.49370953 -0.09015193
0001f0 e1 f7 05 bd 30 80 e2 3d 95 e6 3f 3d 13 22 aa bd
       -0.0327071 0.11059606 0.04685076 -0.083072804
000200 9c 9e c7 bc 13 e0 29 3d e3 d5 2c be c4 95 98 be
       -0.024367623 0.04147346 -0.16878466 -0.29801762
000210 40 96 a5 3d 97 c5 37 bd 12 c0 d0 3e 59 8f d9 be
       0.080852985 -0.04486617 0.40771538 -0.42492178
000220 76 7b 6a be ba 5a 84 3c 0a 9f f1 3e 99 31 e7 3e
       -0.22898659 0.016156543 0.4719165 0.45155028
000230 37 15 0d 3e 55 92 28 3f f1 e4 7a be 48 eb 1a bf
       0.13777624 0.65848285 -0.24501397 -0.6051526
000240 1c de 0a be 5f 0c 44 be f8 45 51 be 4b 9f 1a be
       -0.1356129 -0.19145344 -0.20436847 -0.15099828
000250 76 5c 26 3e 32 2d 51 3c 6d 15 0e bd e9 85 21 be
       0.16246209 0.012767123 -0.034688402 -0.15773739
000260 38 90 5d 3c 66 e6 2d 3e b6 9d 1b 3e b2 2d 06 3e
       0.013523154 0.16982421 0.1519688 0.13103369
000270 62 53 10 be 4f 22 57 be 52 72 1c be a8 d3 1d be
       -0.14094308 -0.21009181 -0.15277985 -0.15412772
000280 c3 9a 31 3d 4f 94 6a be ca 25 11 be 30 32 88 bf
       0.043360483 -0.22908138 -0.14174572 -1.0640316
000290 56 9f e6 3d 08 26 74 bf e6 1c d7 3e 6d 00 e2 be
       0.1126086 -0.9537053 0.42014235 -0.4414095
0002a0 27 01 b0 3e bb 45 82 3e 84 db 8e 3e bc 40 53 be
       0.3437588 0.25443825 0.27901852 -0.20630163
0002b0 32 12 4b be c5 0b 3f be ea d8 4b 3e 4d fc 4e 3d
       -0.1983116 -0.18656833 0.19906965 0.05053358
0002c0 c6 97 67 be 08 ef d4 bd 48 ea 8c 3d e9 83 28 bf
       -0.2261649 -0.10397154 0.06880623 -0.6582628
0002d0 7b 43 7a 3d f4 e3 ca bd c2 df f3 bd d0 9d ea 3e
       0.06109951 -0.0990676 -0.11907913 0.45823526
0002e0 4d d2 ab bf 41 de b0 bf 44 9b 87 3d 97 b5 94 bc
       -1.3423554 -1.3817827 0.066214114 -0.018152995
0002f0 90 40 53 3e ed 34 01 3c 3e 68 90 3d 1b 37 aa 3c
       0.20630097 0.007886154 0.070511326 0.02077823
000300 26 fd 02 3e 22 ce 18 be ff da 36 3e 85 19 84 bc
       0.12791881 -0.14922383 0.17856978 -0.01612545
000310 41 48 dd bd c3 39 b9 3c 79 5f 1d 3c aa 46 9b be
       -0.10804797 0.02261055 0.009605282 -0.3032735
000320 82 48 71 3c 89 ee 81 bd cd f1 8c 3e d0 e8 49 3d
       0.01472676 -0.06344325 0.2752823 0.049294293
000330 fd 96 40 bd 44 75 20 be 4b fd 08 3f c3 ab 76 3e
       -0.047018994 -0.15669733 0.53511494 0.2408896
000340 40 9b d8 be a8 85 37 bd f6 af 27 3c 17 61 8d be
       -0.42305946 -0.0448052 0.010234823 -0.27613136
000350 11 44 13 3e 41 bf e1 3e 7b ca aa 3e 3b 62 52 be
       0.14381434 0.44091228 0.33357605 -0.20545284
000360 cd 06 0c 3e 96 f2 1c 3e 4f 06 bc 3c 8d 2f db be
       0.1367447 0.15326914 0.022952227 -0.42809716
000370 f9 4f ea 3e fe 5f 8d bf 7e 33 92 bc 67 5d be bd
       0.4576414 -1.104492 -0.017846819 -0.09295159
000380 1f b8 84 3d d7 da 20 bd fc eb 66 3b 2c 8a 1d bc
       0.06480431 -0.039271202 0.0035235872 -0.009615462
000390 76 80 75 3d 78 7c b2 3d b3 b1 bc bc 80 dc ad bc
       0.059936963 0.08715147 -0.023033952 -0.021223307
0003a0 93 d7 4e 3d 72 fd 73 3d 43 35 f3 3d 1f a1 5d 3e
       0.050498556 0.059567876 0.11875393 0.21643494
0003b0 de 70 98 bd 72 7d 1b bd 41 22 8d 3e 13 3f 95 be
       -0.07443403 -0.03796143 0.27565196 -0.29149684
0003c0 7e db 92 bd 54 18 97 be 42 1e 8e 3e fe 38 ae bd
       -0.07170771 -0.29510748 0.2775746 -0.08506964
0003d0 3b d7 b7 be 69 e9 da 3d 99 21 21 3e 3c c2 05 bf
       -0.35906395 0.10689051 0.15735473 -0.52249503
0003e0 04 6a 0b 3f 73 77 9e bd 41 13 63 be fb 90 48 3e
       0.5445864 -0.07737627 -0.22175314 0.19586556
0003f0 20 3a 89 3c bf 11 c1 be 88 01 df 3b 69 ab 56 3d
       0.016751349 -0.37708852 0.0068056025 0.052409563

network.MLP.0.bias f4 [64]
000000 aa a9 df bb 86 0c 25 bd b4 7a 7b bd 3b 13 be 3e
       -0.0068256455 -0.040295146 -0.061396316 0.37124047
000010 1c 8f 76 be 10 c4 2b be 10 c7 8d 3e ee 6c 27 bc
       -0.2407803 -0.1677401 0.27690935 -0.010218842
000020 b3 8a 44 be 7c 22 97 be 5a d4 a2 3d 01 a9 ac 3e
       -0.19193535 -0.29518497 0.07950659 0.3372269
000030 70 ec 88 3e 33 22 6a bf 60 56 b5 bf a6 03 fd bd
       0.26742887 -0.91458434 -1.4166985 -0.123542115
000040 0d 75 59 be 00 c1 80 bd 4e 92 7f be 54 58 02 3f
       -0.21236058 -0.06286812 -0.24958155 0.5091603
000050 4a 1e 1b 3e 98 77 4d 3e ec 7e ab 3e a8 3e ca 3d
       0.15148273 0.20065153 0.3349527 0.09875232
000060 00 35 a5 be 49 ec bf 3e f9 09 b4 3e bc 43 ac 3e
       -0.32266998 0.3748496 0.3516386 0.33645427
000070 fd f4 e1 bd d8 c6 24 3e 8a d0 93 bd 5a 0e 25 bf
       -0.11033056 0.16091478 -0.0721751 -0.64475024
000080 ff 9c c9 3e bb 06 89 be 99 f0 1e 3d ff bb 51 bf
       0.3937759 -0.26762947 0.03880367 -0.81927484
000090 b0 3a f3 3e 09 61 b2 3e 2e b2 6b 3e 0a e1 37 bd
       0.47505713 0.34839657 0.23017189 -0.04489235
0000a0 e1 e0 0a bc 87 bd 79 bf ed 22 9a 3e 67 6b 57 bd
       -0.008476467 -0.9755482 0.3010477 -0.05259266
0000b0 22 e1 01 3e b5 f2 ba 3d 07 8d de 3c 29 be c3 bd
       0.12683538 0.09128324 0.027166856 -0.095577545
0000c0 87 2a 28 3e c0 86 bd be 06 57 01 bf 13 59 bb 3e
       0.16422473 -0.3701687 -0.5052341 0.36591396
0000d0 63 72 fe be 40 e9 cc 3e ee 71 3c 3e 25 b7 b6 bd
       -0.49696645 0.40021706 0.18402836 -0.08921651
0000e0 3f 77 77 3f 18 78 85 3c 66 24 25 3f 04 c7 c5 be
       0.9666633 0.016292617 0.64508665 -0.386284
0000f0 c5 20 62 be 47 0a 29 3f 10 04 b3 bd 80 e4 10 bf
       -0.22082813 0.66031307 -0.08741009 -0.56598663

network.MLP.2.weight f4 [64, 64]
000000 14 59 8c bd de ca be 3b e9 e2 95 3c 05 6f 6c bd
       -0.06852928 0.0058225235 0.018296676 -0.057723064
000010 62 b4 08 3e 41 4b b7 3e 8f 87 d2 bd 26 a7 90 3e
       0.1335006 0.35799602 -0.10279762 0.28252524
000020 82 94 ae 3d ad 94 cc be 70 21 df bd 73 8c 1c be
       0.08524419 -0.3995718 -0.108950496 -0.15287952
000030 c6 41 4a bf 2b 9a 10 3d 39 fc c4 3f 5d 8c eb be
       -0.7900661 0.035303276 1.5389472 -0.46005526
000040 c8 5d ff bd 00 80 be 3d 94 c8 18 be 2b e1 8e be
       -0.12469059 0.09301758 -0.14920264 -0.27906165
000050 85 0c a2 be 6b 0d 58 bd b8 72 ac be 35 51 5f bd
       -0.31650177 -0.05274717 -0.33681273 -0.054520804
000060 c8 fa 1b bf 65 42 46 bd 50 e0 20 3b d9 62 94 3d
       -0.60929537 -0.048403163 0.0024547763 0.07245416
000070 a4 8b a7 bc 54 17 54 be ac 37 b9 bd 88 61 f2 bd
       -0.020452328 -0.20712024 -0.09043822 -0.11835009
000080 f4 3a 54 bd cc ed bc be 3d fa c3 be a8 21 fc 3e
       -0.051814035 -0.36900175 -0.38276854 0.49244428
000090 95 53 b7 bc 54 ec 89 bd 89 35 93 3d 44 d1 0a be
       -0.022378722 -0.06734529 0.071879454 -0.13556391
0000a0 b6 4e fc be 3c 03 84 bd 0d 31 95 bf 64 e5 f7 3d
       -0.49278802 -0.064459294 -1.1655594 0.121043
0000b0 a6 2c 93 3e a9 15 31 3e fd 0c e6 be 6e 28 cf 3d
       0.28745002 0.17293419 -0.44931784 0.10115133
0000c0 38 b0 ff 3e 00 98 b6 3e a2 1b c8 3d 46 70 f8 bc
       0.49939132 0.35662842 0.097708955 -0.030326974
0000d0 a0 84 a2 3f 72 6e 36 be f2 a1 8d 3e 00 f2 40 bc
       1.2696724 -0.17815569 0.27662617 -0.011776447
0000e0 67 e8 bb 3e 4b cc 16 3d 47 17 38 be 64 e9 26 3e
       0.36700746 0.036815923 -0.1797763 0.16299969
0000f0 88 30 c2 3d 6b d5 2c be 66 01 df 3c 82 a7 8b 3e
       0.09481913 -0.16878287 0.027222347 0.27276236
000100 83 6d dd 3c 38 cc 2e 3f 0d f1 65 3d b2 c9 1c be
       0.027029758 0.68280363 0.056138087 -0.15311316
000110 2a 59 81 bd 73 2e 17 3e f3 e4 77 3e 77 55 85 3d
       -0.06315835 0.14763813 0.24208431 0.06510442
000120 70 99 77 3c b6 d9 e0 3c ce 5f 89 3e 24 b0 37 3d
       0.015112266 0.027447563 0.26830906 0.044845715
000130 de 9a 08 3e 53 00 e6 be 08 79 93 be cb 11 56 3e
       0.13340327 -0.44922122 -0.28803277 0.20905225
000140 82 6a d9 bd ed e4 4d 3d 34 ca aa bd a4 ac e4 bd
       -0.10616018 0.05026715 -0.083393484 -0.11165741
000150 ca 19 1f bd 15 03 96 3c 3f df 88 3e ca 7a 7a 3d
       -0.038842954 0.018312017 0.26732823 0.061152257
000160 e4 0e be bd 19 22 51 3d dd 66 e0 3d 15 d5 b7 be
       -0.09280184 0.05105791 0.109571196 -0.35904756
000170 f7 c8 be bd f7 3a 8d bb b0 18 b4 3c 2e cc 97 3d
       -0.09315675 -0.0043100077 0.021984428 0.07411991
000180 e7 fc dc bd 5a 65 b2 3d 15 68 94 3d b6 f6 5e be
       -0.10790425 0.087107375 0.072464146 -0.217738
000190 4b ea c1 bc ad e2 c3 bd 27 64 4c be 6f d4 25 bc
       -0.02367129 -0.09564719 -0.1996008 -0.010121449
0001a0 79 42 4a bd ad b7 c9 3c 43 15 92 ba 87 8c 85 3e
       -0.0493798 0.024623716 -0.0011145253 0.26083776
0001b0 17 ea 82 3d 9e 6a 24 3e 32 c9 f6 3d b7 7f 37 3e
       0.06392305 0.16056296 0.12050094 0.17919813
0001c0 1b 09 3e 3d 4f cd 9e 3e ec 6a 5a 3d 35 a2 a7 bc
       0.046395402 0.31016013 0.053324625 -0.020463089
0001d0 0d 51 a8 be 83 3c ee 3b 3b 15 cf be 4c 09 8f bc
       -0.32874337 0.007270397 -0.40445885 -0.017460488
0001e0 e6 07 7a 3d 52 43 b6 be cd 52 59 bd 52 43 17 3f
       0.06104269 -0.35598236 -0.05305748 0.590871
0001f0 a4 c9 7d 3d 35 bc 26 3c 72 fd 7f bd f1 d8 ce 3c
       0.061959878 0.010176708 -0.062497564 0.02524993
000200 60 4e 28 3e dd 4d b1 3e 5d e8 3a 3c 35 d9 4d bd
       0.16436148 0.34629717 0.011407939 -0.050255973
000210 c5 86 67 bd 6b 21 2c 3e 0e e3 83 be 93 aa a5 bd
       -0.05652501 0.16809623 -0.25759166 -0.08089175
000220 ee 5f e8 3d a7 20 16 3e d4 48 51 bd 69 a0 6e bd
       0.11346422 0.14660893 -0.051094845 -0.058258448
000230 55 6c 8a be 52 bb 80 3b 9f 6b 27 3f 70 0e d8 bd
       -0.27035776 0.0039285803 0.6539859 -0.10549629
000240 a8 ab 52 3d c6 60 16 bd b3 d2 28 be 30 78 8d bd
       0.051433235 -0.036713384 -0.16486625 -0.069076896
000250 fd 96 be 3e 81 09 48 be 74 cf d5 3e 2f 4e ce 3d
       0.3722457 -0.19534875 0.41759837 0.10073506
000260 4a 9e c4 3e 90 33 95 bd 86 54 3e bd f4 51 47 3e
       0.38402015 -0.072852254 -0.046467327 0.19464856
000270 3a 27 91 bd 66 84 90 3e 0c 00 57 3d 3e b5 2c be
       -0.0708756 0.28226012 0.05249028 -0.16866013
000280 4a b8 18 3e 0e be 8c bc 8b 17 17 3d c3 f6 13 bd
       0.1491405 -0.017180469 0.036887687 -0.036124002
000290 58 a2 15 3e 3d 18 1a 3d bc da 93 3d fc 1e 0d 3d
       0.1461271 0.03762077 0.07219455 0.034453377
0002a0 f0 48 3b be 42 47 84 be 07 1a 35 3e c4 22 ee bd
       -0.18289542 -0.25835615 0.1768571 -0.11627725
0002b0 fb bd 49 bc 1f 30 a9 be 91 cb 7d bc da 68 73 3e
       -0.012313361 -0.33044526 -0.015490429 0.23770466
0002c0 43 31 99 be 93 41 a7 3e 4b 19 b9 3e 34 44 4c be
       -0.29920396 0.32667217 0.3615211 -0.19947892
0002d0 66 83 83 bd 38 85 75 bd c4 96 c0 bc 4c 66 0d be
       -0.06421547 -0.0599415 -0.02350939 -0.13808554
0002e0 2e 4b 12 be 2e b7 61 bc 64 53 39 be e4 eb 54 3e
       -0.14286491 -0.013776584 -0.18098217 0.2079311
0002f0 16 96 ba 3c b6 b2 8b be ef 6e 60 3d 51 db da 3c
       0.022776645 -0.27284783 0.054793295 0.026715906
000300 4b 3d 36 3d 57 27 0c be 08 35 d9 bd fe d4 85 3e
       0.044492047 -0.13686882 -0.10605818 0.26139063
000310 39 c8 84 3d 72 fc 19 be 37 93 b4 bd 4c 0e a9 3d
       0.06483502 -0.15037706 -0.088171415 0.0825468
000320 90 12 0f 3c 15 06 d4 3e e8 78 1b be 6b 18 ad bd
       0.008732453 0.4141089 -0.15182841 -0.08451923
000330 ca 94 18 3d 11 3e ea 3d 80 23 08 3f e1 58 dd bd
       0.03725127 0.114376195 0.5317917 -0.10807968
000340 72 e7 d0 bd 8b e7 70 bd 74 4c 4a 3e b8 0b 7f bd
       -0.10200395 -0.058814567 0.19755727 -0.062267035
000350 8b 2f 87 be fa 2e 9d 3e 00 24 eb 3c f4 76 6c 3d
       -0.2640346 0.30699903 0.02870369 0.05773063
000360 d8 69 da 3e 63 53 52 3e 27 b2 45 bc 37 9c 88 bd
       0.42658877 0.20539622 -0.012066401 -0.066704206
000370 85 df 79 be e8 63 99 3d 9a 69 e6 3d 60 93 9a bd
       -0.24401672 0.07489759 0.11250611 -0.07547641
000380 b6 e5 5b 3e 3b 96 9d 3e 80 75 b5 3d 14 1f ac 3e
       0.21474347 0.3077868 0.08860302 0.3361746
000390 1d be 77 3e e5 b2 66 3e 6f 1f 4a 3e 27 94 26 3d
       0.24193616 0.2252918 0.19738553 0.040668633
0003a0 f2 af b3 be 80 48 5a be 38 0d 13 3f 6f bf 2e 3e
       -0.35095173 -0.21316719 0.57442045 0.17065214
0003b0 de 99 22 be 35 2a 6f bf 50 7a b0 be 5e 40 3d 3c
       -0.15879008 -0.9342378 -0.34468317 0.011550991
0003c0 5d a5 26 bf b6 52 56 be 64 07 2a 3e 75 0d ed 3d
       -0.65096074 -0.20929989 0.16604382 0.11574832
0003d0 f6 74 2a 3e 9e 9c cd bd 5e a7 69 be d3 8d a3 bd
       0.1664618 -0.10039638 -0.22817752 -0.07986035
0003e0 56 7a ca be ca 64 b9 3e 53 20 2a be 51 3a e3 bd
       -0.3954646 0.36209708 -0.16613893 -0.11095107
0003f0 67 d9 7c 3e 44 6b 1c 3e 73 e9 7f 3c 78 6e e2 3d
       0.24692307 0.15275294 0.0156196235 0.110562265

network.MLP.2.bias f4 [64]
000000 54 7f ca be 81 a8 20 3d 4b b4 25 bd de e6 10 be
       -0.3955027 0.039223198 -0.040455144 -0.14150569
000010 ca 04 ce 3d cc c4 2a 3d 25 9c 0a 3f c5 a5 f1 3e
       0.10059507 0.041691586 0.5414451 0.47196785
000020 e0 45 93 be 24 ef 0a 3e 19 3a 86 bd e3 55 37 3b
       -0.28764248 0.13567787 -0.0655405 0.0027974776
000030 9d cb e7 3d 31 ee 19 3d 8c d6 7e 3e 4e 03 dc be
       0.11318133 0.037580673 0.2488653 -0.4297127
000040 be d7 0b 3d 11 6f ea be 9e ef 3e 3d 50 52 3d 3c
       0.034141295 -0.45787862 0.046615236 0.011555269
000050 33 40 e5 be c6 17 6d bd b2 21 30 bd b5 de 7b 3d
       -0.44775543 -0.057884 -0.043000884 0.061491687
000060 2a 73 e9 3e 58 ea bb bd 96 82 e2 3e 63 e8 41 bb
       0.45595676 -0.09175557 0.44240254 -0.0029587976
000070 24 b8 b4 be d3 3b 55 bd 6b ae a0 3c a5 d8 71 3e
       -0.35296738 -0.052059006 0.019614419 0.236178
000080 02 51 cf 3f 73 f2 3f 3e e9 ec 1c 3e 2e d8 aa 3d
       1.6196597 0.18744831 0.15324749 0.08342014
000090 44 10 cc bd 95 d5 f8 bd 16 cc 25 be 1c 6e 7b be
       -0.0996404 -0.121501125 -0.16191134 -0.24553722
0000a0 06 b8 42 be 37 c4 5f 3e 3d 78 ed be 40 2a a9 3d
       -0.19015512 0.21852194 -0.46380797 0.08260012
0000b0 ef ae 46 3e 82 f7 55 3d c6 72 e3 3d d9 11 de 3e
       0.1940267 0.052237995 0.11105876 0.43372992
0000c0 23 20 c1 3e 36 fd 9d bd f7 13 82 bd 76 98 4e bc
       0.3771983 -0.07714312 -0.06351464 -0.012609592
0000d0 30 37 d3 3d 74 6e c0 bf b0 3c a1 be 70 b8 e4 bd
       0.103132606 -1.5033708 -0.31491613 -0.11167991
0000e0 86 2a ff ba ab 7b c3 3e 84 ae 73 bd cb b1 91 be
       -0.0019467629 0.3818029 -0.059492603 -0.28455958
0000f0 50 a1 26 bc 11 41 c2 3d f2 10 fe be 7c 53 ac bc
       -0.010170296 0.09485067 -0.49622303 -0.021035902

network.MLP.3.weight f4 [64]
000000 f9 fc 0c 3f 5f 72 8a 3f 79 54 97 3f c3 62 9e 3f
       0.55073506 1.0816153 1.1822654 1.237389
000010 7d 89 cd 3f ba 4b 8c 3f 53 90 3b 3f 83 26 50 3f
       1.6057583 1.096061 0.73267096 0.81308764
000020 af ae 97 3f c3 82 cf 3f fc b0 cf 3f 6d b3 c4 3f
       1.1850184 1.621178 1.6225886 1.5367256
000030 68 24 9a 3f d6 94 3c 3f 7c b7 88 3f 67 c8 0b 3f
       1.204236 0.73664606 1.0680995 0.54602665
000040 b7 76 d0 3f 6f b0 57 3f 58 88 9c 3f cc 48 b1 3f
       1.6286229 0.8425359 1.2229109 1.3850341
000050 5c 08 46 3f d1 9d ac 3f 25 2d ca 3f 97 30 b4 3f
       0.77356505 1.3485662 1.5795027 1.4077328
000060 17 06 1e 3f da 19 77 3f bb 81 24 3f da 15 bd 3f
       0.6172804 0.9652382 0.64260453 1.4772294
000070 46 05 32 3f 3a 1d 89 3f 65 0f e4 3f f3 92 8e 3f
       0.69539297 1.0712044 1.7817198 1.1138595
000080 b0 d3 4b 3f 33 6b a1 3f 07 e9 c6 3f 5c 73 a3 3f
       0.79619884 1.261084 1.5539864 1.276958
000090 4e 43 6d 3f 1e 91 d5 3f e7 1d c3 3f e4 f2 82 3f
       0.92680824 1.6684911 1.52435 1.0230374
0000a0 b4 55 85 3f 20 49 87 3f ae b4 45 3f 38 79 be 3f
       1.041678 1.0569191 0.7722882 1.4880743
0000b0 44 36 b4 3f 9b eb 90 3f 5a 16 68 3f 38 a2 0f 3f
       1.407906 1.1321901 0.90659106 0.561069
0000c0 8f 85 55 3f 1b 93 bf 3f 42 69 9a 3f 84 05 b8 3f
       0.8340692 1.4966768 1.2063372 1.4376683
0000d0 1b 3e d4 3f 77 38 56 3f 58 a1 32 3f df c9 92 3f
       1.6581453 0.8367991 0.6977744 1.1467856
0000e0 4a 80 9d 3f 69 3d 31 3f 65 80 e1 3f ab a8 2a 3f
       1.2304776 0.6923433 1.7617308 0.66663617
0000f0 5c b3 ca 3f 3f 4f cb 3f 79 e3 33 3f 2a e9 b1 3f
       1.5835986 1.5883559 0.7026897 1.3899281

network.MLP.3.bias f4 [64]
000000 33 97 ab 3e b2 56 bd 3e f0 2f 9a 3e 99 6a 42 3e
       0.33513793 0.36980206 0.30114698 0.18985976
000010 03 31 07 3e 5d ad 87 3e dd 6d 01 3e b9 d3 6c 3d
       0.1320229 0.26499453 0.12639566 0.057819102
000020 dc 0b da 3d bf 4a 4c bc 16 38 37 bd b1 71 12 3d
       0.10646793 -0.012468993 -0.044731222 0.035752956
000030 15 cc 29 3e de 00 83 3d 15 98 7f bd 05 e2 a3 3e
       0.16581757 0.0639665 -0.062400896 0.32008377
000040 62 17 a0 bd e4 3d a2 bd 47 88 49 3e 0e b0 09 3e
       -0.0781696 -0.07921961 0.19680892 0.13446066
000050 9e 45 12 bd d7 5a 90 3d 2f a9 78 3d 1f 8a 8a bd
       -0.035710923 0.07048576 0.06070822 -0.06764626
000060 3c 7c 29 3c de 72 d8 bd d3 40 44 3d 00 4c 55 3e
       0.010344561 -0.10568784 0.047913384 0.20829773
000070 6c 99 09 3e a3 73 08 3e 98 7c ba bc f2 29 e7 3b
       0.13437432 0.13325362 -0.022764489 0.007054561
000080 8b f3 8b bc 4c 7a 8b bd ee 38 50 3d 40 78 09 be
       -0.017083904 -0.06810436 0.050835542 -0.13424778
000090 fd 5e 9a be 03 bd 47 3c 97 c5 2f 3d 70 80 a3 3d
       -0.30150595 0.01219106 0.042913046 0.07983482
0000a0 f4 89 c7 bc aa 57 41 bc 0d 21 b3 3e 77 c4 1e be
       -0.024357773 -0.011800686 0.34986153 -0.15504633
0000b0 96 9c 0f 3e 95 a4 02 bd 4f 31 73 bd 82 f4 75 be
       0.14024577 -0.03189524 -0.059373196 -0.24019054
0000c0 b1 8e ea bd 9b 1a f9 3d 18 cb 81 3e f6 72 90 3c
       -0.114529975 0.12163278 0.2535026 0.017632943
0000d0 1e c4 83 3c 9a 2f 14 bd dd 49 96 3e 9e 18 04 3e
       0.016084727 -0.03617821 0.29353228 0.12900016
0000e0 55 2c 28 bd 5f 7a 02 3d a1 a4 5c 3d d3 7f 2d 3e
       -0.041057903 0.031854983 0.05386794 0.16943292
0000f0 f6 85 67 bd cd 2d 04 be 92 b7 96 bd 95 0a 80 3e
       -0.05652424 -0.12908097 -0.07359232 0.25008073

critic.0.weight f4 [1, 64]
000000 b5 38 ad 3d 51 53 f7 3d f0 c9 23 3d 63 80 94 b9
       0.08458082 0.12076438 0.039987504 -0.00028324415
000010 f6 8a 17 3d dd e8 d5 3d 65 07 29 3e af 34 5c 3e
       0.036997758 0.10444806 0.16506727 0.21504472
000020 78 08 dc bb ed 72 8e 3c 0f ae 2b 3c 67 53 ba 3c
       -0.0067148767 0.017388785 0.0104785105 0.022744847
000030 b6 4c 52 3d 0c 50 bc 3d ae 88 28 3d 39 fd 3e 3d
       0.05134269 0.09194955 0.041145973 0.04662821
000040 22 63 36 bd 88 9a 6a be d7 64 1b 3d 39 47 8f 3d
       -0.044528134 -0.22910511 0.037937965 0.069960065
000050 21 3d af bd e2 1b 14 3c d1 ec fd 3c f7 d6 00 3d
       -0.08556581 0.009039851 0.030996712 0.031455006
000060 a4 4b b8 3d 56 1d 03 bc 77 8f 02 3e 33 d3 59 3c
       0.08998802 -0.0080026 0.1275004 0.013294983
000070 5e 6f 27 3d ca 83 d9 3c d1 35 8f 3b 69 6a ac 3d
       0.040877692 0.0265521 0.004370429 0.084187336
000080 c8 35 5b 3e 57 e9 95 3d 3f e6 39 3d 70 75 12 3d
       0.21407235 0.07319897 0.045385595 0.03575653
000090 15 be 3f bd b4 de 39 3c 23 03 06 3d 32 57 c8 3c
       -0.046812136 0.0113446005 0.032717835 0.02445564
0000a0 2d c8 61 3c e8 f1 aa 3d fc c0 75 3d 26 52 82 3b
       0.013780636 0.08346921 0.059998497 0.003977078
0000b0 5e c8 4d 3d 7a 1e 24 3d 24 cd 6b 3d 8f b2 6e 3d
       0.050239913 0.040068127 0.057568684 0.058275755
0000c0 bb be 86 3d 8d 5d 92 3d e6 89 0f 3e 78 95 7e bc
       0.06579348 0.0714675 0.14017448 -0.015538566
0000d0 67 d2 5b 3d e6 e2 76 be 95 4c 5d 3d 82 56 29 3d
       0.053667452 -0.24109992 0.054028112 0.041342266
0000e0 7a a1 26 3c fe 75 0c 3e 95 93 90 3d bb f6 90 3d
       0.010170335 0.13716885 0.07059399 0.0707831
0000f0 5b 69 53 3a 11 78 0b bc 18 bf 22 be c8 36 d0 3d
       0.00080647104 -0.008512513 -0.15893209 0.10166699

actor.0.weight f4 [22, 64]
000000 46 18 b2 bc c8 00 31 3f f0 6a 7e 3d 75 9e dd bd
       -0.02174009 0.6914182 0.062113702 -0.10821239
000010 c2 26 a1 3e d3 3d 1d bd f5 7c 5f 3e 2e 02 7e bd
       0.31474882 -0.03838904 0.21825011 -0.062013797
000020 cd 08 3f 3e 3d 1b e8 3e 4d b3 54 be 73 79 04 bf
       0.18655701 0.4533328 -0.20771523 -0.51747817
000030 bc 64 e6 3d fa 69 6c be 6b 2b 47 be 7c 3e 50 3e
       0.11249682 -0.23087302 -0.19450156 0.20336336
000040 0d 65 c0 3d dc c5 b1 3a 08 a1 c5 be 7f 5f 80 be
       0.09394274 0.0013562995 -0.3859942 -0.25072858
000050 d7 61 0b 3d 29 30 57 be a9 c2 ee be d5 f9 5c 3d
       0.034028854 -0.21014465 -0.4663289 0.053949196
000060 59 64 32 3d f9 8e 2b 3e 0a 53 2c bc f9 6b 00 be
       0.04355273 0.16753758 -0.010517845 -0.12541188
000070 fe c6 20 be c0 8d d3 3d 79 f6 b2 be 55 7d e5 bd
       -0.1570091 0.10329771 -0.3495367 -0.11205546
000080 ed 20 bb 3c 11 c4 a8 3e a3 4c 80 3e e3 4c 76 3d
       0.022842849 0.32962087 0.2505847 0.06013192
000090 9c 78 c0 3e 33 ef 33 3e 86 32 60 bd ba 2b 4f 3e
       0.37592018 0.17571716 -0.054735683 0.20231524
0000a0 b8 54 9b 3e af 22 8b 3d e5 53 ec bd 05 c9 98 3e
       0.30338073 0.06793725 -0.11539439 0.29840866
0000b0 38 b4 a9 be bf 53 85 3e 60 fa 09 bd e4 ab 12 be
       -0.33145308 0.26040456 -0.03368604 -0.14323384
0000c0 ae f6 5c 3e c4 e6 00 3d 3a e3 d3 3d fd 48 b2 3e
       0.21578476 0.031470075 0.103460744 0.3482131
0000d0 f7 ad f1 3e dc e0 13 bd c1 7a 5a 3c 15 30 c9 bd
       0.47203037 -0.036103114 0.013334931 -0.09823624
0000e0 f3 03 a0 be 60 e7 21 be fe fb 40 3f c6 5c e2 be
       -0.31253013 -0.15810919 0.7538451 -0.44211406
0000f0 5a 25 2b bd f9 96 63 bf ec 71 88 3d 26 6d e5 bd
       -0.041783668 -0.8890224 0.06662354 -0.11202459
000100 41 61 17 3d 7a 7e ca 3d a0 fb 06 bf ec dd 3e be
       0.036957983 0.09887405 -0.527277 -0.18639344
000110 15 a0 03 bf 32 18 b5 be 82 12 9d 3d eb c2 40 bd
       -0.5141614 -0.35370022 0.07669546 -0.04706089
000120 1a 63 a3 3e c1 6e 52 bc 18 b9 bb bd 50 cc f7 bd
       0.31911546 -0.012843789 -0.09166163 -0.120995164
000130 af 18 65 be ef 8f 7e bd 9a 1f 47 3d 55 87 bc 3c
       -0.22372697 -0.062148985 0.048614122 0.02301375
000140 6b eb 79 3e 5a ad 52 bd 9b d2 50 3e 5b 07 38 3e
       0.24406211 -0.051434852 0.2039284 0.17971556
000150 9a 7b 6d be 42 e2 9c be 95 03 81 be 52 df 6b 3e
       -0.23191682 -0.3064137 -0.25198045 0.23034409
000160 ce 76 5d bc 05 63 0e be c7 9a ca bc 34 ea ca bd
       -0.013517095 -0.1390496 -0.024732007 -0.09907952
000170 2c 1d 16 3e 8b 8f 60 3e 8e fa ad be 61 34 8d bd
       0.14659566 0.21929757 -0.3398022 -0.06894756
000180 12 0e d9 3b 75 b4 65 3d 30 3a 74 3e 5a 8a bf 3e
       0.0066239918 0.0560803 0.23850322 0.3741024
000190 87 b6 90 3e 93 aa 8e 3e a5 a1 ee be 4a 4d 1e be
       0.28264257 0.27864513 -0.466077 -0.15459171
0001a0 60 c6 72 3e 6b 26 bc be a9 59 06 be c7 ab 92 3e
       0.23708487 -0.3674806 -0.1312014 0.2864668
0001b0 86 ed 6a be 3e 09 11 bf 2a b1 d6 be 06 61 7e 3d
       -0.2294217 -0.5665473 -0.4193204 0.062104248
0001c0 bb 3c b2 3d cc fc 16 3f 89 86 35 3e 81 ce 79 be
       0.0870299 0.5897949 0.17727102 -0.24395181
0001d0 f7 e1 db 3e 2f 67 11 bd be a0 f6 3c ec 18 17 3c
       0.42945835 -0.035498794 0.030105945 0.00922225
0001e0 42 96 d0 3e 28 63 22 3e 61 cc 4e 3e 45 a6 fa 3d
       0.40739638 0.15858138 0.20195152 0.12238745
0001f0 9f 9a ac be 22 e8 bc 3e 01 ec 11 be 8b 5f bd 3d
       -0.33711717 0.36895853 -0.14250185 0.09246739
000200 b3 4c 81 be 52 7e 09 3d bc f5 bb be a3 4f 9a 3d
       -0.2525383 0.033567734 -0.36710918 0.07534721
000210 e0 3d 17 bd 02 ff 4c 3e e2 58 1e be 34 7d e7 3c
       -0.036924243 0.20019153 -0.15463594 0.028257944
000220 32 5b 4f be 82 58 1a 3e 72 09 f8 bd 87 f3 f6 bd
       -0.20249632 0.15072826 -0.121111766 -0.12058168
000230 50 77 93 3c a2 7d 48 3e e0 28 84 3e 46 a1 64 3d
       0.018001229 0.19579175 0.25812435 0.055817865
000240 89 b5 89 3d 16 2f de 3d 38 d9 b1 be b3 d4 a0 bc
       0.06724078 0.10848825 -0.34736037 -0.019632673
000250 46 1e d1 3d a8 ae 6e be 7f a3 4e be c6 ed ab 3d
       0.10210852 -0.23308814 -0.20179556 0.08394961
000260 57 db cf 3d 53 f2 12 be 0a da 7b be 0c e5 c7 3e
       0.10149258 -0.14350252 -0.24594894 0.39041936
000270 94 41 09 be c7 64 97 3e 20 1b 2c be 71 30 89 3c
       -0.13403922 0.29569075 -0.16807222 0.016746731
000280 2b a7 91 3b 85 1f 25 3e 0e 5f 12 3f 3a 6c ba bd
       0.004444977 0.16125305 0.5717629 -0.09102674
000290 0f 7f 90 3d df 90 d8 3e e5 93 b2 be d7 50 30 3d
       0.070554845 0.42298028 -0.3487846 0.043045845
0002a0 fe 80 e9 bc 6c 0b d9 3d 74 49 2c be 1e 63 ff 3e
       -0.028503891 0.10597882 -0.16824895 0.49880308
0002b0 8c b1 2a be cd ef 6f 3e ec 97 30 bd 61 c9 08 be
       -0.16669291 0.2343132 -0.043113634 -0.1335807
0002c0 7d 20 c4 3d ec 34 ba bc 5b 1a 0a be db 25 ea be
       0.09576509 -0.022730313 -0.13486616 -0.45732006
0002d0 09 8e e0 3e ad 88 c7 bb d4 1c 0d bd 0a 35 0d be
       0.43858364 -0.006089291 -0.03445132 -0.13789764
0002e0 dd 19 a8 bd f4 00 54 bc d0 e6 64 be 71 81 32 be
       -0.08208058 -0.01293968 -0.22353673 -0.1743219
0002f0 a0 f5 42 3e 21 d8 8a 3d fc 0b 62 3d c5 50 82 3d
       0.19039011 0.067795046 0.05518721 0.06363062
000300 3b 7f 99 3e 5f 18 fe 3d d4 c1 fa 3d ee d7 14 bd
       0.29979882 0.12406992 0.12244001 -0.03633874
000310 e8 57 db bd 66 1e 40 3d 62 4b 12 3e 9f 5a dc bd
       -0.10710126 0.04690399 0.14286569 -0.10759472
000320 05 e3 94 be ee 0d 23 3d cb f1 8f bd 8e 87 1a 3e
       -0.29079452 0.039808206 -0.0702854 0.15090773
000330 37 16 94 3e 6e 29 80 3e 1f af 4c be b7 8a 66 3e
       0.289232 0.25031608 -0.19988678 0.22513853
000340 b5 c4 ea 3d 40 67 57 bd 77 ce de bd d2 c2 0d be
       0.114633 -0.0525887 -0.10879224 -0.1384385
000350 15 56 11 be b8 a3 50 3f 5c fe 48 be 55 de f1 bd
       -0.14192994 0.81499815 -0.1962828 -0.118099846
000360 40 29 54 be 87 d0 5e 3d fb 9d 9a 3c 8b 2a 07 3f
       -0.2071886 0.054398086 0.01887416 0.5279929
000370 8b 40 27 3d f2 28 3b 3c e9 b8 db bd 62 e9 46 3e
       0.040833037 0.011423336 -0.10728628 0.19424966
000380 c5 fb b6 3b 7e bc 12 bc 22 eb 12 3e 6f 41 6a 3e
       0.0055842125 -0.008956073 0.14347509 0.22876523
000390 bd f3 6b be b2 4e 79 3d 13 9e e3 be 6e 9b f1 bd
       -0.23042198 0.060866065 -0.4445654 -0.11797224
0003a0 5e 8d 88 3d 38 f3 15 bd 70 02 86 3e f6 5f a7 bd
       0.06667589 -0.036608905 0.26173735 -0.081726
0003b0 cb 78 10 3b 1e 07 51 3d 2a 92 2e 3e 4a f2 59 3d
       0.0022044654 0.051032178 0.17047945 0.05320958
0003c0 17 ea 84 bd 02 c0 61 3e 26 bc c9 bd c0 3d ee be
       -0.064899616 0.22045901 -0.098503396 -0.46531487
0003d0 88 13 05 be 8c 3a 07 bd 2f c8 40 3e a7 14 4f 3e
       -0.12995732 -0.03301482 0.18826364 0.20222722
0003e0 89 ff 92 be 0b 9b bb bd 91 b7 3c be c7 4b 11 3e
       -0.28710583 -0.091604315 -0.184294 0.14189063
0003f0 61 81 6b be 0f 44 58 bd af 9d a5 bb 07 05 a2 3e
       -0.22998573 -0.05279928 -0.0050541977 0.3164446

actor.0.bias f4 [22]
000000 63 38 bb 3c 6d f4 a6 bc 49 df e6 bc 57 bd 9a 3d
       0.022854036 -0.020380223 -0.028182643 0.07555645
000010 84 2f c3 bc cc 04 56 3d 4e 8e 8d bd 27 58 4d 3d
       -0.023826368 0.05225067 -0.06911908 0.050132897
000020 d2 af 56 bd 9c 4c 4e 3d 26 9f 48 3d d1 67 3c bd
       -0.05241377 0.05036603 0.0489799 -0.045997445
000030 75 d4 30 bd f0 e5 12 3d d9 4b ca 3c f6 e1 9a bc
       -0.043171365 0.035863817 0.02469437 -0.018906575
000040 21 50 a3 3c 97 de 0f bd 30 4f b8 3d af 12 e6 3c
       0.01993567 -0.035124388 0.08999479 0.02808508
000050 10 0b 21 bc e3 87 2f 3d
       -0.009829298 0.0428542
