paper/training_results/seed-5/momarl/checkpoints/mlp_(negotiation=False)_(num_agents=12)_(window=False)_(reduced_space=False)_(fixed_savings_rate=False)_(rewards=['inverse_global_temperature', 'global_economic_output'])(wgen=uniform)(num_ensembles=1)(seed=5)_2025-01-16_22:22:49_w=[0.3482 0.6518].pt (torch, 38168 bytes, 9 tensors)

network.MLP.0.weight f4 [64, 18]
000000 dd 62 06 bd b7 a2 f9 3d d4 b7 03 be a1 d1 71 3d
       -0.032809127 0.121892385 -0.12863094 0.05903781
000010 b2 bf d9 bd e2 16 8d bc dc 10 d8 bd b4 d6 9a bb
       -0.10632266 -0.017222825 -0.10550091 -0.0047253016
000020 c9 ae d1 3d 1c 28 2b 3e 45 61 85 3d 47 f5 35 bd
       0.10238416 0.1671452 0.06512693 -0.044423368
000030 92 82 69 3e 1b 53 27 be 18 7b 53 3e 0a e0 e5 bd
       0.22803715 -0.16340296 0.20652425 -0.11224373
000040 4c 71 d2 bd 9a e1 06 3e 57 4a 0f 3d ed f1 4e bd
       -0.10275516 0.13171998 0.034983005 -0.050523687
000050 c3 09 bc bd 3f e3 02 3f d7 a4 06 bf a5 ab 9c 3e
       -0.091815494 0.51128 -0.52595276 0.30599704
000060 3a 7a 59 be 01 33 e7 3d 2d 31 b7 bd 89 58 1e bf
       -0.21238032 0.11289025 -0.089449264 -0.61853844
000070 f3 4c 94 be 85 6c 65 3d 1e 43 63 3d ac 38 f0 3e
       -0.28964958 0.056011695 0.05548393 0.46918237
000080 cf a1 d4 3d a3 28 59 3e a2 bc 1e 3e f9 e1 a8 3e
       0.10382425 0.21206908 0.15501645 0.32984903
000090 48 ab 27 be e0 4f 93 bd 4f 1f 14 bb ce bd 3f 3e
       -0.16373932 -0.07192969 -0.002260167 0.18724748
0000a0 e5 a2 28 be 4a 62 cb bd 6d bf 3c be b3 34 f6 bd
       -0.1646839 -0.099308565 -0.18432398 -0.1202177
0000b0 c8 77 46 3e c9 f0 21 3d 30 b9 c3 bd 1b b3 66 be
       0.1938163 0.03953627 -0.09556806 -0.22529261
0000c0 45 c2 cd bc 40 9d 2b be 7d 12 4d be ab bc 48 be
       -0.025117049 -0.16759205 -0.20026584 -0.19603221
0000d0 b9 00 12 3d c8 7f 0c bd 65 64 6d be e5 82 4c 3c
       0.03564522 -0.03430155 -0.23182829 0.01248238
0000e0 89 b9 08 be db 3e 71 3e b0 26 b7 bd 6a 5c 5a 3e
       -0.13352026 0.23559134 -0.08942926 0.21324316
0000f0 e5 da 47 3e a6 d4 bc bb 47 bb 9f bb 55 3b 97 3c
       0.19517095 -0.0057626544 -0.00487462 0.018460909
000100 6b 4d 68 3e 1f 57 35 3e 3b 6a 4a be 77 b2 54 be
       0.22685783 0.17709015 -0.19767086 -0.20771204
000110 50 6c 2b 3d 2e 56 32 3e b9 25 28 3e 1c 20 ea 3d
       0.04185134 0.17415687 0.1642064 0.114319056
000120 5b 09 d5 3d 25 eb 25 bf d6 de 9b 3c 9b 96 22 be
       0.10402175 -0.6481193 0.019027155 -0.15877764
000130 62 42 6b bd 86 86 df be 9a 1a 93 3d 06 91 3c bd
       -0.057436354 -0.4365732 0.07182808 -0.046036743
000140 18 2b 23 bd 72 65 97 3e e2 48 1d 3e 1e ed e8 bd
       -0.03983602 0.29569584 0.15359834 -0.113733515
000150 55 48 cb 3d 85 4e 1d 3e 1c b5 59 3e b7 69 0a bf
       0.099259056 0.15361984 0.21260494 -0.5406756
000160 55 5a e1 3d ad 0d 72 be c7 ce d4 bd f6 8f f6 be
       0.110035576 -0.2363803 -0.10391002 -0.48156708
000170 1f 5a b6 3d a5 71 31 bf 9b c0 37 3f 18 6d 04 bf
       0.08903908 -0.6931403 0.7177827 -0.51728964
000180 a1 b3 e9 bc 84 47 ea b9 9c d2 9c bd 65 dc c3 3e
       -0.028528037 -0.0004468524 -0.07657358 0.38254085
000190 27 65 ba be 29 0a 33 be c2 0c c5 3d 1a 46 f9 bd
       -0.36405298 -0.17484345 0.09621574 -0.12171574
0001a0 fe 2e 69 3e ef 95 6c 3e ce be 69 3e 4d 25 29 3e
       0.22771832 0.2310407 0.22826692 0.16518135
0001b0 05 fc 67 3c b6 f5 13 3e a2 dc 03 3d 91 02 8d 3e
       0.014159207 0.144492 0.032192834 0.2754102
0001c0 d1 c8 04 be a0 be ab 3e ff 21 5d be 76 f4 25 3e
       -0.1296723 0.33543873 -0.21595 0.16206536
0001d0 27 45 b7 bd f8 ba 8c 3e 94 0e 63 be a1 51 64 3d
       -0.08948737 0.27486396 -0.2217353 0.05574191
0001e0 4e 2a 60 3d f5 6c 4a bd b7 9e 92 be fc 1d f5 ba
       0.054727845 -0.049420316 -0.28636715 -0.0018700953
0001f0 b1 0d 70 3c 25 0d 5e be c8 f3 0d be bf 23 81 3e
       0.014651702 -0.21684702 -0.13862526 0.25222585
000200 e5 84 11 3d 77 b4 91 be b1 66 3b bf c4 05 22 3e
       0.03552713 -0.28457996 -0.7320357 0.15822512
000210 50 6f d8 3d 34 75 1c be df 31 a4 bd 9e cc 81 bf
       0.10568106 -0.15279084 -0.08017325 -1.0140569
000220 31 75 f4 3c 4a e9 48 bf 3c 90 12 be 17 15 b4 3e
       0.029841037 -0.7848097 -0.14312834 0.3517234
000230 93 b2 ac be 1d 11 ea 3d cc 09 18 3f 6d 17 ed 3c
       -0.3372999 0.11429045 0.5938995 0.028941834
000240 49 95 be 3d a1 e1 a7 3c 5a 9f 16 3d 29 08 f7 be
       0.09305818 0.02049333 0.036773063 -0.48248413
000250 ea 4e ba bb 50 f7 97 be ed c1 df be 37 b6 0c 3f
       -0.005685677 -0.29680872 -0.4370264 0.5496554
000260 07 8d 03 3f 6e 74 3e bf b2 b5 1d be ec 81 ed 3d
       0.51387066 -0.7439641 -0.15401343 0.11597046
000270 44 65 cb be 8f ca de bd 5e c1 aa 3d 26 0c 57 be
       -0.39725697 -0.10878479 0.08337663 -0.21000728
000280 39 08 92 be 99 a8 79 3e d3 35 ce 3d af 5c 52 bf
       -0.28521898 0.24380721 0.1006886 -0.82172674
000290 e3 8f 6e be f5 34 ee be fa b9 b1 bf af 2b b5 3e
       -0.23297076 -0.46524778 -1.388488 0.3538489
0002a0 87 4e 2c 3e f4 48 c5 3b 00 18 c6 3a 95 9e 00 3e
       0.16826831 0.0060206596 0.0015113354 0.12560494
0002b0 66 b5 d9 3a b7 61 c2 be 21 6f a5 be 95 20 e2 3d
       0.0016609847 -0.37965176 -0.32311347 0.11041371
0002c0 e4 4f 9b be 78 8c b8 3a 4b ca 8e bd b3 4e 4f bd
       -0.3033439 0.0014079949 -0.06972178 -0.050612163
0002d0 8d 9c 1e be ad 58 04 3f ee 1c 02 3e 50 03 48 bf
       -0.15489407 0.5169781 0.12706348 -0.78130054
0002e0 64 89 af 3e d7 d9 a3 bc 8b c9 9c bf 9d 15 e4 3c
       0.34284508 -0.020001335 -1.2249006 0.027842337
0002f0 12 2c 3e be 4f 41 fb be 52 7b 83 bd e3 96 d3 3d
       -0.18571499 -0.49073264 -0.06420006 0.10331514
000300 a3 d1 0b 3e 81 2e 65 3e 41 bb 4f be 36 e9 03 bc
       0.13654189 0.22381021 -0.20286275 -0.008051207
000310 c6 65 92 bd 17 80 36 3c c3 a0 ee 3d 12 e0 16 be
       -0.07148318 0.011138937 0.116517566 -0.14733914
000320 bb bc be 3d c1 c6 0c bf 6d b4 c8 bd b1 ab af be
       0.09313341 -0.54990774 -0.098000385 -0.34310678
000330 a5 69 b7 3e 92 34 da be e1 6c b3 be 81 d1 ef be
       0.35822788 -0.42618233 -0.35044006 -0.46839526
000340 41 20 0a bf ad 25 cf be df 3b 90 be be dc 9b bf
       -0.53955466 -0.40458432 -0.28170678 -1.217674
000350 0a 33 67 3d 91 c9 a3 be 33 46 6a be 03 3c d1 bd
       0.05644516 -0.3198972 -0.22878341 -0.102165245
000360 37 92 fb 3c 41 3a 47 3e 22 01 59 bd c3 cd 93 be
       0.03070937 0.19455816 -0.052979596 -0.2886792
000370 05 c8 9f bd 80 9f 9e 3e 48 f2 15 3e 44 eb 3e 3e
       -0.078018226 0.30981064 0.14643204 0.18644434
000380 82 48 1c be 56 62 c9 bd 41 31 b3 3e ac 27 9b bc
       -0.15262035 -0.09833209 0.34998515 -0.018939815
000390 60 6c 5c be b9 f5 b5 bc fb f0 f1 bf 13 9f 8e be
       -0.21525717 -0.022211896 -1.8901666 -0.2785574
0003a0 87 d1 37 be ab 9e 05 3e f9 95 63 bf d1 08 db 3d
       -0.17951022 0.13048808 -0.88900715 0.10695041
0003b0 e3 33 e0 3d 2b 18 41 c0 49 02 1d bf 97 ba 80 be
       0.109473966 -3.0171 -0.6133161 -0.25142357
0003c0 2c 1f df 3d cc 83 73 bd 1e 8a 40 bd 41 8c 99 bd
       0.108946174 -0.059451863 -0.04700672 -0.074974544
0003d0 0d b1 1b bc 7f 4e 36 3e 9a 6a 95 bc ff 10 67 be
       -0.009502661 0.17803381 -0.018239308 -0.22565077
0003e0 c0 d9 db bd 2a 9d e7 3d a8 84 2e 3c bd 18 0f be
       -0.10734892 0.113092735 0.010651745 -0.1397428
0003f0 2d 90 04 3d 5b c9 7f 3e b9 b4 10 3d 6a 15 86 bf
       0.03236406 0.24979155 0.0353286 -1.0475285

network.MLP.0.bias f4 [64]
000000 da 10 7c bb 93 5c be be ef 1b 6e bd bf bb 71 bc
       -0.0038462193 -0.37180004 -0.05813211 -0.014754235
000010 fc 45 d3 3e e4 71 59 3e f7 e1 b3 bd ac 57 c8 3c
       0.4126433 0.21234852 -0.08783334 0.024455868
000020 54 ed fc bd 04 65 cd bd fe 4a 62 be b4 6f 69 be
       -0.12349954 -0.10029033 -0.2209892 -0.22796518
000030 59 47 e9 bd 67 e3 8d 3d 4c 06 13 3f d2 a7 c5 3d
       -0.113905616 0.06928139 0.57431483 0.0965115
000040 8b ec a2 3d 49 b9 d3 bd e2 24 93 3e 05 c7 e0 3d
       0.07955273 -0.10338075 0.28739077 0.1097546
000050 3d d2 91 bf a2 50 39 3e e0 be d9 3e 8d 0c b0 bd
       -1.1392285 0.18097165 0.4252844 -0.08596144
000060 c6 af c1 3e 10 5c 94 be 2b af 73 bf d9 d2 14 3f
       0.37829417 -0.28976488 -0.9518916 0.5813423
000070 1e 47 4e 3f f5 7c f5 bd e4 90 e5 3e c2 74 87 be
       0.80577266 -0.11986724 0.44837105 -0.26456267
000080 f8 a1 89 bd be 43 84 be 2a df 3b 3f b5 99 22 bd
       -0.06720346 -0.25832933 0.73387396 -0.039697368
000090 4b 02 01 bf 50 8b b1 3e 4b aa 12 be db c7 40 3e
       -0.50394124 0.346766 -0.14322774 0.18826239
0000a0 c1 37 68 3e b9 46 59 be 33 4a 6e 3e ea fa 88 bd
       0.22677518 -0.21218385 0.23270492 -0.06688483
0000b0 9f 19 04 bf 99 c9 d1 3d 74 dd 17 bd b0 4e ad be
       -0.51601595 0.1024353 -0.03707643 -0.33849096
0000c0 86 44 ac be 01 b1 44 be 0a 8c 91 3e b2 e7 56 bb
       -0.3364603 -0.19208147 0.28427154 -0.003279191
0000d0 85 21 5f 3e dd 8b 80 bd de 9d c2 3a 13 29 d6 be
       0.2179013 -0.06276677 0.0014848073 -0.41828212
0000e0 f3 26 39 bf 7e 9c 05 be 9e 0b 5b 3f 70 22 5c 3e
       -0.72325057 -0.13047978 0.855646 0.21497512
0000f0 47 ba 23 bf b8 b5 a4 bd 21 bd f3 bd 2b 06 41 3f
       -0.6395611 -0.080424726 -0.11901308 0.75400037

network.MLP.2.weight f4 [64, 64]
000000 e7 be 98 3d 73 e2 c9 3d cc 3e 4f bd 82 9a b8 bd
       0.07458287 0.09857645 -0.050596997 -0.09013845
000010 72 34 85 3c 77 52 bc 3d 10 4b c1 bd 97 90 4b be
       0.01626036 0.091954164 -0.09438145 -0.19879375
000020 e8 dc dd bc 27 f5 8f be 77 7a 12 be 99 12 87 bd
       -0.027082875 -0.28116724 -0.14304529 -0.06595344
000030 a3 db 9b bd c7 b3 63 3d 3e 96 cd 3d 5a 81 dd bd
       -0.07610252 0.05559137 0.10038422 -0.108156875
000040 93 ca 14 3d 6a d5 3c be fc 90 02 3f 03 65 2d bd
       0.036326002 -0.18440786 0.5100248 -0.04233266
000050 b1 c1 13 bf 87 5b 4f 3d 63 8e 08 3f 58 01 16 be
       -0.57717425 0.050624397 0.53342265 -0.1464895
000060 53 69 d9 bc 7f e6 9c 3e bf b1 96 be 2f f6 f7 bc
       -0.02653948 0.30644605 -0.29432485 -0.030268757
000070 c8 0d 7b 3d 10 fb b8 bd 7e 5b b5 bd e4 2e c2 3d
       0.06129244 -0.09032261 -0.088553414 0.094816
000080 ec a7 e5 3d c7 f6 42 3e e3 b7 3d 3e 00 29 54 3e
       0.11213669 0.1903945 0.18527178 0.20718765
000090 13 59 3c be 7c cc d8 bc ff c7 63 bd 97 1f 09 3d
       -0.18393354 -0.026464693 -0.055610653 0.033477392
0000a0 d6 fe a5 3c 58 3d 4a bd e7 96 78 bc 88 39 c4 3c
       0.020263117 -0.04937491 -0.015172697 0.023953214
0000b0 8d 7c 7f 3e ea 9a d6 bd 1e 54 73 3d 94 90 33 3c
       0.24949856 -0.10478766 0.059406392 0.010959763
0000c0 77 37 21 bf 8e 08 8e 3d fe 53 53 3e 24 1c d8 bd
       -0.6297526 0.069352254 0.20637509 -0.105522424
0000d0 2c ae a5 bd 5a 5b d0 bd f6 33 86 3e 0a 2b 20 be
       -0.08089861 -0.10173674 0.26211518 -0.15641418
0000e0 12 4f b3 bd 9d c3 e8 3b 3a 1d 6b 3e 82 eb 0e 3e
       -0.08755316 0.007103397 0.22960368 0.13957027
0000f0 4d 42 a0 be 12 56 bd 3d 7b 35 42 be 17 08 bb 3d
       -0.31300583 0.09244932 -0.18965714 0.091324024
000100 f6 14 52 3d 11 e8 c1 be 38 f5 4e bd fc ed f0 bd
       0.05128952 -0.37872365 -0.050526828 -0.11764142
000110 0c 96 08 3e 73 cc 29 3c 0e c3 ab bd 36 53 ae 3d
       0.13338488 0.010363686 -0.08386813 0.08511965
000120 3c a8 38 3e b7 1a 16 3d 64 41 de 3d e3 c0 28 3e
       0.18032926 0.03664657 0.10852316 0.1647983
000130 71 da 2b be 9e cf 9e be 41 8b 49 bb 40 41 67 3e
       -0.16782548 -0.31017774 -0.0030753168 0.22583485
000140 9c dc 68 3e 30 2e 26 be d5 d5 9c be 0d 7b 0d 3e
       0.22740406 -0.16228557 -0.3063189 0.13816471
000150 e1 e9 3e 3e 47 08 12 be e3 ac cd 3e 19 06 69 3e
       0.18643905 -0.1426097 0.40170965 0.22756232
000160 c0 55 87 3d 00 d2 30 3e 3d 99 23 be 26 08 5b bd
       0.066081524 0.17267609 -0.15976425 -0.053474568
000170 25 46 a1 bd 54 b3 4d bd 90 f5 e7 be 05 0e 6a 3e
       -0.07874707 -0.05021985 -0.45304537 0.2285691
000180 8c de a7 3d 2c 8a b9 3c f0 ec a9 bd e6 ad 76 3c
       0.08196744 0.022648893 -0.08297145 0.015056109
000190 cd da 7e bd 35 2e d7 3e 50 a4 b7 3e 37 fb ca bd
       -0.062220383 0.4202744 0.35867548 -0.09911197
0001a0 fe 59 78 bc fa 1e 83 3d cd c9 04 3f e0 be 2d 3c
       -0.015158175 0.06402393 0.51870424 0.01060459
0001b0 d2 4b 89 bd 46 75 43 3e a0 5e f8 bc 8e 7d d3 be
       -0.06703915 0.19087705 -0.030318558 -0.41306728
0001c0 5c 3f c9 3d 28 bc 85 be 32 50 90 3d ac d6 bc bd
       0.09826538 -0.26120114 0.07046546 -0.09220633
0001d0 47 ad 13 be bd 8a ee bd 21 ab a0 3d 1a 2b 29 3d
       -0.14421569 -0.11647556 0.0784514 0.04130087
0001e0 a7 cb 00 be 4e d7 3b 3e a5 5f ef 3c 6b c7 9e 3e
       -0.12577687 0.18343851 0.029220412 0.3101152
0001f0 1d 1e d5 bd 00 3b cd 3d 59 30 6d bd c3 2c 3c be
       -0.10406134 0.10021019 -0.057907436 -0.1837645
000200 46 5c a9 bc 68 cf b0 bd 00 b6 2e ba 62 97 bd bd
       -0.020673882 -0.086333096 -0.00066646934 -0.092573896
000210 dd e2 de bc 0f 24 e7 bd 38 8e 52 3d 60 10 bc 3d
       -0.027207786 -0.112861745 0.05140516 0.09182811
000220 59 62 c5 3e e6 51 a2 bc 07 bb 08 bf 5b d9 8e be
       0.38551596 -0.019814443 -0.5341038 -0.27900204
000230 a3 12 6b be 43 d8 e1 3e c1 e3 02 be bf 3b 0e bf
       -0.22956328 0.44110307 -0.12782194 -0.55559915
000240 14 a6 c3 3c 0b ad b8 3e c0 ff b2 3e ea 1d 30 be
       0.023882903 0.3606952 0.34960747 -0.17198911
000250 de 51 97 bd 06 c4 db 3d 41 97 cc bd ea dd d7 be
       -0.07388662 0.10730748 -0.09989787 -0.42161494
000260 35 cd 66 3d d0 08 e6 3d f0 1e 76 3d f2 43 c0 3d
       0.056348044 0.112321496 0.060088098 0.093879595
000270 3c f6 11 3d c0 a1 b7 bc 0a f8 21 bd 73 d2 e4 bd
       0.035635218 -0.022415996 -0.03954319 -0.111729525
000280 80 eb 73 3d bd e9 4e be cf eb 47 3e 0a 82 74 bc
       0.059550762 -0.20206352 0.19523548 -0.014923582
000290 ed a5 14 be 8d 35 98 be e3 1f e8 3e 1c 76 a8 bb
       -0.1451642 -0.29728356 0.45336828 -0.005141033
0002a0 9a f7 27 3d 4c fd 25 bd 1a 11 f9 3e d8 2e db bd
       0.041007616 -0.040524766 0.4864586 -0.10702294
0002b0 72 bb 63 bd 92 63 62 3e 7a 8a 6f 3e c4 8c 8f 3e
       -0.055598684 0.22108296 0.23392668 0.28037083
0002c0 cd 22 43 3e e2 86 42 3e 97 8d 21 3e 93 85 10 3d
       0.19056244 0.18996766 0.15776668 0.035283636
0002d0 f0 75 b3 3d fa 9c 28 3e 63 89 ee bd fa a4 64 3e
       0.08762729 0.16466132 -0.11647298 0.22328559
0002e0 b3 be 16 bc 32 68 17 3e 95 fc be be a7 08 57 be
       -0.00920074 0.14785841 -0.3730208 -0.20999394
0002f0 e6 6d 63 3d a0 2e 35 bc 60 a5 3b 3d 03 f9 83 3e
       0.05552473 -0.01105848 0.04581201 0.25775918
000300 76 b4 4f 3d d4 da ae 3d 12 20 9e 3d 90 a4 d7 3c
       0.05070921 0.08537832 0.07720961 0.026323587
000310 1b 26 3b 3e 3a ff df bb d8 28 e9 bd db 55 e4 bd
       0.18276255 -0.0068358453 -0.113847435 -0.11149188
000320 cb ef d0 bd f0 5d 67 be 84 3f 2b 3c 98 4e de bd
       -0.10201987 -0.22594428 0.010452155 -0.10854834
000330 1a e3 bb 3d 3e f5 63 be 3c cc 6a 3e fb 8c 20 be
       0.091741756 -0.22261521 0.22929472 -0.1567878
000340 f5 e0 5d 3e 0f f5 75 be f6 d9 56 be ed da 85 3e
       0.21667846 -0.24019264 -0.20981583 0.2614359
000350 33 2d 29 3f 15 5d ca be c4 9f 9b bf ed ce f8 bd
       0.66084594 -0.3952414 -1.2158132 -0.12148843
000360 c9 26 66 be 41 08 7b be 05 bf 88 3f bc 20 24 bf
       -0.22475733 -0.24514867 1.0683295 -0.6411245
000370 b4 59 5e bd 60 1c f2 bb df 30 9d 3e d6 da 03 be
       -0.054284766 -0.0073886365 0.30701348 -0.12876448
000380 e8 57 37 3d bb f0 1f 3b 58 7c 1a bf d5 4c 9a bc
       0.04476157 0.002440496 -0.60345984 -0.018835464
000390 db 23 d0 bd 4d 21 87 be ea bf 9c bd 52 3d d9 3e
       -0.10163089 -0.26392594 -0.07653792 0.42429596
0003a0 7c 43 4e 3d 6c 7e 0e 3d e6 e6 71 bd 28 66 2f 3d
       0.050357327 0.034788534 -0.059058093 0.042822033
0003b0 ad ab 18 3e 0d b9 92 3d 24 8e 56 be 58 90 18 be
       0.14909239 0.07164202 -0.2095266 -0.14898813
0003c0 56 42 10 be 24 02 94 be 0c 77 24 be a4 6e 9f bd
       -0.14087805 -0.28907883 -0.16061038 -0.07784775
0003d0 7b a2 e7 bf db 0c 16 be 83 26 ec bf ed a0 1a 3e
       -1.809646 -0.14653341 -1.8449253 0.15100451
0003e0 39 9f 2f 3f aa cb 6e bd aa 12 05 3f c7 94 ac 3d
       0.6860233 -0.058299698 0.51981604 0.084268145
0003f0 04 c8 a9 3f ae 1e ab bd 22 8c b2 3d 82 1a 26 bf
       1.3264165 -0.08355461 0.087181345 -0.648842

network.MLP.2.bias f4 [64]
000000 61 d4 ea 3e a4 69 11 be 64 0e 48 be cf fd 07 bf
       0.45865157 -0.14200455 -0.1953674 -0.53121656
000010 13 57 bd be 25 8c db 3d d0 ed 6b bd 13 1e 82 3d
       -0.36980495 0.1072009 -0.057599843 0.063533925
000020 7a 37 0e be 7c df 25 3e ac 6a 03 3e cb 53 ac 3f
       -0.1388835 0.16198534 0.12833661 1.3463072
000030 5f eb 91 3e 8d c5 0c 3e ae eb de 3d da dd 1d bd
       0.28499886 0.13747235 0.10884796 -0.038541652
000040 1b 65 11 bd 6f 1c d9 3d 16 76 ff 3e ad c7 bd bd
       -0.035496812 0.106011264 0.4989478 -0.09266601
000050 17 40 b8 3c 48 a5 0d be 48 6d a7 3d 51 dd 24 bf
       0.022491498 -0.13832581 0.081751406 -0.644002
000060 bd c4 76 3e 0f 8f 1b 3d 2a 5c 4f be 89 11 ea bd
       0.24098487 0.03797823 -0.20250002 -0.11429126
000070 e1 bb f6 bd c0 67 bc be b4 02 0e bf 1f b1 25 be
       -0.12047554 -0.36797905 -0.55472875 -0.16180848
000080 f2 20 87 bf 35 b0 22 bf 9a d5 20 3d 01 89 47 bc
       -1.0556929 -0.6355012 0.039266206 -0.01217866
000090 c5 d3 a3 3e 4f 81 95 bd d8 c2 8b bd 3d 67 66 bd
       0.31997505 -0.07300054 -0.06824273 -0.0562508
0000a0 b9 4c e7 bc ef 43 12 3f 99 21 e9 3d 11 5f bb 3e
       -0.028234826 0.5713491 0.11383361 0.36595967
0000b0 8c 70 a9 be 6f 37 d4 3d f6 ef e6 3c 7b 00 f5 3e
       -0.3309368 0.103621356 0.028190594 0.4785193
0000c0 25 d8 23 3d fa 5b b7 3e 8b ae 12 3e 80 a5 eb be
       0.040001053 0.3581236 0.14324395 -0.46024704
0000d0 d3 c1 57 3d 50 05 d3 bd 94 ac fa be 4d 44 b2 be
       0.05267508 -0.10303748 -0.48959792 -0.34817734
0000e0 59 af e1 3c d1 09 02 3b 50 5f cb bd a5 74 48 be
       0.027549433 0.0019842277 -0.09930289 -0.19575746
0000f0 e2 a9 12 3c bf ad ad 3e 4d 4c 9d bf 13 9a 5d 3e
       0.008951636 0.3392162 -1.228891 0.21640806

network.MLP.3.weight f4 [64]
000000 7e 09 39 3f 78 ca c1 3f 3c 0a b9 3f 97 93 0c 3f
       0.7228011 1.5139914 1.4456248 0.54912704
000010 3d a1 6a 3f ce aa 74 3f f4 8c ba 3f 1a 02 be 3f
       0.9165228 0.9557313 1.4574265 1.4844391
000020 ad 55 dd 3f 6a 9b bc 3f b3 38 c5 3f 88 af 2f 3f
       1.7291771 1.4734929 1.5407928 0.68627214
000030 2f 0f 51 3f 49 e3 b8 3f 5f 97 d9 3f ef 1f c8 3f
       0.81663793 1.4444362 1.699932 1.5634745
000040 f5 2f e4 3f bf 42 92 3f 4e c4 59 3f 33 d4 d7 3f
       1.7827135 1.1426619 0.8506516 1.6861633
000050 0f fc 9a 3f 73 c2 f9 3f 97 fd 69 3f f6 13 21 3f
       1.2108172 1.9512466 0.9140257 0.6292108
000060 01 94 a4 3f d0 f9 98 3f d8 3c c1 3f e4 b2 e4 3f
       1.2857667 1.1951237 1.5096693 1.7867093
000070 b4 e5 d0 3f 58 2c 37 3f c7 8c 10 3f f3 62 de 3f
       1.63201 0.7155204 0.5646481 1.7373947
000080 3a 76 8d 3e a3 eb 3d 3f 2a 74 ad 3f 87 87 b1 3f
       0.27629262 0.7418768 1.3551075 1.3869485
000090 e5 8f 69 3f bb 8c d3 3f 1f ac 8c 3f 42 c8 a2 3f
       0.9123519 1.6527323 1.0990027 1.2717364
0000a0 1a d3 b7 3f e5 44 3f 3f 10 43 a1 3f 9e 77 6d 3f
       1.4361298 0.747145 1.2598591 0.92760646
0000b0 8c 96 a2 3f 14 45 d8 3f bc e1 9c 3f 03 08 26 3f
       1.2702193 1.6896081 1.2256389 0.64855975
0000c0 f5 d2 dc 3f e7 42 5b 3f 32 3f 65 3f 4e 98 24 3f
       1.7251879 0.8564896 0.89549553 0.642949
0000d0 4f d9 db 3f 1f 33 a0 3f 17 17 34 3f 01 bc 6c 3f
       1.7175692 1.2515601 0.7034773 0.9247437
0000e0 28 b2 a6 3f d0 95 98 3f 8b ac b0 3f dd 18 b9 3f
       1.3023119 1.1920719 1.3802656 1.4460713
0000f0 14 05 a1 3f ad 0f 93 3f 8c 05 17 3f ad 2d 5c 3f
       1.2579675 1.1489159 0.5899284 0.86007196

network.MLP.3.bias f4 [64]
000000 69 85 14 3e 98 a9 07 be cb 84 54 bd 61 82 d7 3d
       0.14504017 -0.13248289 -0.051884454 0.10522915
000010 77 ec 95 3e 6d a7 2e be 58 24 2f 3e cc 41 42 bd
       0.2928197 -0.17056055 0.17103708 -0.04742603
000020 c8 47 d2 3d 47 03 b4 3b a4 49 89 bd 7d c1 c8 bd
       0.102675974 0.0054935548 -0.06703499 -0.0980253
000030 c7 2b 0c be f1 60 b8 3d 54 9f c0 3a 1c b5 ac bc
       -0.13688575 0.09002865 0.0014695921 -0.021082453
000040 f9 ea a6 bd 28 41 31 be 62 bb 43 3e 8c c2 a8 bd
       -0.08150286 -0.17310011 0.1911445 -0.08240232
000050 17 9d d5 3d b0 e5 fb bc ec 2a 1e be aa b0 32 3b
       0.10430353 -0.030749172 -0.15446061 0.0027265945
000060 76 61 de bd d9 f5 47 3e 88 2c d2 3d 23 4c 14 3e
       -0.10858433 0.19527377 0.102624 0.14482169
000070 b6 81 24 3e b0 22 29 be e4 37 92 3e 93 19 88 bd
       0.16065106 -0.16517138 0.28558266 -0.06645503
000080 dc 31 ae 3e f4 d3 f3 bd ab c8 86 b9 0b 83 14 3e
       0.34022415 -0.11905661 -0.0002570798 0.14503114
000090 75 2d 58 be d7 d5 64 3c d1 c0 c0 bd 94 ba 39 3e
       -0.2111109 0.013966999 -0.09411777 0.1813758
0000a0 b0 9c eb bd ef e3 2b 3e 17 de c0 3d c3 6d 15 bd
       -0.11504495 0.16786169 0.0941736 -0.03648163
0000b0 a6 07 54 3d 98 54 8d bd eb 7a 90 3e b7 3d 8b 3d
       0.051765107 -0.069009006 0.2821878 0.067988805
0000c0 31 d6 e1 bc d1 ca 1c 3e 8e fe 99 bd 25 b7 8a 3e
       -0.027567955 0.15311743 -0.075192556 0.27092853
0000d0 03 17 94 3d e5 da 7e be 4e d4 21 3e d1 be 55 3e
       0.07230952 -0.24888189 0.15803644 0.20873572
0000e0 f7 28 03 3e 32 e4 d9 3c 7c 0f 7b bd 10 db 94 3d
       0.12808596 0.02659807 -0.061294064 0.07268345
0000f0 8a 3c 56 3e 50 27 50 bd bf f0 4b 3e 60 e6 1d be
       0.20921531 -0.05081874 0.19916056 -0.15419912

critic.0.weight f4 [1, 64]
000000 d6 c4 31 3e 07 4c 12 3c 33 ed 18 bd 6b f0 7d bd
       0.17360243 0.008929259 -0.037335586 -0.06199686
000010 b1 07 7d 3d f1 0e 12 3c fa cb c6 3c f0 62 91 bb
       0.061774913 0.008914695 0.024267185 -0.004436843
000020 1a 95 06 3d 4c 6b 1d 3d b2 66 54 3d 1d 56 59 3e
       0.032857038 0.038432404 0.05185575 0.21224256
000030 88 d9 dc 3b 04 cc b1 3d 75 9d 07 3d 31 cb 51 bc
       0.006739799 0.08681491 0.033109147 -0.012804792
000040 9c 18 29 3c 3b 4c 0e 3c 4e ee 99 3e d0 31 65 3c
       0.010320809 0.008685167 0.30064625 0.013988927
000050 63 78 47 3d 3d e3 30 bd d5 26 df 3c 0d 95 d1 bd
       0.048698794 -0.04318546 0.027240196 -0.10233507
000060 86 b9 29 3d 84 2c da 3d df 75 07 3c 1f 3a 1f 3d
       0.041436695 0.10653022 0.008267849 0.038873788
000070 23 26 94 3c dd e0 4c be 8d 9d 69 3d 2a f6 c2 3c
       0.018084591 -0.20007654 0.057035018 0.02379902
000080 b1 61 7d 3c 08 e6 65 be cc 40 ab 3c 05 e9 1a 3c
       0.015465186 -0.22451031 0.020904921 0.00945497
000090 56 1d c6 3a 0b b6 73 3d 60 19 88 3c f8 f5 2e 3d
       0.0015114944 0.05949978 0.016613662 0.042715043
0000a0 5f 72 e0 3c 1b 61 2e 3e 7a ad 5c 3d 70 56 c7 3c
       0.027398286 0.1702923 0.053876378 0.024333209
0000b0 00 ee 11 bc f8 c7 2c 3b 11 26 91 3d c5 b5 33 3e
       -0.008906841 0.0026364308 0.07087339 0.17549808
0000c0 38 13 52 3c 86 78 3a 3e df f4 c5 bc 09 fb 47 3d
       0.012821965 0.18210039 -0.024164615 0.04882339
0000d0 98 aa 37 3d 00 37 50 bd a5 2b 84 3c 92 90 75 3d
       0.044840425 -0.050833702 0.016134093 0.059952326
0000e0 d7 ee fd 3c 8e ce f6 3c 65 6b 8d bc 74 0d e8 3c
       0.030997677 0.03012779 -0.017263124 0.028326727
0000f0 1d c7 2e 3d f0 4c b1 3c 07 83 38 be 12 a8 d0 ba
       0.042670358 0.021643132 -0.18018733 -0.001591923

actor.0.weight f4 [22, 64]
000000 ac fb 1f 3d 9a 59 eb 3d c3 3d c6 3d fa e5 9a 3c
       0.039058372 0.114916995 0.09679749 0.01890849
000010 3f 68 8d bd e0 02 e8 3e 8a 08 89 be fa 35 f6 3d
       -0.06904649 0.45314693 -0.26764327 0.12022014
000020 56 43 f3 be c4 69 ab bd 9f c1 06 3f 9c 38 57 bc
       -0.4751231 -0.083697826 0.5263919 -0.013136055
000030 f4 27 b7 bc b6 49 0d 3f 44 81 37 3e 19 f6 92 3e
       -0.022357918 0.551906 0.17920405 0.28703383
000040 16 99 47 3e bb f4 aa 3e 6b 04 53 3d 4d f3 20 bf
       0.19491991 0.3338984 0.051517885 -0.6287125
000050 d6 10 1f bf 34 dd ba 3d 0d 26 b3 be e0 f9 aa bc
       -0.62135065 0.091242224 -0.34989968 -0.020871103
000060 6e 5a f8 3d 1c 39 b0 3e 56 cf 0c 3e 66 9d 61 3e
       0.12126623 0.3441857 0.13750967 0.22032699
000070 64 75 15 bd 46 2a 29 bd 54 d1 33 be f1 c2 6a 3e
       -0.036488906 -0.04130008 -0.17560321 0.22925927
000080 4a a0 bd bd 88 80 b7 bd ef f0 88 3d 49 26 d1 bd
       -0.09259088 -0.08960062 0.066865794 -0.102123804
000090 54 28 3f 3e fa 39 d8 3e ed 82 6d 3e b4 c3 53 3e
       0.18667728 0.42231733 0.23194475 0.20680124
0000a0 d3 d3 97 be 3a 76 dd 3d bd ae bc be 13 45 2f be
       -0.29653797 0.108135656 -0.36852065 -0.17116193
0000b0 20 f4 b2 be b9 3c 96 3e 84 b8 97 bc 76 12 a0 3d
       -0.34951878 0.29343203 -0.018520601 0.07816021
0000c0 c9 90 5a bf 65 cf ae 3e d2 82 e8 3c be b2 1c be
       -0.85377175 0.34142604 0.028382692 -0.1530256
0000d0 f9 1c f6 be 84 79 b2 be 95 2b a0 bd 10 2e ce bd
       -0.4806898 -0.34858334 -0.078208126 -0.100673795
0000e0 83 33 51 be ad f7 79 3e 08 be 3b be 77 1f c1 be
       -0.20429806 0.24410887 -0.1833421 -0.37719318
0000f0 aa a7 64 be b9 80 65 be 1d 2c c2 3c af 96 9c 3e
       -0.22329584 -0.22412385 0.023702675 0.30583712
000100 d3 c6 e4 3a 2e ba fe 3d 1d f4 06 be 30 17 66 bd
       0.0017454274 0.12437855 -0.1317906 -0.056174457
000110 30 1c 15 bd 7b c5 5f 3e a9 db db be 24 af f6 3e
       -0.036403835 0.21852677 -0.42941025 0.48180497
000120 9b 69 20 be 69 52 90 3e 93 29 95 3e 5c c9 ac 3c
       -0.15665285 0.28187874 0.2913328 0.02109211
000130 68 70 2f 3e 22 b2 b1 3e 30 62 1d bf c0 dd c4 be
       0.17132723 0.34706217 -0.6147795 -0.38450432
000140 44 91 8e 3e f5 55 1f be 82 9b d7 3d e7 cc 38 3e
       0.27845204 -0.15560134 0.10527708 0.18046914
000150 35 b9 1d 3d c1 73 6e 3d 9c 8b 14 be 6c 08 00 be
       0.038506705 0.05821586 -0.14506382 -0.12503213
000160 dc eb a3 3e 7a 25 8f 3e 9f c9 42 3e 8e 8d 62 be
       0.32015884 0.2795828 0.19022225 -0.22124311
000170 d5 92 1a bf d2 72 5d be 99 99 01 be 7f d4 37 bf
       -0.603803 -0.21625832 -0.12656249 -0.7180862
000180 d6 fc 15 be f8 84 05 bd 52 d3 c7 3e ff 99 b8 be
       -0.1464723 -0.032597512 0.39028412 -0.3605499
000190 51 93 f8 bc 36 d6 c2 3c a5 c8 e3 bd c0 31 4a 3e
       -0.030343683 0.023783784 -0.11122254 0.1974554
0001a0 db dd 01 3e d2 1c 66 3e 5a 1b 3e bd 07 e8 b8 bd
       0.12682287 0.22471932 -0.046412803 -0.09028631
0001b0 a1 38 a3 be b1 a6 0e be 72 27 aa bc 90 7b f8 bb
       -0.31879142 -0.13930775 -0.020770762 -0.007583089
0001c0 52 1f 20 3e c1 5f 8d 3e 91 2b 14 be fa 9a 3e be
       0.15636948 0.27612117 -0.14469744 -0.18613806
0001d0 83 2b c9 3c 99 18 a7 bd a8 3d a3 3d d1 52 5b 3d
       0.02455688 -0.081589885 0.07970744 0.053545777
0001e0 d9 83 cb bd 0c e2 c1 bc a2 bc 10 bd 88 f0 08 bd
       -0.09937257 -0.023667358 -0.035336144 -0.033432513
0001f0 af 3b 6c 3e 56 39 a1 3e 3f 3e a2 3c 2b 3b 9f 3d
       0.23069642 0.31489056 0.019805072 0.07774957
000200 9d 50 6d 3e bc 9d 03 bd 78 84 96 3c 32 3f ce 3d
       0.23175283 -0.03213285 0.018373713 0.10070647
000210 92 7d 4f be f7 b7 66 3d e2 bd 10 be a3 10 3e be
       -0.20262745 0.056327786 -0.14134935 -0.18561034
000220 65 c4 55 3d 41 09 96 3e 71 51 df be 49 03 5a 3c
       0.05218925 0.29303935 -0.43616822 0.013306447
000230 5f 98 94 3e 3d 67 6b 3e 61 b2 86 be 9e 98 f2 3d
       0.290225 0.22988601 -0.26307967 0.11845516
000240 bf 5f 59 be f3 30 ed bd 4e ee 0a bd 2b 40 b0 be
       -0.2122793 -0.11581602 -0.03391867 -0.34423956
000250 5a 6e 5c be 78 9a c5 be 09 82 d6 3c 22 82 23 bc
       -0.21526471 -0.38594413 0.026185052 -0.009979757
000260 e4 7f 07 3f ca e9 6c be 85 9c e2 bc e3 9b 33 be
       0.5292952 -0.23136058 -0.027662525 -0.17539935
000270 19 84 29 3e 2f 7a b9 3d af c1 9b be 27 01 5e be
       0.16554298 0.09056508 -0.30421206 -0.21680127
000280 68 58 e7 bd 7e 94 43 bc f3 46 96 3e b9 a4 fb 3e
       -0.11296159 -0.011937259 0.29351005 0.4914911
000290 5e 0b 6f 3e 8a 19 c6 bd c2 a1 27 be 95 b8 e7 3e
       0.2334418 -0.0967284 -0.163703 0.45258012
0002a0 c0 e5 6d 3e cc 5f 4e 3e 7b 98 91 be e1 c3 82 3e
       0.23232174 0.20153731 -0.28436646 0.2554007
0002b0 bd e5 80 be 99 cd 8a be c8 7a 14 3d 49 f7 02 be
       -0.25175276 -0.27109984 0.036249906 -0.12789644
0002c0 c2 83 bd 3e 7a 30 08 3e 0b 4d 47 3e 54 8f 1b be
       0.37014586 0.13299742 0.19462983 -0.15191394
0002d0 45 01 f5 bc 55 ef cf 3d 34 3d 4b 3e ce 02 af be
       -0.029907832 0.10153071 0.19847566 -0.34181827
0002e0 f5 56 80 be 5e d4 8c 3e e5 94 1c bf b1 78 ea 3d
       -0.25066343 0.27505773 -0.61164695 0.11448801
0002f0 63 58 d8 3e e7 9e 68 3e 9a ed 17 bd c2 59 45 bc
       0.42254934 0.22716866 -0.03709183 -0.012045326
000300 70 03 e0 bb a3 1d b8 bc 8f 54 ec 3e 3a d6 96 3c
       -0.0068363473 -0.02247507 0.46158263 0.018412698
000310 b4 ca 95 3e b0 bd c8 bd c4 77 10 be fd c4 90 3e
       0.29256213 -0.09801805 -0.14108187 0.2827529
000320 d8 d5 f5 be b4 15 2b be fa 8c 79 bd 05 ab 0d 3d
       -0.48014712 -0.16707498 -0.06092546 0.034586925
000330 fd 0a bc bd c5 94 4d 3e b7 fa 5f be 51 4a 53 be
       -0.09181783 0.20076282 -0.21872984 -0.20633818
000340 76 7f 03 3f 78 bc 81 be 3c d7 72 3d fd 8e 95 bb
       0.51366365 -0.25339103 0.059287295 -0.0045641647
000350 29 4f 6a 3e 73 d1 39 3e d6 dd a1 bd a1 85 dd bd
       0.2288176 0.18146305 -0.0790364 -0.10816503
000360 06 7e 47 bd b8 2d b3 3d 82 0b 00 3e 06 56 76 be
       -0.04870417 0.087489545 0.1250439 -0.24056253
000370 66 46 9b be 51 f8 b3 bd 49 ec 3a 3e e8 a9 90 be
       -0.30327147 -0.08787597 0.18254198 -0.28254628
000380 8d 99 1b 3e 1f 0f 9f bd e3 f4 71 bd c6 74 90 bb
       0.15195294 -0.07766556 -0.059071433 -0.0044084517
000390 44 14 86 be 9f c3 27 bf d6 6b 99 be 5e ca b4 bd
       -0.26187336 -0.6553287 -0.29965085 -0.08827661
0003a0 ae 02 30 bf 02 8b c1 3b 8d e1 31 3e 66 52 15 3d
       -0.6875409 0.0059064636 0.17371197 0.036455534
0003b0 13 19 72 bd 21 43 8e be ff 54 51 3e 2d ca d3 3d
       -0.059105944 -0.2778559 0.2044258 0.10341296
0003c0 82 10 b6 3c 48 4a 95 bc d9 31 c6 bd 55 9a be 3e
       0.022224668 -0.018223897 -0.096774764 0.3722712
0003d0 e4 b9 1a 3e 16 fd 0d 3d 0f c9 56 3e 97 f6 2f 3e
       0.15109974 0.03466519 0.20975135 0.1718391
0003e0 ea 7f ba 3d 31 a3 f3 3d 28 0b bf 3e 71 a0 85 be
       0.09106429 0.11896361 0.373132 -0.2609897
0003f0 18 85 d1 3d 4a eb 90 3e f5 f6 16 bd 21 a8 b8 3d
       0.10230464 0.2830451 -0.03685661 0.09016443

actor.0.bias f4 [22]
000000 7f ef 6b bc 98 00 ad bb 0b 84 e4 ba 6e 9c 23 3d
       -0.014400362 -0.005279612 -0.0017434371 0.039944105
000010 cd ec 7d 3d db 2c f8 3b 0a bd 89 bd e8 d7 39 3d
       0.06199341 0.0075737066 -0.067255095 0.04537192
000020 08 21 2c 3d f5 f4 9c bc ba dd 29 3d 65 22 e4 3d
       0.04202369 -0.019159773 0.04147122 0.11139373
000030 fd 5a ee 3a 4d bf 83 bd 3f e5 9f 3d 64 62 c4 bc
       0.0018185076 -0.06432972 0.07807397 -0.023972698
000040 cd 20 16 bd aa cc 30 bd c1 6e 1e 3d 7e 32 98 3d
       -0.036652375 -0.043163933 0.038679842 0.074315056
000050 47 4b 71 bd 15 0b a2 bb
       -0.05890968 -0.0049451687
