paper/training_results/seed-5/momarl/checkpoints/mlp_(negotiation=False)_(num_agents=12)_(window=False)_(reduced_space=False)_(fixed_savings_rate=False)_(rewards=['inverse_global_temperature', 'global_economic_output'])(wgen=uniform)(num_ensembles=1)(seed=5)_2025-01-16_22:23:28_w=[0.8079 0.1921].pt (torch, 38168 bytes, 9 tensors)

network.MLP.0.weight f4 [64, 18]
00000000: f50e a63c 6f99 53bf 4b0d ec3c b280 e8bc
00000010: fe03 c23d 2948 bebe cc6a c53d 0bc4 a13d
00000020: f0cd edbe fac2 473e 706a 07be 230e 953e
00000030: 1bfd 6abe e658 3ebd fa32 b03e e7c9 2e3e
00000040: 081d e03e 6bf2 0d3f 207d 9dbe 2119 1ebe
00000050: 28dc 843d 7e6e a7be 62df a1bf 15f7 d03e
00000060: c9e1 633e 2230 88be fb43 913c f225 1ebe
00000070: 91e3 00bf 93c7 93be 3b31 50bf 31ea d3be
00000080: 61d0 07bd 056c 873d 7c53 643e ca77 25be
00000090: c0d0 d83d fddb 3abe 70c8 4ebd 6080 d73d
000000a0: 4441 333e e200 133e 1779 fe3d 0160 79bd
000000b0: a3e7 1b3b 0f56 7e3d ea86 7f3d 4774 4ebe
000000c0: d1f4 373e 609d c0be 6891 2c3d ec05 e03d
000000d0: bdb9 62bd 8ffc 2ebe 1241 8d3d c9b6 bcbc
000000e0: 5ddd 923b 9932 f5be f3f8 b7be fc14 9a3e
000000f0: 098f f8bd cfdf 4cbe eb77 03be b380 353d
00000100: d0c8 b1be 0785 9a3e 39f0 af3c 60ed 923e
00000110: 4f84 4a3e 73d4 b0be b2bd ba3e 89d7 2fbe
00000120: 0889 21bc 5de1 c83e dd42 8c3b 6f54 093e
00000130: edfb 7ec0 66d8 f13e 4063 b2bd 2b36 d13c
00000140: e224 b1bd 59f5 5cbd d81a debc 75a0 76bd
00000150: 304c ddbc 3026 dbbd 5e1f 84bd efe9 74bd
00000160: 5a79 733b eca0 dabc 2d1d 16be c954 30bd
00000170: b591 ebbd 70a3 d43b 18ab 32be b157 71bd
00000180: 0f1c b2bd 005c 05bd 66a4 3d3e c543 1e3e
00000190: 95c6 9bbd 9648 5dbe 22a4 2cbe b52a 39be
000001a0: 8234 b7bc 925e d6bd 6bac 28be 4d0e 563d
000001b0: a78e 293e 11a6 1cbf bf0d bdbe 10c3 593e
000001c0: 9729 e8c0 59bb 533f 07e7 71bc 3ff2 833d
000001d0: f888 7e3d 5c4b c93c 9921 0f3d beb8 1a3a
000001e0: dadb 4e3d a914 c6bd 381d f83d fd59 203e
000001f0: 39ea 173c 970e 0b3e 141e 043e 6bcb 513e
00000200: e6c7 65bd 6194 c3be 4a6e 9e3d d06d 7fbf
00000210: d66e c6be 56d5 38be dc67 35be de18 103e
00000220: 7d6c 3cba 03fc 543e ffc9 623e 577e 153c
00000230: bc6e a4bd 9dd0 733d b8cd b33d 4a47 9f3d
00000240: e207 383d 3b30 13bc 62bd 87bd 293c 88be
00000250: fce4 fc3e b49f 2bbe e1db 3dbf 2a54 0b3f
00000260: e678 103f 3b85 cd3e 3246 d8be 1f54 45bf
00000270: 768f 35be ddea 9abe 91fb ce3e 3016 9f3e
00000280: e87d d73e 4a47 373e 779f 09bc 1d02 a53d
00000290: 844e 6f3d e57c cfbd 895b 5f3e 3213 a4be
000002a0: 2c1d 513e f686 b33d 604a 9bbc 1514 ea3e
000002b0: 937e 103e d6df 493d 18a1 833d 479e 90be
000002c0: d217 b3bd 5485 41bf 953d bf3b a2c1 0c3e
000002d0: 8ff9 b2be 9277 8abf edc7 2e3c 9f58 f63d
000002e0: 8413 e9be 49ae af3e 6141 5b3d 587c ae3e
000002f0: 92c2 edbd ef03 a43c 2e40 663c a574 523e
00000300: 678e 4b3e fde1 aa3e a805 1fbd 01e6 f5bc
00000310: d606 e53d 2881 09be 315f b3bd ddce 53be
00000320: 4338 13be 27c6 043c 23b5 24be 4b5b 863d
00000330: 87b7 173e c8b2 28bb 593e fd3d 5312 293e
00000340: 6418 1a3e a2dd 65be f9c0 5a3e d047 7f3d
00000350: 5945 6fbe e13c 703d 5c33 26be 3868 5f3e
00000360: 5db9 f43d 070b c7bd 4825 b2bd e5f5 b3be
00000370: fb5f 82be 4028 653e e02b 1a3d ded5 803e
00000380: db90 6cbc ea0a 433e 0c05 c73e b82c 7b3d
00000390: 52d4 6cbd cd55 833e 3c08 f0be 34bb 163e
000003a0: c95c 8cbd c3bf cf3e cf94 4abe aa24 b4bd
000003b0: bdc0 3fbe b9c9 5d3e a8ba a4bd 6e2a 113e
000003c0: 2d91 033e 9737 b23c cc4e 3c3d 7a02 1d3e
000003d0: 9bef f3bc e90a fe3d e477 00bd cc0a 733b
000003e0: 1e02 a53d 31c2 59be b1d5 e5bd bea3 40be
000003f0: a7c9 84be ce41 cdbe 6492 f83b 8315 53bf
0.020270804 -0.82655996 0.028814932 -0.02838168 0.09473418 -0.3716443 0.096395105 0.0789872
-0.4644618 0.19507971 -0.13224196 0.29112348 -0.22948115 -0.0464715 0.34413892 0.17069207
0.4377215 0.55448025 -0.30759525 -0.15439273 0.06487304 -0.32701486 -1.2646296 0.4081351
0.22254099 -0.26599222 0.01773261 -0.15444162 -0.5034724 -0.288632 -0.8132512 -0.4138961
-0.03315771 0.066124 0.22297472 -0.16158977 0.10586691 -0.18247981 -0.05048412 0.105225325
0.17505366 0.14355806 0.1242544 -0.060882572 0.002378919 0.06209379 0.062384523 -0.20161544
0.17964484 -0.37620068 0.042130858 0.109386295 -0.055352915 -0.17088531 0.06897177 -0.023036378
0.004481955 -0.47890165 -0.3593212 0.30094135 -0.12136657 -0.20007251 -0.12838714 0.04431219
-0.3472352 0.30179617 0.021476852 0.28696728 0.19777034 -0.34537086 0.3647285 -0.17172064
-0.009859331 0.3923444 0.0042804317 0.13411115 -3.9841263 0.4723541 -0.08710337 0.025538525
-0.08649613 -0.05394492 -0.02711241 -0.060211617 -0.027013868 -0.10700643 -0.06451295 -0.05979341
0.0037151189 -0.026688062 -0.14659567 -0.043049607 -0.11502401 0.00648921 -0.1744808 -0.05892152
-0.08696758 -0.03255844 0.18519744 0.1545554 -0.07606236 -0.2160972 -0.16859487 -0.18082698
-0.022363905 -0.104672566 -0.16472022 0.052259732 0.16558324 -0.611909 -0.3692455 0.21265817
-7.255077 0.82707745 -0.014764554 0.06442689 0.062142342 0.024572067 0.03494415 0.00059021625
0.050502636 -0.09671909 0.12114948 0.15659328 0.009272152 0.13579784 0.12902099 0.20487754
-0.05609884 -0.38199142 0.0773588 -0.99776936 -0.38756436 -0.18050131 -0.177154 0.14071986
-0.0007187797 0.2079926 0.22147368 0.00912436 -0.080289334 0.05952512 0.08779472 0.07777269
0.044929393 -0.008983667 -0.06627919 -0.266084 0.4939345 -0.1676014 -0.74163634 0.544253
0.56434476 0.4014071 -0.42241055 -0.77081484 -0.17730507 -0.3025731 0.40426305 0.31071615
0.42088246 0.17898288 -0.008399836 0.08057044 0.058424488 -0.101312436 0.21812262 -0.32045895
0.20421284 0.08765976 -0.018956363 0.45718446 0.14110784 0.049285732 0.064272106 -0.28245756
-0.08744778 -0.7559407 0.0058361986 0.1374574 -0.34956023 -1.081774 0.010667783 0.12028622
-0.45522702 0.34312657 0.053529147 0.34079242 -0.11609377 0.020021407 0.014053388 0.20552309
0.19878541 0.3337554 -0.038823754 -0.030016901 0.111829445 -0.13428175 -0.08758391 -0.20684381
-0.14376931 0.008103884 -0.16084723 0.065603815 0.14816104 -0.0025741328 0.123654075 0.16510896
0.15048367 -0.22447827 0.21362676 0.062324345 -0.23366298 0.05865181 -0.1623053 0.218171
0.11949418 -0.097189 -0.08698517 -0.3514854 -0.25463852 0.22378635 0.0376395 0.25163168
-0.014438833 0.19047132 0.38871038 0.061321944 -0.057819672 0.25651398 -0.46881282 0.1471985
-0.06853635 0.4057599 -0.19783328 -0.087960556 -0.18725868 0.21658982 -0.08043414 0.14176342
0.12848349 0.021755023 0.045973584 0.15332976 -0.029777339 0.12404425 -0.031364337 0.0037085293
0.080570444 -0.21265484 -0.11222399 -0.18812463 -0.259351 -0.40089267 0.0075858105 -0.824547

network.MLP.0.bias f4 [64]
00000000: 4ce4 673e a49f f2bc 0be7 5abe 8a50 d5bd
00000010: 0936 a9be a0c1 5b3e d035 6dbf acd0 723e
00000020: 6745 4fbe edd7 d63e b594 8a3d d4f0 6cbe
00000030: 2b48 14bd 6500 4a3e efbf 8a3b 51a9 10be
00000040: 462f 0cbe 011a 60bf e40a a53e 09d4 35bf
00000050: c787 56be d4f0 1cbe 6368 c3be df67 3a3e
00000060: 50e7 9f3e d1c5 91be 9d49 51be e5ab 36be
00000070: 488a f93e 554f 8e3e 15a1 453d ba11 d63e
00000080: e1e4 69bd ac89 0e3f 5979 1ebe 823a a33e
00000090: 13d3 b73c 6fa2 14be d434 55be 10c6 bd3d
000000a0: fe89 6c3e e2b8 1ebe 6091 063e 1308 2e3e
000000b0: 95ea da3e ebae f8be d2e5 083f 0500 44bd
000000c0: 7bdf 1b3e 008b 43be e5c3 10be 3ba0 49ba
000000d0: b326 803d 9b5a 543e 3779 063f 3b41 953f
000000e0: d147 acbc c5df e6bc f4d3 ebbc c4a2 9abb
000000f0: 1a8d d53e 27a3 08be 6990 1bbf 7b70 8abf
0.22645682 -0.029617138 -0.21377198 -0.10415752 -0.33049038 0.21460581 -0.92660236 0.23712415
-0.20241319 0.41961613 0.06766645 -0.23138744 -0.036201637 0.19726713 0.004234306 -0.14127089
-0.13689908 -0.8753968 0.3223487 -0.71026665 -0.20950232 -0.15326244 -0.38165578 0.18203686
0.31231165 -0.28471234 -0.20438237 -0.1783901 0.48738313 0.277949 0.048249323 0.418104
-0.05710304 0.5567882 -0.15475978 0.31880575 0.022439515 -0.14515088 -0.20820934 0.09266293
0.23099515 -0.15500215 0.13141394 0.16995268 0.42757097 -0.48570952 0.5347568 -0.04785158
0.1522197 -0.19095993 -0.14137228 -0.00076914177 0.06257381 0.20737688 0.5252871 1.1660532
-0.021030338 -0.028182874 -0.02878759 -0.00471911 0.41709214 -0.13343488 -0.6076723 -1.0815576

network.MLP.2.weight f4 [64, 64]
00000000: 79c7 763d b5c9 123e 03c6 143d 173e 65bd
00000010: 0ffb 01bd 6ea6 4c3e 0b14 bab8 6be3 6bbe
00000020: e944 20bd 9207 e03d 84b1 a33e 2cad 093d
00000030: 83f9 a7bd b782 423e 56a7 45be ecc3 babd
00000040: b83f 1dbd ff71 79be c1dd ecbd f4ad fcbc
00000050: 5e6c cfbd 6048 a7bc b9fe 48be 99e2 8b3d
00000060: 5c14 6c3d 2d6d 8b3c a488 0c3d 6cba 6fbd
00000070: e806 2d3e 2739 693d b88c 2ebd 5f35 023f
00000080: cca6 ef3b 8617 5cbd 7676 98bd 9a81 85bd
00000090: 004b a0be 8794 2d3e 6e8d d3bd 1c5e 4d3e
000000a0: f050 94be 9097 9e3c ad96 913e bc91 7d3e
000000b0: b24e b43c 5a4d a1bd 236b 8abe cca6 673d
000000c0: 0756 413e 2016 133d a001 f1bb c244 de3d
000000d0: af20 7bbd ddfe 20be 8ba9 25bf 5048 773e
000000e0: 02be 62be 5c10 7abe 0ee5 c13d 03fa b23d
000000f0: 6133 913c b841 16bc a677 2ebe 3984 053e
00000100: 7a07 6fbe 3e78 9a3e 1e98 5ebe beb2 a7bd
00000110: 2517 083e 3ca6 013d ff0f 993e 9b0e 9abd
00000120: b33a 093e 206d 92bc 62f0 9f3e 60f4 ff3d
00000130: f7bf 19be ae38 403e d10f 0abf 1fd3 783d
00000140: 64e9 de3d 1df3 cdbe 45b0 c5bd 557b f53d
00000150: 3eb4 afbd d83a cd3d fb66 edbb 5da0 0a3d
00000160: c7ea 4a3e ff4b 9abe 10ab 85bd e815 c5bd
00000170: dd61 d4be bec8 953d a02a 62be 26d1 513f
00000180: d1bb 19bd f2da 2f3e d8b2 8cbd c79c 0cbe
00000190: 4964 003e 8503 4d3e d019 aebc 302f 443e
000001a0: 3bb8 66bd f034 c0bd ead6 f43d 317f ad3d
000001b0: 67f5 29be 45ae 183e a195 963e 6421 903e
000001c0: 1467 7a3e b051 95bc 3a71 953d e0a1 e6bd
000001d0: 6df6 163d 846a 53be 21fb 1e3e 154a dcbc
000001e0: 46f1 89bc 38dc 093e 60d2 0dbc cf24 b7bd
000001f0: ca2c 30be 48a8 e9bc 8cce d53c 3e95 1a3e
00000200: 569d 0bbe fea7 72be dcc1 63be e85e 98bd
00000210: b880 17be 754e 15be 1dec af3e 68c2 393d
00000220: 37f0 b53e fff1 5b3e 5b40 2f3e ae43 c1bd
00000230: 5635 103d 1487 b1bd 094e a7be c4f0 073c
00000240: 28c2 8f3d d34b bd3d b734 8cbd c56b ed3d
00000250: c832 293d 4a97 833d 6abd 77bb 17fb f0bc
00000260: 81e0 643e 2add b5bd 8014 00bd b040 8c3c
00000270: d853 bdbe 54d3 29be 44e5 09bf 9138 babe
00000280: 9140 9a3d 86b8 f43d b099 7d3c f6b3 0ebe
00000290: 65ea 843e 4cf7 efbd 3028 243c 78d2 0a3d
000002a0: da7f b63e b88a 453d d22c 1abe c905 18bd
000002b0: 370f 12be f8ba 0c3f 1e12 b4bd 5ed2 26be
000002c0: d594 e2bd 1041 28bc c0f1 233b 3945 4dbd
000002d0: 1a52 283d cc90 4db9 0976 2f3f 8532 c33d
000002e0: 0bc7 4e3e 1e87 bcbe 0871 fa3c 3da1 073d
000002f0: 3fb2 5bbd ad13 9b3d ed91 eb3e 8950 783e
00000300: 1e4d bbbc b32c 56be 5020 e4bd 39c4 293e
00000310: f1b1 e13d ba73 b63d a75f e5bd 1ee1 513e
00000320: 9024 f13e f88d 11bd 7b3e b4be 84f9 623d
00000330: be9f 11be 3c43 803e 0e37 12be e53c 163e
00000340: f4ed a4bd ddd9 0b3b ee9a 2f3e 7b04 30be
00000350: 50a7 fa3c 4800 003d f13c 22be 7636 453e
00000360: d037 d23e 2047 c4bc d03b 823d 1eff a0bd
00000370: b759 7ebd 021c 313e 2845 103f f9ef 1d3d
00000380: 7f70 573d 930e 2bbe 10c7 2ebd 8f36 25be
00000390: 57d6 d4be 674a f83c 2473 5e3d d770 223e
000003a0: 2c45 ce3c c0be 0cbc 06ef ee3d ade0 be3d
000003b0: 49d2 b03b d806 09be a11b fe3e dbb8 313d
000003c0: dc2b 613e 7425 573d b4d9 2e3d 0f80 533c
000003d0: ee2c 78be feb7 be3b d9fe 23bf 2d63 1d3e
000003e0: fb8a 8cbd d4ef bd3c de88 f4bd efcd 84bd
000003f0: aff2 6ebe b004 0c3d e71a 43be 459d 793e
0.060248826 0.14334758 0.03632165 -0.055967417 -0.03173357 0.19985363 -8.8729044e-05 -0.23035972
-0.039128218 0.10938944 0.3197137 0.033612415 -0.082018875 0.18995176 -0.19302115 -0.091194004
-0.038390845 -0.24359892 -0.11565734 -0.030844666 -0.10128091 -0.020420253 -0.19628419 0.068303294
0.057636604 0.017019833 0.03431 -0.058527395 0.16897166 0.05693927 -0.04261467 0.5086269
0.007313585 -0.05373337 -0.0744447 -0.0651886 -0.3130722 0.1695119 -0.1032971 0.20055431
-0.28968 0.01935938 0.2843527 0.24762625 0.022010181 -0.07876082 -0.27034864 0.056555554
0.18880473 0.035909772 -0.00735493 0.10852958 -0.061310466 -0.15722223 -0.6471183 0.24148679
-0.22142795 -0.24420303 0.09467517 0.08739092 0.017724695 -0.009170942 -0.1703783 0.1303872
-0.23342696 0.30169863 -0.21737716 -0.08188389 0.13290079 0.031652674 0.29895017 -0.07522317
0.13401298 -0.0178743 0.31238085 0.12497783 -0.15014635 0.18771622 -0.53930384 0.060748216
0.108843595 -0.40224543 -0.09652761 0.11986414 -0.085793 0.10020989 -0.0072449422 0.03384434
0.19816123 -0.30136105 -0.06526768 -0.09623319 -0.41480914 0.07313679 -0.22086573 0.8195976
-0.03753263 0.17173365 -0.06870049 -0.13731681 0.12538256 0.20020874 -0.021252543 0.19158626
-0.05632804 -0.09385097 0.11955054 0.084715255 -0.1659752 0.14910229 0.29411033 0.28150475
0.24453384 -0.018227428 0.07296987 -0.11261344 0.036856104 -0.20646101 0.15525486 -0.026890794
-0.016838681 0.13462913 -0.008656114 -0.089425676 -0.17204586 -0.028522626 0.026099466 0.15095994
-0.13634238 -0.23696896 -0.2224192 -0.07439977 -0.14795196 -0.1458071 0.34359828 0.045351416
0.35534832 0.21479033 0.17114393 -0.09436737 0.035207115 -0.08668342 -0.32676724 0.008297149
0.07019454 0.09242978 -0.06845992 0.11592821 0.041308194 0.064253405 -0.0037802109 -0.029416604
0.22351266 -0.08880074 -0.03126955 0.01712069 -0.3697803 -0.16584522 -0.53865457 -0.36371282
0.07531846 0.119492576 0.0154785365 -0.13935837 0.2596008 -0.1171709 0.010019347 0.033892125
0.35644418 0.048227996 -0.1505616 -0.037114892 -0.14263617 0.5497279 -0.08792518 -0.16291186
-0.11063544 -0.010269418 0.002501592 -0.050114844 0.041093923 -0.00019604265 0.6853948 0.0953112
0.20193116 -0.36821836 0.030571476 0.033112753 -0.053636786 0.07572112 0.4600977 0.24249472
-0.02286392 -0.20915489 -0.111389756 0.16578759 0.11020268 0.08908792 -0.11199885 0.20496032
0.47098207 -0.035535783 -0.3520392 0.055413738 -0.14221093 0.25051296 -0.14278814 0.14671667
-0.080531985 0.0021339573 0.17148945 -0.17189209 0.030597359 0.03125027 -0.1584356 0.19259056
0.41058207 -0.023959696 0.063590646 -0.0786116 -0.062097277 0.1729584 0.56355524 0.038558934
0.05259752 -0.16704778 -0.04267031 -0.16134094 -0.41569778 0.030308915 0.054309025 0.15863357
0.025179468 -0.0085904 0.11666684 0.09320197 0.0053961617 -0.13381517 0.49630454 0.043389183
0.21989387 0.052525952 0.042688087 0.0129089495 -0.2423589 0.0058202734 -0.6406074 0.15369864
-0.06862446 0.023185648 -0.11940168 -0.06484591 -0.23334764 0.034184158 -0.19053231 0.243764

network.MLP.2.bias f4 [64]
00000000: 9289 983e 55fe a53d 8e73 1ebe 77ce 463e
00000010: c3ff 4a3e 5e79 4abe caf8 b93e ed1e 093e
00000020: 8123 103f 6840 3dbe 446f 0fbf 0ba0 94bf
00000030: a8c4 4c3c 4744 32bd 96bb 4abf fdb3 c43e
00000040: 65b5 17be 765e 78be dc4a 6e3e 29a1 2ebf
00000050: 46e3 0bbf 224b c6bd c8c5 47be 9df9 cebd
00000060: fd0a dc3d 4985 c63e b2bb 053e e899 293d
00000070: b67c be3e 05fb 973e 2c74 85be 39a7 19be
00000080: f2b3 e5be 0310 f53e ac1c 1ebe 4d5c 3abd
00000090: a351 ff3e 5c1f 52be 199a ae3e 6516 213e
000000a0: ef83 efbe aec2 1b3d bd1a 8f3d 40b8 d63e
000000b0: 5bdf 04bf b3c4 3b3e e7c9 083f 24cb 8cbd
000000c0: 7da9 843e 13ba dc3e 0f15 ac3f befc 673d
000000d0: fc9a 6a3d eb57 993e 8541 dabe 6cec 46be
000000e0: e7ad a03e 5f4f a43d f35d ed3d 171d 843e
000000f0: 2c31 fa3e 626e 09bf a991 e93d 1f04 20be
0.29792458 0.081051506 -0.15473768 0.19414698 0.19824128 -0.1977286 0.36322623 0.13390703
0.56304175 -0.184816 -0.5602915 -1.1611341 0.012498058 -0.043522146 -0.79192483 0.3841857
-0.1481529 -0.24254784 0.23270744 -0.6821466 -0.54643667 -0.09682299 -0.19509041 -0.10106204
0.10744283 0.38773564 0.13059881 0.041406542 0.37204522 0.296837 -0.26065195 -0.15005197
-0.4486385 0.47863778 -0.15440625 -0.04549818 0.4986697 -0.20519775 0.34101942 0.15731199
-0.46780345 0.038027458 0.06987522 0.41937447 -0.51903313 0.18336754 0.5343308 -0.068746835
0.2591056 0.43110713 1.3443927 0.056637518 0.05727671 0.2994989 -0.42628112 -0.19426125
0.31382677 0.08022951 0.11590185 0.25803444 0.4886564 -0.53684056 0.114047356 -0.15626572

network.MLP.3.weight f4 [64]
00000000: 54f9 833f aec8 b53f 6522 4c3f c70e d03f
00000010: bc42 5f3f 829b c03f 0663 8e3f 3d90 b73f
00000020: d11c 353f 0d25 a43f 557c 753f 0456 183f
00000030: d0a0 d33f 6302 963f dcdf 923e f70d 873f
00000040: 5a36 a73f b787 bb3f 3aab b03f 18f8 333f
00000050: 6165 4c3f f522 cc3f 5f43 633f 2b98 b23f
00000060: 1337 9c3f 3b03 603f 432c dc3f c62a c23f
00000070: 4aee f03e ea5b af3f 4481 ba3f d0cc b53f
00000080: f532 ac3f fc51 2f3f 8622 b93f 6a75 af3f
00000090: 9dc1 3d3f e67c c53f 15d6 9b3f 3f4e af3f
000000a0: c71d 583e b138 b93f 1095 a93f f3ba a73f
000000b0: 5874 823f d982 943f f84e 9a3f fdd7 bd3f
000000c0: fc0f 873f c615 673f d991 533f 83f2 9f3f
000000d0: a81d ad3f 52a3 373f 95a5 7e3f 7b27 7f3f
000000e0: a217 c03f 882c b93f d7ff d93f 5563 aa3f
000000f0: 59dd 403f 72ba 833f 69a4 893f e117 a63f
1.0310464 1.4201868 0.7973998 1.625451 0.87211204 1.5047457 1.112397 1.4340893
0.70747095 1.2823807 0.9589284 0.5950625 1.6533451 1.1719478 0.28686416 1.0551137
1.3063462 1.4650792 1.3802254 0.70300436 0.7984219 1.5948168 0.88774675 1.3952688
1.2204307 0.8750493 1.7201008 1.5169303 0.470568 1.3699925 1.4570699 1.4203129
1.3453051 0.68484473 1.4463661 1.3707707 0.74123555 1.5428741 1.2174708 1.3695754
0.21105109 1.4470426 1.3248615 1.3103927 1.0191755 1.1602432 1.2055349 1.4831539
1.0551753 0.902676 0.8264442 1.2495884 1.3524675 0.7173358 0.9947141 0.9966962
1.5007212 1.4466715 1.7031201 1.3311564 0.7533775 1.0291274 1.0753299 1.2976037

network.MLP.3.bias f4 [64]
00000000: 1e75 b23c 4bbf f63d 3993 5c3e 56c8 363e
00000010: faac ac3d 8ce1 86bd 7d11 d2bb b72e 3d3e
00000020: c691 e1bd 2d8c afbe cc09 06be cb43 353e
00000030: 0fb4 923d 3d8a 1e3e 6abf c33d 9309 543d
00000040: cf5d 34bd 4e8d cb3b 9d04 953e 65da 7c3d
00000050: dbfa 96bd 4410 a23d 3d8e 3f3e 7527 7e3d
00000060: 026e 223e cd1e 3c3e 6c6e a9bd 9cd6 b63d
00000070: 31fc e6be 5ee3 9d3d 3093 2a3e cc20 66bd
00000080: 5fef 4f3e 8852 3c3d 1f7c 643e fd9a 7fbd
00000090: 03de 0fbd 726c df3d c735 a43d 7120 083e
000000a0: 1574 5f3f eabb bebd fcea 8b3d f2e1 0d3e
000000b0: 8c25 6fbe 4089 03be c57f 823a 812a 833c
000000c0: 85e8 0a3e 2415 213e 90ab b33d 7b55 703d
000000d0: aae6 e43d e521 42be e7a1 3cbe 379d 163e
000000e0: 8bd7 31bb ba1f 5e3c cb84 4b3e 0ee9 9bbc
000000f0: a0b3 173d e2c5 14be 7097 bcbd 14c1 7e3c
0.021784361 0.12048205 0.21540536 0.1784986 0.0843143 -0.065859884 -0.006410776 0.18474852
-0.11014132 -0.34286633 -0.13089675 0.17701642 0.0716325 0.15482421 0.09557994 0.051766943
-0.044034775 0.006211913 0.29105082 0.061731715 -0.07372066 0.07913259 0.18706603 0.062049348
0.15862277 0.18371125 -0.082730144 0.08927652 -0.45114282 0.077093825 0.1665771 -0.05618362
0.20306157 0.045977145 0.22312973 -0.062403668 -0.035123836 0.10909356 0.0801807 0.13293625
0.872865 -0.093131855 0.06831929 0.13855723 -0.23354167 -0.12845325 0.0009956291 0.016011478
0.13565262 0.15730721 0.08772957 0.05867527 0.11176808 -0.18958242 -0.18421136 0.1470841
-0.002713653 0.013557369 0.19874875 -0.019032028 0.037036538 -0.14528611 -0.09208572 0.015548963

critic.0.weight f4 [1, 64]
00000000: cc49 e13c c291 843d 7e19 dc3d 4c70 9e3d
00000010: 902a c73d 014e 92bc 17ca 783d 2a8b 963d
00000020: b1fb f83d e6cd 823c 6661 abbe 4479 bfbd
00000030: c731 e03c 5fdd 7e3d 0fd3 d53c 9edd bc3d
00000040: 9404 a23c cce2 273d d383 b33d f2aa 3abe
00000050: 6178 14be 09b7 143c 41b2 113d 1f54 223c
00000060: 3aea d43d c0b3 5e3e a3f3 cabb df58 8d3d
00000070: dca9 d33d 10b1 4e3b 975f ddbb c211 a83c
00000080: 80f3 23bb 4dad b03d 22c9 cb3c dbb5 313d
00000090: 3a61 fc3d af03 dc3c 6794 9c3d e0f1 093d
000000a0: f0f8 ba3e db25 4b3d 0493 8d3d 287c e53d
000000b0: f4ec d1be 4cfa 913d 7389 d33d 1e75 c13b
000000c0: 5eaf 2a3e 0dee 843e fa99 593e 2475 313d
000000d0: 17ce 733c bfac 743d e5de 93be 8170 9b3c
000000e0: 7bd0 7b3d 5a90 503d 3440 693d 2384 5a3d
000000f0: f2cd c33d 4d6d 65be 4787 783d 4539 453d
0.02750101 0.064731136 0.1074705 0.07736263 0.09724915 -0.01785946 0.060739603 0.07350762
0.12157381 0.01596732 -0.33472747 -0.093493015 0.027367486 0.062222835 0.026101617 0.092219576
0.019777574 0.040987775 0.08765378 -0.18229273 -0.14499046 0.009076842 0.035570387 0.009907751
0.10396238 0.21748257 -0.0061935945 0.069017164 0.103351325 0.0031538643 -0.00675578 0.02051628
-0.0025016963 0.086268045 0.024876181 0.04338632 0.12323232 0.026857225 0.07645493 0.033677936
0.3651805 0.04959665 0.06912807 0.112053216 -0.41001093 0.071278185 0.10328951 0.005903854
0.1666846 0.25962868 0.21250144 0.043324605 0.014880679 0.059735056 -0.28880993 0.018974544
0.06147812 0.050918914 0.056945994 0.05334867 0.09560765 -0.22404976 0.060675886 0.04815032

actor.0.weight f4 [22, 64]
00000000: 439d a4be 913a 4ebf e4e7 ca3d 0ea4 9fbe
00000010: b9e5 863d 6f80 91bd 471f 4bbe f81c 2bbe
00000020: 4e0e 1d3e 5a40 0d3f f0d5 7dbd 3126 66be
00000030: b5a2 88be 5e15 bcbe dc76 d5bc aa55 a03e
00000040: 28f9 f7be 9965 3c3f b9da bb3e 2077 583d
00000050: 770a 05bc be29 12bf f1bb bbbe a2b6 bdbe
00000060: b7f6 c73e ab81 643c 858c d03c 5a7d 2b3f
00000070: 0d84 c53c 3ae8 74be 079f b0bd 485a c4be
00000080: accb 143d dd80 c33a dabe bebe 1609 dd3e
00000090: 365f a03e 3919 8d3e 1b4c be3d 5436 09be
000000a0: 09ef 093e 1ffd c7be ff6b 2a3f 2c5c 053f
000000b0: a0ad 8f3d 07b2 d6be 1d03 08bd 6aa6 8e3d
000000c0: 25de b23e 9b62 6b3d 7643 443e 9f03 10be
000000d0: 012f d6be 85ee e5bd 7be8 8a3e 299b fbbe
000000e0: 65b4 ca3e bb84 ba3e 2ddd 243d 6b99 0dbe
000000f0: 07ab 213d d50f 8bbe baa8 93bd abc4 af3e
00000100: b660 a0be e79a 453e 3747 a63e 6df5 7f3e
00000110: fb29 bc3e f13e 64be 7f09 8cbe 4204 653e
00000120: eba7 313d 16aa 513f 62fd 313b 1e77 62be
00000130: 317a 8e3d 8cac aabe 8bdd 5cbe 8597 543d
00000140: 8fcc 9fbe dafe 39be 71e3 3bbe 1bcb 253e
00000150: 065a 1abe b5b1 9e3d 1bbc fb3d 60f6 bdbe
00000160: 7d44 5e3d d2a6 4a3e c137 1bbf 1caf 03be
00000170: 9224 cc3d c4b6 c3be 4561 80bd ebdd c2be
00000180: 1174 223f 84f1 473e 49ab 2ebf 5185 b13e
00000190: 5769 3c3e 7d3c 333f 7788 aabe 0eb1 e53e
000001a0: e3e9 373e d98b 1abe 6587 d6bc 1bd6 f9bd
000001b0: ccae 97bd 7377 00be 4a1f 7ebd 77ff c93e
000001c0: 88d1 b4bd 458b a73e 360b 163e 81fb f93d
000001d0: 824d 12bf d6c5 a5bd 86e3 063e 7d20 553e
000001e0: f5a6 c23e 5c57 cd3e d274 1c3f 8676 bcbe
000001f0: a94e 40be fb4f 34be e0c3 14bd f5db 3f3d
00000200: 8f85 5d3e 2a3d debd 242c cbbd b847 2c3e
00000210: f1c7 91be 226b c23d 5b22 58bd 7485 42be
00000220: 13ab 643d a227 223e 9573 d0bd 8b16 60bd
00000230: 922d be3e 435a 593e 3244 e9bd a002 b7bd
00000240: 71f3 a13e 48b9 1b3e 5a1f cabe 8eff 933d
00000250: fec4 77be 5b13 113f b0f5 793e 98bf 063e
00000260: 1033 013e 806c 913d df99 cebe 2e19 703e
00000270: c5cc 283d 9f65 2bbe 43f3 613e efbc 9f3c
00000280: 1f0e 613e 37a9 bf3d 3a8e cb3d 1748 d6bc
00000290: 64ed 963d 3aba d33e 766c 53be d21f e23d
000002a0: 94e8 a9bc d3b5 10bf a504 ccbe 0b79 f03d
000002b0: 9581 60be 9e0e ecbc f5c3 7f3c c887 83ba
000002c0: bb1c e33c c83a 0b3e 3c6e 96bb 451b b0be
000002d0: fcc5 bbbd ce4a de3d 4487 58be 7036 aabd
000002e0: f196 ae3d 5a91 83bc fef0 143f aab8 a3be
000002f0: 2ba4 fb3d 9ec9 85be 74b2 de3e c387 a6bd
00000300: 394b 64bd d391 3bbd 89c0 1e3d e010 02bf
00000310: cb26 33be 4a20 15be e439 dbbe b436 b93d
00000320: 630c 783e 79f8 19be e91e 343e fb81 c13d
00000330: c91f 13be 6fc0 09be 7401 543c 103c 843b
00000340: 5277 54be 4eba 1fbe 7c60 443d b811 543d
00000350: 3f66 7ebb bbcf a8be f043 1c3d a52b 363c
00000360: 47fe c73d c091 38be 25ac 55be dc0e ef3c
00000370: b324 cdbd 250a 473d e10d 9ebe c7a9 123f
00000380: a759 ff3e 6027 c23c 80b6 e3be 3e83 1c3e
00000390: dabd 35be b062 083f 07be 113e 7d65 163e
000003a0: cd25 b93e 6f37 373e 532e f83d 5753 253e
000003b0: 091c b23d c797 f63c 4c0d a2be e00e 96be
000003c0: 1893 303e 0c4d 933d d4ee b03d c65b 25bf
000003d0: 1e2f 6c3d d96c e53d de6c ecbc 44bf 42be
000003e0: 7063 dbbe 8687 903e 9ad3 483d 0fc2 31bf
000003f0: c626 e6bd 2517 083d 464f 6b3e d20d 75be
-0.3215123 -0.80558115 0.09907511 -0.3117985 0.06586785 -0.07104575 -0.1983615 -0.1671027
0.15337488 0.5517632 -0.061971605 -0.22475506 -0.26686636 -0.36735052 -0.026057653 0.31315356
-0.4843228 0.73592526 0.3669031 0.05284798 -0.008120171 -0.57094944 -0.36666825 -0.370534
0.39055416 0.013946931 0.02545763 0.66988146 0.024110818 -0.23916712 -0.08624082 -0.3835013
0.03632705 0.0014915724 -0.37254983 0.43170995 0.3132264 0.27558306 0.0929186 -0.13399631
0.13470091 -0.39060304 0.6657104 0.5209377 0.07015538 -0.419327 -0.033206094 0.06965335
0.34935108 0.057467084 0.1916636 -0.14063881 -0.41832736 -0.112271346 0.27130494 -0.49141815
0.39590755 0.3642939 0.040249992 -0.13828056 0.039469745 -0.27160516 -0.072099164 0.34329733
-0.31323785 0.19297372 0.32476208 0.24995966 0.3675078 -0.22289635 -0.27350995 0.22364905
0.04337303 0.81900156 0.0027159085 -0.22115752 0.069569 -0.33334768 -0.21568887 0.051902313
-0.31210753 -0.18163624 -0.18348481 0.1619076 -0.15073404 0.07748739 0.12291738 -0.37102032
0.054264534 0.197902 -0.6063195 -0.12859768 0.09967913 -0.38225377 -0.06268553 -0.38059935
0.63458353 0.19525725 -0.6823011 0.34672025 0.18399559 0.7001417 -0.3330724 0.44861645
0.17960314 -0.1509241 -0.026187608 -0.121990405 -0.07406387 -0.12545566 -0.06204156 0.39452717
-0.088290274 0.32723442 0.14652714 0.12206174 -0.5714952 -0.08094375 0.13172731 0.20813175
0.38018003 0.40105712 0.61115754 -0.36809176 -0.18780006 -0.17608635 -0.036319613 0.046840627
0.2163298 -0.1085151 -0.099205285 0.16824234 -0.28472856 0.0949309 -0.05276714 -0.18996221
0.05582721 0.15835431 -0.101782955 -0.054709 0.37144142 0.21225838 -0.1138996 -0.089360476
0.31631044 0.15207398 -0.39477044 0.072264776 -0.2419624 0.5667016 0.24410129 0.13159025
0.12617135 0.07100773 -0.4035177 0.23447105 0.04121091 -0.16737984 0.22065453 0.01949927
0.21978043 0.09358447 0.09939237 -0.026157422 0.073694974 0.41353017 -0.20646843 0.110412255
-0.020740785 -0.5652744 -0.39847293 0.11741837 -0.21924432 -0.028815564 0.015610685 -0.0010034973
0.02772366 0.13596642 -0.0045907777 -0.34395805 -0.09168622 0.108541116 -0.2114535 -0.083111644
0.085248835 -0.01606052 0.58180225 -0.31976825 0.12287172 -0.26130384 0.43495524 -0.08131363
-0.0557358 -0.045793366 0.038757835 -0.50807 -0.17495267 -0.14563099 -0.42817605 0.09043637
0.24223475 -0.15036191 0.17589916 0.0944862 -0.14367594 -0.13452314 0.0129398 0.0040354803
-0.20748642 -0.15598413 0.047943577 0.05177471 -0.0038818268 -0.32970986 0.038150728 0.011118804
0.097652964 -0.18024349 -0.20866449 0.02918189 -0.100167654 0.04859366 -0.30869964 0.5729031
0.49873087 0.023700416 -0.44475174 0.1528444 -0.17748204 0.53275585 0.14232646 0.14687152
0.36161652 0.1789224 0.12118211 0.16145073 0.086967535 0.03010167 -0.3165077 -0.29308224
0.17243612 0.0719243 0.08639303 -0.6459316 0.057662122 0.11202402 -0.028860506 -0.19018275
-0.42849302 0.28228396 0.049029924 -0.69436735 -0.11237864 0.033225197 0.22979459 -0.23931053

actor.0.bias f4 [22]
00000000: d5a4 61bc 0ffc ed3d d910 893c 5e7b b23c
00000010: 3f97 7fbd b453 8a3c c655 afbc cdac a5bd
00000020: b273 ad3d fef8 14be 7ca8 44bd 9c74 873d
00000030: cc37 e4bd 7e4f 2d39 490c da3c fecb 45bd
00000040: 1854 3e3c 8820 06bd 8037 e7bb 024c c13d
00000050: 90c9 413d f1a4 d63b
-0.013772209 0.11620342 0.016731666 0.021787342 -0.0624001 0.016885616 -0.021403205 -0.080896
0.08469333 -0.14548108 -0.04801224 0.06614038 -0.11143455 0.00016528179 0.026617186 -0.048290245
0.011616729 -0.032745868 -0.0070561767 0.094383255 0.047311366 0.0065504243
