paper/training_results/seed-5/momarl/checkpoints/mlp_(negotiation=False)_(num_agents=12)_(window=False)_(reduced_space=False)_(fixed_savings_rate=False)_(rewards=['inverse_global_temperature', 'global_economic_output'])(wgen=uniform)(num_ensembles=1)(seed=5)_2025-01-16_22:22:28_w=[0.0498 0.9502].pt (torch, 38168 bytes, 9 tensors)

network.MLP.0.weight f4 [64, 18]
00000000: 4042 75bd af35 1a3e 9b4a 3ebe b5a6 c53d
00000010: 7a3f ecbd a665 a83c 8553 96bd fab4 5fbe
00000020: aaf6 673e adbd e2bd 7dce 653e 8e8e 6cbe
00000030: 3a91 efbd 83a6 08be 2a2c d1bd 7584 1f3e
00000040: 6a9a 15be dd63 37be 7446 d5bd f54f f8b9
00000050: 08ef a6bd 1adf 693e ab11 33be 70d7 bfbd
00000060: 8443 fbbd f68b 8a3d a736 ca3d 876a 063e
00000070: 6750 c9bd c448 47be b0bd 42be 202b 503e
00000080: df5f 3bbe 90bd 11be 00c9 10be fba7 6cbe
00000090: bb09 ec3c 8b56 4c3d 6269 8e3d 3611 9bbf
000000a0: ac36 3d3c 777d 0cbf 5947 613c c94c fd3c
000000b0: 5d28 883d bcd6 163d e75f a53c 3e67 f83d
000000c0: 6b7f f13d 168c 363e e1e6 cdbc c6ee bb3d
000000d0: 0684 cd3d 28f8 aebc 3a5c 0fbd eeef 993e
000000e0: f153 0c3e 8e61 89bf e349 e43e a94f 4abf
000000f0: 31aa 90be d5a5 8d3e d9fe 18be 610b 5bbd
00000100: a0e8 cabd af61 6dbe c48c 493d 3975 7f3e
00000110: a5d5 a0be d9f6 483e d6ce 5c3d cdc3 17bf
00000120: 0ccd 6ebe d5a3 5ebe d697 1f3e 86e8 533f
00000130: d928 3fbf 38d4 1a3e e861 89bd 1415 e5bd
00000140: 2fa9 71bd e5c9 993d f280 533e 282d 90bd
00000150: 0076 05be 8420 55bd 6e7f f1bd 3d18 f5bd
00000160: 48aa aabc 5333 5abe 15f7 eb3d 5f63 28be
00000170: 3942 82be 726f 41bd 360d 2c3e 6aa6 d23e
00000180: e2dd 8dbe 4bd0 043d 106c 17be 5348 463d
00000190: afbf 7abe 5c22 82be 5cf5 1d3e 998a b4bd
000001a0: 3bc1 01bd bff8 3cbe ffd6 cdbe d2e9 a53d
000001b0: 9d04 3cbd dcd8 f3bc ff3e 29be 4403 47be
000001c0: 1f78 163e 5d38 38bd c18d 7e3c 2877 cd3d
000001d0: fc0b c5bd 024b 293e e068 4bbe 1d6b 473e
000001e0: 5263 0dbe d981 e0bd 88a3 8dbd f9c3 ea3c
000001f0: e470 493d 773f 5ebe ea6a 92be 75cc 89be
00000200: 095b 4d3d 0a2e aebf 0ee3 cbbc 99fc d6be
00000210: ce98 1ebe 8d55 3cbe da94 ed3d 1a55 c83e
00000220: 906e 55bc 7a1a 3b3e 6bf6 c03d 87fe 8bbe
00000230: 315b 8ebe d6ea af3e 105c be3e 8f33 f1bd
00000240: 336d f0bd 4ea0 643e d374 3fbd d9ac 68bf
00000250: a9d7 ad3e 7a61 aebe c86c 6c3e 9a5d 803e
00000260: 5a66 f23e b1c1 9a3e e258 1f3e 837a d53d
00000270: ec1b 2e3f 852f 863e a4a6 0e3f c10d 1abf
00000280: 2bf2 893e 01ff 33bd 6213 b23d 63a9 5a3e
00000290: 4567 04bc 79f0 36bf 2b1a 5d3f 72a3 53bf
000002a0: 0866 c83c e490 fc3d 2bea 623d 43e4 4b3e
000002b0: e09b 133c 243f 753d ddf2 2cbb 4394 783d
000002c0: aa7d b1bd 1c0d db3d d0ef 053e 02b5 b63d
000002d0: 5a3b 98bd 4add dbbd 25af 0dbe 9e46 783d
000002e0: 8ec5 6cbe 9842 58be 8d63 03be 5b5a b2bc
000002f0: 230a e03b 2d16 8e3d fb5a 6f3e 34fb 03be
00000300: e74f 35bc 92bf 86bd cfa0 353e a340 4fbe
00000310: be62 eb3d 373a 29be a016 8bbe 2e35 a1bf
00000320: 36b1 85bd c44b 863f c068 30c0 dbd1 e63e
00000330: 646a 223d 9993 673d 5473 a13d e339 d4bc
00000340: 53dc 893c 3134 9abd f313 2fbb 2fcb db3d
00000350: e2ca 983d 9f32 b43c 71e7 c03d 3306 193d
00000360: ac17 3bbd 9f2c d03d 32fd 53be c45b 86bd
00000370: a592 c7bc 2d7e 0cbe 54e0 0abd ed18 7abd
00000380: 36d0 17be b4d3 adbc 5272 8ebc 12f6 4cbe
00000390: 58e9 2dbe 3d9d 413c 899d ecbd 5c98 cdbd
000003a0: 0299 9dbd ff5f d3bd cd85 4dbc 1533 c53e
000003b0: 0f3d 2bbe e3e7 94bd 5e89 39bf 42b5 19be
000003c0: cf11 8b3e cb99 d5bd 8bf8 ae3c 6d98 f4bd
000003d0: e24e 33be faa8 29bd f46a f23d 316c a63d
000003e0: b936 473e e04b ef3e 3764 03be 8f5d 753e
000003f0: 8090 fdbc 1a47 a23e b4fa 9b3c f8b9 db3e
-0.059877634 0.15059541 -0.18583147 0.096509375 -0.11535545 0.020556282 -0.07340149 -0.21846381
0.22652689 -0.11071334 0.2244205 -0.23101255 -0.11697622 -0.13344769 -0.10213502 0.15577872
-0.14609686 -0.17909189 -0.104138285 -0.0004736182 -0.0815106 0.22839013 -0.17487209 -0.09367263
-0.12268737 0.06764977 0.09873705 0.13126574 -0.09829789 -0.19461352 -0.19017673 0.20328951
-0.1829829 -0.14232469 -0.14139175 -0.23110954 0.028813234 0.04988722 0.06953694 -1.2114627
0.011548679 -0.54878944 0.013749921 0.030920403 0.06648324 0.03682588 0.020187331 0.12129067
0.11791881 0.17826876 -0.025134506 0.09176402 0.10034947 -0.021358564 -0.035000063 0.30065864
0.13703896 -1.0732896 0.4458762 -0.790278 -0.28254846 0.27665582 -0.14940967 -0.05347765
-0.09907651 -0.23181795 0.04920651 0.2494706 -0.31412998 0.19625415 0.05390819 -0.59283143
-0.23320407 -0.21742184 0.15585265 0.8277668 -0.74671704 0.15120018 -0.06708127 -0.11185661
-0.058999237 0.075092115 0.20654657 -0.07039863 -0.13033295 -0.052032962 -0.117918834 -0.11967514
-0.02083315 -0.21308641 0.115217365 -0.16444157 -0.2544115 -0.047225423 0.16801915 0.4114259
-0.27708346 0.032425206 -0.14787316 0.048408817 -0.24487184 -0.2541684 0.15425628 -0.08815498
-0.03167842 -0.18454264 -0.40203092 0.08101238 -0.045902837 -0.029766493 -0.16527937 -0.1943484
0.1469426 -0.044975627 0.015536726 0.10032493 -0.096214265 0.1653252 -0.19864225 0.19474454
-0.13807419 -0.109622665 -0.06915957 0.0286579 0.049179927 -0.21703897 -0.28597194 -0.269138
0.050135646 -1.36078 -0.024888542 -0.41989592 -0.15487978 -0.1839201 0.11600657 0.39127427
-0.013026848 0.18271819 0.094220005 -0.27342626 -0.2780395 0.34358853 0.37179613 -0.11777412
-0.11739578 0.22326776 -0.04674227 -0.90888745 0.33953598 -0.34058744 0.23088372 0.25071412
0.47343713 0.302259 0.1556125 0.10423758 0.68011355 0.2620813 0.55723023 -0.60177237
0.26942572 -0.043944363 0.08695103 0.21353678 -0.008081262 -0.7146068 0.86368054 -0.8267127
0.024462715 0.12332323 0.0553991 0.19911294 0.009009331 0.05987467 -0.0026389875 0.06068827
-0.08666547 0.1069586 0.13079762 0.08921243 -0.074331954 -0.10735567 -0.13836344 0.06061422
-0.23122236 -0.21119153 -0.12830944 -0.0217716 0.006837146 0.069378234 0.2337455 -0.12888795
-0.0110664135 -0.06579508 0.17737125 -0.202395 0.11493443 -0.16526113 -0.271657 -1.2594354
-0.06527941 1.0491872 -2.7563934 0.45081982 0.039652243 0.056537244 0.07883325 -0.025906509
0.016828692 -0.07529486 -0.0026714772 0.107321136 0.07460572 0.021996794 0.09419144 0.037359428
-0.045676872 0.10164761 -0.20702055 -0.06560472 -0.024361918 -0.13720007 -0.033905342 -0.061058927
-0.1482552 -0.021219112 -0.017388497 -0.20015743 -0.16983545 0.011817274 -0.11553485 -0.10038826
-0.076951995 -0.10321044 -0.012544108 0.38515535 -0.16722511 -0.072707914 -0.7247523 -0.1501055
0.27162024 -0.10429724 0.021358749 -0.119431354 -0.1751056 -0.041420914 0.11836806 0.081261046
0.19454469 0.46737576 -0.12831198 0.23961471 -0.030952692 0.3169487 0.019040443 0.4291532

network.MLP.0.bias f4 [64]
00000000: 30e5 28be 1632 b23e 1fae 493f 7dea 5dbc
00000010: 1693 4dbf 271b e8be aa9b e93e 0ee1 e43e
00000020: aa5c 463e de8e e83e 2cac 0b3f d4e3 aebd
00000030: 7b5d abb8 acc8 4d3e b9c3 b9be 9118 ea3c
00000040: 292e 2fbf fd66 86ba 7713 e8bd 5eaa d13e
00000050: 06e2 1dbe a621 4fbc 279a 1bbd 8451 da3c
00000060: 92da 5cbe e3ac 84be c010 343e 5472 e93e
00000070: 64b1 5cbe 930b f23d 6167 f9be 0831 9abf
00000080: 02e7 a93e ba0a 36be aad8 c8be b673 3fbe
00000090: 5bd4 4cbe c96b d2bd b42d dd3d 767e 063e
000000a0: 6779 11be 2312 fb3e be7c d6be bdcf 4e3f
000000b0: e5aa bebe 3691 cf3d 36b8 12bf c70f 933e
000000c0: 799e 293d 8306 cfb9 28b7 c3be 183a 6cbe
000000d0: 5eb8 163f 6eb8 de3e 1392 58be ecf9 11bd
000000e0: 3d84 12bd b354 4abe f3cb f5be 56f4 403e
000000f0: 4638 acba da1a 25bd 07da 01be 650a 143f
-0.16493678 0.34803838 0.7878131 -0.013544676 -0.8030256 -0.45333216 0.45626575 0.44702953
0.19371286 0.454215 0.5455959 -0.085395485 -8.1713275e-05 0.20096081 -0.36282137 0.028576167
-0.6842981 -0.0010254082 -0.113318376 0.40950292 -0.15418252 -0.0126423 -0.037988808 0.026650198
-0.21567753 -0.25913152 0.17584515 0.45595038 -0.21552044 0.11818614 -0.48711684 -1.2046213
0.33184057 -0.1777753 -0.39227802 -0.18696484 -0.20002882 -0.10274465 0.10799733 0.13134179
-0.14206468 0.49037275 -0.41892046 0.80785733 -0.37239757 0.10135119 -0.57312334 0.28722975
0.041410897 -0.00039486968 -0.38225675 -0.23069036 0.5887507 0.43500084 -0.21149473 -0.035638735
-0.035770644 -0.19758873 -0.48007163 0.18843207 -0.0013139329 -0.04030881 -0.12680827 0.5782836

network.MLP.2.weight f4 [64, 64]
00000000: 1853 573d be8d 1c3d 5cee 5cbe 4899 5dbe
00000010: 8bce 3a3e fb6b 3e3e 841b fd3d 524f 39be
00000020: 49b8 0a3e 6aa3 b8bd 4478 13bc 02ab c9be
00000030: 0693 e33c 1a00 1dbe 854e d63e 48c5 193d
00000040: b922 6f3e 77c2 adbc bf63 e33d 1377 053e
00000050: f436 d3bd 8df6 263e 30a7 a9bd bd9c 49bd
00000060: eaff b9bd 4898 cc3c 7da7 1bbe a067 f63d
00000070: 2503 933e 00b6 d3bd 0e12 9e3d e781 c7be
00000080: 0227 463e a2e6 d6bd f010 19bd 5508 e73d
00000090: 230c e73c d660 6dbd 773b cdbd 0b7b e93d
000000a0: a0de 823e 242e 733e 685e 393e 52bc 41bd
000000b0: 976a 38bd 4f22 5c3e 29e4 a33c 4444 f7bd
000000c0: cf28 28bd e23a 8e3d 4337 6f3d be9e d83d
000000d0: 8e46 dc3d e6c4 40bd 28ea 443c 791b 51be
000000e0: 3da5 0b3d e8af 89bc 6ccf 323d 2620 8e3c
000000f0: c64e 103d 3345 2d3d 8dcd 153e e614 cbbd
00000100: e8de c73c 6ce6 4d3d 21fd a73c 4c37 93be
00000110: 1540 853e 8168 b0be 3e2a c63c 3e05 863e
00000120: f981 34bc ecb3 c13e 6c8c f83d e04d 0abf
00000130: 40a1 d4bd a6fe 773e b791 b4bd 6b51 9b3d
00000140: 09aa 9e3d 8cd6 d8bb 9533 40be 0e90 8b3e
00000150: 4e26 913d 481e b4be 604a b13b b2e0 adbe
00000160: 1848 933d c675 483d 7b00 59bd a767 1d3e
00000170: 40fa acbd 462c c33d a124 623c 4d20 013f
00000180: c5c9 083e e0fe 863b f178 cb3c 7f1c b13d
00000190: f4d9 873c f449 81be a782 543e 3d45 d8bc
000001a0: 09d0 943d 1905 76bd 26fa d0bd 822a 203e
000001b0: 0fde 41be df12 28be f323 fb3d a062 5a3c
000001c0: d1ea 66bc a062 a83d 5f29 f7bd 0e44 98bd
000001d0: 46a6 dcbd 4929 7f3e 545e d6bd c11f 793e
000001e0: f117 1abe f0cb 93bc 2562 4e3e 3e80 a33b
000001f0: b43d 1ebe 67a0 f23d 5b5a 81be b6f5 813d
00000200: 589a d9bc e979 d8bc ef81 d7bc f9ff 063e
00000210: 361d b4bd 37b1 4f3e c11e 893d ab86 973c
00000220: 95ef 0abd a0dd 553e f1cc cdbd ca02 a83e
00000230: 9e17 cdbc 7773 a8be 8ff0 a93d 0445 b1be
00000240: fa62 afbd 5610 74bc 9ef9 52bc d582 6e3e
00000250: 108a c43d 9c1b d13d ea04 d73d bff6 623e
00000260: a2a4 9fbd a05f bbbd 071f df3d d1ce 25bd
00000270: 353b 42be 0317 20be 892b 03bd f5b3 8d3e
00000280: 2be8 34bf e431 b13d 1c82 f63d d7d8 b73d
00000290: 595f 933e af6c 4c3d 5470 93be f789 493d
000002a0: 82f6 9abe e737 96be 96f8 903d c12f 083e
000002b0: 2b8a a03e 7b74 09bf 4481 07be cc01 3c3e
000002c0: 5da2 26be 5435 033b 8a26 143d 5404 d93d
000002d0: 8423 b4be 1e34 363d a8f1 2ebd a725 9f3d
000002e0: 56c1 c33d 5086 5c3c bc8f 3fbe 60f7 803d
000002f0: a54b ea3a e20c 143e 0fb9 6d3e ba3b a13e
00000300: 0841 96bc 4007 4ebe 6c12 c7bc 2e8e 043d
00000310: c744 fe3d b00e 6abe edac 08be fe23 1cbf
00000320: 02b9 c1be 4f1f 9f3e 3c05 1bbe 6958 2abe
00000330: c1ca 97bc ce74 75be c7bc bebd b635 f2bd
00000340: 5295 ecbd c320 6b3d 180d 353e 30dd 12bb
00000350: 26e0 9abd 7322 a73e 44be c7bd 8949 bf3d
00000360: 4889 e2bd d77a 35bd c1ad 0d3f 03d1 27be
00000370: b173 8cbd c534 243c 8d42 423e 7d91 133e
00000380: ef4a ba3e 12ab d53d 3683 003e d084 bcbd
00000390: 91eb 37bd 3c31 8ebd 670f f4bc 66dd 34be
000003a0: 98cc 853e 23a5 d6bd a135 4ebd a634 9f3e
000003b0: f9f3 08be 9258 e9be c1c9 693e 54f4 b83d
000003c0: bc8b d63d ff57 ea3d cbfb 7bbe 24fc debd
000003d0: 1327 1fbe 43ae 97be 967f 973d d213 b13d
000003e0: 32d7 023e 949e b83d 376d 013e 0f26 9abe
000003f0: 0118 6d3d ade4 213e ba88 4b3a d73a 16bc
0.05256948 0.038221113 -0.21575302 -0.21640503 0.18242852 0.18595879 0.12358764 -0.18096665
0.13546862 -0.09015544 -0.0090008415 -0.3938828 0.027780067 -0.1533207 0.4185678 0.037541658
0.2335309 -0.021210892 0.111030094 0.13033704 -0.10313216 0.16304989 -0.082838416 -0.049221743
-0.09082015 0.024974957 -0.1520061 0.12031484 0.28713337 -0.10337448 0.077182874 -0.38966295
0.19350818 -0.104932085 -0.03736967 0.11280886 0.02820403 -0.057953678 -0.10021108 0.11400422
0.25560474 0.2374807 0.1810242 -0.047298737 -0.045023527 0.21497463 0.020006256 -0.120735675
-0.041054543 0.06944825 0.05840231 0.10577153 0.10755645 -0.047062777 0.012018718 -0.20420636
0.03409313 -0.016807511 0.043654844 0.017349314 0.035231374 0.04230232 0.14629193 -0.099160954
0.024398282 0.050268576 0.020506443 -0.28753126 0.26025453 -0.3445473 0.024190065 0.26175874
-0.011017316 0.37832582 0.12136158 -0.5402508 -0.103823185 0.24218234 -0.088168554 0.075838886
0.077472754 -0.006617373 -0.18769677 0.27258343 0.07087384 -0.35179353 0.0054104775 -0.3396049
0.07191485 0.048940443 -0.052978974 0.15371571 -0.08446169 0.09529929 0.013802678 0.5043991
0.13358219 0.004119739 0.024837943 0.08648013 0.01658342 -0.25251734 0.20752965 -0.026400203
0.07266242 -0.060063455 -0.10203962 0.15641215 -0.18932365 -0.16413449 0.12262716 0.013329178
-0.0140940705 0.08221936 -0.12068438 -0.074348554 -0.10773902 0.24918093 -0.104672104 0.2432852
-0.15048195 -0.01804158 0.20154627 0.004989653 -0.15453225 0.118470006 -0.25264248 0.06345694
-0.026562855 -0.026425319 -0.026307074 0.13183583 -0.08794634 0.20282446 0.06695319 0.018496832
-0.03391989 0.20885324 -0.10048855 0.32814628 -0.025035676 -0.32900593 0.08297836 -0.34622967
-0.085638 -0.014896473 -0.012876896 0.23292096 0.09596646 0.10210344 0.10498984 0.22164439
-0.07795073 -0.091490984 0.1089459 -0.04048044 -0.18967898 -0.15633778 -0.03202394 0.2767636
-0.7066676 0.08652094 0.12036535 0.08976906 0.28783682 0.049908336 -0.28796637 0.04920384
-0.30266196 -0.29339525 0.07078664 0.13299467 0.31355414 -0.5369336 -0.13232905 0.1836006
-0.16272874 0.00200208 0.036169566 0.10596529 -0.35183346 0.044483297 -0.04271093 0.077708535
0.0955836 0.013459757 -0.18707174 0.06297183 0.0017875327 0.1445804 0.23215126 0.3149088
-0.018341556 -0.20119953 -0.024300776 0.032362156 0.12415462 -0.22857165 -0.13347216 -0.6099242
-0.37836462 0.31078574 -0.15138716 -0.16635288 -0.018529298 -0.23970339 -0.0931335 -0.11826651
-0.11551918 0.05740429 0.17680776 -0.002240967 -0.07562284 0.3264347 -0.09753087 0.093401976
-0.110613406 -0.044306602 0.5534325 -0.16388325 -0.06858004 0.010022347 0.189707 0.14410968
0.36385295 0.1043302 0.12550053 -0.092050195 -0.044902388 -0.069429845 -0.0297925 -0.17662582
0.26132655 -0.10480716 -0.050344113 0.31094855 -0.13374318 -0.45575386 0.2283087 0.09030977
0.10475871 0.11442565 -0.2460777 -0.10887936 -0.1554225 -0.2962514 0.07397382 0.086463585
0.12777403 0.090146214 0.12639318 -0.3010716 0.05788422 0.15809889 0.00077642093 -0.009169302

network.MLP.2.bias f4 [64]
00000000: e970 22be e24a d5bd f568 663e c3d7 133e
00000010: e375 e4bf fd9c 98be 68fe b3bc d444 103e
00000020: 1aee 50be 82ca 8b3e 85a7 bd3c 7552 643e
00000030: 5aa2 893f 18b8 d5ba ee2a 463d b93b b4be
00000040: 0343 583e d196 983f f287 08bd 8347 023e
00000050: 236c 86be 468d 83be 2f84 5fbd b66c abbe
00000060: f2bf a2bd 535e 79bd 920b 11be 388b 4abe
00000070: 7230 913f 24b4 7f3f d77b c0bd 28a3 8ebf
00000080: ef41 be3d 8328 b4bc c1c0 d9bb 2679 07bf
00000090: 0a00 9c3d 2323 133e 9376 ca3e 6cc9 87bd
000000a0: 585c 663d fe9f e5bd 7b91 8abc 666e d8bc
000000b0: e8d4 0b3e 4fda 0ebd 81aa aa3d 4702 57bf
000000c0: 1c8f 683e c7d5 113e a4e2 05bf d347 8c3e
000000d0: cea0 f83d 11a1 56be dd26 6abe 6c43 e93e
000000e0: 96b9 e63a 23df 953c 5caf 28bf dd9f 163f
000000f0: 1a09 0bbe 1239 3138 079d 943d 5db9 a9bc
-0.15863384 -0.104146734 0.22500975 0.14437775 -1.7848476 -0.29807273 -0.021971896 0.14088756
-0.20403329 0.2730294 0.023151169 0.2229708 1.0752671 -0.0016305475 0.048380785 -0.35201815
0.21119313 1.1921026 -0.033332773 0.12722592 -0.26254377 -0.2569372 -0.05456942 -0.33481377
-0.07946767 -0.06088097 -0.1416457 -0.1977967 1.1342909 0.9988425 -0.093986206 -1.1143541
0.092899196 -0.021991974 -0.0066452925 -0.5291923 0.07617195 0.14368872 0.3954359 -0.06630215
0.05624041 -0.11212157 -0.016915074 -0.02641983 0.13655436 -0.034876164 0.08333302 -0.8398785
0.22710842 0.14241706 -0.5229895 0.27398548 0.12140046 -0.2095988 -0.22866388 0.4555925
0.0017602916 0.018294876 -0.6589258 0.5883768 -0.1357769 4.225324e-05 0.07256513 -0.02071827

network.MLP.3.weight f4 [64]
00000000: 8dfa 383f 1b93 a33f 6c85 b23f a7d5 b03f
00000010: 34e1 5b3f ef77 8c3f 38b9 a63f a40c c83f
00000020: c8a7 963f a877 cf3f a2dc 863f c536 b93f
00000030: a146 3f3f 6a8c ae3f f662 bc3f 1445 ab3f
00000040: e673 cd3f 5a06 e83e 47c7 a63f 92c1 c73f
00000050: 0f5d 4f3f a90f 3a3f 383d e63f 6f74 c23f
00000060: 122a cb3f a21e 903f 6b53 ac3f 3a21 8f3f
00000070: c312 cc3c 19ba 463f ba0f ce3f 5494 8c3e
00000080: ed32 9f3f ba7a b83f 0341 853f abf4 033f
00000090: 1f7f 463f f4a8 d03f da44 6c3f 74dc 733f
000000a0: a7f0 663f e8cb 933f 1adb a93f 2e5b d13f
000000b0: 03da ba3f 91be ca3f 9232 b33f 6915 b23e
000000c0: 2ea2 b13f d0c9 833f d66e 463f 59e6 233f
000000d0: 0d25 ad3f edcc 813f 4742 873f 2051 183f
000000e0: 5146 6c3f cf7d bf3f d6ac e83e 12a6 003f
000000f0: 5223 ae3f ebbf eb3f 0894 8a3f dcb3 053f
0.7225731 1.2779268 1.3946967 1.3815202 0.8589051 1.0974101 1.3025274 1.5628858
1.1769953 1.6208391 1.0536082 1.4469839 0.74717146 1.3636601 1.47177 1.3380456
1.6050994 0.45317346 1.3029565 1.5605948 0.8100137 0.72680146 1.7987432 1.5191783
1.5872214 1.1259348 1.3462957 1.1182015 0.02491129 0.7762771 1.6098549 0.27456915
1.2437416 1.4412453 1.0410465 0.5154521 0.7753772 1.630156 0.9229256 0.9525826
0.90210956 1.1546602 1.326999 1.6355951 1.4597782 1.5839406 1.3999808 0.3478196
1.3877618 1.0295963 0.7751287 0.6402336 1.3526932 1.0140663 1.0567101 0.59498787
0.92294794 1.4960269 0.45444363 0.50253403 1.3604529 1.8417944 1.0826426 0.5222757

network.MLP.3.bias f4 [64]
00000000: 3f84 07bd 476f 613d 9afa 4c3e 304d 193d
00000010: 66ad 193e a099 9f3c e65f 12bb 0f51 7c3c
00000020: da68 393e dab8 12be 0c81 70be ee75 11be
00000030: 1697 89be dcc9 3d3c c60e 91bd 913f 353e
00000040: b6d2 40bd ef5d afbe 6197 b0bd b2ec f5bd
00000050: c8d7 903e e406 483e 9161 a23c 3f1e c23c
00000060: 766e 98bd c14f a6bc 78fa 823b e468 0c3e
00000070: b52b fdbd cbf9 6bbe 560f 883e 3473 733e
00000080: 6ebe 3ebd e7cb 37be fc00 e3bd 7145 fc3e
00000090: b2c3 18be de34 743d 6fc7 94be e535 19be
000000a0: 24fc 7b3e c79e 6f3e f47e bb3c 0d4c 253d
000000b0: 40ba 0a3b cadf c03c f964 293c 29bd ca3d
000000c0: a6f3 e8bd 68f3 d6bd 4177 853e e0b2 46be
000000d0: fd3a 683b 8c60 123e 8c6b 003e 1a07 e4be
000000e0: 28a9 cb3d 5fc4 603e 1558 b43e 05d2 79be
000000f0: e870 113e 590e b03d a926 b4bd ff20 4fbe
-0.033085104 0.055037763 0.20017472 0.037427127 0.15007553 0.019482434 -0.0022334992 0.015400185
0.18106404 -0.14328328 -0.23486727 -0.14205143 -0.26873082 0.011583772 -0.07082896 0.1770003
-0.04707595 -0.34251353 -0.08622623 -0.12008037 0.28289628 0.19533879 0.019821914 0.023696063
-0.07442944 -0.020301702 0.0039971434 0.13711888 -0.12361852 -0.23044507 0.265742 0.23774415
-0.046568327 -0.17948876 -0.11084172 0.4927173 -0.14918402 0.05962073 -0.29058406 -0.14961965
0.24607903 0.23400412 0.022887684 0.04035573 0.0021168143 0.023544211 0.010339015 0.09899361
-0.11374597 -0.10495645 0.26067546 -0.19404173 0.003543555 0.14294642 0.12541026 -0.44536668
0.09944373 0.2194991 0.3522345 -0.24396522 0.14203227 0.085964866 -0.08796436 -0.20227431

critic.0.weight f4 [1, 64]
00000000: a1e8 393e 7776 9cbc 47b1 8abc 76bd 29bc
00000010: 0892 94be ceb0 fa3a 86d4 383c a4b2 823b
00000020: 2ce0 e63c e229 19ba 62fe 733d b885 4c3d
00000030: 698f 1a3e c110 d23c 50ae a53c 4839 0cbd
00000040: b1bc 173d 5fe3 923d 5d5f 0e3c 1514 65bc
00000050: 3668 4ebc e5ff 4fbd fa91 b83c 9ecf 103c
00000060: 9afb 3c3d 8941 4ebc eb57 393d 77b4 f1bc
00000070: 41da 81ba ea92 783e 5235 993c 08f8 bcbc
00000080: 5045 af3b 85a7 a93c 5e45 173d 877a c7bd
00000090: aa87 a03d 61a4 feb9 6abf d93c 38f2 2f3d
000000a0: 17c3 1fbd cd3c 1dbc cf19 2f3c e3d2 01bd
000000b0: 8254 b2bc 83d4 b63c fc4b 2f3c fdf5 1abd
000000c0: 9f55 753d 5357 0e3d 4804 7d3b 1333 f83c
000000d0: 423b 463d 6b18 78bd 29df 923c 8445 7c3d
000000e0: 2f03 debc 50c7 7e3b 0c3e 4fbd 9c88 c73d
000000f0: 25c9 22bc d073 0b3d e89c db3c 2711 493d
0.18155147 -0.019099457 -0.016930236 -0.010360112 -0.29017663 0.0019126178 0.011281138 0.003988581
0.028183065 -0.0005842728 0.05956877 0.04993221 0.15093769 0.025642755 0.02022472 -0.034234315
0.037045185 0.07172274 0.008689729 -0.013981839 -0.012598088 -0.05078115 0.022530545 0.008838562
0.046138383 -0.012588867 0.04524986 -0.029504998 -0.0009906964 0.24274793 0.018702183 -0.02306749
0.005348839 0.020709762 0.036931388 -0.09740167 0.07838376 -0.00048569127 0.026580531 0.042955607
-0.03900441 -0.009597016 0.010687306 -0.031695258 -0.021768812 0.02231813 0.010699268 -0.03783225
0.059896108 0.034751248 0.0038607288 0.030297792 0.048396356 -0.06057016 0.017928677 0.061589733
-0.027101127 0.0038876124 -0.050596282 0.09742853 -0.009935652 0.034045994 0.026808217 0.049088623

actor.0.weight f4 [22, 64]
00000000: 4672 c4be 613a 24be 1251 0b3f e22b eabe
00000010: a8ac 8c3d f21c dbbe 944e 67be eeb6 a83d
00000020: 726c c53e bdc5 c73e ccdb cb3e 7f35 03bf
00000030: d58c 213e e050 a0be cf38 87bd 3967 e2be
00000040: f89a 94be 7d2b 213e 926a 58be efb3 343d
00000050: b9f1 853d 35da 8a3e ded5 313e a9ba 1d3f
00000060: 042f b1be d7cd 843d e0ed 763e 1bc3 3c3e
00000070: b031 cc3d 8cb0 edbd 4751 143e a12b abbd
00000080: 3a65 33be 171b a8bc 7591 8bbe b82d ab3d
00000090: 8a30 66be 4068 d6be 60bc af3e 5b83 9dbe
000000a0: 8435 8d3b 4943 90bd ee7f 86be 6f73 04bf
000000b0: ee90 75bd 4f57 eb3e 6c77 c03e c5bd 30be
000000c0: 6915 00be eeb4 80be e660 173d 6bc2 d33b
000000d0: 57b8 a73e 825e e23e 1a97 b73c bc7b 4c3e
000000e0: cae3 ce3d 31e7 e23e dc0b 04bd 0f4c 973d
000000f0: 466a 303e ed10 07bf 399a a43e 53d2 76be
00000100: 3474 283d 21ca adbe aff1 c1be 7ad7 98be
00000110: 2c23 843b d06d 2abd c4e4 e33d 649e a0be
00000120: 0a7c 373e fa7e 26be 6a7d 043f ef3d 80be
00000130: 375a aabd 2591 bd3e 4705 d6bc a30f 9cbd
00000140: c8ea e1be d2b6 12bb d5d4 09be 4bc7 04be
00000150: c11e e53e c178 bd3d f511 afbe 1163 7b3d
00000160: d126 113e fa59 91be 1b1b ab3e 478a a0be
00000170: 9298 993b 566e 403d e145 1fbe c413 da3d
00000180: f263 2abe 4fa7 253e 1ded 4cbd c4ac 1b3e
00000190: 243c a03e a247 be3c 87c1 2c3e 3dd4 ff3d
000001a0: 69f7 20be caaa 8cbe eff6 e43d 8474 843d
000001b0: 02e7 bdbe 8c70 7a3e 548e 7bbd d640 c1bd
000001c0: 2a7d f83e 42b4 c5be 31be 553e 4ca2 31be
000001d0: 413e 06be 6c8a cf3d 3050 323e 0b86 db3e
000001e0: 6568 bf3e 08b4 89be 9a1e 08be 3893 0b3e
000001f0: 5758 32be 6e76 23bf 6b1f 6e3e 4957 083e
00000200: d4bd 89bd f638 1bbe 8506 733d 6400 97be
00000210: 7953 013d 9402 4b3e 2229 32bd 6b98 a83c
00000220: d911 a6be d29e 0f3f 82af 053e 4978 8fbe
00000230: f253 c8bd c78c a1bd b789 cd39 a7aa 5b3e
00000240: 0284 40bc 3d9c 1b3a dac0 823d 7ea0 f33d
00000250: be16 2ebe 20dc 96be ebf8 8dbd 5000 e6bd
00000260: 18ed a93e 304c cebe ccff 903e 484d 8ebe
00000270: 7ad3 1dbd a25d 13bd b27e a8be 9ddc 9a3d
00000280: 959a 7cbe bf4b fe3d 98a0 05be af0b 5ebd
00000290: bab3 e03d 8d42 193f 854e 3ebd cdf1 2e3f
000002a0: 2d88 453e d318 cb3e d195 c23d 2411 43be
000002b0: 4040 113e b9c9 003f 461c 3a3e 9571 013e
000002c0: df8c 783e 0dd8 d7bc 8a57 25bd 5dea a9bd
000002d0: 4002 bebe 86ce eabd 500c af3e b40e 40be
000002e0: c06e 6dbe f4b7 3c3d 8382 a1be 7eac 343e
000002f0: 8c1d 9cbe 5916 a5be 5537 e4be 742f cc3e
00000300: 9164 e3bd 7bc9 92be 6274 55be 2051 0c3f
00000310: 6fa5 ea3d a66f 823e 3a83 c1be e3ea 0ebf
00000320: a27a febe a62e ce3e d542 36bd be3a 893e
00000330: 9aa1 483e 711e 99be 55ed ce3d 2d40 47be
00000340: 4c96 813d a24c 763d a69f c3bc 3775 983e
00000350: a4b0 5ebe dd74 67be 0fb1 e43c e724 16bd
00000360: 12f4 1abe e1a4 083d 63a2 62be 6e74 133d
00000370: d2a1 98bc 9761 a8bd b742 f7be ee0f 6d3b
00000380: cb65 c43e e07d 3bbe fdd1 2a3e 7284 77bd
00000390: 4f79 843e dc82 da3d fbc6 d33e 9cf9 963e
000003a0: e328 60be cac4 a7be 79e5 7c3e c720 4e3c
000003b0: 1803 98bc d5f5 973e 8a9a 503d b2af 1a3d
000003c0: 5319 9d3e d452 ba3e 68ea 973d c4fa 33be
000003d0: ac89 3cbf c12c 523e 0ef5 ddbe f9bd c63d
000003e0: 2c9c f6bd 75cf 11be aabd f0bd 871b 3bbd
000003f0: 1ee7 d53c 4cf1 fcbe 63f3 d63e 1dc7 103e
-0.38368434 -0.16037895 0.5442058 -0.45736605 0.06868869 -0.4279552 -0.22588569 0.08238016
0.385593 0.3901805 0.3981613 -0.51253504 0.1577638 -0.31311703 -0.06602632 -0.44219378
-0.29024482 0.15739246 -0.21134403 0.04411691 0.065402456 0.27119604 0.1736674 0.61612946
-0.34606183 0.06484573 0.2411418 0.18433802 0.09970415 -0.11605939 0.1448413 -0.08357931
-0.17519084 -0.02052073 -0.27259412 0.083583295 -0.22479454 -0.4187641 0.34323406 -0.3076428
0.004309358 -0.070440836 -0.26269478 -0.5173864 -0.05995267 0.4596505 0.37591112 -0.17259891
-0.12508167 -0.25138038 0.036957644 0.0064623854 0.32757828 0.4421273 0.022410918 0.19969076
0.10102041 0.4431701 -0.032237872 0.07387554 0.1722804 -0.527602 0.32148913 -0.2410367
0.041126445 -0.33943275 -0.37879702 -0.29851896 0.004032513 -0.04160863 0.11127618 -0.31370842
0.17918411 -0.16259375 0.51753867 -0.25047252 -0.08317988 0.370248 -0.026125563 -0.0762017
-0.44124436 -0.0022386801 -0.13460095 -0.12966649 0.44750026 0.092515476 -0.34193388 0.061373774
0.14174964 -0.2838896 0.33419117 -0.31355497 0.0046873773 0.046980225 -0.15554 0.10648301
-0.16639689 0.16177104 -0.050030816 0.15202624 0.31295884 0.023227517 0.168707 0.12491653
-0.1571938 -0.27474052 0.11179911 0.06467536 -0.37090307 0.24456996 -0.06141503 -0.094361946
0.48532993 -0.38614088 0.20873334 -0.17347068 -0.13109685 0.10133824 0.17413402 0.42875704
0.37384334 -0.26895165 -0.13292924 0.13630378 -0.17416511 -0.63852584 0.23254173 0.13314547
-0.0672566 -0.15158448 0.05933239 -0.29492486 0.031573746 0.19825202 -0.04349626 0.020580491
-0.32435492 0.56101716 0.13055232 -0.28021458 -0.09781636 -0.07888179 0.00039203253 0.21451817
-0.011750223 0.0005936062 0.0638444 0.11895846 -0.17000863 -0.29464817 -0.06932243 -0.11230528
0.331887 -0.402925 0.28320158 -0.27793336 -0.038531758 -0.035977967 -0.3290916 0.0756161
-0.24668343 0.12416791 -0.13049543 -0.05421036 0.1097178 0.59867173 -0.0464616 0.6833771
0.19290228 0.39667377 0.095012315 -0.19049507 0.14184666 0.50307804 0.18174848 0.12640984
0.24272488 -0.026348138 -0.040366687 -0.082966544 -0.37111092 -0.114651725 0.3418908 -0.18755609
-0.23186779 0.04607387 -0.31544885 0.17643926 -0.30491292 -0.32243612 -0.44573465 0.39879954
-0.11103166 -0.28669342 -0.20845178 0.54811287 0.11457335 0.25475806 -0.3779543 -0.5582716
-0.49702936 0.40269965 -0.04449733 0.2680263 0.19592896 -0.29906037 0.10103861 -0.19458075
0.06327495 0.060131676 -0.023879837 0.29776928 -0.2174707 -0.22603174 0.02791646 -0.036656287
-0.15132168 0.033360366 -0.22132258 0.035999708 -0.01863185 -0.08221739 -0.48293087 0.0036172825
0.38358912 -0.18309736 0.16681667 -0.060429044 0.258738 0.10669491 0.41362748 0.29487312
-0.21890597 -0.32767326 0.24696912 0.012581057 -0.018556163 0.29679742 0.05092863 0.037765212
0.30683383 0.36391318 0.07417756 -0.17576128 -0.7364757 0.20524885 -0.43351024 0.09704203
-0.12041506 -0.14239295 -0.117549255 -0.04568055 0.026111182 -0.49402845 0.41982564 0.14138456

actor.0.bias f4 [22]
00000000: 8591 50bd c9ac a3bd b805 ebbc d20d bebd
00000010: ce8a e3bb 021b 2c3d bc7c 913d 8f88 633d
00000020: d008 513d 8ffd 8cbc d04e ef3d 5564 8ebd
00000030: b69a 05bc 963e bebc 1476 9e3d c3b7 cf3c
00000040: f451 b43c 2404 a4bc 8bf2 9fb9 876f 12bd
00000050: 676c c43d 46b9 e5bc
-0.05092003 -0.079919405 -0.02868925 -0.0927998 -0.006944037 0.042017944 0.07103869 0.055550154
0.051033795 -0.01721075 0.11684954 -0.069527306 -0.008154562 -0.023223203 0.07737365 0.02535618
0.022011735 -0.020021506 -0.00030507552 -0.035750892 0.095909886 -0.028042447
