paper/training_results/seed-1/momarl/checkpoints/mlp_(negotiation=False)_(num_agents=12)_(window=False)_(reduced_space=False)_(fixed_savings_rate=False)_(rewards=['inverse_global_temperature', 'global_economic_output'])(wgen=uniform)(num_ensembles=1)(seed=1)_2025-01-14_21:49:52_w=[0.2598 0.7402].pt (torch, 38168 bytes, 9 tensors)

network.MLP.0.weight f4 [64, 18]
-0.14947681 0.16557656 0.17455763 -0.3306476 0.23604515 -0.43441427 -0.13261583 -0.08468977
0.00052693463 -0.10693246 0.013849725 -0.07525497 0.01132619 -0.07346429 0.034897182 0.11655622
-0.056566987 -0.14837164 -0.10746222 -0.093899064 0.005843818 -0.13443874 -0.019563781 -0.17653102
0.060695536 -0.13970973 -0.054759253 -0.15751322 0.0636788 -0.012687427 -0.22699311 0.1785824
-0.05029228 -0.16575724 -0.022134623 -0.0875557 -0.11182719 -0.1907886 -0.08558631 0.21257696
0.33659926 0.15850112 0.24127138 0.65464616 -0.16054633 -0.28072944 0.2968574 -0.0035223465
0.13921055 0.055798907 0.5389884 -0.07793365 -0.17078795 0.32116836 -0.074354626 -0.108980484
-0.13218865 0.0334297 -0.11367789 0.03804509 -0.060061928 0.10297619 -0.13288982 0.04818666
0.13394392 0.14376956 -0.054912288 0.008986804 0.10349145 0.046123825 -0.13798583 0.14703915
0.16284539 -0.19416161 -0.07439347 -0.1319126 -0.5505466 -1.293545 0.03486324 0.043216106
0.060264505 0.048928272 0.059605487 0.050782967 0.0505368 0.15733905 -0.010364216 0.048770007
0.29589823 0.13165401 0.09519028 -0.44298527 0.076727 -0.29746032 -0.23328915 -0.80747336
0.046614047 -0.41700092 0.1836674 -0.014026931 -0.3706583 -0.2366839 0.42336476 0.11872356
-0.103265375 -0.1731146 -0.35669217 -0.19173868 0.020104889 -0.22686642 -0.026839212 0.24189259
-5.388428 0.50614357 0.033353586 -0.017844975 0.004075683 0.0048822826 -0.031415097 -0.024319207
0.0054637403 -0.011968059 -0.0041797156 0.019084856 -0.058401793 0.002524062 0.09022369 -0.14865734
-0.010114928 -0.5828405 0.27844596 -0.8473881 0.37570366 0.14047028 0.25171912 -0.29407546
0.09100487 -0.593466 0.012916646 0.27383357 -0.2716285 -0.21012361 -0.33316055 -0.15673973
-0.003124549 -0.6910454 0.040584657 -0.090630256 -1.0064399 0.10571062 -0.11946414 -0.47338396
-0.5763125 -0.43712795 -0.35591123 0.1364062 0.01191512 0.22418536 -0.10692103 0.37968865
-0.22616807 -1.0658821 0.0180068 0.274025 -0.08734563 -0.13000236 0.48983523 0.06284493
-0.3889658 -0.0024867195 -0.11018604 0.24876192 0.02880931 -1.3244901 0.28933877 -0.020618768
-0.1998802 0.33619386 0.049708523 -0.15037689 -0.22322142 0.121113814 0.062326293 -0.1961676
0.25426295 -0.11014778 0.028755711 -0.3838542 0.11174259 0.18825306 -0.036738392 0.16582021
-0.66985184 0.08822294 0.48481268 0.27433687 -0.20154741 -0.15239862 -0.04466567 0.22769016
-0.25553104 -0.40041527 0.26039824 0.17193876 0.17919305 -0.533592 -0.6737377 0.5539452
0.5705694 -0.08649421 0.481866 0.19115846 0.14411938 0.20558648 0.13696055 0.40895262
0.04230093 -0.08071229 -0.34670088 0.022081148 -0.7193365 0.16695458 0.2783689 0.5975334
0.100607775 -0.09763699 0.42707238 0.4457636 -0.27424008 0.41241288 -0.5614293 -0.068452395
0.79055315 0.03190412 -0.13974787 0.047814842 -0.10350999 -0.02087303 -0.20202519 -0.110402375
-0.21138193 0.047171988 0.07642455 -0.19890304 -0.21365145 0.2156904 -0.17086606 -0.070425645
0.093168445 0.067087725 -0.12784432 -0.19081637 -0.034084238 0.015065146 0.08670486 -0.3370753
00000000: 7310 19be e78c 293e 3cbf 323e a44a a9be
00000010: d2b5 713e 8c6b debe 72cc 07be d571 adbd
00000020: fc21 0a3a 68ff dabd f5e9 623c 471f 9abd
00000030: 7c91 393c 7274 96bd 59f0 0e3d 07b5 ee3d
00000040: c9b2 67bd bcee 17be 2715 dcbd 274e c0bd
00000050: 807d bf3b 4faa 09be 3944 a0bc 8cc4 34be
00000060: e29b 783d 1110 0fbe 3d4b 60bd 254b 21be
00000070: 086a 823d edde 4fbc e270 68be 4ede 363e
00000080: 47ff 4dbd 44bc 29be ab53 b5bc 6750 b3bd
00000090: a705 e5bd 165e 43be e047 afbd c6ad 593e
000000a0: bd56 ac3e 1e4e 223e d80f 773e e496 273f
000000b0: 4266 24be c5bb 8fbe b1fd 973e 2bd7 66bb
000000c0: 368d 0e3e 658d 643d 25fb 093f ad9b 9fbd
000000d0: 09e3 2ebe 2e70 a43e 3d47 98bd 2931 dfbd
000000e0: 765c 07be 95ed 083d f4cf e8bd 2bd5 1b3d
000000f0: 7f03 76bd 2ee5 d23d 4514 08be 605f 453d
00000100: 9828 093e 5438 133e b5eb 60bd 633d 133c
00000110: 53f3 d33d 56ec 3c3d 284c 0dbe 6e91 163e
00000120: f1c0 263e 4dd2 46be 9b5b 98bd 1914 07be
00000130: 9ff0 0cbf e292 a5bf c2cc 0e3d 5f03 313d
00000140: ead7 763d 0369 483d e224 743d cd01 503d
00000150: adff 4e3d 7d1d 213e acce 29bc 0fc3 473d
00000160: f97f 973e 4fd0 063e 1ff3 c23d f7ce e2be
00000170: 0c23 9d3d b84c 98be 5ae3 6ebe 93b6 4ebf
00000180: 5fee 3e3d 2581 d5be 4f13 3c3e 36d1 65bc
00000190: edc6 bdbe 445d 72be 44c3 d83e 5625 f33d
000001a0: cc7c d3bd f444 31be 5ba0 b6be 2557 44be
000001b0: 02b3 a43c ac4f 68be e8dd dbbc b1b2 773e
000001c0: 016e acc0 a092 013f c59d 083d a02f 92bc
000001d0: 4f8d 853b 8efb 9f3b 1ead 00bd 1339 c7bc
000001e0: 2d09 b33b ae15 44bc fff5 88bb d857 9c3c
000001f0: b836 6fbd bc6a 253b 33c7 b83d a139 18be
00000200: 15b9 25bc 0935 15bf 7890 8e3e 6dee 58bf
00000210: 3b5c c03e 71d7 0f3e 54e1 803e 0f91 96be
00000220: c360 ba3d 63ed 17bf 57a0 533c ea33 8c3e
00000230: e412 8bbe a52a 57be 0594 aabe 6180 20be
00000240: 3cc5 4cbb 5ae8 30bf 193c 263d 5b9c b9bd
00000250: 06d3 80bf cf7e d83d 9da9 f4bd 625f f2be
00000260: 3789 13bf 3ccf dfbe ff39 b6be 11ae 0b3e
00000270: a337 433c d990 653e 6af9 dabd 8d66 c23e
00000280: 9a98 67be d36e 88bf ff82 933c 014d 8c3e
00000290: 44e2 b2bd 571f 05be afcb fa3e d8b4 803d
000002a0: 8626 c7be 3bf8 22bb 38a9 e1bd 72bb 7e3e
000002b0: 8101 ec3c e488 a9bf 3624 943e b1e8 a8bc
000002c0: 65ad 4cbe 9a21 ac3e 2a9b 4b3d 66fc 19be
000002d0: 2894 64be 850a f83d db49 7f3d 29e0 48be
000002e0: c12e 823e 2995 e1bd 1991 eb3c 8a88 c4be
000002f0: 4dd9 e43d 69c5 403e ff7a 16bd c6cc 293e
00000300: 697b 2bbf 3bae b43d 5e39 f83e e275 8c3e
00000310: 7262 4ebe 620e 1cbe 59f3 36bd 9c27 693e
00000320: f7d4 82be 3b03 cdbe eb52 853e b710 303e
00000330: 627e 373e 7c99 08bf 137a 2cbf 5acf 0d3f
00000340: d610 123f e023 b1bd 24b7 f63e 0bbf 433e
00000350: 0894 133e 4385 523e 633f 0c3e 3d62 d13e
00000360: bd43 2d3d 7c4c a5bd c782 b1be 86e3 b43c
00000370: 7026 38bf 24f6 2a3e 5e86 8e3e f3f7 183f
00000380: 730b ce3d e7f5 c7bd 3ba9 da3e 203b e43e
00000390: 3269 8cbe c827 d33e d5b9 0fbf c530 8cbd
000003a0: b161 4a3f e5ad 023d 111a 0fbe 7fd9 433d
000003b0: 0cfd d3bd ebfd aabc b1df 4ebe a41a e2bd
000003c0: 8174 58be 6a37 413d 7984 9c3d 3dad 4bbe
000003d0: 72c7 5abe f2dd 5c3e 83f7 2ebe 523b 90bd
000003e0: 19cf be3d 4a65 893d 9fe9 02be 5e65 43be
000003f0: ea9b 0bbd cdd3 763c 5192 b13d 2295 acbe

network.MLP.0.bias f4 [64]
0.46588355 -0.034825798 0.3847271 -0.0037188148 0.3004821 -0.11928558 -1.2040929 -0.43131262
0.31516618 0.0677559 0.31079563 0.46848178 0.18333809 0.6807239 -0.11389383 0.20688353
-0.2738187 -0.08617419 0.36603102 0.29949984 -0.36063704 0.015905745 0.39531526 0.48481658
0.48223615 -0.52208585 -0.22037451 -0.016029611 0.017436001 0.018671963 -0.19658096 0.19106136
-0.22454861 -0.5162067 0.0532935 -0.18300487 -0.6529019 0.11880295 0.8475226 -0.3108225
0.10768193 0.599458 -0.08144387 -0.4617217 0.3523074 0.23075256 -0.23437475 0.12541744
-0.09389378 0.04524365 0.3682481 -0.111932926 -0.21171984 -0.071892716 0.28750226 -0.45954248
-0.14646119 0.989816 -0.45552787 0.21404268 -0.815162 0.59630275 0.12348922 -0.20375359
00000000: 4a88 ee3e 7fa5 0ebd f3fa c43e 5cb7 73bb
00000010: cad8 993e 004c f4bd b71f 9abf 02d5 dcbe
00000020: 765d a13e 9bc3 8a3d 9b20 9f3e d8dc ef3e
00000030: fbbc 3b3e ec43 2e3f 2b41 e9bd 47d9 533e
00000040: f731 8cbe 187c b0bd 6b68 bb3e 0b58 993e
00000050: 6ba5 b8be c44c 823c c366 ca3e e139 f83e
00000060: a8e7 f63e 6ba7 05bf dba9 61be 8850 83bc
00000070: f2d5 8e3c f2f5 983c 854c 49be 97a5 433e
00000080: 12f0 65be 1f26 04bf 494a 5a3d a165 3bbe
00000090: 9424 27bf f64e f33d 3ef7 583f 2024 9fbe
000000a0: 5888 dc3d 1476 193f 0bcc a6bd c966 ecbe
000000b0: a361 b43e 664a 6c3e efff 6fbe 6e6d 003e
000000c0: 624b c0bd 6851 393d 048b bc3e 173d e5bd
000000d0: 16cd 58be 7d3c 93bd 7f33 933e 2749 ebbe
000000e0: ecf9 15be 9564 7d3f f33a e9be 012e 5b3e
000000f0: 75ae 50bf 4ca7 183f ebe7 fc3d c8a4 50be

network.MLP.2.weight f4 [64, 64]
-0.24392639 0.074280694 0.018684743 -0.05430218 0.2642279 -0.030751487 -0.5478371 0.1459454
0.0018643556 -0.122468606 -0.10456643 -0.09714036 -0.07613393 -0.09551121 -0.13406715 -0.26260793
0.7359438 -0.29963487 0.1611006 0.111057274 0.19836095 -0.018876988 -0.12004359 -0.16808349
-0.07713056 0.174404 0.09659582 -0.44278574 -0.13574894 -0.1452903 0.019938007 -0.084663235
-0.093312964 0.084205955 0.03572187 0.13076673 -0.5305575 -0.19061802 0.03429379 -0.015120106
0.005431285 0.12271154 0.108547464 0.16294152 -0.039595965 -0.086474694 -0.013945907 0.0042358343
0.06994609 0.1785369 0.07061421 -0.10103795 0.3061633 0.019229248 -0.19048698 -0.03274725
0.3294044 0.3041764 -0.016772797 -0.019838413 -0.14791329 0.104808025 0.14318699 -0.16059001
0.106526434 -0.11198375 0.22651063 0.052542802 0.12957121 -0.16687126 0.2667093 -0.05683996
0.04621481 -0.023080956 0.2901308 0.052242123 0.10535383 0.03046302 -0.21432598 -0.1476728
-0.1289528 -0.026402129 -0.20074335 -0.08041799 0.24732536 -0.21477814 0.06831033 -0.026692985
0.110105865 -0.18407309 -0.04673652 -0.26156715 -0.2161267 0.060693208 0.10395755 -0.041665636
0.06418951 -0.48700374 0.09038815 0.33814532 0.40761364 0.30548087 -0.07728325 0.007212029
-0.15530083 -0.050365824 -0.050199956 0.012626012 -0.0011387027 0.1600141 -0.04337062 0.025635632
0.11753314 -0.035164 -0.36852923 0.10833059 0.12718374 -0.107225224 -0.16318722 0.14709547
-0.04028762 -0.072139084 0.16012777 -0.13277844 0.32933024 0.22957203 -0.1774776 0.00087095966
-0.16287601 -0.028705457 0.02818452 0.043278374 -0.8795673 -0.5062724 0.9494969 -0.7506532
0.038459416 -0.07190677 -0.17488477 0.04030468 0.24100605 -0.62765574 0.11453614 -0.11782253
-0.9359563 0.0007164673 -0.35013887 -0.23779766 -0.5222405 -0.02694766 0.05704074 -0.5549801
-0.35238132 -0.10377622 -0.14724678 -0.24629667 0.036058627 -0.055502012 0.020290375 -0.0451445
0.030259624 0.2557732 0.16717306 0.32966068 0.94394076 -0.12105406 -0.3110358 -0.06730094
-0.12196216 -0.44136485 -0.118407235 -0.17727153 -0.303225 -0.1781235 0.0014322698 -0.1647995
0.7032834 0.3006126 0.061118204 0.019046113 0.30461836 -0.10396893 -1.6939737 -0.1326814
0.050061073 0.5607422 -0.10179099 0.041830976 0.2579392 -0.6089874 -0.13817665 -0.16879606
-0.09766852 -0.040279545 0.016278645 -0.08395446 0.07697753 -0.46668342 0.008365352 -0.018565096
0.12071503 -0.07906292 -0.12344581 0.1250411 -0.1268828 0.16279483 0.055870723 -0.027707668
-0.312768 0.017358823 -0.06904065 -0.21073586 -0.17947103 0.16301757 0.12309607 0.096316576
-0.05196803 0.10381542 -0.13232744 -0.091443494 0.36597264 -0.047691114 0.104834825 0.15244097
0.05084285 -0.008438423 -0.41016075 -0.35589403 -0.21006402 0.9432027 -0.012643714 0.16425468
0.19862057 0.033695817 -0.07985979 0.3069952 -0.029862233 0.29815793 -0.004337013 0.36410248
-0.48014662 0.14812465 0.22351272 0.02673158 -0.08353604 -0.013586715 0.19154687 -0.037595063
0.05304904 0.036691226 0.33966592 -0.3741368 0.192221 -0.24342854 0.32800364 -0.33073694
00000000: d7c7 79be 7a20 983d bf10 993c f66b 5ebd
00000010: e148 873e 8bea fbbc 0d3f 0cbf b672 153e
00000020: 655d f43a d2d0 fabd ed26 d6bd 86f1 c6bd
00000030: 1bec 9bbd 629b c3bd e648 09be 8c74 86be
00000040: d066 3c3f be69 99be 8ef7 243e ff71 e33d
00000050: 221f 4b3e eaa3 9abc 6ad9 f5bd 141e 2cbe
00000060: a1f6 9dbd f696 323e 07d4 c53d d0b4 e2be
00000070: c501 0bbe fbc6 14be 0855 a33c eb63 adbd
00000080: de1a bfbd 2c74 ac3d 1851 123d b7e7 053e
00000090: 9ed2 07bf 5f31 43be a577 0c3d 52ba 77bc
000000a0: ecf8 b13b 3050 fb3d 224e de3d 24da 263e
000000b0: 612f 22bd a519 b1bd 607d 64bc c1cc 8a3b
000000c0: e53f 8f3d 61d2 363e 2f9e 903d fcec cebd
000000d0: 70c1 9c3e a886 9d3c 050f 43be fb21 06bd
000000e0: b2a7 a83e 02bd 9b3e 1b67 89bc 2b84 a2bc
000000f0: 9576 17be 97a5 d63d 9c9f 123e b571 24be
00000100: 882a da3d bc57 e5bd 67f2 673e 1f37 573d
00000110: 51ae 043e 4de0 2abe 1f8e 883e 05d1 68bd
00000120: be4b 3d3d 4614 bdbc 068c 943e d6fb 553d
00000130: c0c3 d73d 958d f93c 4578 5bbe 8a37 17be
00000140: 340c 04be 4749 d8bc aa8f 4dbe 30b2 a4bd
00000150: dc42 7d3e cdee 5bbe 49e6 8b3d 3fab dabc
00000160: 2f7f e13d a87d 3cbe cb6e 3fbd 21ec 85be
00000170: 5150 5dbe 7199 783d b2e7 d43d 96a9 2abd
00000180: ca75 833d 8e58 f9be 6c1d b93d 6221 ad3e
00000190: bcb2 d03e fd67 9c3e ae46 9ebd e252 ec3b
000001a0: 2e07 1fbe 654c 4ebd 789e 4dbd 55dd 4e3c
000001b0: 8640 95ba bcda 233e 64a5 31bd d101 d23c
000001c0: 37b5 f03d 2008 10bd ddaf bcbe 6edc dd3d
000001d0: 743c 023e e698 dbbd 8d1a 27be 32a0 163e
000001e0: a204 25bd a8bd 93bd 89f8 233e 12f7 07be
000001f0: f99d a83e ee14 6b3e b0bc 35be 1d51 643a
00000200: f8c8 26be b527 ebbc 39e3 e63c aa44 313d
00000210: 532b 61bf 119b 01bf 3b12 733f cf2a 40bf
00000220: 9f87 1d3d db43 93bd fe14 33be 8516 253d
00000230: 4aca 763e 0cae 20bf ec91 ea3d f04c f1bd
00000240: d59a 6fbf 4ed1 3b3a 6745 b3be 3b81 73be
00000250: 8eb1 05bf 57c1 dcbc 8da3 693d 2d13 0ebf
00000260: 536b b4be a088 d4bd dcc7 16be 3235 7cbe
00000270: 36b2 133d 1456 63bd 0038 a63c 70e9 38bd
00000280: 08e3 f73c b4f4 823e 6a2f 2b3e 49c9 a83e
00000290: 1aa6 713f 31eb f7bd 1640 9fbe 13d5 89bd
000002a0: 4cc7 f9bd 93fa e1be 7e7f f2bd ab86 35be
000002b0: 4f40 9bbe 0266 36be 00bb bb3a 33c1 28be
000002c0: 620a 343f e5e9 993e 1557 7a3d 9806 9c3c
000002d0: f0f6 9b3e aaed d4bd 21d4 d8bf a2dd 07be
000002e0: d70c 4d3d cd8c 0f3f cb77 d0bd f556 2b3d
000002f0: 9b10 843e 99e6 1bbf 2e7e 0dbe e0d8 2cbe
00000300: 6f06 c8bd 2afc 24bd cb5a 853c 51f0 abbd
00000310: 65a6 9d3d 21f1 eebe d40e 093c d415 98bc
00000320: 7139 f73d bdeb a1bd 28d1 fcbd c60a 003e
00000330: 91ed 01be b0b3 263e b3d8 643d 31fb e2bc
00000340: 2123 a0be 1734 8e3c 2f65 8dbd 24cb 57be
00000350: 41c7 37be 14ee 263e cb19 fc3d a041 c53d
00000360: 6edc 54bd 2e9d d43d d880 07be ba46 bbbd
00000370: c460 bb3e c257 43bd a4b3 d63d 7c19 1c3e
00000380: 9840 503d 5041 0abc 9700 d2be be37 b6be
00000390: 061b 57be bb75 713f 9527 4fbc 6132 283e
000003a0: 3163 4b3e a004 0a3d 888d a3bd 7a2e 9d3e
000003b0: a4a1 f4bc 28a8 983e 801d 8ebb a46b ba3e
000003c0: c7d5 f5be fdad 173e 85e0 643e 30fc da3c
000003d0: f114 abbd d09a 5ebc dd24 443e 48fd 19bd
000003e0: f349 593d 8a49 163d b1e8 ad3e dc8e bfbe
000003f0: 95d5 443e 5545 79be 18f0 a73e 5a56 a9be

network.MLP.2.bias f4 [64]
0.07658702 0.0019754786 -1.0825895 0.09854828 -1.5562963 1.0880382 -0.11811436 -0.03145065
0.027706051 -0.16445358 -0.45911124 0.18735698 -0.2755083 -0.21500476 0.1270197 -0.016795432
1.1007744 1.7348653 0.31202862 0.28125888 -0.023716876 -0.41797364 0.06305502 -0.060385246
-0.045843646 -0.20270479 0.24064267 -0.026935214 -0.21977639 -0.15334675 -0.23520984 0.0032332097
0.12816007 0.052207045 0.30543324 -0.14142251 -0.2091932 0.38033468 0.28422397 -0.009380536
-0.16793165 -0.018624749 0.12504026 0.12822494 -0.29532164 0.26451424 -0.25843516 -0.103566036
-1.0356508 0.0027740363 -0.4338974 -0.109785736 -0.008035422 -0.27717605 0.031182818 0.037933324
0.30468503 0.0055444785 -0.29950544 0.10278888 0.02717344 -0.43277097 -0.020822126 0.13730773
00000000: a8d9 9c3d 0877 013b 4b92 8abf aed3 c93d
00000010: b834 c7bf d644 8b3f f1e5 f1bd 66d2 00bd
00000020: cdf7 e23c 8566 28be a110 ebbe 82da 3f3e
00000030: 6d0f 8dbe 352a 5cbe 7411 023e 9396 89bc
00000040: 2de6 8c3f 1110 de3f 37c2 9f3e 2a01 903e
00000050: e549 c2bc a400 d6be fe22 813d 8556 77bd
00000060: 8cc6 3bbd d891 4fbe 086b 763e 3da7 dcbc
00000070: 100d 61be ee06 1dbe d9da 70be 42e4 533b
00000080: 653c 033e 0ed7 553d bf61 9c3e 10d1 10be
00000090: be36 56be 3abb c23e ce85 913e d2b0 19bc
000000a0: 46f6 2bbe ee92 98bc 8e0a 003e 664d 033e
000000b0: 6634 97be 696e 873e 9d51 84be 6e1a d4bd
000000c0: 3590 84bf 9bcc 353b cd27 debe 58d7 e0bd
000000d0: 01a7 03bc 05ea 8dbe 1c73 ff3c f95f 1b3d
000000e0: adff 9b3e 75ae b53b c758 99be fa82 d23d
000000f0: d69a de3c 2894 ddbe 2a93 aabc 669a 0c3e

network.MLP.3.weight f4 [64]
0.8551837 1.0378239 0.6055735 1.7209234 0.48718444 0.46418425 1.4165759 0.99920493
1.1628658 1.3868402 0.73528874 0.6859297 0.99927896 0.91975164 1.335339 1.6898549
0.67272246 0.74424595 1.4496232 0.87076646 1.2069088 0.77743965 1.4704682 1.4457837
1.606145 1.3559803 1.0260737 1.039 1.2763493 1.1512463 0.8003358 1.2563293
0.9181035 1.1262527 0.7666475 1.273964 1.0545502 0.7416671 1.3608788 1.0412426
1.3070153 1.4729302 1.4662992 0.67968845 0.7756225 1.1434779 1.4984438 1.464016
0.47239596 1.4111543 0.88692474 1.0677961 1.4284365 1.1322786 1.5287048 1.5509734
0.9050005 1.5696739 1.2809212 1.5345818 1.4935282 0.55010885 1.2914201 1.6794505
00000000: 52ed 5a3f 6ad7 843f dd06 1b3f 3847 dc3f
00000010: 3d70 f93e 8fa9 ed3e 5c52 b53f e5cb 7f3f
00000020: c9d8 943f fb83 b13f e23b 3c3f 1799 2f3f
00000030: bfd0 7f3f d874 6b3f 63ec aa3f 2a4d d83f
00000040: 8a37 2c3f e786 3e3f 418d b93f 8dea 5e3f
00000050: fd7b 9a3f 4906 473f 4d38 bc3f 710f b93f
00000060: 2996 cd3f c390 ad3f 6256 833f f4fd 843f
00000070: 6a5f a33f 0a5c 933f cfe2 4c3f 66cf a03f
00000080: d508 6b3f 0c29 903f 0343 443f 4111 a33f
00000090: 80fb 863f e5dd 3d3f 4731 ae3f 7047 853f
000000a0: 474c a73f fa88 bc3f b1af bb3f 1000 2e3f
000000b0: 328f 463f 7c5d 923f 02cd bf3f e064 bb3f
000000c0: e2dd f13e b4a0 b43f 800d 633f 8bad 883f
000000d0: 02d7 b63f 81ee 903f 99ac c33f 4c86 c63f
000000e0: 1dae 673f 13eb c83f 3af5 a33f 2d6d c43f
000000f0: ef2b bf3f efd3 0c3f 414d a53f 3cf8 d63f

network.MLP.3.bias f4 [64]
-0.07085415 0.16305216 0.11496573 0.011966932 0.34146222 -0.21085486 0.06832403 -0.13477428
0.09874534 0.14250572 0.049697403 -0.14130992 0.101583585 0.117695086 0.08895722 0.0844808
-0.053305782 -0.075453356 -0.14454977 -0.07584848 -0.021452626 -0.093384385 0.15213792 0.013674889
-0.0021080594 0.021230793 -0.097818054 0.07885334 -0.07827285 -0.010811571 0.12608689 0.11504423
-0.061558697 0.04510771 0.1271397 0.054123428 0.11706333 -0.10845948 0.051928736 0.015049639
0.17438582 0.10067015 -0.06681738 0.15704243 -0.08564799 -0.18298851 0.04727439 -0.039817106
0.38065445 -0.048927713 0.13092628 0.1273149 0.071158275 0.24135122 -0.118560605 0.075555965
-0.19828223 0.10915219 -0.011262505 -0.03263557 0.0190222 0.30254382 0.04919598 0.013672035
00000000: fb1b 91bd 25f7 263e 2773 eb3d f310 443c
00000010: 23d4 ae3e 56ea 57be 78ed 8b3d 4502 0abe
00000020: ff3a ca3d 05ed 113e 818f 4b3d 8cb3 10be
00000030: 0e0b d03d 1f0a f13d 342f b63d 4504 ad3d
00000040: 2a57 5abd 4a87 9abd db04 14be 7356 9bbd
00000050: 6bbd afbc 5040 bfbd 0bca 1b3e a40c 603c
00000060: 5e27 0abb 33ec ad3c d554 c8bd dc7d a13d
00000070: 844d a0bd 0423 31bc ec1c 013e 4f9c eb3d
00000080: f924 7cbd ddc2 383d e930 023e 87b0 5d3d
00000090: e6be ef3d 0120 debd 3ab3 543d c392 763c
000000a0: 3292 323e 272c ce3d 8dd7 88bd bbcf 203e
000000b0: 3768 afbd 5761 3bbe caa2 413d 4317 23bd
000000c0: 24e5 c23e 6d68 48bd 8a11 063e d65e 023e
000000d0: 6ebb 913d c624 773e e7cf f2bd 16bd 9a3d
000000e0: 7f0a 4bbe 2f8b df3d 5f86 38bc e0ac 05bd
000000f0: 72d4 9b3c 06e7 9a3e b981 493d ac00 603c

critic.0.weight f4 [1, 64]
-0.023474086 0.048863847 -0.14863734 0.023442782 -0.18047749 0.078995995 -0.0043990905 -0.0024571184
0.029238798 0.027620988 -0.024891248 0.005675843 -0.02422001 0.02510884 0.053993974 0.028938614
0.1655038 0.2673466 0.027669368 0.027841995 -0.0025498176 -0.23875697 0.037520494 -0.005918936
-0.040074833 0.0144468555 0.0062167887 -0.0036443055 -0.030314187 -0.012471041 -0.0021576846 -0.019442348
-0.023830418 0.019024016 0.21274808 0.025344372 -0.022611361 0.014662336 0.023260545 -0.018365439
0.007887426 0.03195788 -0.0045285276 0.12613201 -0.18063131 0.017796144 0.01752584 0.0461625
0.020073632 -0.009012255 -0.033050533 0.044010714 0.025891243 0.034248736 -0.0236221 -0.0081592295
0.013336839 0.058501225 -0.01832445 -0.0075329235 -0.012046632 -0.020530691 0.072079904 -0.03222653
00000000: ba4c c0bc 7525 483d 6334 18be 140b c03c
00000010: 17cf 38be a7c8 a13d 3f26 90bb 9b07 21bb
00000020: 3486 ef3c 6945 e23c bbe8 cbbc 6cfc b93b
00000030: 0b69 c6bc 0eb1 cd3c c928 5d3d ac10 ed3c
00000040: d479 293e a7e1 883e dfaa e23c e514 e43c
00000050: d71a 27bb b57c 74be 17af 193d a2f3 c1bb
00000060: 8225 24bd 81b2 6c3c 34b6 cb3b 4dd5 6ebb
00000070: 7555 f8bc 5653 4cbc f167 0dbb 8f45 9fbc
00000080: 0238 c3bc 41d8 9b3c a2da 593e 009f cf3c
00000090: 763b b9bc 4b3a 703c e68c be3c 1e73 96bc
000000a0: 433a 013c 44e6 023d 0b64 94bb c028 013e
000000b0: 6af7 38be 38c9 913c 5a92 8f3c e414 3d3d
000000c0: 7571 a43c 23a8 13bc ff5f 07bd 9444 343d
000000d0: df19 d43c 6748 0c3d 2283 c1bc 4aae 05bc
000000e0: c282 5a3c fb9e 6f3d 281d 96bc bed6 f6bb
000000f0: 3d5f 45bc fb2f a8bc a19e 933d f7ff 03bd

actor.0.weight f4 [22, 64]
-0.31790438 -0.08324022 -0.057506558 0.6847637 -0.031388834 -0.18821895 0.19229886 -0.36560947
-0.16337194 0.34011552 0.15060937 -0.0879376 -0.22629479 0.0049100127 -0.64842755 0.4726516
-0.082770154 0.06545607 -0.37039572 0.26017562 0.03308945 0.003867874 -0.030510664 0.15503265
0.103608824 0.018825417 -0.12993766 -0.47983596 -0.08541506 0.03996565 -0.06676669 0.08718824
-0.015995806 0.10121939 -0.06952384 0.111492544 -0.037680503 -0.0043684323 0.25701302 0.2778097
-0.35385722 0.40944827 -0.039587073 0.047254473 -0.07061518 0.40464586 -0.31385463 -0.2012399
0.053850573 -0.04062772 0.07290029 0.07271279 0.48227817 0.087211385 -0.33931053 -0.5831975
-0.24444933 0.04083202 0.17939705 -0.26868767 0.27587435 -0.11806165 0.4062144 0.06371408
-0.10750321 -0.17915085 -0.054914605 -0.5402924 0.020999817 0.09914221 -0.18860178 0.4301702
-0.1799521 0.53223175 0.3424624 -0.28319216 -0.32014757 0.05217492 -0.111823685 0.29127145
0.04470509 -0.009344236 -0.18676198 0.1330337 0.13776432 0.04765097 -0.33016872 0.00631508
0.21000096 -0.21192974 0.011937421 -0.05584386 -0.4341151 0.17516404 0.19232449 -0.3424014
0.2764713 -0.03431579 -0.09284983 -0.056513254 0.35719416 -0.05352046 0.1502544 -0.3896352
-0.28604877 -0.31371912 0.17517309 0.030438716 -0.08642533 0.41730177 -0.018172039 0.15773913
0.028179275 0.2589807 0.46512285 0.072658926 0.39534548 -0.06762312 0.013503071 -0.19393693
0.1406185 -0.032987494 -0.23506755 -0.20443055 -0.10730903 -0.05072334 0.058649953 -0.722165
0.22880238 0.124662735 0.10420099 0.44481635 0.021455022 0.012627346 0.09940737 0.03823486
-0.14748774 0.511617 0.2744636 0.26155573 0.038286224 -0.3740419 0.26132733 0.13835768
0.007541667 -0.0019218653 0.19290693 -0.14705245 0.29436567 0.067882255 -0.5280959 -0.31539094
-0.16659006 -0.0041809236 0.3136575 -0.20019104 0.1145638 -0.46614265 -0.050827425 -0.070698746
-0.26802307 0.19946131 -0.05296745 0.13784876 0.22888811 0.01136408 0.27784428 -0.2662429
0.17126611 -0.06038593 0.38906986 -0.22866294 0.07889788 -0.02418036 -0.7259523 0.31708443
-0.095302045 0.078801475 -0.19936366 -0.41794422 0.104822636 -0.34638622 -0.15321994 -0.5625393
0.01955987 -0.050491754 -0.0032575508 -0.24323204 -0.49894097 -0.053834114 -0.2456091 -0.1730498
-0.014084209 0.13137098 0.047657806 -0.12255007 0.012547227 0.058167346 0.026313912 0.16990966
-0.07203958 -0.047029044 0.1666125 0.017058758 -0.18174812 -0.1883508 0.09366084 -0.51042444
0.08244368 -0.02099743 0.10206323 0.10953398 -0.056369074 -0.014888796 -0.047915626 0.09391203
0.5623107 0.32314086 -0.107743256 0.11883014 0.40347895 -0.1410186 0.08130084 -0.26064032
-0.48689818 -0.32886413 -0.12706564 0.05843934 -0.10460734 -0.07813792 0.0018577962 0.26275763
-0.020759642 0.05877954 0.092910305 -0.25861517 0.013978217 0.38559544 0.12073814 -0.08067882
-0.25156704 0.44130704 0.052065983 0.32042417 -0.26359743 0.40788835 0.30131975 -0.43817198
0.3155266 -0.45990473 -0.16338769 -0.28470027 0.0137830265 -0.14469694 0.3100475 -0.10292593
00000000: 5dc4 a2be d979 aabd ff8b 6bbd ad4c 2f3f
00000010: 9491 00bd 78bc 40be fee9 443e 2a31 bbbe
00000020: f94a 27be 9f23 ae3e 5839 1a3e a118 b4bd
00000030: d2b9 67be 2ce4 a03b 59ff 25bf 64ff f13e
00000040: 6683 a9bd d50d 863d 82a4 bdbe bd35 853e
00000050: ce88 073d 287c 7d3b 80f1 f9bc e1c0 1e3e
00000060: dd30 d43d c337 9a3c 610e 05be 0fad f5be
00000070: 17ee aebd 05b3 233d f9bc 88bd bf8f b23d
00000080: a309 83bc 1d4c cf3d 8462 8ebd 3456 e43d
00000090: df56 1abd 1125 8fbb 3697 833e 133d 8e3e
000000a0: c62c b5be 34a3 d13e 0e26 22bd e88d 413d
000000b0: b19e 90bd be2d cf3e 8eb1 a0be d511 4ebe
000000c0: 6b92 5c3d 4169 26bd bf4c 953d 71ea 943d
000000d0: 2aed f63e e29b b23d 1cba adbe 6e4c 15bf
000000e0: ed50 7abe 7a3f 273d dcb3 373e 6e91 89be
000000f0: 673f 8d3e 4eca f1bd 55fb cf3e 877c 823d
00000100: a52a dcbd 5273 37be 23ee 60bd 9a50 0abf
00000110: cf07 ac3c 120b cb3d d320 41be 453f dc3e
00000120: 5d45 38be 5740 083f 3b57 af3e 90fe 90be
00000130: 62ea a3be 5eb5 553d d103 e5bd 8821 953e
00000140: af1c 373d 9118 19bc 883e 3fbe fc39 083e
00000150: 1712 0d3e aa2d 433d e00b a9be bbee ce3b
00000160: 7e0a 573e 1c04 59be 2c95 433c 88bc 64bd
00000170: 5644 debe 345e 333e b6f0 443e 3c4f afbe
00000180: a58d 8d3e b78e 0cbd 0d28 bebd 717a 67bd
00000190: 27e2 b63e 4538 5bbd 4adc 193e 447e c7be
000001a0: fc74 92be cb9f a0be 9360 333e 9d5a f93c
000001b0: c3ff b0bd 94a8 d53e 87dd 94bc 5e86 213e
000001c0: 39d8 e63c 1e99 843e 9524 ee3e 34ce 943d
000001d0: b96a ca3e fe7d 8abd fc3b 5d3c 6797 46be
000001e0: 4cfe 0f3e e51d 07bd 8cb5 70be 3e56 51be
000001f0: d6c4 dbbd 47c3 4fbd ef3a 703d cedf 38bf
00000200: 2c4b 6a3e 2d4f ff3d 5467 d53d f8be e33e
00000210: 71c2 af3c eee2 4e3c 1796 cb3d 289c 1c3d
00000220: 0707 17be 55f9 023f 7e86 8c3e a2ea 853e
00000230: 04d2 1c3d 6b82 bfbe b2cc 853e a3ad 0d3e
00000240: 1720 f73b 19e7 fbba 6589 453e eb94 16be
00000250: 19b7 963e da05 8b3d 4b31 07bf ec7a a1be
00000260: 9696 2abe 2100 89bb b797 a03e e1fe 4cbe
00000270: 6da0 ea3d 40aa eebe 6b30 50bd 81ca 90bd
00000280: 523a 89be 963f 4c3e 66f4 58bd 3a28 0d3e
00000290: a561 6a3e 6830 3a3c 9b41 8e3e fd50 88be
000002a0: 6260 2f3e 3d57 77bd 2a34 c73e 9e26 6abe
000002b0: 3695 a13d e415 c6bc 03d8 39bf e458 a23e
000002c0: b82d c3bd ab62 a13d fd25 4cbe c9fc d5be
000002d0: 40ad d63d 8959 b1be b0e5 1cbe 9302 10bf
000002e0: 053c a03c 71d0 4ebd a27c 55bb d211 79be
000002f0: 3175 ffbe 2981 5cbd f480 7bbe f733 31be
00000300: 74c1 66bc 1d86 063e d534 433d 88fb fabd
00000310: e292 4d3c e240 6e3d 4690 d73c ccfc 2d3e
00000320: 7d89 93bd 87a1 40bd 789c 2a3e cfbe 8b3c
00000330: 2e1c 3abe 08df 40be 41d1 bf3d 2dab 02bf
00000340: 3bd8 a83d cd02 acbc 8706 d13d 5a53 e03d
00000350: 42e3 66bd 23f0 73bc 2d43 44bd f354 c03d
00000360: 98f3 0f3f b872 a53e 7fa8 dcbd 375d f33d
00000370: cb94 ce3e 2e67 10be 0e81 a63d a672 85be
00000380: b84a f9be e160 a8be 7f1d 02be 175e 6f3d
00000390: 603c d6bd c606 a0bd 4c81 f33a 2b88 863e
000003a0: 2010 aabc d1c2 703d c247 be3d 3569 84be
000003b0: e404 653c c46c c53e 8f45 f73d f03a a5bd
000003c0: 65cd 80be fff2 e13e 2443 553d a30e a43e
000003d0: 3ef6 86be bed6 d03e 9546 9a3e 1458 e0be
000003e0: b48c a13e a278 ebbe 1a4f 27be 3cc4 91be
000003f0: 34d2 613c 6f2b 14be 8cbe 9e3e d4ca d2bd

actor.0.bias f4 [22]
0.040179443 -0.054467715 -0.08027998 -0.03744034 0.033343617 0.027243476 0.052108847 -0.07848772
0.016062183 0.068490855 -0.020195752 -0.06220944 -0.045721438 0.03680056 0.059055876 0.02869176
-0.06844405 0.025170028 0.07166363 -0.021560844 -0.037778053 -0.057058528
00000000: 3393 243d 8a19 5fbd d569 a4bd 0b5b 19bd
00000010: 5193 083d b62d df3c 1670 553d 2bbe a0bd
00000020: d794 833c ef44 8c3d 9071 a5bc 53cf 7ebd
00000030: 6746 3bbd 2fbc 163d 93e4 713d fb0a eb3c
00000040: 652c 8cbd 6031 ce3c 62c4 923d 5ea0 b0bc
00000050: 29bd 1abd 34b6 69bd
