paper/training_results/seed-1/momarl/checkpoints/mlp_(negotiation=False)_(num_agents=12)_(window=False)_(reduced_space=False)_(fixed_savings_rate=False)_(rewards=['inverse_global_temperature', 'global_economic_output'])(wgen=uniform)(num_ensembles=1)(seed=1)_2025-01-14_21:52:39_w=[0.7705 0.2295].pt (torch, 38168 bytes, 9 tensors)

network.MLP.0.weight f4 [64, 18]
000000 2f b2 52 bb fc 1b 84 3d f5 10 87 3d 13 64 be bf
       -0.0032149663 0.0645065 0.06595031 -1.487429
000010 28 a1 87 3d 7d ae 40 bf 08 23 1b bd a9 a9 87 3d
       0.06622535 -0.7526625 -0.037875205 0.06624157
000020 bf 5d f0 3c ce 50 95 3d 38 1d e4 3d cc d0 1a bd
       0.029341577 0.07290803 0.111383855 -0.03779678
000030 16 dc bc ba c9 83 6a 3d 44 0a 14 3d b2 91 1f bb
       -0.0014408852 0.057254586 0.036142603 -0.0024348316
000040 da b6 a0 3d 43 32 2d 3e a0 71 a9 bd bc 74 a6 3d
       0.07847376 0.16913705 -0.082736254 0.08127734
000050 90 e4 90 3d 53 ed 70 bf e9 64 b7 3e 91 82 52 be
       0.07074845 -0.9411213 0.35819176 -0.2055762
000060 5f f0 b0 ba 2d 95 7e be 6c a3 95 3b 2d fe c0 3d
       -0.001349937 -0.24861594 0.0045666005 0.0942348
000070 2e 27 16 3e 60 4b b6 3e 93 db 3b bf 5e 6e b3 3e
       0.14663383 0.35604382 -0.7338192 0.3504514
000080 46 f1 f1 3d cc 4d 68 be a4 ff 46 bd 1e b1 6b 3c
       0.118135974 -0.22685927 -0.04858364 0.01438549
000090 ba 71 0c be 22 01 89 3e 0f e6 7f 3d 63 b6 6f 3f
       -0.13715258 0.26758677 0.06247526 0.93637675
0000a0 19 93 3b 3d 60 ea ab 3e ce 17 98 be 4a 6c 82 3c
       0.04579458 0.3357725 -0.29705662 0.015920777
0000b0 49 fc f7 bd 7e 32 cb 3d 5f a7 47 3e 85 ba 14 be
       -0.121086664 0.0992174 0.19497441 -0.14524277
0000c0 75 48 bc 3c 4b 07 75 3d 36 52 24 be 89 1b d4 bd
       0.022983769 0.05982141 -0.16046986 -0.103568144
0000d0 e2 56 b1 be cd 45 6a 3d 3d 47 98 bd 29 31 df bd
       -0.346366 0.057195473 -0.074354626 -0.108980484
0000e0 76 5c 07 be 95 ed 08 3d f4 cf e8 bd 2b d5 1b 3d
       -0.13218865 0.0334297 -0.11367789 0.03804509
0000f0 7f 03 76 bd 2e e5 d2 3d 45 14 08 be 60 5f 45 3d
       -0.060061928 0.10297619 -0.13288982 0.04818666
000100 98 28 09 3e 54 38 13 3e b5 eb 60 bd 63 3d 13 3c
       0.13394392 0.14376956 -0.054912288 0.008986804
000110 53 f3 d3 3d 56 ec 3c 3d 28 4c 0d be 6e 91 16 3e
       0.10349145 0.046123825 -0.13798583 0.14703915
000120 99 70 fb 3d 83 5d 48 bd 81 b1 86 bd 23 58 85 be
       0.12277336 -0.048917305 -0.06576825 -0.26043805
000130 f5 03 95 3e 29 72 ae bf d3 a9 c1 bd 3e 3a 99 3d
       0.2910458 -1.3628589 -0.094562195 0.07481812
000140 02 86 1f 3d 02 72 a6 bd b2 1b 7e bd f6 73 01 bd
       0.03894616 -0.08127214 -0.06203813 -0.03160473
000150 d3 bd 2a 3e 3a 47 dd 3d fa f3 10 3d 98 34 8a 3c
       0.16673975 0.10804601 0.035388924 0.016870782
000160 da ae 46 bd b6 ee 05 3e 2b e2 28 3e 20 98 0f bf
       -0.048506595 0.13079342 0.16492526 -0.560915
000170 36 4f 9b bd c6 be ed bd 71 41 81 bd 80 0f 67 be
       -0.07583468 -0.11608653 -0.0631131 -0.22564507
000180 af e8 d7 3d 98 bb 9b bd e5 73 5a be 82 73 c7 3e
       0.10542428 -0.0760414 -0.21333273 0.38955313
000190 1b 2e f1 3d 3a cb 7a 3e 06 e6 ae 3e 1f 6a cb 3e
       0.11776372 0.24491587 0.3415987 0.397294
0001a0 99 07 93 3d 17 77 1c 3e f2 5e 7f be 3c b7 c5 3d
       0.071791835 0.15279804 -0.24938563 0.0965409
0001b0 f0 43 6d 3c d1 86 51 bf 0b 36 9f 3b a5 f9 1d 3e
       0.01448153 -0.8184634 0.0048587373 0.15427263
0001c0 69 f3 22 c1 b2 7a 03 3f 09 7d eb 3c af 87 b8 3d
       -10.184426 0.51359093 0.028746145 0.090102546
0001d0 7e e5 42 3d 63 d2 85 bd 06 39 7e bd 80 f8 dc 3c
       0.047582142 -0.06534269 -0.0620661 0.026973963
0001e0 8a 34 b3 3d 6c 0c af 3d ae a2 19 bd b0 22 a7 3d
       0.087502554 0.08547291 -0.03750866 0.08160913
0001f0 8a a7 50 3d cc a5 7c 3c f0 13 14 3e 47 8a 7f 3e
       0.050941028 0.015420388 0.1446073 0.24955092
000200 9a 5b 7b 3b 4a d7 02 bf 36 f6 f5 3e 0d 2b 38 bf
       0.003835416 -0.51109755 0.48039407 -0.7194069
000210 e4 6f d2 3d 23 d5 a7 3d 0f c0 be bc b0 1a a2 3d
       0.10275248 0.081949495 -0.02328494 0.079152465
000220 a2 95 5b 3d fe 48 86 3c 0a af ab 3d 6e 28 f5 3d
       0.053609498 0.016392227 0.083829954 0.11970602
000230 f1 fe 1a be 24 48 30 3d 07 e0 61 bd 10 59 10 3e
       -0.15136315 0.04303755 -0.05514529 0.14096475
000240 31 f6 08 3d ba e7 2b be fa 01 e4 3d f4 7d fd bd
       0.03343791 -0.16787615 0.111331895 -0.12377539
000250 44 c5 2d bf 26 06 39 be 87 60 0f bf b0 31 81 3e
       -0.6787913 -0.18068752 -0.56006664 0.2523322
000260 4f b5 05 bf 6b 1a 33 be 6f e2 b3 be f7 19 26 3d
       -0.5222978 -0.17490546 -0.35133693 0.040552106
000270 8b 7f e4 be 6f 69 9b 3e 2d b8 02 be b1 05 40 be
       -0.44628558 0.30353877 -0.1276557 -0.18752171
000280 74 4d 70 3e 45 56 90 bf 04 6d 5d bc b0 5d 34 3f
       0.23467046 -1.1276327 -0.013514761 0.70455456
000290 80 a0 31 3d e0 d3 ae be a6 dc 30 3e ae 99 1f 3e
       0.043365955 -0.34146023 0.1727167 0.15585968
0002a0 fb 0f 4d be 0d e1 09 3e 97 d1 ba bd b3 90 4f 3e
       -0.20025627 0.13464756 -0.09122007 0.20270042
0002b0 2a 4e 5f 3e 1a fd 20 bf 74 2b 6c 3e 2d 63 3f bd
       0.21807161 -0.628862 0.23063451 -0.04672544
0002c0 eb a5 ab bd e0 25 7d 3e ac 96 4c 3e a8 49 05 bf
       -0.08381256 0.2472148 0.19979352 -0.52065516
0002d0 84 70 eb bd 47 a8 bc bc 36 a4 05 bd c5 d3 6b 3e
       -0.1149607 -0.02302946 -0.032627307 0.23030002
0002e0 d5 8f b2 bd 64 46 e1 bc 57 b4 d7 bd 14 41 36 be
       -0.0871884 -0.027499385 -0.10532444 -0.17798263
0002f0 c8 91 91 bd c6 35 c5 3b 95 53 4f bd 57 ca cb 3d
       -0.07107884 0.006018373 -0.05061682 0.09950703
000300 14 97 5f be 90 55 0f 3e ff 6c d0 3d 1d 3a c1 3d
       -0.21834975 0.13997483 0.10177039 0.09434912
000310 62 22 23 be ba cd 25 be ef ec 9c 3d af 3f 17 3f
       -0.15931085 -0.1619176 0.07662379 0.5908155
000320 66 8f 04 bf f0 96 38 3e 39 49 c6 bf 04 79 54 3f
       -0.5178131 0.18026328 -1.5491096 0.82997155
000330 bd 65 18 be 72 2f 9e bd a8 0e 80 bf e1 2a 6f be
       -0.1488256 -0.07723893 -1.0004473 -0.23356201
000340 9c 38 a7 be b9 ee 47 3d 71 1f a7 be 6b 3c 31 3d
       -0.32660377 0.048811648 -0.32641175 0.04327051
000350 9c b9 f1 bd ba 96 81 3d d7 32 b5 be bc 2d 72 bd
       -0.1180298 0.06327577 -0.3539035 -0.059125647
000360 0c b2 7d 3d 06 3c 15 3e 4c 8d 46 be 46 30 03 3f
       0.061937377 0.14573678 -0.19389838 0.51245534
000370 a3 4b 11 3f 4b 31 9f bf 3c ba 04 3f de e3 a4 be
       0.5675604 -1.2436918 0.5184667 -0.322051
000380 f4 01 ff 3e 3e b9 21 3c 3f 8a 39 3e 88 3b 00 3f
       0.49806178 0.009870825 0.18119143 0.5009084
000390 1c e4 81 3f 93 a8 aa be ed 2f f1 3d 23 b3 17 bd
       1.0147738 -0.33331737 0.11776719 -0.037036072
0003a0 a6 0b 0e bf 20 0d c9 3d 11 1a 0f be 7f d9 43 3d
       -0.55486524 0.098169565 -0.13974787 0.047814842
0003b0 0c fd d3 bd eb fd aa bc b1 df 4e be a4 1a e2 bd
       -0.10350999 -0.02087303 -0.20202519 -0.110402375
0003c0 81 74 58 be 6a 37 41 3d 79 84 9c 3d 3d ad 4b be
       -0.21138193 0.047171988 0.07642455 -0.19890304
0003d0 72 c7 5a be f2 dd 5c 3e 83 f7 2e be 52 3b 90 bd
       -0.21365145 0.2156904 -0.17086606 -0.070425645
0003e0 19 cf be 3d 4a 65 89 3d 9f e9 02 be 5e 65 43 be
       0.093168445 0.067087725 -0.12784432 -0.19081637
0003f0 15 ad a4 3d 85 5f 8c 3e 92 90 ad bd 8c 05 f8 be
       0.08040825 0.27416626 -0.0847484 -0.48441732

network.MLP.0.bias f4 [64]
000000 fd 21 3f 3f f0 bc fd 3d 7c 33 89 bd a2 e8 48 bb
       0.74661237 0.123895526 -0.06699273 -0.0030656238
000010 fc 3a 63 3f 94 7b 9e 3e 3f 29 9b bf 88 ed ac 3d
       0.8876188 0.30953658 -1.2121962 0.08443743
000020 d0 02 5b bd 5b c1 ee bd 4a 9a 7d bb 7e e5 f2 be
       -0.05346948 -0.116579734 -0.00386967 -0.47440714
000030 f0 73 fb bb e9 e4 9c 3e b2 4f 9c 3e 87 ed cb 3e
       -0.007673733 0.30643395 0.30529553 0.39829656
000040 1d 75 2b 3d cd bf c3 be e9 9c 02 3e 56 9f 91 3b
       0.041859735 -0.3823227 0.12755169 0.004444043
000050 2d aa fe bd 91 23 e7 bc 6e da 6b 3e 6f 00 af 3e
       -0.12434802 -0.028215202 0.23032543 0.34180018
000060 5f 98 80 3e 11 bb f0 be 59 1d 82 be d7 10 4d bd
       0.2511625 -0.4701772 -0.25413015 -0.050064888
000070 ce e5 95 3d f6 8a 32 be 85 4c 49 be 2d 77 7d 3e
       0.073192224 -0.17435822 -0.19658096 0.24752493
000080 12 f0 65 be 30 26 01 bf 96 50 c0 3d 79 6c 25 bf
       -0.22454861 -0.50448895 0.093903705 -0.6461864
000090 f3 fb cb be d0 f7 8d 3d 5c c9 0e 3f bd de 7c bf
       -0.3984066 0.06932032 0.55776 -0.9877737
0000a0 b6 0a 0d 3f fb 6f be 3e 0b cc a6 bd 9b 95 5f be
       0.5509447 0.3719481 -0.08144387 -0.21834414
0000b0 ac 85 10 3f 3d 88 8a 3e ef ff 6f be 78 a0 88 be
       0.5645397 0.27057067 -0.23437475 -0.26684928
0000c0 9d 2b ce 3d 5b fa b8 3c d6 40 a3 3d 17 3d e5 bd
       0.10066912 0.022580316 0.07971351 -0.111932926
0000d0 c9 3f 6b be 7d 3c 93 bd 06 e0 85 3c c5 c5 e3 be
       -0.22973551 -0.071892716 0.016342174 -0.44486824
0000e0 5f 68 ad be 66 40 72 3f 51 d4 07 3e 4c 54 05 bd
       -0.3386869 0.94629514 0.13264586 -0.032551095
0000f0 87 ac 48 bf cc 0a 2a 3e eb 2e 4b 3d d7 64 f5 be
       -0.78388256 0.16605681 0.04960529 -0.47928497

network.MLP.2.weight f4 [64, 64]
000000 6f 03 90 be 98 b5 c4 3c a6 af 1b 3c e9 2d 43 bd
       -0.2812762 0.024012372 0.009502327 -0.047651205
000010 0f 30 00 3d ff 13 01 3e fe 8f fa be 96 b4 af 3e
       0.031295832 0.12605284 -0.48937982 0.34317464
000020 c5 c9 86 bd 60 7c af bd e0 07 14 3e 16 6e bc be
       -0.06581453 -0.085686445 0.14456129 -0.3680274
000030 93 f1 27 bc 94 51 9e 3c 59 5a b6 bd 37 7d ba bd
       -0.010250467 0.019326009 -0.08903951 -0.09105914
000040 e6 8c 0a 3c 05 1d 0a 3c 49 0e 5c bb 2d 11 2a 3d
       0.008456444 0.00842977 -0.003357785 0.041520286
000050 97 2e 82 3d e3 92 c5 3b e0 69 5a bd f2 16 a0 bd
       0.063565426 0.006029473 -0.053323627 -0.078168765
000060 ff 65 99 bd 6d 75 5e be a5 7e ce 3c e2 c7 93 bd
       -0.07490157 -0.21724482 0.025206873 -0.07215859
000070 00 3c ac bd a0 6b 08 be 08 55 a3 3c c5 8e ca bd
       -0.084098816 -0.13322306 0.019938007 -0.098905124
000080 de 1a bf bd a8 e4 96 bd 7b 1b 77 bd ff 1a 8a 3b
       -0.093312964 -0.073678315 -0.06032894 0.004214644
000090 23 6c 17 3e 0e 9a 30 bd e3 75 53 3d 74 b7 1f be
       0.14787345 -0.043115668 0.051626097 -0.15597326
0000a0 43 ea 05 bc 33 b3 8c 3c 22 4e de 3d 38 a7 87 3c
       -0.008173528 0.017175293 0.108547464 0.016559228
0000b0 99 d6 16 3e fa 15 e6 3d 60 7d 64 bc ba ef 5d bd
       0.147303 0.112346604 -0.013945907 -0.0541837
0000c0 8e d6 f8 3c f2 7d 47 bd 05 64 d3 3d fc ec ce bd
       0.030375745 -0.048704095 0.103218116 -0.10103795
0000d0 34 06 3c 3d a8 86 9d 3c e9 1c e4 bc ed 52 23 bd
       0.045904353 0.019229248 -0.027845817 -0.039874006
0000e0 4f 56 22 3d 66 98 c6 3d 63 18 87 bd 82 a1 b3 3d
       0.03963309 0.096970364 -0.06596448 0.087710395
0000f0 c7 36 e0 bd bf 4d 38 bd 5a a4 13 3e 43 de 5a bd
       -0.10947948 -0.04499602 0.14418164 -0.05343462
000100 64 39 22 3f 0a 38 b5 3d 3a e9 56 3e 67 23 a7 3d
       0.6336882 0.08848579 0.20987406 0.08161049
000110 a9 b7 de 3d 5a 9f 89 bb ff 79 4c be 78 88 1f bd
       0.10874874 -0.0041999044 -0.19968413 -0.038948506
000120 58 be 2c 3e 6b e0 c5 bc 82 23 12 3c 9a 8a d8 bd
       0.16869485 -0.024154862 0.008919599 -0.10573311
000130 2f 2d 92 be e9 51 5e bd 42 0e bd 3d 1e db 16 be
       -0.28550097 -0.054277334 0.09231235 -0.14732024
000140 5e ea df 3e f1 41 0a bd 23 a3 ef be f4 d6 b0 be
       0.43733495 -0.033754293 -0.4680415 -0.34538996
000150 44 a3 32 be 67 5b a9 be d9 24 14 be 70 58 04 be
       -0.17445093 -0.33077547 -0.14467181 -0.12924361
000160 17 64 fc 3e 05 92 7a 3e 4b 35 f2 3c fb 2a be bd
       0.49295112 0.24469765 0.029566428 -0.092855416
000170 77 d3 9a be d6 44 02 3e b2 e7 d4 3d 0e 2d a5 be
       -0.3023946 0.12721571 0.10395755 -0.32260936
000180 ca 75 83 3d 1d 4b 34 3f fa c6 4e bd ae 74 54 3d
       0.06418951 0.70427114 -0.050482728 0.051869087
000190 1c d9 0d 3e cf 0c a7 be 59 97 0c be b1 88 67 3d
       0.13852352 -0.3262696 -0.1372961 0.056526843
0001a0 ee 2b 0d 3c d4 5b 52 3e 78 9e 4d bd e4 1b 68 be
       0.008616431 0.20542842 -0.050199956 -0.2266689
0001b0 58 d8 81 3d 37 68 de bd 64 a5 31 bd c5 4c ec bd
       0.063400924 -0.10859721 -0.04337062 -0.1153808
0001c0 ee cf c9 3c 84 61 4d 3e fd d7 e9 bd 6e dc dd 3d
       0.024635281 0.2005673 -0.114181496 0.10833059
0001d0 08 84 e3 3c e6 98 db bd 15 5f 4b 3f 8d d0 20 bd
       0.027772918 -0.107225224 0.7944196 -0.03926139
0001e0 e0 95 b1 3d 1d 50 72 bd 15 e9 9a 3e 4b cd 64 bd
       0.086711645 -0.059158433 0.30255952 -0.055859845
0001f0 b0 6a 9a 3e e4 2e 21 be ac 43 e0 bc 4d 82 6a 3c
       0.3015952 -0.15740544 -0.027376018 0.014313293
000200 82 5a 1f 3f ab 0d f3 bd 72 a0 ef 3d 7b 61 1d 3d
       0.6224748 -0.11867841 0.117005244 0.038423043
000210 53 b4 cc be b6 20 a9 bd cf 8f 47 40 2d 09 df be
       -0.39981326 -0.08258192 3.1181524 -0.43561688
000220 95 1a f6 3d 36 16 98 be ed 5a 09 be 7c 8b cd 3f
       0.12016789 -0.29704446 -0.13413592 1.6058192
000230 1a 5d 8f be 1f ef 1a be 30 c9 ac 3e a7 c1 24 3e
       -0.28000718 -0.1513028 0.33747244 0.16089498
000240 7d 0d 38 bc 80 93 37 bf d8 a4 93 be 09 9e 9c be
       -0.011233685 -0.7170944 -0.28836703 -0.3058932
000250 c2 46 c2 3d 22 42 6e 3e 37 25 94 be e5 a8 0e be
       0.09486152 0.23267415 -0.28934643 -0.13931616
000260 98 59 fb bc c6 28 6a 3f be 4c 52 3e 10 91 11 bf
       -0.03068237 0.91468465 0.20537087 -0.5686197
000270 71 9f a1 be bd c8 3a 3e 00 38 a6 3c c7 17 c5 be
       -0.31566957 0.18240638 0.020290375 -0.38494703
000280 08 e3 f7 3c 57 1a c7 3d d7 b9 b0 3d 1a 96 6a 3f
       0.030259624 0.09721821 0.08629196 0.91635287
000290 f1 f3 02 3f 3a 7b d4 3d fc 8d e8 be 3d 98 ea 3e
       0.51153475 0.10375066 -0.45420825 0.45819274
0002a0 b7 a4 e2 3d 33 9a 1e bf 7e 7f f2 bd 42 1f 1f 3e
       0.11066573 -0.6195404 -0.118407235 0.15539268
0002b0 e7 58 95 be 49 74 47 be 00 bb bb 3a ef 32 c3 3d
       -0.2916939 -0.19477953 0.0014322698 0.09531199
0002c0 1f 78 ad 3e 4b bd ca 3e ef 12 07 bd 98 06 9c 3c
       0.33880708 0.39597544 -0.03297704 0.019046113
0002d0 47 04 86 3c aa ed d4 bd 3a 3f e1 bf 96 9e 95 be
       0.016359461 -0.10396893 -1.759742 -0.29222554
0002e0 4c c2 32 bf 9d 30 dd be 55 05 48 3e 59 fb 0e 3c
       -0.69827724 -0.43201151 0.19533284 0.008726918
0002f0 c9 4d ce 3f b9 1a b8 3d cb 52 97 be fe 8c e9 3e
       1.6117488 0.08989472 -0.29555354 0.4561538
000300 2c f3 f8 3d 3d 7d ae be cb 83 c2 3d 59 81 de bd
       0.12155756 -0.34079924 0.09497794 -0.10864515
000310 2e 2e 80 3d ed ee ac be c5 65 b2 3e 37 60 26 bd
       0.06258808 -0.33776036 0.3484327 -0.0406191
000320 28 69 f8 3d 1d d9 e7 bc 62 f5 1f 3c bc c3 7a 3e
       0.12129432 -0.02830177 0.009763094 0.24488729
000330 fd aa 50 be f5 65 8a 3d 31 1a 1e 3e 3f ec 86 3e
       -0.20377727 0.06757728 0.15439679 0.26352116
000340 10 bf 73 be 52 36 04 be 1f 29 2a 3e 9d 3d 2c be
       -0.23803353 -0.12911347 0.16617249 -0.16820379
000350 77 ed 9f be 93 76 30 3e 75 0d 26 bd 33 b0 f5 bb
       -0.3123586 0.17232732 -0.040540177 -0.007497811
000360 89 8a c8 be 64 58 55 3e a8 0e 59 3d 12 cd a7 3e
       -0.39168194 0.208345 0.052992493 0.32773644
000370 c8 03 12 be d0 8b d0 3d a4 b3 d6 3d 5d bc ea 3e
       -0.14259255 0.10182917 0.104834825 0.45846835
000380 98 40 50 3d 8c 9d 4c 3e 32 eb ab be 76 98 f3 be
       0.05084285 0.19981974 -0.33577877 -0.47577256
000390 54 b6 ef 3c dd 60 40 3d 79 92 f0 bd 91 cb f6 3d
       0.029261746 0.046967376 -0.117466874 0.12050546
0003a0 e7 39 2e bc f2 12 3b 3d 88 8d a3 bd 34 cc a5 3e
       -0.010633922 0.045672365 -0.07985979 0.32382357
0003b0 a8 55 f2 bd eb d8 e9 3d 80 1d 8e bb b0 be ed bd
       -0.11832744 0.11418327 -0.004337013 -0.116086364
0003c0 8c 87 a6 3e f1 57 17 be 90 a0 4c bd 30 fc da 3c
       0.3252529 -0.1477964 -0.04995781 0.02673158
0003d0 2f e9 da 3e d0 9a 5e bc 41 c4 ed 3d 02 fe 04 3c
       0.4275603 -0.013586715 0.11609698 0.008117201
0003e0 7c 02 e9 bc ef ad 0e be 7c b8 48 be f5 48 20 3d
       -0.028443567 -0.13933538 -0.19601625 0.039132077
0003f0 5c 08 98 3e 82 dd 03 3e 5b 88 2f be f2 aa 0c bf
       0.29693878 0.12877467 -0.17141859 -0.5494834

network.MLP.2.bias f4 [64]
000000 32 64 f4 3e 55 08 6b bc 6f a2 54 bf ce 62 87 bd
       0.47732693 -0.014345248 -0.83060354 -0.066106424
000010 75 52 09 3f 51 12 d0 3e c0 56 ba bd ba 47 28 be
       0.53641444 0.40638974 -0.090985775 -0.16433612
000020 c7 cd 78 3d c2 52 48 be 7c 6f 13 bf 4f ee 23 3e
       0.06074312 -0.1956282 -0.57591987 0.16008876
000030 ef 35 b8 be c4 fa 02 be a1 8f e6 bd 9d bd ac bd
       -0.35978648 -0.12790972 -0.11257864 -0.08434603
000040 9d c8 31 3e 27 e7 d8 3e df fb f8 3e d0 a0 1c 3f
       0.17361684 0.42363855 0.48629662 0.6118288
000050 46 57 35 bd a7 13 82 bf 5e 3e ed bd de 65 c8 bd
       -0.044272684 -1.0162247 -0.11584161 -0.097850546
000060 1d e0 e2 bd 1c e3 6a be 68 39 2c bd 12 57 d2 bd
       -0.110779025 -0.22938198 -0.042046934 -0.102705136
000070 09 0e 94 be 96 41 fa bd 2e 62 bc be 2e 9b c2 bd
       -0.28916958 -0.12219541 -0.36793655 -0.095022544
000080 2d 24 25 3f db 71 f3 bd 47 20 3f 3f 03 6d 00 be
       0.64508325 -0.118869506 0.74658626 -0.12541585
000090 da 85 51 be 7c 49 24 3f 53 5a 5e 3e 15 23 4c 3e
       -0.20461217 0.6417463 0.21714143 0.19935258
0000a0 c4 23 83 be 46 fd 4d be 7f de c6 3e 04 d1 a5 3e
       -0.25613225 -0.20116147 0.38841626 0.3238603
0000b0 ac 2a 37 bf 41 4d 80 3e f5 00 bb be 9d aa 67 3e
       -0.7154949 0.2505894 -0.36524168 0.22623678
0000c0 bf 9c f8 be f0 60 01 3e 2a b4 14 bf 26 3a d4 be
       -0.48557088 0.12634635 -0.5808741 -0.41450614
0000d0 d5 3e 89 bd 30 a9 82 be 83 46 36 3e b4 23 3f 3d
       -0.067014374 -0.25519705 0.17800336 0.04666491
0000e0 93 71 a7 3e 31 17 20 3e 21 78 d4 be f7 f1 8d 3d
       0.32703838 0.15633847 -0.414979 0.06930917
0000f0 2b 89 00 be 87 76 75 be 69 70 be 3d 10 86 48 3d
       -0.12552325 -0.23970996 0.09298784 0.048955977

network.MLP.3.weight f4 [64]
000000 b8 ff 34 3f 7f 88 c5 3f 52 6e 21 3f ba 0e a4 3f
       0.70702696 1.543228 0.6305896 1.2816994
000010 a0 65 eb 3e d7 5c 91 3f be 1e f7 3f e7 7d c6 3f
       0.4597597 1.1356457 1.9306257 1.5507172
000020 38 8f e6 3f a7 3c cd 3f 65 f6 8c 3f 6c 3d 61 3f
       1.8012457 1.6034135 1.1012694 0.8798435
000030 f2 60 9c 3f 31 2e a4 3f da 14 bf 3f a2 08 a0 3f
       1.2217085 1.2826596 1.4928238 1.2502635
000040 4f e4 a2 3f 00 09 20 3f f6 ba 87 3f 2f 39 85 3f
       1.2725924 0.6251373 1.0603931 1.0408076
000050 a2 d9 af 3f 34 a6 63 3f ae 85 a6 3f 27 94 cc 3f
       1.3738291 0.8892548 1.3009546 1.5982713
000060 c5 30 bb 3f 82 98 b4 3f d4 0f 05 40 37 fd 91 3f
       1.4624258 1.4109042 2.079091 1.14054
000070 02 2e b6 3f 6f fd b7 3f 33 54 9c 3f c4 50 b9 3f
       1.423279 1.4374217 1.2213196 1.4477773
000080 9f bb 86 3f fb 99 94 3f 28 21 54 3f c3 40 b0 3f
       1.0526007 1.1609491 0.8286309 1.3769764
000090 a7 ca af 3f 1f d6 6e 3f 17 7f ae 3f f7 87 e8 3f
       1.373372 0.9329547 1.3632535 1.8166493
0000a0 1b 55 97 3f 2c d4 ae 3f 83 da 8d 3f e1 62 73 3f
       1.1822847 1.36585 1.108231 0.9507275
0000b0 57 d4 5c 3f b5 25 a3 3f be 44 88 3f 66 b6 bd 3f
       0.86261505 1.2745882 1.0645978 1.4821289
0000c0 16 a1 9c 3f a2 db d1 3f af 74 89 3f 22 4a 59 3f
       1.223666 1.6395152 1.0738734 0.8487874
0000d0 f2 6d c1 3f 62 73 9f 3f 47 3e b3 3f 4e ea c5 3f
       1.5111678 1.2457087 1.400338 1.5462129
0000e0 88 5b 89 3f 78 74 e1 3f d3 3c 93 3f b9 5e ca 3f
       1.0731058 1.7613668 1.1502937 1.5810157
0000f0 42 cf a1 3f 3f a5 8d 3f 24 94 da 3f 5d b0 cb 3f
       1.2641375 1.1066054 1.7076459 1.5913197

network.MLP.3.bias f4 [64]
000000 29 62 90 3d 03 0d 7c 3c 13 67 5f 3e 4e 8d 51 bd
       0.070499726 0.015383962 0.21816663 -0.05116015
000010 ba d6 0f 3f 2a ed 7d 3d d9 b2 34 3d 1f ee 22 be
       0.5618702 0.061993755 0.044115875 -0.15911148
000020 45 f7 5e bd 5d d0 0c 3c a7 e3 5a be bb 8f 25 bd
       -0.054435033 0.0085946 -0.21375905 -0.040420275
000030 d6 c3 02 bd bd bc 7f bc 36 72 17 3e 3e 72 82 3e
       -0.031925045 -0.015608964 0.14789662 0.25477785
000040 e2 b8 73 bd 2a a3 63 be b3 36 a3 3d 0a dc 1d 3e
       -0.05950249 -0.22230211 0.079694174 0.1541597
000050 16 6a 14 bd 67 21 a4 bd ba 47 0c 3d 6f 82 94 3c
       -0.036233984 -0.080141835 0.03424809 0.018128602
000060 1e f8 c8 bd 62 15 f9 3d cc ca 4f 3d 4e 8e 3e bd
       -0.098129496 0.121622816 0.05073051 -0.04652243
000070 18 3d 3a be 4f 5d b0 bc 65 7f 9f bc b8 d7 ae bb
       -0.18187368 -0.021528868 -0.019469926 -0.0053357743
000080 76 a9 f7 3d e8 11 04 3d a9 49 de 3d b3 05 1f bd
       0.12092869 0.03224364 0.10853893 -0.038823795
000090 87 31 66 bd b0 ae 09 3e 34 28 84 bc f7 5e b2 3c
       -0.056199577 0.13445544 -0.016132452 0.021773798
0000a0 59 32 c9 bd ba 7f cc bd b9 3a c0 3d 25 19 1c 3d
       -0.09824056 -0.099852994 0.093862005 0.038109917
0000b0 89 1b d3 bd 5c f2 36 be 73 bc 0a 3e 5b de 2c 3d
       -0.10307986 -0.1786589 0.1354845 0.042204242
0000c0 38 65 34 3e fc 01 15 be bc 6c 23 be 0d e0 aa 3c
       0.17616737 -0.14551538 -0.15959448 0.020858789
0000d0 39 b9 48 be 93 21 96 bd 81 55 1d 3d 49 a4 0f 3e
       -0.19601907 -0.073306225 0.03841162 0.14027514
0000e0 4f e9 3e 3d bb 4b ea bc b4 40 1a 3e ab 2d c5 3d
       0.04660922 -0.028600564 0.15063745 0.09627851
0000f0 64 6f 3d 3e 4b bd 25 be ad fa 1d 3d b7 eb f0 3c
       0.18499523 -0.16185491 0.03856914 0.029409273

critic.0.weight f4 [1, 64]
000000 0d e4 f8 3d 5f cc e3 3b 2c 7b 30 be fa 56 03 3d
       0.12152872 0.006951853 -0.17234486 0.03206537
000010 6a db cd 3d 6f 0d a8 3d 44 3f 9f bc 53 6c 8e bc
       0.100516155 0.08205687 -0.019439347 -0.017385637
000020 0d 14 ba bc af 92 d3 3b 5c 2c b0 be 14 58 59 3b
       -0.02271464 0.006456695 -0.34408844 0.003316407
000030 d7 ba 86 bc 2f cc ed 3c 9c 67 33 3d 1e a7 92 3c
       -0.016446514 0.029028026 0.04379998 0.017901953
000040 97 eb da bb 8d 7b 33 3e fd 2b 32 3d e9 f8 b4 3e
       -0.0066809165 0.175276 0.04349898 0.35346153
000050 e5 e5 55 bd f2 a8 94 be 43 4e a7 3c 8c cd b3 bc
       -0.052221198 -0.29035145 0.02042306 -0.021948598
000060 53 f1 e1 3c af ef 03 3b 21 45 0f bc eb 18 8c 3c
       0.027580893 0.0020131876 -0.008744509 0.017101726
000070 dd b9 81 3c 2f cd c0 bb 9b 59 04 bd 2b 54 87 bc
       0.015835697 -0.005883835 -0.032312017 -0.016519627
000080 e3 77 2f 3e 60 d0 b0 bc af fb 79 3e b1 14 07 3c
       0.17135577 -0.021583736 0.24412416 0.008244679
000090 bf e9 02 bb ce 61 a7 3e 22 e2 f3 3c 44 b5 44 3d
       -0.001997575 0.32691807 0.029770914 0.04802443
0000a0 21 e5 1c bd cc ee e0 bc 14 f7 c7 3c b0 f9 47 3d
       -0.03830445 -0.027457617 0.024409808 0.048822105
0000b0 de 7f 52 be 98 0a 48 3d c1 cb 19 3c 4b 43 1e 3d
       -0.2055659 0.048838228 0.009386958 0.038638394
0000c0 ac 4b fd 3c bf f9 f6 3c 2a 9d 92 be 3d 26 0d 3d
       0.030919872 0.030148385 -0.28635532 0.034460295
0000d0 95 fc 80 3c 60 b6 5d bc 6f d6 a2 3c 2e ec eb bb
       0.01574544 -0.013532251 0.01987764 -0.0071997857
0000e0 e8 e3 84 3d ce 12 a1 3c 77 67 6e 3c 3e 62 24 3d
       0.06488782 0.019662287 0.014551035 0.040132754
0000f0 00 ac 15 3b 48 18 53 bd 11 87 62 ba 08 08 8a bc
       0.0022838116 -0.05153683 -0.0008641342 -0.016849533

actor.0.weight f4 [22, 64]
000000 db c0 7e 3e 9c 0e ba be 6f 21 bc bd 77 45 e6 bc
       0.24878256 -0.3633927 -0.091860645 -0.028109295
000010 4b 65 f6 bd cd 28 a2 be e0 2e 97 3d 4b a1 83 be
       -0.12031039 -0.31671754 0.073819876 -0.25708994
000020 4d bc db 3d d7 81 c7 3e 2e 2b ce be e2 0a 1c 3e
       0.10729275 0.38966247 -0.40267318 0.15238526
000030 45 51 62 3b 05 5a f4 3e 24 16 df be 43 01 0b 3f
       0.0034533304 0.4772493 -0.4357158 0.542988
000040 80 d2 d4 3e 06 9f 7d 3d d9 05 3d be ed 2b a4 3e
       0.4156685 0.061919235 -0.18459262 0.32064763
000050 18 0a ae bd fe 6e c5 bd ee ea 29 3e 35 70 26 3e
       -0.08498019 -0.09640311 0.16593525 0.16253741
000060 3d 6b ea bb aa 6f 08 3f 97 87 ed 3e 23 a8 59 be
       -0.007153897 0.53295386 0.4639251 -0.21255545
000070 b7 0c 4b bb 3e 22 50 3e 85 4b 03 bf c4 12 4d 3c
       -0.003098292 0.20325562 -0.5128711 0.012516681
000080 47 82 a5 3e 61 5d 92 be ed 97 07 3c 7d ef b1 3e
       0.32325956 -0.28586867 0.008275968 0.34753028
000090 75 8e 2b 3e 6a eb 1a 3e 94 cb 35 bf ea 12 75 3f
       0.16753562 0.15128866 -0.7101376 0.95731986
0000a0 ac 45 01 bf 85 35 f6 bd 21 7e 38 3d f7 65 69 3e
       -0.50496936 -0.12021927 0.04504216 0.22792803
0000b0 c2 83 37 be 1f 50 6c bd 13 a1 91 bd e3 0c 4e 3f
       -0.17921355 -0.057693597 -0.071108006 0.80488414
0000c0 6d bb 05 be 44 05 60 bf 07 c3 a1 bc 86 a1 98 be
       -0.13059779 -0.87508035 -0.019746317 -0.29810733
0000d0 74 58 e8 bd d2 19 09 bf 41 ba be be 69 29 8c be
       -0.11344996 -0.53555024 -0.37251475 -0.27375343
0000e0 8a 1c 45 3d 06 95 bb 3e fd 65 5b be e1 5b 26 3e
       0.04812292 0.36637133 -0.21425624 0.16245987
0000f0 1a b4 86 be 00 32 bd bd df 36 89 3e d4 89 b8 3e
       -0.26309282 -0.09238052 0.26799676 0.36042655
000100 a0 50 a5 3d 39 ac 14 bf 3d be bc bb 08 d8 61 3c
       0.080720186 -0.5807529 -0.005759983 0.013784416
000110 70 42 bc bd f1 0f dd 3d 45 85 d6 3b 2e 97 41 3f
       -0.091923594 0.10794056 0.0065466487 0.75621307
000120 b2 72 32 3f 3c ba df bc cc 78 16 3c 15 e4 d7 3e
       0.6970626 -0.027310483 0.009184074 0.421662
000130 4d 00 7f 3e fe 22 cf bd 8e 31 a6 3e a8 59 b9 3e
       0.24902458 -0.10114096 0.32459682 0.36201215
000140 02 ed c0 3e 7a f4 ce bb 46 65 13 3e 69 8a 2f 3e
       0.37680823 -0.006315765 0.14394102 0.17142643
000150 5b b0 0b be 7d bb 40 bc 14 3e d2 bd 09 e5 20 3f
       -0.13641493 -0.011763451 -0.10265747 0.6284948
000160 fa c2 38 3d 25 70 36 3e a8 fc 82 be 8e f5 58 be
       0.04510782 0.17816217 -0.25583386 -0.21187422
000170 49 0f 65 3b 6f 6e 0c 3f 7c 05 2b 3e 94 15 1f bf
       0.0034951738 0.5485601 0.16701311 -0.621423
000180 93 55 0f bd fd 1e 8c 3e 0f dd 12 bd f2 cb e4 bd
       -0.03499372 0.27367392 -0.03585535 -0.11171712
000190 71 4e ec be ee f9 ba 3d 61 33 93 bc 4c 33 b3 3e
       -0.46153596 0.091297016 -0.017968835 0.35000074
0001a0 98 80 b6 be 92 94 23 be 7e ea c7 be 84 1f b4 3e
       -0.35644984 -0.15974644 -0.3904609 0.35180295
0001b0 34 8e 90 bd 11 a9 a4 3e c4 c1 81 be 51 ff a9 bd
       -0.07058373 0.32160237 -0.25343144 -0.08300651
0001c0 9b 03 97 be cf 3a e1 bd b5 0e a5 bd 64 58 a5 3d
       -0.29494938 -0.10997545 -0.08059446 0.080735
0001d0 94 dd f9 3e 6a a3 ea be 9f 18 1a bf 9c 07 b7 be
       0.48801863 -0.458278 -0.6019382 -0.35747993
0001e0 c4 42 61 3e 27 4d f0 be 52 e5 99 bc b6 4d a7 3d
       0.21998125 -0.46933863 -0.018786106 0.08169119
0001f0 79 50 5e 3e 57 33 e4 be fe c6 ce 3c ac a5 b4 be
       0.21710385 -0.4457042 0.025241371 -0.35282648
000200 be 65 87 3b 4d 70 be 3e b2 6b 73 3b 1f e9 2f be
       0.0041320017 0.37195054 0.0037143049 -0.17178772
000210 57 4b 0f be ae ab 3b 3d 05 65 b0 be 98 71 a8 3d
       -0.13993584 0.045818023 -0.34452072 0.08224791
000220 78 81 0c be 7a 0e 03 3f 10 ee bc b9 e4 0d 69 3e
       -0.13721263 0.51193964 -0.00036035525 0.22759205
000230 6d 9a ce be 82 a2 28 be fe 96 8e be d3 76 89 3e
       -0.40352193 -0.16468242 -0.27849573 0.26848468
000240 dd 54 82 bd 95 7f 18 3d bc cd ad 3e 0e ba d1 3d
       -0.06363843 0.037231047 0.33946025 0.10240565
000250 2d 98 35 bc c7 19 1b bd 31 99 ae 3d 98 91 bb be
       -0.011083645 -0.03786638 0.08525313 -0.36634517
000260 b4 cb d5 3d b3 b0 77 bd 77 0f 81 3e 49 60 42 3e
       0.10439244 -0.060471248 0.2520711 0.18982042
000270 ef 78 2e 3d 96 08 e0 3e 6e 1f 05 be 34 60 01 be
       0.0425958 0.4375655 -0.1300027 -0.12634355
000280 bc a2 eb bd 55 78 72 be 92 1f 29 3c 96 db 7e bd
       -0.115056485 -0.23678716 0.010322468 -0.062221132
000290 52 f7 50 bf 3a 59 3a be 8a ad 50 3e c0 d9 98 3e
       -0.8162738 -0.181981 0.203787 0.2985363
0002a0 79 2f 01 be 08 53 3f 3e 80 17 46 bd 8e 48 a3 3e
       -0.12615766 0.18684018 -0.048362255 0.31891292
0002b0 ec 2b 32 bd 6e 4f a3 3e a6 e5 bb bd 89 0a 74 be
       -0.04349892 0.31896538 -0.09174661 -0.23832144
0002c0 1b ce bc be 5b ab e1 bd 09 d0 aa 3e be 25 e9 bd
       -0.36875996 -0.110190116 0.33361843 -0.11384152
0002d0 53 97 a3 be 1c 5a 89 3e af 01 7a 3e 62 9d 9d be
       -0.3195139 0.2682656 0.24414705 -0.30784136
0002e0 5a e8 35 bd 01 b4 fa 3d 8c 7e 2a be 27 4d 77 3d
       -0.04441104 0.12241364 -0.16649836 0.060376313
0002f0 ac c2 41 3e c9 a3 8b be aa 22 20 3f 58 c7 28 be
       0.18921918 -0.27273396 0.62552893 -0.16482294
000300 17 e4 af 3d 0f a6 b9 3e 5b 3c 54 3d 67 db a0 3d
       0.085884266 0.36259505 0.051815372 0.07854348
000310 4d 83 51 3d 8f 6f 53 3e 37 19 ce be 4e fe 01 be
       0.05115061 0.20648025 -0.40253612 -0.12694666
000320 04 d0 18 bf 88 33 0c be 5b e6 2c bd 28 d2 45 3d
       -0.59692407 -0.13691533 -0.04221187 0.048296124
000330 9e 33 5a 3e 8f 05 7b 3e 46 bf ed be 2d 5e 41 3e
       0.21308753 0.24513839 -0.46434993 0.18883581
000340 87 18 e1 3d 4e 6d e6 3b 2d 5b be be 0c 9a 23 3e
       0.10991006 0.007032073 -0.37178937 0.15976733
000350 e4 8b 13 bd 6c 81 29 bd cb 57 b1 3d 4e 25 e0 3c
       -0.036022082 -0.041383192 0.08659323 0.027361538
000360 6c 56 bb bc 1b 94 42 3e ca 45 bd 3d 42 5d 8c bc
       -0.022868358 0.1900181 0.09241827 -0.017134313
000370 1c 85 70 bd 5f 1c 2c bf 6c 06 b6 be 7c 64 2b 3d
       -0.058720693 -0.6723079 -0.35551775 0.041843876
000380 45 de 14 3e f2 2f ba be dc 6f a5 bc 7c 0e 9d 3e
       0.14537914 -0.36364704 -0.02019494 0.30675113
000390 f7 47 d3 3e 77 3e b3 bc 24 fe c4 bd 3a 50 ac bd
       0.41265842 -0.021880371 -0.09618786 -0.084137395
0003a0 50 c2 13 3e a6 3a e7 bb 49 70 d8 bc a3 0e a9 bd
       0.14429593 -0.007056552 -0.02642073 -0.08254745
0003b0 a3 c1 4b be da e0 8e 3e 11 8e 17 bd 2e d3 ec 3d
       -0.19898085 0.27905923 -0.03700072 0.11563717
0003c0 0a 1f 82 3e a6 57 05 3d d0 1e e1 3e f7 05 b1 bc
       0.25414306 0.03255429 0.4396882 -0.02160929
0003d0 66 2c 0d 3e 56 bd f5 3d c9 4c 62 3d 2e 96 65 3d
       0.13786468 0.119990036 0.05524901 0.056051426
0003e0 01 f8 36 3e 33 f6 1a 3e b1 30 b2 be e0 01 af be
       0.17868043 0.1513298 -0.34802774 -0.34181118
0003f0 b8 a7 c7 bd 38 26 3d 3e 5c bf 08 bf cf d1 6c 3e
       -0.09748787 0.1847161 -0.5341699 0.2312691

actor.0.bias f4 [22]
000000 c9 f1 9f 3d 34 b5 55 3d 40 ef 65 3c 48 77 73 3a
       0.07809789 0.052174762 0.014034092 0.00092874886
000010 07 4f 93 3c 69 1b 0a bd 19 26 bc bd 5d b1 ee bc
       0.01798202 -0.033717547 -0.09186954 -0.029137308
000020 b6 c8 89 bd fc d4 c4 3c 4d 14 07 bc 20 7a 37 3c
       -0.06727736 0.02402734 -0.008244586 0.01119855
000030 78 7d 22 3d 64 70 17 bc 03 96 8c 3d 1b ce c9 bb
       0.039670438 -0.009243105 0.0686455 -0.006158603
000040 98 fa 5a bd 8d 60 af 3c 09 e8 e5 ba f8 1c 42 bd
       -0.05346164 0.021408344 -0.0017540465 -0.047390908
000050 db 53 0d bd 7a bc 26 3d
       -0.0345038 0.04070709
