paper/training_results/seed-2/momarl/checkpoints/mlp_(negotiation=False)_(num_agents=12)_(window=False)_(reduced_space=False)_(fixed_savings_rate=False)_(rewards=['inverse_global_temperature', 'global_economic_output'])(wgen=uniform)(num_ensembles=1)(seed=2)_2025-01-16_22:01:36_w=[0.1298 0.8702].pt (torch, 38168 bytes, 9 tensors)

network.MLP.0.weight f4 [64, 18]
000000 e2 69 79 be 6b 62 30 3f ea f6 6c 3e 36 6e 76 bf
       -0.24356797 0.68900174 0.23141065 -0.9626192
000010 34 16 8d be d9 ba 0d bf e0 f5 94 bd 91 68 ef 3d
       -0.27556002 -0.5536323 -0.072734594 0.11689866
000020 b2 50 60 3e 2a 1a a7 be 23 31 9c be 09 f0 a4 bb
       0.21905783 -0.3263715 -0.30506238 -0.0050334972
000030 3b ac a5 be 2b 9c 96 be 4b 74 df be 68 73 da be
       -0.32357964 -0.29416022 -0.43643412 -0.42666173
000040 28 9d 3a be 20 9a 5e be 50 56 35 bf c1 3b 4a 3e
       -0.18224013 -0.21738482 -0.7083483 0.19749357
000050 a0 8d 35 3e ac 2f 93 bf e7 ec a5 3e 96 0c 12 bf
       0.17729807 -1.1498923 0.32407305 -0.57050455
000060 06 f4 9a bd 6a 30 aa 3d 14 37 f3 3e 5a ba 87 bd
       -0.07566075 0.083100155 0.4750296 -0.066273406
000070 d6 7a 8f 3e b3 19 64 3e f8 fa 32 bd f6 3c a7 be
       0.28023404 0.22275428 -0.043696374 -0.32663697
000080 de 8a cb be bc 81 46 3e d1 19 73 bd 9c 6a 0f 3f
       -0.39754385 0.19385427 -0.059350792 0.5602205
000090 af 02 76 be cd d9 bc 3d c5 72 6c bd b9 2a 8d bb
       -0.24024461 0.0922123 -0.05772664 -0.0043080715
0000a0 09 be 0d be 8b 90 4d 3e 86 48 03 3e 11 ea e5 bd
       -0.13842024 0.2007467 0.12820634 -0.11226285
0000b0 4f 0f e6 3d 7d e5 80 bb c4 6d b1 3d 3c 03 2a be
       0.11233389 -0.003933607 0.08663514 -0.16602796
0000c0 ec 9e 51 be fd 28 b1 3c 22 16 6f be 64 50 57 3e
       -0.2047078 0.02162599 -0.23348287 0.2102676
0000d0 59 69 94 bd 65 c7 f7 bd b2 72 27 be bb fd 4c bd
       -0.07246656 -0.12098578 -0.16352347 -0.050046664
0000e0 1a a2 19 be 1d 0a f0 bd 2f 61 6d bc 31 21 f5 3d
       -0.15003243 -0.11720679 -0.014488502 0.119692214
0000f0 7c d5 3e 3e 3a 49 65 3e c3 55 18 3e a6 a0 0a 3d
       0.18636125 0.22391215 0.14876465 0.033844613
000100 22 21 be bd 2c 83 04 be 1d 60 1b be ea 53 f0 bd
       -0.09283663 -0.12940663 -0.15173383 -0.11734755
000110 0d 27 cb bd ed d0 f5 bd f3 82 b4 3d 58 be 51 3e
       -0.09919558 -0.1200274 0.08814039 0.20482767
000120 5f 09 db 3d 29 37 47 bd f4 f4 bf be bd 5e 1c be
       0.10695147 -0.04863659 -0.37491572 -0.15270515
000130 56 6f 32 bf ab 12 5b bf 6f 55 af 3e 94 84 8d 3e
       -0.69701135 -0.8557536 0.34244868 0.27640212
000140 4c 9c 38 3f d2 a7 10 bd d0 71 8f 3e e0 b1 b3 be
       0.7211349 -0.035316296 0.2801652 -0.35096645
000150 51 03 e4 be a8 87 20 bf f7 a1 04 bf 83 bd 3b 3e
       -0.4453378 -0.62706995 -0.5180964 0.18334012
000160 fe 91 23 3e ad f9 eb bb 19 29 08 3c 2f 0c 25 3f
       0.1597366 -0.0072013945 0.00831058 0.64471716
000170 c9 f6 6f be 32 0b 4d be 10 5d 87 3e 51 20 a5 3c
       -0.23433985 -0.20023802 0.2643819 0.020157011
000180 3f 35 1d be 89 04 12 3f e5 41 98 be b9 87 53 3e
       -0.15352343 0.5703817 -0.29737774 0.20657243
000190 57 b5 c7 be cb 0d 3e be 7e ef 68 be e7 99 be 3e
       -0.3900554 -0.18559949 -0.22747609 0.37226793
0001a0 64 4e db 3e 62 f8 9d be 0a 06 84 3e e1 28 fc bd
       0.42833245 -0.30853564 0.25785857 -0.123124845
0001b0 6a 6c bb bc d4 1a dc 3e af 07 a2 3d 0b b0 4e bf
       -0.022878844 0.42989218 0.07911622 -0.8073737
0001c0 bc d5 3e 3e 4a d3 ef be ab 09 8a 3e 28 6a de be
       0.1863622 -0.46840888 0.269605 -0.43440366
0001d0 84 17 20 bf f2 67 ee bd aa 20 a4 be 64 4b 79 be
       -0.6253588 -0.1164092 -0.3205617 -0.24345165
0001e0 7b 30 ab 3e 7d 86 6f be 1b 1b 78 3e 80 b2 65 3d
       0.33435425 -0.23391147 0.2422909 0.056078434
0001f0 d9 d5 07 3f 09 b6 3f 3e aa e4 82 be 85 5c 7e be
       0.5306068 0.18721785 -0.25565082 -0.24839981
000200 80 15 ca 3d 74 e6 79 bf 90 00 d4 3e d4 28 8a 3e
       0.09867382 -0.9761727 0.4140668 0.26984274
000210 16 12 4b bc 68 24 6f be 9b f7 8b 3d 6b fe 0e be
       -0.012394449 -0.23353732 0.06834336 -0.1396424
000220 30 24 bd be f1 a2 e0 bc 4d 54 96 3e 89 dc a1 bc
       -0.3694167 -0.027421447 0.2936119 -0.01975848
000230 e6 8e f3 3d 20 e4 b8 bc a4 ff 4b bc 2d 5d d1 3d
       0.1189249 -0.022569716 -0.012451086 0.1022285
000240 ab 64 47 be 73 e4 1a be 73 44 2d be ca 1e a7 3d
       -0.19471996 -0.15126209 -0.16920643 0.081601694
000250 b8 51 5a 39 41 d1 b2 bd c1 e9 c1 bd ec 64 56 3d
       0.00020820543 -0.08731318 -0.09468413 0.05234234
000260 d6 fa 15 3d 25 42 e6 bd 6f 65 87 bd b1 97 5d be
       0.03661617 -0.11243085 -0.06611144 -0.21639897
000270 5c 1c 39 be 49 48 92 bd 72 3b a2 3b 1e ea 4d 3e
       -0.18077224 -0.071426935 0.004950934 0.2010884
000280 74 37 86 bd da 32 61 3e b7 7f ce be 95 19 90 be
       -0.065535456 0.21992055 -0.40331814 -0.28144518
000290 f7 d1 e9 bc 3f df 4b 3f fe 9a 0f bd 6b 59 c7 3e
       -0.028542502 0.7963752 -0.03505992 0.38935408
0002a0 1b 9a 1d 3e 63 9b 72 bd a6 31 84 bd df c6 c9 3d
       0.15390818 -0.05923022 -0.06454782 0.09852385
0002b0 a9 35 0d 3e 3a 78 49 3e 92 47 45 3d d6 63 99 3d
       0.13790001 0.19674769 0.048163958 0.07489745
0002c0 d7 bf 8e 3d 3e 98 7c 3e 65 db d4 3d 72 27 44 3e
       0.06970184 0.24667451 0.10393409 0.19155672
0002d0 79 ec 84 be 76 7d f8 be 47 8f 30 bc b8 68 ab be
       -0.25961664 -0.4853322 -0.0107763475 -0.33478332
0002e0 1d 37 e0 be 0b 8a 81 bc fa cd 02 bf 98 7c cd 3d
       -0.43792048 -0.015812894 -0.51095545 0.1003353
0002f0 7c 18 d3 be 51 ca 9f bd 07 ef 0b 3f 09 03 11 3f
       -0.41229618 -0.07802261 0.546616 0.56645256
000300 12 5d 02 3f 65 c1 97 3d 95 50 58 3e 38 6d bd 3c
       0.50923264 0.07409934 0.2112449 0.023123369
000310 b5 a1 09 3f 7b 63 e8 bc 31 59 14 3e c0 6e 16 3e
       0.5376237 -0.028367748 0.14487149 0.14690685
000320 67 21 86 be de ac 13 bf f7 77 8b bd 40 8a 27 be
       -0.2619736 -0.5768565 -0.06809991 -0.16361332
000330 11 5a 9a 3d 6f 25 18 3e aa e8 37 3d c3 3f 6a be
       0.0753671 0.1485803 0.04489962 -0.22875886
000340 cd b2 75 3d 6b da b6 bd 5e 7a b5 3e a8 b9 62 3d
       0.05998497 -0.08928379 0.3544492 0.055352837
000350 fb 04 24 bc 93 e8 bb bd 58 6a e0 3d c7 22 d5 3b
       -0.010010953 -0.091752194 0.109577835 0.00650439
000360 9d 05 a8 3d 81 8d 04 c0 be 25 9b bd c5 da bc be
       0.08204196 -2.0711367 -0.07575558 -0.36885658
000370 13 7b 04 be 14 61 93 3c 71 26 6f be ff c4 d2 bd
       -0.12937574 0.017990626 -0.23354508 -0.1029148
000380 55 dc 05 be f3 9a 36 bc fa d1 64 3e 07 39 fb bd
       -0.13072331 -0.011145341 0.22345725 -0.122667365
000390 95 68 65 3d ea 64 11 bd 9d a8 bb 3e 6c a5 23 3e
       0.05600794 -0.03549663 0.3665208 0.15981072
0003a0 52 53 28 3e d0 70 eb 3d 24 c8 83 3d 0d 03 38 bf
       0.16438034 0.11496127 0.06434658 -0.71879655
0003b0 a4 43 3c be 8f c4 ef 3d 13 c1 d2 bf f1 de ed 3e
       -0.18385178 0.117074125 -1.6465172 0.46459153
0003c0 7d c5 8d 3e 29 f9 82 bd af cf d6 3d cb f2 53 be
       0.27689734 -0.0639518 0.10488831 -0.20698087
0003d0 48 b6 fa 3d 14 4c 1c bd a5 44 15 bd c4 99 85 be
       0.12241799 -0.03815849 -0.036442418 -0.26093876
0003e0 b6 2c 48 bf 04 ee c0 3c 93 61 29 be ed 55 0d bd
       -0.78193223 0.023550995 -0.16541128 -0.034505773
0003f0 9f 5a 8f 3d 5e 86 60 bf 12 1a 89 3d 77 45 7a be
       0.069997065 -0.8770503 0.06694426 -0.24440561

network.MLP.0.bias f4 [64]
000000 13 65 1f be 1c 9f 40 3e 5e 9d f3 bd 2e b0 ec 3e
       -0.155659 0.18810695 -0.1189525 0.46228164
000010 95 5a fa be 2e 65 96 3e c4 5e f1 3e ca 9d c3 3e
       -0.48897234 0.2937407 0.47142613 0.3820632
000020 72 30 10 3f 1c 89 64 be a4 06 2c be 01 39 9c bc
       0.5632392 -0.22317928 -0.16799408 -0.01907015
000030 1a 5a e0 be 6b 5a 37 be ed 80 76 3e c4 3a ec 3d
       -0.43818742 -0.17905585 0.24072619 0.11534646
000040 d7 5d bb 3e eb b8 b6 3e ec 65 1f 3f 8c f9 56 be
       0.36595032 0.35687956 0.62264895 -0.20993632
000050 7f 0d d3 3e ba 53 8e 3d e0 2f 88 be f3 8f 79 3d
       0.41221234 0.06949563 -0.26599026 0.060928296
000060 41 fc 06 bf f4 9c 0b bd 69 37 c4 bd 7d 68 d2 3d
       -0.5272866 -0.03408523 -0.09580881 0.10273836
000070 53 c1 68 bd 72 a5 81 3e 37 95 d1 bd 99 19 92 3e
       -0.056824993 0.25321537 -0.102335386 0.28535154
000080 d4 af b7 ba 98 8f db be 17 26 f1 3d f3 4c ea 3e
       -0.0014014193 -0.4288299 0.11774843 0.45761833
000090 15 23 9b 3e 8f fb 7a bd 90 84 19 be a9 0a 8d 3e
       0.30300203 -0.06127506 -0.14991975 0.27547196
0000a0 24 6d 03 3f 74 ad 65 be bd 1d f5 bd ce 00 41 3e
       0.5133841 -0.22429448 -0.11968563 0.18847963
0000b0 23 4d c8 3e 85 a3 2b 3e cb cf 65 be 7d 39 9e be
       0.3912135 0.16761597 -0.22442548 -0.30903235
0000c0 40 ee 4d 3e aa 7c f6 be 53 e6 66 3f 9d f9 4a bf
       0.20110416 -0.48141986 0.90195197 -0.7928713
0000d0 3a 19 0d bf 1c ba 93 3e ce c5 b4 bf 34 77 f8 3e
       -0.5511662 0.28852928 -1.4122865 0.48528445
0000e0 97 14 74 bf 09 b6 a0 be 59 fd 51 bf 9f d2 ef be
       -0.9534392 -0.31388882 -0.820272 -0.4684038
0000f0 bf a0 00 be 47 53 f5 be ef 07 fa 3e c7 9d 96 3e
       -0.1256132 -0.47915098 0.48834178 0.2941725

network.MLP.2.weight f4 [64, 64]
000000 1f 1a 4b 3c 60 89 07 3e 02 2b 31 bd 95 30 f2 3d
       0.0123963645 0.13235998 -0.043253906 0.118256725
000010 83 10 43 be c8 d4 f5 bc 6a b2 03 bc 78 ae f8 bc
       -0.19049267 -0.030008689 -0.008038143 -0.03035663
000020 27 91 53 3e 44 47 49 3e 6f 60 7e be bc ca b4 3e
       0.2066084 0.19656092 -0.24841474 0.35310924
000030 b8 a9 3d 3f 6b ad 43 be 3a ae c1 3e 40 cc 0e 3d
       0.74087095 -0.19109122 0.37828237 0.034862757
000040 b1 95 7a be 59 c5 f3 bd b1 22 61 bd c0 b0 63 be
       -0.24471165 -0.119028755 -0.054964725 -0.22235394
000050 7d 20 d5 bd dd a4 b4 3e c8 19 0c 3f c5 10 a0 be
       -0.10406587 0.3528203 0.5472684 -0.31262794
000060 e4 66 67 3e 5a e6 f1 3e a9 b7 96 be 5d b1 8b be
       0.22597843 0.47246057 -0.29436997 -0.27283755
000070 42 d5 95 bd 97 c2 f6 3d 74 e7 e6 bd ca ab c3 be
       -0.07316066 0.12048834 -0.11274615 -0.38217002
000080 e3 78 71 3d 4f 48 e7 3d b1 8c 72 3d 78 b8 22 3e
       0.058953177 0.11293089 0.059216205 0.15890682
000090 5f ea 26 3d b3 5b d2 bc cf af 7d bd 6f 04 fd bd
       0.040750857 -0.025678491 -0.061935242 -0.12354361
0000a0 cf be 52 bc 48 1a 64 be b2 7f 0b bc 69 9f bb 3d
       -0.012862875 -0.2227565 -0.008514332 0.091612644
0000b0 8a 17 6a 3a ca 23 03 3d d8 9d 21 be 53 37 a0 3e
       0.0008929899 0.032016553 -0.15782869 0.3129221
0000c0 9e 79 32 3b fe e7 ef 3e 14 69 a0 bd 28 d6 a0 be
       0.0027233134 0.46856683 -0.07832542 -0.31413388
0000d0 c2 87 9f 3e 71 64 56 bf 20 31 da bf 8d 50 07 be
       0.31158262 -0.8374701 -1.7046242 -0.13214321
0000e0 81 d1 f3 be ce 01 13 3e cb b8 39 3f 5a 66 2b be
       -0.47620776 0.14356157 0.72547597 -0.16738263
0000f0 e7 ca 02 3c 9c 53 fe bd 6e 2e ac 3e ad b3 a6 3b
       0.007982946 -0.12418291 0.33629173 0.005087337
000100 5c fa 6c 3e 77 4a ff 3d 00 73 95 bd 1b ff 96 bc
       0.2314238 0.12465375 -0.07297325 -0.01843219
000110 07 8f ae 3d 4a e1 32 be 5c 83 d7 be ba cc 03 bd
       0.08523374 -0.17468753 -0.42092407 -0.032177664
000120 a1 08 e9 ba cb c5 4a 3c 04 45 0e bf f5 77 62 3e
       -0.0017779061 0.012376259 -0.5557406 0.22116072
000130 3f 0c 38 be 1c 61 85 3c 94 76 27 bc 0d 80 4c 3d
       -0.17973422 0.016281657 -0.010221142 0.049926806
000140 50 42 3e bd 9a 1a 03 3d c2 a2 35 bd a2 3c 3f 3e
       -0.04644996 0.03200779 -0.04434467 0.18675473
000150 cf 78 5e be b6 7c 0e 3e 3e 53 b9 be 14 45 17 bd
       -0.21725772 0.13914761 -0.3619632 -0.036931112
000160 4f 1a 8a 3c 64 61 e0 3c 71 7b 3c 3f 12 a7 45 3e
       0.016858248 0.02739019 0.73625857 0.19302014
000170 62 be d8 be d5 cb ad be 1e b5 97 bd 19 ad 1f 3f
       -0.4233275 -0.33944574 -0.07407592 0.623735
000180 9e 97 0a bd 3f 5d 66 3e c2 99 33 bd 3c c9 0c be
       -0.033836 0.22496508 -0.043847807 -0.1374864
000190 6c 06 aa 3d 9b d7 2f be e7 3c d5 3d 2d 0a 26 be
       0.08302006 -0.1717209 0.10412007 -0.16214819
0001a0 fc 08 e8 3d 06 74 fd bd 04 77 91 be 44 f7 2d bb
       0.11329839 -0.12375645 -0.28411114 -0.0026545087
0001b0 7d 9d 5c 3e ab 43 c9 bd e3 85 a2 be 93 f5 0f 3e
       0.21544452 -0.0982736 -0.31742772 0.14058523
0001c0 29 47 37 be 24 7a 05 3e 85 b3 18 be 2a c7 90 3e
       -0.17898239 0.13034874 -0.14912231 0.2827695
0001d0 63 cc 2f be 7a 24 9a 3e 36 d6 1f 3f e0 91 eb be
       -0.17167811 0.30105954 0.62436235 -0.4600973
0001e0 3f e0 69 be 5e 9a a3 3e 01 9c 12 be 26 ea bd be
       -0.2283945 0.3195371 -0.14317323 -0.37092704
0001f0 cb 25 63 3d 9f ed 52 bd a7 ff ed 3c 67 4c 13 3d
       0.055455964 -0.051496144 0.029052569 0.035961535
000200 e2 b0 1e bf 93 b0 2b 3e 5e 37 46 bc 14 64 e1 bd
       -0.6198865 0.16766576 -0.0120981615 -0.110054165
000210 4e c9 57 3e 90 fd 01 3e a1 cc 30 3d 26 ae 1f be
       0.21072885 0.12694383 0.0431639 -0.15593776
000220 4f e4 a5 bc 33 e8 27 3e 9a 06 d6 bd 5d 48 4a be
       -0.020250468 0.1639717 -0.10450478 -0.19754167
000230 cd 1e 33 bd 32 08 16 be 4a 82 f7 3b b8 d1 32 be
       -0.043730546 -0.14651564 0.0075533735 -0.17462814
000240 5e 8e 6f 3e 07 d6 0e bf e8 8d 05 be d7 fa f6 bb
       0.23394153 -0.5579533 -0.13042414 -0.0075372267
000250 10 4d 81 bd 6c af 8f 3b 34 01 56 be b2 53 3a 3f
       -0.06313527 0.0043849256 -0.20898896 0.7278396
000260 b6 35 fd 3d 19 17 8b 3c ae 0a b0 3a fd df ba be
       0.1236376 0.016978787 0.0013430917 -0.36499014
000270 df ca 77 3e 65 25 71 3e f0 0c 55 3c 92 ec c7 3b
       0.24198483 0.23549421 0.013003573 0.0061011994
000280 62 db fd bd 42 e8 1f be f2 65 6d be ec 77 86 bd
       -0.123953596 -0.15615943 -0.2318342 -0.06565842
000290 8e 07 1a be 45 e4 04 3e c0 42 f7 3d a1 b4 1d 3d
       -0.15041944 0.12977703 0.120732784 0.03850234
0002a0 37 74 3d be b5 97 45 bd f9 f0 86 bc d8 56 05 3b
       -0.18501364 -0.048240382 -0.016472327 0.0020345952
0002b0 25 eb 69 be 07 58 3a 3e c3 c8 2a 3d e0 c6 34 be
       -0.22843607 0.18197642 0.041695368 -0.1765399
0002c0 52 8b 05 be 5f df ca be 6f cd 65 3e 4e fb 40 3d
       -0.13041428 -0.39623544 0.22441648 0.047114663
0002d0 c1 7d 8c bd c0 8a 35 3e af e9 4a bd 2a 4f 2e be
       -0.06859923 0.1772871 -0.049539264 -0.17022386
0002e0 8e 2c af 3e 1f f3 70 be c0 ea 22 bd 3d 40 9e 3d
       0.3421368 -0.23530243 -0.039774656 0.07727096
0002f0 a5 1b c6 bd 98 6a 3e 3e 24 ee 85 3e 34 49 dd 3d
       -0.096732415 0.1859535 0.2615825 0.10804978
000300 dd 74 bd 3d 12 67 34 be 38 d2 60 3c 52 91 11 be
       0.092508055 -0.17617443 0.013721995 -0.14215592
000310 39 b2 08 be 48 69 c3 bd 0a 0e 52 bc 0f e9 da 3c
       -0.13349237 -0.09541565 -0.01282073 0.02672246
000320 bf 89 02 be 59 75 b5 bd 7a a5 b5 3e ad 83 a3 3d
       -0.12747858 -0.08860273 0.3547781 0.079840995
000330 43 3c 55 3e 8d a6 bc 3e 66 03 80 be c8 eb 92 3d
       0.2082377 0.36845818 -0.25002593 0.07173878
000340 ef 55 f9 3e 91 9d 80 3d d4 ac fb bd 34 04 e7 3c
       0.48698375 0.062800534 -0.12288824 0.028200246
000350 fc 02 65 be 93 2c 07 be fa ce 1d 3e e2 78 a2 bd
       -0.2236442 -0.13200597 0.15410987 -0.07933213
000360 60 71 b8 be 48 b6 c3 be c2 4d 2a 3e 5a b8 84 3e
       -0.36023998 -0.38225007 0.16631225 0.259219
000370 87 8b 00 3c c8 c6 2a be 10 0a fb bd ef d1 d9 3e
       0.007845766 -0.16677392 -0.12257779 0.4254298
000380 f2 2a f4 3d 1c 28 7d 3d a2 34 89 3e dd 44 84 be
       0.11922254 0.06180583 0.26797968 -0.2583379
000390 eb ec 0b be 26 3d 8b bd c6 7a fe 3d dc 0c 7b 3e
       -0.13664596 -0.067987725 0.12425761 0.24516624
0003a0 48 9a 85 be ff c8 77 bc 7a ff 53 3e 84 df 18 3e
       -0.2609427 -0.015123605 0.20702925 0.14929014
0003b0 b2 9c a1 bd 97 83 d1 bd 98 e8 4b 3e 05 5f be be
       -0.078912154 -0.10230177 0.19912946 -0.3718187
0003c0 db 07 a5 3c 36 9f e5 be b1 73 15 be c9 56 19 3d
       0.020145347 -0.4484803 -0.14594914 0.03743628
0003d0 b8 33 b6 bd a6 33 1f 3f 26 55 96 3f ba e1 0d 3e
       -0.08896583 0.62188184 1.1744735 0.13855639
0003e0 d2 f5 30 3f 34 22 be 3d e4 f6 ec be 81 2e 9a bd
       0.6912509 0.092838675 -0.46282113 -0.07528401
0003f0 96 3c f1 bd 90 de 0b 3e 68 2f ca 3d ea 31 84 3e
       -0.11779134 0.1365912 0.09872323 0.2581933

network.MLP.2.bias f4 [64]
000000 90 fa be bd a5 6a 7f bd cf 3e bc bc fe 7b ac be
       -0.09325135 -0.062357564 -0.022979168 -0.3368835
000010 29 16 4a be 32 ff 0e bd f3 cf 55 be 0a 41 21 be
       -0.19735016 -0.034911342 -0.20880108 -0.15747467
000020 03 ce a0 bc 2b 7d 94 bd be b6 e0 3d a2 00 07 3e
       -0.019629484 -0.072504364 0.10972355 0.13183835
000030 f1 32 0e 3e 3d 22 c5 be c7 af e1 3f 5d e6 b4 bd
       0.1388662 -0.38502684 1.7631768 -0.08833001
000040 28 1a 75 3d 80 8b dd 3c 8b 54 f0 3d 47 e7 9a 3d
       0.059839398 0.027044058 0.11734875 0.07563644
000050 26 b0 81 3e 82 18 b0 3d b7 60 c4 bf 8a b4 26 3e
       0.25329703 0.085984245 -1.5342015 0.16279808
000060 9f 8d 94 3f 24 f0 e2 bd 70 82 57 bd c0 de db bc
       1.1605719 -0.110809594 -0.05261463 -0.026839614
000070 6e c9 b1 bf c5 7e 47 be d0 15 a4 bd 5a fe 5c bd
       -1.3889596 -0.19481952 -0.08011973 -0.053953506
000080 09 04 b8 3d 75 95 d2 3e d8 d2 cf bd 3a 6c fb 3d
       0.08985145 0.41129652 -0.10147637 0.12276502
000090 39 cb fb 3c 27 65 d6 3e 7c 2c d2 3d d0 62 a1 3d
       0.030736553 0.41874048 0.10262391 0.07880175
0000a0 86 2f 2b 3e c3 7b 97 3d a7 3c 0d 3e db 08 27 3b
       0.16717348 0.073966525 0.13792668 0.0025487456
0000b0 5b 28 76 3d d8 af e0 3d 07 97 a4 bd c8 ef 7f be
       0.06009708 0.109710395 -0.08036619 -0.24993813
0000c0 b4 05 71 3e 07 14 45 3c a5 d3 96 bd f5 c9 90 bd
       0.23537332 0.012028701 -0.07364587 -0.0706977
0000d0 b6 56 ed 3b 68 24 5e 3d f2 6c 22 be 27 10 02 3b
       0.0072430028 0.05423394 -0.15861872 0.0019846053
0000e0 ce b6 7b 3d e7 7a 39 bd f8 06 83 bc c3 90 b1 bd
       0.061453633 -0.045283224 -0.015994534 -0.08670189
0000f0 70 1e 4d bf 14 0a 11 bd cd 3c 5b 3e 8d 8b 2a bd
       -0.8012457 -0.035410002 0.21409912 -0.041636992

network.MLP.3.weight f4 [64]
000000 0b b1 0c 3f 83 4e 87 3f 29 0f c9 3f e2 54 fb 3e
       0.54957646 1.0570835 1.5707752 0.49088198
000010 30 9d 9a 3f 86 7c b2 3f 27 3c c8 3f 7a 5b 6a 3f
       1.207922 1.3944252 1.5643357 0.9154583
000020 ed 86 ea 3f c3 12 9b 3f b1 c0 e1 3e 5d 4c de 3f
       1.8322426 1.2115101 0.44092324 1.7367054
000030 7d ea ce 3f 65 72 53 3f 1c c1 39 3f ab 0b b3 3f
       1.616531 0.8259643 0.72560287 1.3987936
000040 de cb 95 3f a5 61 cf 3f a5 3f 98 3f 24 d1 65 3f
       1.170284 1.6201674 1.1894423 0.8977225
000050 e5 49 26 3f 2e d7 8d 3f ea 82 0b 3f 1c 27 a8 3f
       0.64956504 1.1081293 0.54496634 1.3136935
000060 b4 37 2d 3f 18 a1 ac 3f 7f bf ad 3f 47 0b bf 3f
       0.6766312 1.3486662 1.3574065 1.4925317
000070 4d 84 3b 3f 1e 75 8e 3f 24 b3 d4 3f a2 cc cf 3f
       0.7324875 1.1129491 1.6617169 1.6234324
000080 fc b6 7c 3f 5b ef 91 3f 43 1b bf 3f ec 27 bc 3f
       0.9871671 1.140117 1.4930195 1.4699683
000090 84 b7 af 3f 69 48 43 3f db d7 91 3f 87 e3 d3 3f
       1.372788 0.76282364 1.1393999 1.6553811
0000a0 af b2 89 3f b8 71 88 3f 10 4b de 3f 51 7b a2 3f
       1.0757655 1.0659704 1.7366657 1.2693883
0000b0 c1 a2 82 3f 65 94 57 3f 78 6a bc 3f a8 cb 29 3f
       1.0205919 0.8421081 1.4719992 0.6632638
0000c0 90 56 c3 3f 5b 76 7e 3f 62 9f 9e 3f 1d 09 44 3f
       1.5260792 0.99399346 1.239239 0.76576406
0000d0 3a d5 9e 3f dd 95 a9 3f cc 0c a1 3f e8 8a a1 3f
       1.2408822 1.324886 1.258203 1.2620516
0000e0 c1 8a 3b 3f 2f bd 9c 3f 25 3a 9d 3f 0f d8 a9 3f
       0.73258597 1.2245234 1.2283369 1.3269061
0000f0 22 98 c2 3e 4a 06 91 3f cc 33 b2 3f 2b 41 85 3f
       0.38006693 1.1330044 1.3922057 1.0410513

network.MLP.3.bias f4 [64]
000000 3d b8 8a bd 32 a9 92 3e 60 f7 ee 3c db 97 7c 3d
       -0.06773422 0.2864471 0.029170692 0.06166826
000010 0e 3d e4 bc 87 8d ff 3d ca d8 5a bc 4d 80 11 be
       -0.027861144 0.12478166 -0.013357351 -0.14209099
000020 dc e6 86 bd 6e e4 1f be a7 52 f7 3d 32 12 4a 3d
       -0.06587002 -0.15614483 0.120763116 0.04933376
000030 59 0a d4 bd a3 12 1e 3e a5 e6 2f be 1d 70 d4 3c
       -0.10353536 0.15436797 -0.17177828 0.025932366
000040 f6 78 62 3d 38 c3 c9 3c 34 59 02 3d f7 fa ce 3c
       0.05529114 0.02462922 0.031823352 0.025266154
000050 9a 6e 25 be 9a 9c 2b 3e 1b fd b9 3e 2c b0 45 bc
       -0.16155472 0.16758958 0.36325917 -0.012065928
000060 30 d5 95 bc ba 8a 2b 3d 4e 50 af 3d 6d fc 9c bd
       -0.018290132 0.041880347 0.08560239 -0.07665334
000070 65 de a9 3d c6 96 01 bc d7 10 7c 3d d9 cc 02 bd
       0.082943715 -0.007909482 0.061539497 -0.03193364
000080 b4 76 2f be d8 6c 29 be 6e 90 1c 3d be 0a 6c 3d
       -0.17135125 -0.16545427 0.038223676 0.057627432
000090 d6 1e 83 3d cd a9 6f be be 3d ac 3d 31 58 24 3d
       0.06402366 -0.23404618 0.08410214 0.04012317
0000a0 f6 b9 9e 3d d7 40 8c bd 72 69 99 bd 9c 44 64 3d
       0.07750313 -0.06848305 -0.07490815 0.055729493
0000b0 da bd 2c 3d 98 ce a3 3d 16 d0 c8 3d 2e bd 9c bd
       0.042173244 0.07998389 0.09805314 -0.07653271
0000c0 a3 9b e1 bd e7 aa 3e be 08 2f eb 3d 5a 96 3e 3e
       -0.110160135 -0.18619882 0.1148358 0.18612042
0000d0 d8 2a 0e be 40 2b c5 bc 15 b0 9b 3d d6 7d 0a 3e
       -0.13883531 -0.024068475 0.07601944 0.13524565
0000e0 e8 71 3e bb 75 8a e5 bc e7 b7 83 bd 6c 3d 9b bc
       -0.0029059593 -0.028020123 -0.06431561 -0.018950187
0000f0 3e 75 92 3e e3 c9 10 3d e9 1d 82 bd c9 0a 48 3e
       0.28605074 0.035348784 -0.06353361 0.19535364

critic.0.weight f4 [1, 64]
000000 a8 da f6 3d 04 e5 d4 3c e2 bb d9 bc 84 b8 cd bd
       0.12053424 0.02598811 -0.026578847 -0.10044959
000010 66 1f a5 3d 85 0a ec bc ef 29 7f 3c 76 da 3c 3d
       0.080626294 -0.02881361 0.015573963 0.046106778
000020 01 b9 3d bc e3 51 56 3c c4 9f 36 bd 19 68 03 3b
       -0.011579753 0.013081047 -0.044585958 0.002005106
000030 f9 5f 4f 3a f6 f2 3a 3d bd 32 50 3e 33 3b 94 3c
       0.00079107244 0.04564186 0.20331855 0.018094635
000040 4e 49 e3 3b f1 7b 3f bc da a2 58 3d f2 e8 41 bc
       0.006936229 -0.011687265 0.052889682 -0.011835324
000050 2a 69 4d 3d c4 28 fa bc 87 4b 2d be c9 cc e1 bc
       0.05014912 -0.030537017 -0.16923343 -0.02756347
000060 e3 f7 06 3e b9 b9 b6 3c c5 d1 23 bc 61 8c a2 3d
       0.13180499 0.022305356 -0.009998743 0.079369314
000070 5d 12 4b be a4 1c 0d 3d 5d be fe 3c 28 c0 76 3d
       -0.19831224 0.034451142 0.031096632 0.06024185
000080 7f f1 a5 bc a1 2f 7b 3c ec ae e1 bc ae a3 e7 bc
       -0.020256756 0.01533118 -0.02754923 -0.02827629
000090 2a 49 28 bd ac d1 2b 3d 90 fc 1a bb 2e 0e 97 bc
       -0.0410854 0.041948006 -0.0023649074 -0.018439379
0000a0 32 35 94 3c 0a 5e fc 3c b5 45 d3 bb 4f 35 4c 3b
       0.018091772 0.03080656 -0.0064475187 0.0031159704
0000b0 f2 43 d5 3b fc 99 8a 3e 14 84 b6 3c ac ce ab 3d
       0.006508344 0.27070606 0.022279777 0.08389029
0000c0 a8 30 c1 3c ae 0c 2e 3c 92 b1 82 bc 8c 6b c3 bc
       0.023582771 0.01062314 -0.015953813 -0.023854993
0000d0 58 d7 05 3d 5c d5 b0 3c 16 ab 90 ba bd 6d fc bb
       0.03267607 0.021586113 -0.0011037316 -0.0077035115
0000e0 57 54 ad bd aa 16 4a 3b c4 96 b6 3c b0 ab 72 3c
       -0.08463352 0.0030836263 0.022288688 0.014811441
0000f0 9d b1 32 3d 90 8b 80 bc e4 d8 58 bd 9b e2 46 3c
       0.043626416 -0.015691549 -0.052941218 0.012138988

actor.0.weight f4 [22, 64]
000000 05 d6 94 bc 20 91 cb bd ff 47 97 3d 54 a4 29 3e
       -0.018168459 -0.0993979 0.07386779 0.16566592
000010 86 0a 5a 3e bc 5f cf be c2 1c 1a 3c 7d 6f d6 3e
       0.21293077 -0.40502727 0.00940627 0.41881934
000020 fc 62 84 3f e5 f5 86 3d 99 8e 1a be 62 7a b9 be
       1.0342708 0.065898694 -0.15093459 -0.36226183
000030 b9 3b b1 be 93 1a a4 3e 09 63 f6 bd 1d e9 11 3f
       -0.34615877 0.32051525 -0.12030608 0.5699633
000040 39 71 48 3e 76 e3 4d 3e 5f b4 4f bd bc d3 9c be
       0.19574441 0.201063 -0.050709125 -0.3063029
000050 f9 70 a5 3d 39 f8 85 be 40 16 c9 3d 95 9c d5 be
       0.080781884 -0.2616594 0.09818697 -0.41721025
000060 79 a6 93 3e 5a 09 35 be 89 d6 26 bd 7c c8 57 bf
       0.28837946 -0.17679349 -0.04073194 -0.8429029
000070 f3 22 68 bd 80 f0 33 bf 61 86 c3 3e 0e 64 bd be
       -0.056673955 -0.7028885 0.3818846 -0.36990398
000080 7e 25 4d 3e b2 db a7 be 1f 5f 6a 3e fa 18 88 be
       0.20033833 -0.32784802 0.22887848 -0.26581556
000090 f5 15 03 bf 87 57 89 3e 00 c6 85 be 80 bb 60 be
       -0.5120538 0.2682459 -0.26127625 -0.21946526
0000a0 b9 85 a4 bd 83 a3 0b 3f 33 2d 89 be 9d 63 f7 bd
       -0.08033318 0.54546374 -0.26792297 -0.120795466
0000b0 c5 3b 00 3f d5 7e 2f 3c 9d 59 88 bc e3 d3 cd bd
       0.500912 0.010711391 -0.016644293 -0.1005018
0000c0 07 0b 43 3f 25 c0 ab be 7c f6 5a be 55 0d f6 3a
       0.761887 -0.33545032 -0.21383089 0.0018772284
0000d0 9d 6c 23 3e ce 1d c9 3d 64 83 fe be ec b9 99 be
       0.15959401 0.09820138 -0.49709618 -0.3002466
0000e0 77 59 ac 3e a5 93 14 3f 92 af f7 bd 4d 56 51 3e
       0.33662006 0.5803779 -0.12094034 0.20443077
0000f0 34 32 2a be 8b 37 0d bd a3 34 14 3e 0b bc 35 3e
       -0.16620713 -0.034476798 0.14473204 0.17747514
000100 84 e6 bc 3d 04 19 af 3e dd 4b 9f be a0 8e 4c 3d
       0.09223655 0.34198773 -0.31112567 0.049940705
000110 b2 df ec 3d 8a 3a 81 be ff 9e 6c 3f 50 7e 1b 3e
       0.11566104 -0.25239974 0.9243011 0.15184903
000120 aa 7a 8b be 1c 54 3b 3d 53 c1 b7 bc 5c 69 71 be
       -0.27242023 0.04573451 -0.022431051 -0.23575348
000130 de 71 76 bd a6 ba a8 3e 41 31 b4 3b 90 44 b6 bc
       -0.060167186 0.329549 0.0054990356 -0.02224949
000140 cf 47 1f 3d db ec ea be a4 76 58 3d 5e 45 14 be
       0.03888684 -0.4588383 0.05284752 -0.14479586
000150 83 fc a9 bd 3e fc e4 bd 31 e8 b2 3c 31 ca 6b 3e
       -0.08300116 -0.11180924 0.021839233 0.23026349
000160 49 e2 55 bd de 32 55 3e 3a 30 a0 3a 0e 1c 57 be
       -0.052217755 0.20820186 0.0012221404 -0.21006796
000170 53 0e 09 bb 7a 4c dd 3e 3f c1 00 bf 5e e8 56 3d
       -0.002091308 0.4322241 -0.5029487 0.052467696
000180 d4 be 99 bd 4e 98 3e be 3e 1d da be 21 1c 17 3f
       -0.07507101 -0.18612787 -0.42600435 0.59027296
000190 b8 e6 7d be 47 44 9d bd 94 d9 18 bd ae c7 51 be
       -0.24795043 -0.076790385 -0.037316874 -0.20486328
0001a0 8a e2 49 be 9d 75 e5 bc a2 fc 37 3e d7 ec 9a 3d
       -0.19715324 -0.028010184 0.17967466 0.07564705
0001b0 76 7c fd 3d cd 54 0f 3e e1 5e fd be be d0 04 be
       0.12377255 0.13997193 -0.4948645 -0.12970254
0001c0 c3 57 36 be 66 ce f3 bb 0c 18 a2 be 88 db 03 bc
       -0.17806916 -0.007440376 -0.3165897 -0.008047946
0001d0 09 40 49 bd 4d 84 0a 3e 42 3d 3b 3e a5 eb 5a 3e
       -0.049133334 0.13527031 0.18285087 0.21378954
0001e0 be 7a 21 3e 58 76 86 be e6 5e a5 be 95 08 e3 be
       0.15769479 -0.26262164 -0.32298964 -0.44342485
0001f0 9a 17 6a 3e fb a1 17 3d 0d f3 8f bd e9 fb 12 bd
       0.22860566 0.03701971 -0.0702878 -0.03588477
000200 9c 4a 49 3c 49 9a a5 3e 2a 66 09 be 80 2d a5 ba
       0.012285855 0.32344273 -0.13417879 -0.0012602061
000210 8b ee 44 3d f1 61 1d 3d d0 18 c6 bd 65 29 dd 3d
       0.048079055 0.038423482 -0.09672701 0.10798911
000220 1b 9f ba 3e ff d1 71 3e e3 4e e1 bd d0 64 46 3e
       0.36449513 0.23615263 -0.110013746 0.19374394
000230 6a 25 7c bd 35 bd 95 be f4 e4 bb bc 74 5f d9 bc
       -0.06155912 -0.29245916 -0.022936322 -0.026534773
000240 d0 ed e1 3d 02 5e 36 be b0 4f 3f 3e 4d 8f 91 3b
       0.11031687 -0.17809299 0.18682742 0.0044421316
000250 fb 36 0d be 33 7e 3e be 67 58 99 bc 67 19 fa 3d
       -0.13790505 -0.18602829 -0.018718911 0.12211876
000260 87 93 c1 3c fe 69 01 bd 72 ff 9f 3e ef 11 56 be
       0.023629917 -0.031595223 0.31249577 -0.20905279
000270 ca 85 29 3a e7 4d aa be 11 14 ba 3e 08 3a 08 bf
       0.00064667745 -0.3326256 0.36343434 -0.5321355
000280 ff 7c 00 3f f7 de a8 bd 63 22 74 3d c4 b8 31 be
       0.5019073 -0.08245652 0.059603106 -0.17355639
000290 81 a4 b8 be 49 5a 96 3e a1 79 06 3d 5a d8 c4 3c
       -0.36063007 0.29365757 0.032830838 0.024028946
0002a0 1e 44 27 bc 68 a8 fa 3d 29 56 44 bd 29 2d 42 3d
       -0.0102091115 0.12239152 -0.04793373 0.04740635
0002b0 18 0d e8 3d 4c c5 b8 bd 14 3d 29 3e af e0 6a 3e
       0.113306224 -0.090220064 0.16527206 0.22937272
0002c0 da 99 f6 3e 9f 08 30 3e d1 22 46 be 60 b6 73 bc
       0.48164254 0.17190789 -0.19349219 -0.014875025
0002d0 e7 d2 b1 3d f2 4a 09 3e 3e 57 7f be f8 c6 cc bc
       0.086828046 0.13407496 -0.24935624 -0.02499722
0002e0 b1 6d 05 3d 87 c9 22 3e 67 35 20 bc 40 dc 80 3d
       0.032575313 0.15897189 -0.009778357 0.06292009
0002f0 e3 38 86 be 4c df ab be 96 e5 c5 bd 88 12 8f 3e
       -0.26215276 -0.335688 -0.09662931 0.27943826
000300 ea db 41 be 81 0e dc be 46 64 fb 3d cd d5 84 bb
       -0.18931547 -0.42979816 0.12274985 -0.0040538074
000310 d7 d2 0e bb 7e cc cb 3e 76 c6 ba 3d 7b a4 16 bd
       -0.002179315 0.39804453 0.09119885 -0.036777955
000320 77 a2 46 3e ce 18 df 3e 08 8c e1 3d 29 ac 8e 3e
       0.19397913 0.43573612 0.11013037 0.27865723
000330 2d 27 90 bd 72 fe 8e be de a7 3b bd e6 52 b7 be
       -0.07038722 -0.279285 -0.045814388 -0.35805434
000340 d0 7c 88 be 74 6f a2 b9 c7 bf 4a bd 3e 4c bb 3e
       -0.26657724 -0.00030982087 -0.0494993 0.36581606
000350 82 b4 a4 be e5 5b 4f 3c db c4 35 3d 25 63 f3 be
       -0.32168967 0.012656187 0.04437719 -0.4753658
000360 70 71 bb 3d 5f 5d c7 3d f5 5a c7 3e 94 69 89 3d
       0.09152496 0.09734606 0.38936582 0.067095906
000370 ed bb 38 bb f9 68 2d 3d 9f 96 9b 3d 95 1c 02 3e
       -0.0028188184 0.042336438 0.07597088 0.12706216
000380 77 42 50 3e 5d 71 68 3e f6 f5 8b be db 62 09 be
       0.20337854 0.22699495 -0.2733609 -0.13416617
000390 4e 58 5a be 82 d7 80 bc 95 b0 a5 bc df cd e9 be
       -0.21322748 -0.015727762 -0.020225802 -0.4566488
0003a0 0c 96 20 3e 29 56 ee bd 9b 32 5c bb c4 af a7 bd
       0.15682238 -0.116375275 -0.00335995 -0.081878215
0003b0 15 09 7f be 30 7e f4 bd ea f9 a6 be 13 c9 b3 be
       -0.24905808 -0.11938131 -0.32612544 -0.35114345
0003c0 74 1f c1 3e cb 3d f4 3e e2 94 81 be b2 95 9a be
       0.3771931 0.47703394 -0.253089 -0.30192333
0003d0 aa c3 cf 3c 78 5b f7 3e 0a 72 d9 bd e2 09 85 3d
       0.025361855 0.48311973 -0.10617454 0.064960256
0003e0 08 8e 20 3e 44 84 7c 3d 57 11 2e 3f dc 6c 2f 3f
       0.1567918 0.061649576 0.6799521 0.6852548
0003f0 53 11 a2 be 0f c7 9b bc 22 54 fb bd 27 6c e3 3c
       -0.31653842 -0.019015817 -0.122719064 0.027761532

actor.0.bias f4 [22]
000000 cf 5c d6 bd dd d7 33 bd 6f 09 0e bc cd ab 80 bd
       -0.104669206 -0.043907035 -0.008669241 -0.062827684
000010 2a 63 69 3b f1 ab 8e 3d 4f 91 ce 3c c2 d8 8f 3d
       0.0035612085 0.06966389 0.025215773 0.07023765
000020 ee b4 69 bc 46 71 1b 3d 9f 83 cb 3c 62 6d 01 3d
       -0.014264328 0.037949823 0.024843035 0.031598456
000030 71 47 6b 3d cd 8e 5a bc 97 05 60 3d 05 80 db bd
       0.05744118 -0.01333971 0.05469283 -0.10717777
000040 d5 f1 29 3d d8 f2 bc bc 11 74 53 bd 5a 6c de bb
       0.041490395 -0.023065016 -0.05162436 -0.006787819
000050 41 ed 19 3b 35 eb 1e 3b
       0.0023487362 0.002424908
