paper/training_results/seed-2/momarl/checkpoints/mlp_(negotiation=False)_(num_agents=12)_(window=False)_(reduced_space=False)_(fixed_savings_rate=False)_(rewards=['inverse_global_temperature', 'global_economic_output'])(wgen=uniform)(num_ensembles=1)(seed=2)_2025-01-16_22:02:15_w=[0.6302 0.3698].pt (torch, 38168 bytes, 9 tensors)

network.MLP.0.weight f4 [64, 18]
0.04616116 -1.1964861 -0.009456167 0.38725114 -8.673235 0.5620241 -0.06251008 -0.048878644
-0.04676694 -0.14762603 0.043338954 -0.04861932 -0.04911956 -0.0217166 -0.019606698 -0.017533228
-0.1449624 -0.029566187 0.14777546 0.14771935 -0.44199103 -0.36812574 0.8700525 -1.4884716
0.16233581 0.17835087 0.5680176 0.15121022 -0.11450577 -0.06032231 0.8963222 -0.11646931
0.11809387 -0.019823536 -0.48165926 0.20796846 0.08032903 -0.3358321 -0.13861486 -0.84698117
0.15305504 0.28464273 -0.059454944 0.32703698 0.12163685 -0.034839965 -0.11909898 -0.01596236
0.25555366 -0.044737015 -0.3528338 0.21592715 0.39187202 0.00423075 -0.33230725 0.34434307
0.08103543 -0.79638845 0.2588299 0.12384138 0.33658224 0.11993359 0.03280856 -0.27917847
-0.025790244 0.046338115 0.27905536 -0.07351435 0.08174335 -0.004095774 0.3128118 0.08829779
-0.05262285 0.0038698015 0.00044610992 -0.32189015 -0.64869994 0.103077315 0.24913864 -0.021369416
0.037380718 0.25795093 -0.41119716 0.6985023 0.64767003 -0.2786903 -0.81082785 -0.27675515
-0.15085483 0.30695707 -0.18912783 0.53266305 0.093783475 -3.9195838 0.7096645 -0.6993271
-0.081341155 -0.0075736125 -0.36678195 0.09272375 -0.23584707 -0.021267522 -0.17863588 0.040859368
0.033812072 -0.14135575 0.038109932 -0.112799644 0.1476185 -0.09729978 -0.2462125 0.051956408
-1.3540343 0.55581635 -0.068875834 0.028861662 0.05329733 -0.041275807 -0.0051798816 0.025053201
0.09549015 -0.051074747 0.010498294 0.07624999 0.02414057 -0.029573448 0.09419879 -0.65002567
0.06749766 -0.7601808 -0.15548334 -0.18485253 -0.2803556 -0.2320758 -0.1461316 -0.24264549
-0.09078067 -0.29366872 -0.4832497 -0.6202959 0.3324353 -0.09974019 0.048837222 0.19465601
0.027961409 0.03706481 0.033829067 -1.0784363 0.09729714 -0.153412 0.12887028 0.10185699
0.045964457 -0.1709884 -0.23309465 -0.060379874 -0.26101342 0.105067134 -0.26128224 0.42610648
-0.092621066 -0.16554433 0.15067825 0.11721275 -0.10498793 -0.61397433 0.5226312 -0.49038056
0.16332397 -0.03892322 0.12191223 0.18317555 -0.22647588 -0.11271964 -0.22011825 0.20054884
0.18305251 0.25531596 -0.2563122 -0.48939875 0.031108847 0.11358574 -0.03674213 -0.2900848
-1.8288547 0.24819653 0.34744108 0.07471764 0.04625509 -0.3486333 0.3413239 0.28636843
-0.18130957 -0.8733582 -0.5495534 -0.8513087 -0.06980345 -0.805189 -0.11734046 0.27155697
0.0937794 -0.2905954 -0.6981619 0.0053357705 -0.8670313 0.46842283 -0.2934642 -0.6564611
-0.40496984 -0.3261126 -0.21929489 0.15068209 -0.27313936 -0.06996258 -0.42813545 -0.22567287
0.036533285 0.014491093 -0.0076493393 -0.039964147 -0.08460441 0.03163054 -0.17227681 0.08514041
0.28181446 -0.7713338 -1.0862039 -0.27300507 0.36420295 0.6557625 -0.76568 -0.3704396
-0.57949233 -0.7278397 -0.04870218 0.46971434 -0.08382672 -1.226681 -0.103916936 0.059142403
-0.0658235 -0.20552047 0.51887184 0.13932985 0.06549339 -0.036288276 -0.13919905 0.0963178
0.031027552 -0.63984644 0.23775862 -0.33790883 -0.95019567 0.09927719 0.05413683 -3.1950154
00000000: 7c13 3d3d 7526 99bf 0aee 1abc c845 c63e
00000010: 92c5 0ac1 d0e0 0f3f 4905 80bd f934 48bd
00000020: b18e 3fbd 472b 17be 3084 313d 0d25 47bd
00000030: 9731 49bd 03e7 b1bc 3a9e a0bc d8a1 8fbc
00000040: 0671 14be ca34 f2bc 7352 173e be43 173e
00000050: a64c e2be fa7a bcbe c3bb 5e3f 3d86 bebf
00000060: 5c3b 263e 9ca1 363e 9a69 113f dad6 1a3e
00000070: 0082 eabd 8714 77bd 5f75 653f 7687 eebd
00000080: 33db f13d f864 a2bc 0b9c f6be aff5 543e
00000090: 8c83 a43d 2ff2 abbe 0ef1 0dbe c2d3 58bf
000000a0: 76ba 1c3e b1bc 913e 0787 73bd 6471 a73e
000000b0: be1c f93d 5ab4 0ebd 2bea f3bd 7fc3 82bc
000000c0: eed7 823e 293e 37bd a2a6 b4be 021c 5d3e
000000d0: 73a3 c83e 1aa2 8a3b 2d24 aabe bc4d b03e
000000e0: e7f5 a53d 1de0 4bbf 5a85 843e 8da0 fd3d
000000f0: 8254 ac3e be9f f53d 4562 063d 7bf0 8ebe
00000100: 1046 d3bc 09cd 3d3d 58e0 8e3e b18e 96bd
00000110: 0f69 a73d d835 86bb de28 a03e 79d5 b43d
00000120: 0f8b 57bd 7f9c 7d3b dce3 e939 c9ce a4be
00000130: 3311 26bf 331a d33d 331e 7f3e ea0e afbc
00000140: 861c 193d 2512 843e 6f88 d2be 0cd1 323f
00000150: b4cd 253f 7fb0 8ebe 6a92 4fbf dab2 8dbe
00000160: b079 1abe 7a29 9d3e baaa 41be 9b5c 083f
00000170: 8d11 c03d 76da 7ac0 93ac 353f 1a07 33bf
00000180: 3196 a6bd 112c f8bb d8ca bbbe f3e5 bd3d
00000190: e581 71be 3a39 aebc 53ec 36be 275c 273d
000001a0: 877e 0a3d 90bf 10be 2919 1c3d 8003 e7bd
000001b0: 4e29 173e 1b45 c7bd 211f 7cbe 3ed0 543d
000001c0: ff50 adbf fb49 0e3f c60e 8dbd 4b6f ec3c
000001d0: 4d4e 5a3d d210 29bd ffbb a9bb 5f3c cd3c
000001e0: 5790 c33d c133 51bd 0901 2c3c f428 9c3d
000001f0: 72c2 c53c 0444 f2bc 4ceb c03d 1568 26bf
00000200: 373c 8a3d 359b 42bf 0637 1fbe fb49 3dbe
00000210: c58a 8fbe 47a5 6dbe 86a3 15be 0f78 78be
00000220: 37eb b9bd bf5b 96be 816c f7be b6cb 1ebf
00000230: f634 aa3e 9644 ccbd 8a09 483d e853 473e
00000240: 530f e53c 45d1 173d 5990 0a3d 330a 8abf
00000250: b943 c73d 0918 1dbe 92f6 033e 669a d03d
00000260: 3a45 3c3d 9517 2fbe 5db0 6ebe e350 77bd
00000270: 8da3 85be 702d d73d c9c6 85be a12a da3e
00000280: 1db0 bdbd 7484 29be 664b 1a3e 3d0d f03d
00000290: e903 d7bd 6c2d 1dbf 29cb 053f 2913 fbbe
000002a0: 663e 273e f46d 1fbd 1fad f93d 5f92 3b3e
000002b0: 4be9 67be 8ed9 e6bd ae66 61be ad5c 4d3e
000002c0: 1e72 3b3e c6b8 823e 5a3b 83be 7992 fabe
000002d0: fbd7 fe3c a49f e83d ea7e 16bd ff85 94be
000002e0: e917 eabf 3b27 7e3e cce3 b13e 9005 993d
000002f0: fa75 3d3d 1080 b2be 02c2 ae3e e29e 923e
00000300: 37a9 39be 6794 5fbf 88af 0cbf 5eef 59bf
00000310: 1cf5 8ebd de20 4ebf 3250 f0bd 8409 8b3e
00000320: 6a0f c03d ecc8 94be bdba 32bf b0d7 ae3b
00000330: c3f5 5dbf 1ed5 ef3e f140 96be d60d 28bf
00000340: 3558 cfbe 3bf8 a6be d78e 60be 684c 1a3e
00000350: ecd8 8bbe 8b48 8fbd 9234 dbbe ca16 67be
00000360: eda3 153d 0d6c 6d3c 4fa7 fabb 72b1 23bd
00000370: 1445 adbd 068f 013d 5569 30be 185e ae3d
00000380: fc49 903e 2276 45bf bb08 8bbf 52c7 8bbe
00000390: cf78 ba3e 0de0 273f 9b03 44bf 42aa bdbe
000003a0: 9c59 14bf b453 3abf f07b 47bd 667e f03e
000003b0: 58ad abbd e203 9dbf 67d2 d4bd 4e3f 723d
000003c0: 79ce 86bd f573 52be c9d4 043f 7cac 0e3e
000003d0: 6621 863d 04a3 14bd 328a 0ebe 4442 c53d
000003e0: 7e2d fe3c facc 23bf ff76 733e 6302 adbe
000003f0: 0640 73bf d751 cb3d 95be 5d3d 227b 4cc0

network.MLP.0.bias f4 [64]
-0.84730095 0.2693229 -0.008493116 0.13199022 -0.08376789 0.14735228 -1.017005 -0.120992355
0.4570678 0.021826368 0.056051522 -0.13527551 0.22860953 0.3348311 -0.043471936 -0.28049153
-0.3418884 0.51939815 0.92422837 0.17492998 -0.42931157 -0.11128817 0.031754088 0.30208182
-0.07626911 0.09939212 -0.24260469 -0.15631115 -0.21384783 0.43094644 -0.19645557 -0.3126699
0.05161309 -0.339892 0.4689537 -0.016608043 -0.12377419 0.42685986 -0.011897 -0.03760309
0.060700215 0.076677114 -0.17788528 0.019868087 -0.44139564 -0.7858728 -0.2188492 -1.1384995
0.40735394 -0.1552245 0.0754728 -0.18178885 -0.6035975 0.32282534 -0.42807728 0.5631835
0.8448225 0.260393 -0.06697048 -0.696464 0.0315607 0.36126477 -0.11576819 0.053670276
00000000: b7e8 58bf b1e4 893e b626 0bbc 7228 073e
00000010: 808e abbd 84e3 163e 382d 82bf d7ca f7bd
00000020: ca04 ea3e 36cd b23c 4896 653d aa85 0abe
00000030: 9e18 6a3e fb6e ab3e a10f 32bd 969c 8fbe
00000040: ff0b afbe 47f7 043f 3b9a 6c3f d820 333e
00000050: bace dbbe 0deb e3bd 9310 023d 78aa 9a3e
00000060: fb32 9cbd 198e cb3d 5d6d 78be 0810 20be
00000070: edfa 5abe 03a5 dc3e a62b 49be 4516 a0be
00000080: 3f68 533d 5306 aebe b31a f03e 970d 88bc
00000090: 537d fdbd 608d da3e a2eb 42bc b305 1abd
000000a0: caa0 783d e408 9d3d 8f27 36be 66c2 a23c
000000b0: 9cfe e1be f62e 49bf 011a 60be 5aba 91bf
000000c0: b290 d03e 2cf3 1ebe 7c91 9a3d db26 3abe
000000d0: 5e85 1abf 5d49 a53e f22c dbbe cb2c 103f
000000e0: 4a46 583f 3b52 853e d227 89bd 774b 32bf
000000f0: cb45 013d b2f7 b83e df17 edbd 5dd5 5b3d

network.MLP.2.weight f4 [64, 64]
-0.16651113 0.3297694 0.30876467 0.06293839 -0.09903756 0.6987712 -0.25995266 0.05257773
-0.054756396 -0.014460477 -0.1281689 -0.19197734 -0.05218634 -0.44728023 0.71402144 0.0006573954
-0.23684873 0.085251376 -0.19610463 -0.015326851 -0.03143434 -0.46209815 0.24635686 0.19822994
-0.34826297 0.2365495 0.31394386 -0.34491 0.25109118 -0.23730586 0.048127122 -0.058426384
-0.013960843 -0.020338694 0.06455809 -0.14651291 0.07119073 0.07160149 -0.08069652 0.11881705
-0.013864864 0.049774412 0.12566125 0.040020037 -0.019094938 0.016756179 0.11027482 0.060978726
-0.066523984 -0.09400113 -0.4096963 0.2733772 0.090499565 0.07363631 0.31064188 0.26082826
0.0844596 -0.39252296 -0.64490724 -0.36286917 -0.17394301 0.12111642 0.028279526 0.1452054
0.28368145 -0.46175525 0.03198557 -0.096775346 -0.39530385 -0.24431989 0.3158448 -0.251467
-0.0850266 -0.16541575 -0.09264967 -0.21992044 -0.0012067026 -0.08985062 0.1020474 -0.2245314
-0.30945504 0.07758669 0.39548364 -0.14854264 0.036465146 0.35902148 -0.061401628 -0.11752731
-0.13038433 0.1778874 -0.067294896 0.20555402 0.13174033 -0.17136143 -0.037759 0.24150729
-0.09654466 -0.003503827 -0.074640796 -0.23518023 -0.042483836 -0.119047515 -0.004843355 0.01135739
-0.06283053 0.11398959 -0.1870239 -0.018766928 0.0016322545 0.039172288 -0.11100547 -0.5359501
-0.02290184 -0.13247027 -0.32946983 -0.15810369 0.17304416 0.10253871 -0.035464518 -0.07843172
0.26418996 -0.03536747 -0.053226545 -0.018408855 0.17774564 -0.10234843 0.04503282 -0.15768059
0.34990355 -0.17712608 0.08653576 0.3799023 -0.15440804 -0.022459038 0.2656202 0.19660807
-0.021848526 0.03855442 0.4309124 -0.31366414 0.028748251 -0.026520198 -0.24510813 -0.13575967
-0.19251952 0.032559652 0.26966047 -0.14900912 0.017610682 -0.046427682 0.034601137 0.12299635
0.33104673 -0.12999119 -0.10292709 -0.04682691 -0.053156335 -0.18928458 -0.04573294 0.056701098
-0.122592755 0.03213662 0.19653495 0.035493862 -0.057060882 -0.12000843 0.033320043 0.037843075
-0.05218663 -0.2274423 -0.10024957 -0.1527452 -0.44478023 0.11619279 -0.10712546 0.30059922
0.026845079 -0.09348152 0.37017426 0.1396766 0.11273798 0.27024326 0.07584227 0.09274591
-0.2541046 -0.30189344 0.009670764 -0.14310277 -0.043364055 0.06459793 0.08440055 0.52073056
-1.731369 1.6415573 0.22089222 -0.015087388 0.114535466 0.2699862 -1.087247 0.10295708
0.25152326 0.06995428 -0.017051598 -0.4418984 -0.043299966 0.0020395373 -0.15324248 0.46284336
-0.093777016 0.4880535 -0.76383764 0.9070945 0.59030247 -0.0223135 -0.13435933 0.2847619
0.50605667 0.01625049 -0.0067919996 -0.1087568 -0.3114439 -0.09739069 0.8357723 -0.15035136
1.8709787 0.00940223 0.33753175 0.21898118 -0.026517197 0.68846065 -0.006239091 0.058628116
0.4952067 0.0803412 1.8257686 0.7142304 -0.08285061 -1.4798375 0.09110811 -1.6259683
-0.08780543 -1.1232345 -0.09446765 -0.09104569 0.05560895 0.16517699 -0.11963097 0.18024097
0.35785925 -0.4015679 0.36780056 -1.1068568 -0.2961512 0.23848106 -1.4707053 -0.74713254
00000000: e581 2abe 89d7 a83e 6716 9e3e d8e5 803d
00000010: 34d4 cabd abe2 323f 8418 85be bf5b 573d
00000020: 3e48 60bd a3eb 6cbc b53e 03be b595 44be
00000030: 58c1 55bd ea01 e5be 1cca 363f 0f55 2c3a
00000040: 7988 72be 4698 ae3d a7cf 48be 791d 7bbc
00000050: 4bc1 00bd 2198 ecbe f944 7c3e cafc 4a3e
00000060: 864f b2be 083a 723e 40bd a03e 0b98 b0be
00000070: 068f 803e 4f00 73be f220 453d 8150 6fbd
00000080: 05bc 64bc 559d a6bc 0837 843d 7b07 16be
00000090: 72cc 913d cda3 923d 3844 a5bd 5a56 f33d
000000a0: 7429 63bc 41e0 4b3d 58ad 003e 0dec 233d
000000b0: fd6c 9cbc 4144 893c c4d7 e13d d4c4 793d
000000c0: ba3d 88bd aa83 c0bd b7c3 d1be 19f8 8b3e
000000d0: d657 b93d a2ce 963d 740c 9f3e 488b 853e
000000e0: 28f9 ac3d c5f8 c8be a418 25bf fdc9 b9be
000000f0: 1e1e 32be e30b f83d 77aa e73c b9b0 143e
00000100: b23e 913e 2f6b ecbe 4d03 033d 2732 c6bd
00000110: 4465 cabe fe2e 7abe 69b6 a13e 48c0 80be
00000120: 6d22 aebd bf62 29be 1cbf bdbd d332 61be
00000130: 382a 9eba 9a03 b8bd 3afe d03d 8feb 65be
00000140: e470 9ebe c5e5 9e3d d57c ca3e 901b 18be
00000150: 7a5c 153d aad1 b73e 4680 7bbd 29b2 f0bd
00000160: 7883 05be 1d28 363e e8d1 89bd c17c 523e
00000170: f0e6 063e 5f79 2fbe 2ea9 1abd b04d 773e
00000180: 35b9 c5bd 76a0 65bb 46dd 98bd 16d3 70be
00000190: 8803 2ebd 2fcf f3bd 02b5 9ebb 5914 3a3c
000001a0: 4bad 80bd 6073 e93d 3183 3fbe 1abd 99bc
000001b0: 5ff1 d53a 1f73 203d d656 e3bd 0734 09bf
000001c0: a49c bbbc 49a6 07be 45b0 a8be efe5 21be
000001d0: 7d32 313e d1ff d13d 3e43 11bd cfa0 a0bd
000001e0: e843 873e 7bdd 10bd 1404 5abd 2bce 96bc
000001f0: f402 363e 0e9c d1bd 5674 383d 0577 21be
00000200: 8f26 b33e 8a60 35be a939 b13d 8e82 c23e
00000210: 241d 1ebe 04fc b7bc 5fff 873e a053 493e
00000220: aefb b2bc 3deb 1d3d 8da0 dc3e 9698 a0be
00000230: 7481 eb3c e340 d9bc a0fd 7abe 9504 0bbe
00000240: d623 45be 455d 053d f010 8a3e d995 18be
00000250: 4744 903c f42a 3ebd ecb9 0d3d 83e5 fb3d
00000260: f57e a93e 691c 05be 70cb d2bd 93cd 3fbd
00000270: 75ba 59bd d1d3 41be 7752 3bbd 693f 683d
00000280: e911 fbbd b0a1 033d 7540 493e 0362 113d
00000290: acb8 69bd fbc6 f5bd 997a 083d 5701 1b3d
000002a0: a6c1 55bd a2e6 68be a64f cdbd 3d69 1cbe
000002b0: 3cba e3be 7cf6 ed3d 9864 dbbd 24e8 993e
000002c0: 36ea db3c 3d73 bfbd 7b87 bd3e 6207 0f3e
000002d0: 2ce3 e63d 535d 8a3e 3153 9b3d 91f1 bd3d
000002e0: 001a 82be c791 9abe 2072 1e3c 8889 12be
000002f0: 829e 31bd eb4b 843d 32da ac3d 994e 053f
00000300: 809d ddbf 8d1e d23f 9231 623e 1831 77bc
00000310: 9291 ea3d a23b 8a3e e92a 8bbf 29db d23d
00000320: a8c7 803e 3144 8f3d cbaf 8bbc 8240 e2be
00000330: 4e5b 31bd c2a9 053b 99eb 1cbe cef9 ec3e
00000340: 2a0e c0bd 26e2 f93e dd8a 43bf 5837 683f
00000350: 101e 173f cdca b6bc 7e95 09be 50cc 913e
00000360: ee8c 013f bf1f 853c 6c8f debb e3bb debd
00000370: 9375 9fbe c574 c7bd 2cf5 553f b5f5 19be
00000380: 3b7c ef3f d00b 1a3c f6d0 ac3e 9a3c 603e
00000390: 983a d9bc f53e 303f 4a71 ccbb 0924 703d
000003a0: bc8b fd3e ed89 a43d c9b2 e93f ced7 363f
000003b0: 95ad a9bd 516b bdbf e496 ba3d bb1f d0bf
000003c0: 55d3 b3bd 26c6 8fbf 4178 c1bd 2a76 babd
000003d0: 36c6 633d 2824 293e 1501 f5bd 1791 383e
000003e0: 5439 b73e 4f9a cdbe 5b50 bc3e 7cad 8dbf
000003f0: 21a1 97be 6134 743e 1240 bcbf 1444 3fbf

network.MLP.2.bias f4 [64]
0.03166854 0.099362075 -0.3648062 1.2285036 0.5971383 0.08610263 0.3091572 -0.28798282
-0.023970975 0.16987059 0.1652707 -0.047800995 -0.3719107 0.54031837 0.42948812 -0.15442687
0.22462824 -0.48001185 -0.49642 -0.1939957 -0.26000986 0.24403778 0.22611915 0.009834799
-0.06691504 0.07863911 -0.5794834 0.41495824 -0.114165835 -0.5344584 0.006293793 -0.19228734
-0.018388258 -0.8029776 0.36890364 -0.27085945 -0.18668221 0.41661912 -0.46080497 0.08247056
0.039517995 0.16639934 0.1423467 0.076043606 0.4367499 -0.30076432 -0.27062333 -0.011787293
-0.070919305 0.3877284 0.12762643 0.08622987 0.026479483 -0.6058149 0.024932185 0.3156843
0.097937055 0.21147498 0.15770182 -0.07011407 0.04100584 -0.36302415 0.20618449 -0.39887592
00000000: dfb6 013d 587e cb3d e1c7 babe 9b3f 9d3f
00000010: 0ede 183f 9356 b03d da49 9e3e 7c72 93be
00000020: c75e c4bc 8ef2 2d3e b93c 293e faca 43bd
00000030: 146b bebe 4e52 0a3f dee5 db3e 1422 1ebe
00000040: f204 663e 1dc4 f5be c32a febe cfa6 46be
00000050: 0320 85be 0ae5 793e c78b 673e 2322 213c
00000060: c10a 89bd 8b0d a13d 0659 14bf 6875 d43e
00000070: c7cf e9bd 44d2 08bf 2a3c ce3b f9e6 44be
00000080: f9a2 96bc f18f 4dbf f0e0 bc3e 17ae 8abe
00000090: 9f29 3fbe 1a4f d53e a1ee ebbe 53e6 a83d
000000a0: 9fdd 213d 9764 2a3e 55c3 113e c0bc 9b3d
000000b0: af9d df3e c8fd 99be 248f 8abe 7d1f 41bc
000000c0: 243e 91bd 5684 c63e 81b0 023e 4999 b03d
000000d0: 80eb d83c af16 1bbf 953e cc3c 5fa1 a13e
000000e0: 3993 c83d e68c 583e 967c 213e f797 8fbd
000000f0: bdf5 273d 4dde b9be 0722 533e 7739 ccbe

network.MLP.3.weight f4 [64]
1.743702 1.3152919 1.1619041 0.81781465 0.9610458 1.0552927 0.6981786 1.0512617
1.1582686 1.2686101 1.8484455 1.2604679 1.3950534 0.9694533 0.9400259 1.6244786
1.4547906 1.0752645 0.9297854 1.1667227 0.9930983 1.2641912 1.1571672 1.8715101
1.3332226 1.5963334 1.0080366 1.0680978 0.69130754 0.6916904 1.4448555 1.1247624
1.1948501 0.83896035 1.2111228 1.6174525 1.8411433 0.8978587 0.90089417 1.747748
1.066279 1.1224109 1.3650585 1.7723358 0.82175785 1.5716122 1.2749656 1.8720762
1.4799992 1.2279153 1.2337987 1.1020842 1.4272852 0.77492434 1.6678728 1.0789976
1.4314907 1.5654018 1.6573962 1.6448545 0.8528799 0.5691265 1.7663195 0.99845713
00000000: a131 df3f 7c5b a83f 46b9 943f 4d5c 513f
00000010: 1907 763f d513 873f d5bb 323f be8f 863f
00000020: 2542 943f d161 a23f dd99 ec3f 0357 a13f
00000030: 1c91 b23f 172e 783f 8aa5 703f eaee cf3f
00000040: 9436 ba3f 44a2 893f 6a06 6e3f 2b57 953f
00000050: b13b 7e3f 04d1 a13f 0e1e 943f a58d ef3f
00000060: 0aa7 aa3f a754 cc3f 5807 813f 6eb7 883f
00000070: 88f9 303f 9f12 313f 06f1 b83f 37f8 8f3f
00000080: d9f0 983f 1bc6 563f 1206 9b3f af08 cf3f
00000090: 95aa eb3f 11da 653f 00a1 663f 35b6 df3f
000000a0: d57b 883f 29ab 8f3f 3dba ae3f e6db e23f
000000b0: b95e 523f 972a c93f 1332 a33f 31a0 ef3f
000000c0: 9d70 bd3f 542c 9d3f 1eed 9d3f 1811 8d3f
000000d0: 48b1 b63f 7161 463f db7c d53f 981c 8a3f
000000e0: 163b b73f 165f c83f 8f25 d43f 988a d23f
000000f0: 5656 5a3f 46b2 113f c216 e23f e39a 7f3f

network.MLP.3.bias f4 [64]
-0.032427445 -0.08607768 -0.104934946 0.021526206 0.15430097 -0.10854709 -0.37777117 -0.0042138505
-0.040350564 -0.162821 -0.04608989 0.1600501 -0.0755705 -0.06315036 0.09836279 0.07283061
-0.23769598 -0.16397208 -0.07985375 0.027961772 -0.027145427 -0.0035077652 -0.01531857 0.08064397
-0.14597812 0.20733437 -0.17678338 0.20871599 -0.45106828 -0.13561724 -0.08737602 0.077384785
-0.2370452 -0.00023975233 -0.15156473 -0.068787865 -0.10897992 -0.23343837 -0.13371195 -0.03688729
-0.028519256 -0.117586695 0.034824476 -0.17890209 0.06474901 -0.039049115 0.0076111206 -0.06255876
-0.0081151705 -0.024963519 -0.028297227 -0.2717117 -0.010323202 0.04726601 -0.07692923 -0.14152768
-0.12622 -0.115822695 -0.01602633 0.1336511 -0.16956472 0.2651352 -0.12912168 -0.056906924
00000000: a4d2 04bd 7f49 b0bd 22e8 d6bd ba57 b03c
00000010: 1301 1e3e f04d debd 396b c1be 5714 8abb
00000020: a246 25bd 8cba 26be c1c8 3cbd 2ce4 233e
00000030: b5c4 9abd fa54 81bd 6e72 c93d 3728 953d
00000040: 9366 73be 4ce8 27be 5d8a a3bd 1610 e53c
00000050: 1660 debc 89e2 65bb bdfa 7abc aa28 a53d
00000060: 4a7b 15be 764f 543e b406 35be a5b9 553e
00000070: 6cf2 e6be 3fdf 0abe 33f2 b2bd ea7b 9e3d
00000080: fabb 72be 0766 7bb9 c933 1bbe a7e0 8cbd
00000090: dd30 dfbd 780a 6fbe c9eb 08be 2117 17bd
000000a0: 37a1 e9bc 4bd1 f0bd 1ca4 0e3d 1c32 37be
000000b0: 219b 843d f7f1 1fbd b566 f93b cf1e 80bd
000000c0: 7ef5 04bc 4b80 ccbc 96cf e7bc cc1d 8bbe
000000d0: a622 29bc 019a 413d 128d 9dbd a2ec 10be
000000e0: d13f 01be 7334 edbd a649 83bc d5db 083e
000000f0: 60a2 2dbe cdbf 873e 7938 04be 3c17 69bd

critic.0.weight f4 [1, 64]
0.007166012 -0.037001185 -0.06402971 0.22938825 0.38507196 0.011059413 -0.047731005 -0.10226271
0.0021267354 -0.0066714473 -0.0070784865 0.026309663 -0.059775032 0.014876498 0.06251448 -0.008228444
-0.030007007 -0.21964033 -0.06552255 -0.025704868 -0.05895586 0.034320317 -0.03022513 0.019859295
-0.08111372 0.050355043 -0.34536132 0.33778256 -0.08093904 -0.119313955 -0.003913753 -0.031129897
-0.056628674 -0.05258514 -0.02037916 -0.03315788 -0.07060934 -0.03848147 -0.29908827 0.004351103
-0.06403647 0.0057812585 0.012834446 -0.08108182 0.07402586 0.008592972 -0.037629236 -0.060292706
-0.038378086 0.03089403 -0.009314875 -0.047482945 -0.045049153 -0.1950361 -0.075696185 -0.035209473
0.005481566 -0.027235389 -0.008204454 -0.020879533 -0.060156446 -0.12063966 -0.0039238506 -0.0487202
00000000: ded0 ea3b 8e8e 17bd 0222 83bd c1e4 6a3e
00000010: 2728 c53e 8a32 353c 9681 43bd 1d6f d1bd
00000020: b360 0b3b 289c dabb a6f2 e7bb 5d87 d73c
00000030: aad6 74bd 8ebc 733c 9707 803d 98d0 06bc
00000040: 41d1 f5bc 65e9 60be b030 86bd 0493 d2bc
00000050: b37b 71bd 7693 0c3d b19a f7bc f6af a23c
00000060: f31e a6bd 1741 4e3d 33d3 b0be d6f1 ac3e
00000070: 5ec3 a5bd e05a f4bd f13e 80bb 2004 ffbc
00000080: 78f3 67bd 8463 57bd 32f2 a6bc 8fd0 07bd
00000090: a19b 90bd bf9e 1dbd 1922 99be b393 8e3b
000000a0: 8e25 83bd b670 bd3b 9147 523c 3a0e a6bd
000000b0: df9a 973d 89c9 0c3c 1d21 1abd 7cf5 76bd
000000c0: 5732 1dbd 7a15 fd3c 6b9d 18bc 7a7d 42bd
000000d0: 7685 38bd 8bb7 47be 9a06 9bbd cf37 10bd
000000e0: b59e b33b c01c dfbc f96b 06bc 8e0b abbc
000000f0: 9b66 76bd ed11 f7bd a593 80bb d58e 47bd

actor.0.weight f4 [22, 64]
-0.10516331 0.08484263 -0.3470694 0.031555824 0.1634954 0.19072792 0.10777254 -0.17201748
0.18498656 -0.21778241 0.29091945 -0.18884122 0.09296823 -0.15420087 0.49137086 0.15183729
-0.27232516 -0.3112357 -0.07956498 -0.14713618 -0.18045406 -0.3142171 0.6312842 0.4404592
0.32701135 0.46437576 -0.20869724 0.28559017 -0.14945273 -0.14900407 -0.27051675 0.02245873
-0.062488828 0.010906424 0.41900647 0.29766676 -0.07806605 0.5865581 -0.29205984 -0.38986996
0.044932563 0.6799221 0.5278473 -0.22203608 0.18712245 -0.76666623 -0.641518 -0.2549322
0.12110049 -0.33448312 0.5066735 0.16378833 -0.69480026 -0.042429157 -0.41831636 -0.44009852
-0.6751707 -0.19184501 -0.11823179 0.3467431 0.19564138 0.046383344 -0.73442304 -0.08282208
-0.053408094 -0.4507941 -0.28950593 0.09576007 0.04614974 -0.037789643 0.03926114 -0.1230852
-0.13517733 0.09427998 0.36106095 0.009947779 0.097006746 -0.15701146 0.31625834 0.4491197
-0.15107892 -0.047641255 -0.36461398 -0.22236468 -0.258701 0.3805569 0.36623996 0.3526125
-0.1504973 0.037991557 -0.08982662 0.15022655 -0.2208617 -0.1261021 -0.30462825 -0.39302284
-0.24007441 -0.20007786 0.40748447 0.19708154 0.15844704 0.26693973 -0.054088157 -0.10469039
0.14761691 0.07350812 -0.47803116 -0.7646814 -0.0602509 -0.07493759 -0.111119404 -0.3501037
-0.14168577 0.36629775 0.30735824 0.14903069 -0.11730011 -0.090689346 0.11158266 -0.16574495
0.2654694 0.18938696 -0.5147958 0.6037293 -0.27524945 -0.05371588 0.23795676 0.025946977
0.41929775 -0.045252685 -0.49723053 0.06415485 -0.008253668 -0.015793676 0.30041006 0.29575402
-0.026649667 -0.07252438 -0.75358695 0.13061564 -0.09432299 0.21674986 -0.111889035 -0.25878152
-0.7018593 -0.002526373 -0.18953833 -0.19739877 0.09175582 -0.46278575 0.14562885 0.048490968
0.015769353 0.6447739 0.041535296 0.12730613 0.06811861 -0.24792634 0.16478845 -0.026368866
-0.36023983 -0.3098186 -0.0117664 0.24190043 -0.6262626 0.20629196 0.063608624 0.080087334
-0.29332647 -0.038035102 0.27052873 0.010143387 0.044679463 0.0895942 -0.06830739 0.3592901
-0.14198516 0.67562425 0.17827888 0.14495176 -0.22227332 -9.226258e-06 -0.33545923 -0.17818533
-0.08952449 -0.35217258 0.09730193 -0.33575842 0.07202089 -0.035788782 0.17501362 -0.49063972
0.6468542 -0.29656455 0.25268638 0.039529525 0.036120947 0.32689458 0.25475454 0.015308235
0.004144617 0.06688834 -0.2803304 -0.12083136 0.02280701 -0.09090753 0.014461651 0.018925594
0.25024214 -0.03597418 0.048893206 -0.29619458 -0.2564579 0.110750414 -0.077599436 0.71732306
0.1343375 -0.1405393 -0.10810191 0.06662526 -0.023485113 0.04400627 -0.10408832 -0.060331527
0.04046342 -0.15283814 -0.13157131 -0.6548911 0.42324492 -0.021949572 -0.16217324 -0.15464167
-0.2153134 0.17513515 0.17583327 0.08037625 -0.008267786 -0.31058684 0.13545148 -0.5104054
-0.1785658 -0.0987907 -0.2983002 0.017927025 0.04947263 -0.036485042 0.13387597 0.06795623
-0.026940826 -0.23889022 -0.41275197 0.16045743 -0.08678242 -0.040280186 0.29484233 0.3527957
00000000: dd5f d7bd f9c1 ad3d 15b3 b1be ae40 013d
00000010: 576b 273e 2e4e 433e d9b7 dc3d 5a25 30be
00000020: 1e6d 3d3e 5a02 5fbe 65f3 943e 985f 41be
00000030: 2166 be3d d5e6 1dbe f694 fb3e 3c7b 1b3e
00000040: 346e 8bbe 495a 9fbe f7f2 a2bd deaa 16be
00000050: f3c8 38be 10e1 a0be d79b 213f de83 e13e
00000060: 086e a73e a9c2 ed3e bbb4 55be e038 923e
00000070: 230a 19be 8694 18be 2c81 8abe 5ffb b73c
00000080: 49f4 7fbd dcb0 323c 0488 d63e c767 983e
00000090: 18e1 9fbd ac28 163f de88 95be 099d c7be
000000a0: 350b 383d 600f 2e3f 0021 073f 6d5d 63be
000000b0: 079d 3f3e 3d44 44bf 863a 24bf 7986 82be
000000c0: 8903 f83d 5f41 abbe 5bb5 013f 21b8 273e
000000d0: 6ede 31bf 32ca 2dbd 902d d6be 9854 e1be
000000e0: fdd7 2cbf 0573 44be 8223 f2bd 5088 b13e
000000f0: 3756 483e 76fc 3d3d 2603 3cbf 9f9e a9bd
00000100: 72c2 5abd 7cce e6be 1f3a 94be db1d c43d
00000110: 8307 3d3d 50c9 1abd 4ad0 203d 1814 fcbd
00000120: ed6b 0abe dd15 c13d fbdc b83e 02fc 223c
00000130: 79ab c63d 9dc7 20be 9dec a13e 04f3 e53e
00000140: 6fb4 1abe 7a23 43bd afae babe 91b3 63be
00000150: 7574 84be 5bd8 c23e ce83 bb3e a089 b43e
00000160: f71b 1abe 099d 1b3d 05f7 b7bd fdd4 193e
00000170: 9229 62be e920 01be 3cf8 9bbe 4a3a c9be
00000180: 11d6 75be 36e1 4cbe cea1 d03e becf 493e
00000190: f13f 223e 53ac 883e 8b8b 5dbd ea67 d6bd
000001a0: e328 173e 6d8b 963d 80c0 f4be 29c2 43bf
000001b0: a6c9 76bd e178 99bd 9292 e3bd cb40 b3be
000001c0: 1316 11be 618b bb3e 0f5e 9d3e 809b 183e
000001d0: 0a3b f0bd 56bb b9bd 7385 e43d 0bb9 29be
000001e0: 9beb 873e a8ee 413e a8c9 03bf 018e 1a3f
000001f0: 7fed 8cbe 2f05 5cbd f0aa 733e c18e d43c
00000200: 32ae d63e e15a 39bd 0095 febe 9e63 833d
00000210: 653a 07bc bd61 81bc 59cf 993e 126d 973e
00000220: 6750 dabc aa87 94bd 13eb 40bf 1bc0 053e
00000230: 692c c1bd adf3 5d3e 1426 e5bd 037f 84be
00000240: 0dad 33bf 8191 25bb 5616 42be e722 4abe
00000250: 7aea bb3d 41f2 ecbe bb1f 153e 779e 463d
00000260: bb2e 813c e70f 253f ea20 2a3d 8a5c 023e
00000270: c581 8b3d 67e0 7dbe 4ebe 283e 8503 d8bc
00000280: 5b71 b8be 8ba0 9ebe dcc7 40bc bfb4 773e
00000290: bf52 20bf 333e 533e 3d45 823d d404 a43d
000002a0: e32e 96be b2ca 1bbd be82 8a3e 7330 263c
000002b0: d001 373d 2a7d b73d bfe4 8bbd dff4 b73e
000002c0: 8f64 11be b6f5 2c3f bd8e 363e 3c6e 143e
000002d0: 9e9b 63be 7aca 1ab7 50c1 abbe 3776 36be
000002e0: 9e58 b7bd f74f b4be 3c46 c73d 87e8 abbe
000002f0: b07f 933d 4297 12bd c536 333e 2135 fbbe
00000300: 3d98 253f 4fd7 97be 1c60 813e b6e9 213d
00000310: 8ff3 133d ba5e a73e 306f 823e 64cf 7a3c
00000320: 91cf 873b c1fc 883d 7787 8fbe 6f76 f7bd
00000330: c4d5 ba3c ba2d babd 90f0 6c3c d909 9b3c
00000340: bd1f 803e a959 13bd 3e44 483d d1a6 97be
00000350: 734e 83be 1dd1 e23d 74ec 9ebd 7ca2 373f
00000360: c58f 093e 89e9 0fbe 8964 ddbd d372 883d
00000370: da63 c0bc eb3f 343d 422c d5bd 311e 77bd
00000380: f9bc 253d 9a81 1cbe a1ba 06be f1a6 27bf
00000390: 8fb3 d83e 97cf b3bc be10 26be 635a 1ebe
000003a0: 1e7b 5cbe a156 333e a30d 343e 4e9c a43d
000003b0: 9c75 07bc 3d05 9fbe cbb3 0a3e eea9 02bf
000003c0: f4d9 36be c752 cabd ceba 98be b2db 923c
000003d0: d0a3 4a3d 5771 15bd c816 093e a32c 8b3d
000003e0: 02b3 dcbc a39f 74be 3a54 d3be f44e 243e
000003f0: fbba b1bd d6fc 24bd 93f5 963e a3a1 b43e

actor.0.bias f4 [22]
0.039060917 0.10846787 0.01160547 0.062944055 0.021823319 -0.05867829 -0.06818337 -0.01904626
0.011006798 -0.043026347 -0.035384096 0.07817271 0.0066156085 -0.0016778326 0.024072716 0.009683145
0.018919809 -0.02270183 0.009680636 -0.007852185 0.005550074 0.09871514
00000000: 57fe 1f3d 6724 de3d df24 3e3c d0e8 803d
00000010: d1c6 b23c a658 70bd b9a3 8bbd e706 9cbc
00000020: db55 343c 653c 30bd eaee 10bd 0419 a03d
00000030: bfc7 d83b b8ea dbba 2534 c53c 0ea6 1e3c
00000040: b7fd 9a3c 30f9 b9bc 889b 1e3c 73a6 00bc
00000050: 65dd b53b 2a2b ca3d
