paper/training_results/seed-2/momarl/checkpoints/mlp_(negotiation=False)_(num_agents=12)_(window=False)_(reduced_space=False)_(fixed_savings_rate=False)_(rewards=['inverse_global_temperature', 'global_economic_output'])(wgen=uniform)(num_ensembles=1)(seed=2)_2025-01-16_22:02:19_w=[0.7331 0.2669].pt (torch, 38168 bytes, 9 tensors)

network.MLP.0.weight f4 [64, 18]
-0.021404032 0.34914246 0.035664406 -0.06199764 -0.40220943 0.05946068 -0.07430595 -0.5406428
0.39731234 -0.36858997 0.061299317 -1.4252641 -0.2073665 -1.0126088 0.032574877 -0.02900648
-0.3570876 0.54886657 -0.7650559 0.4395705 0.07013047 -2.3360412 0.06282958 -0.09705008
-0.2749059 -0.010354568 0.16187522 -0.1670381 -0.14769472 -0.12916797 0.26773414 0.58461714
-0.37380165 0.24762695 0.2824912 -0.25746447 -0.23763254 0.0922284 -0.052965917 -0.004008482
-0.13842842 0.20507634 0.12979038 -0.112727016 0.11074054 -0.0027812195 0.08654474 -0.16639492
-0.20420799 0.02077551 -0.23370443 0.21159941 -0.0718303 -0.12114604 -0.17147774 -0.017823188
-0.100450814 -0.010824425 0.13815391 0.13347864 0.14568909 0.28723496 0.25446752 0.13813414
-0.13271391 0.11726232 -0.11173371 -0.0009705364 0.0736335 -0.13391435 0.22059086 0.23525812
0.050505638 0.26908395 0.042324994 0.46068102 0.44641608 -1.4859412 -0.026627623 0.08620357
0.1578781 -0.0016009733 0.07504218 -0.14026123 0.38869196 -0.06296269 -0.05015576 0.2062335
-0.05864849 0.019060379 -0.01890971 0.3496762 0.04582082 -0.8628418 -0.8036021 0.23534259
-0.3054785 0.28923354 -0.020795155 -0.059287854 -0.26909348 -0.21976636 -0.13878177 0.13486168
-0.071840525 -0.51125526 -0.24029513 0.11299934 0.039945256 -1.240454 -0.03963333 -0.6864603
0.59074074 -0.017030803 0.23255134 -0.01914565 -0.044383705 -0.30744618 -0.23466918 0.061661247
0.43077126 -0.38969752 0.48490855 0.2518623 0.28383058 -0.055813488 -0.33880156 -0.7639374
0.06096457 0.18088514 -0.06278783 0.57434607 -0.36553726 0.088022046 -0.35616365 -0.204013
-0.46827167 0.1242912 -0.06983058 -0.6904359 0.28569096 0.056895774 -0.3040997 -0.12727591
-0.19471996 -0.15126209 -0.16920643 0.081601694 0.00020820543 -0.08731318 -0.09468413 0.05234234
0.03661617 -0.11243085 -0.06611144 -0.21639897 -0.18077224 -0.071426935 0.004950934 0.2010884
-0.065535456 0.21992055 -0.13549073 -0.046187576 -0.0037829666 -0.020509783 0.09366539 0.17572781
0.2718523 -0.18392034 0.18117861 0.02620964 0.16079974 0.271853 0.12754686 0.059626106
-0.04581244 -0.04542349 0.2308842 -0.119289264 0.045026142 -0.01401888 0.006376724 -0.0073798504
-0.64581454 0.42400798 -0.03008365 0.046622153 -0.25125274 0.3320983 0.082915686 0.2920289
-0.1263675 0.14844954 0.28849667 -0.19699568 0.12225906 0.02523758 0.19698747 0.3337846
-0.2593343 -0.7518727 0.06281651 -0.005364413 0.06730951 -0.14729929 0.1302326 -0.26360318
-0.29306498 -0.009648651 0.1924773 -0.05824106 0.093711235 0.0019817227 -0.29795542 -0.07882132
0.012024769 -0.10581787 0.043997694 -0.3371803 -0.23749667 0.04256461 0.30122808 -0.4260447
0.54562217 -0.765118 0.09043382 0.03796645 0.07991402 -0.5294235 0.21268485 -0.057832118
-0.121462636 -0.9169293 0.15514655 0.5552758 -0.42176366 0.27580857 -0.8468493 0.5832245
0.05493816 -0.08741854 -0.11810207 0.074056454 0.12095653 0.026765216 -0.25549638 -0.14291513
0.11167519 0.021643708 -0.14573076 -0.19939613 0.13609394 0.15286511 0.01606429 -0.78230935
00000000: 8257 afbc cdc2 b23e d714 123d 3df1 7dbd
00000010: 65ee cdbe 0b8d 733d b82d 98bd 9167 0abf
00000020: 866c cb3e d3b7 bcbe fe14 7b3d 0e6f b6bf
00000030: e257 54be 2a9d 81bf 3c6d 053d ff9e edbc
00000040: 30d4 b6be 8582 0c3f b4da 43bf 620f e13e
00000050: 90a0 8f3d b381 15c0 cbac 803d 31c2 c6bd
00000060: 77c0 8cbe 35a6 29bc 9ec2 253e 090c 2bbe
00000070: 493d 17be 9c44 04be 7314 893e 78a9 153f
00000080: ee62 bfbe eb91 7d3e b0a2 903e 62d2 83be
00000090: f255 73be 3ee2 bc3d caf2 58bd 9659 83bb
000000a0: 2ec0 0dbe 88ff 513e c5e7 043e 6cdd e6bd
000000b0: f0cb e23d 1f45 36bb 5e3e b13d 6e63 2abe
000000c0: e61b 51be 6731 aa3c 3750 6fbe 84ad 583e
000000d0: c41b 93bd 6a1b f8bd dc97 2fbe ef01 92bc
000000e0: 28b9 cdbd ee58 31bc 3878 0d3e a0ae 083e
000000f0: 852f 153e 7610 933e 9149 823e 0973 0d3e
00000100: 28e6 07be 3a27 f03d a5d4 e4bd 986b 7eba
00000110: 29cd 963d d820 09be 92e2 613e 81e7 703e
00000120: 00df 4e3d 5fc5 893e f95c 2d3d 62de eb3e
00000130: a690 e43e 5233 bebf 2c22 dabc 7f8b b03d
00000140: ccaa 213e c0d7 d1ba b7af 993d a4a0 0fbe
00000150: a202 c73e 95f2 80bd 2070 4dbd e02e 533e
00000160: 6639 70bd 8324 9c3c 89e8 9abc c208 b33e
00000170: 9dae 3b3d 33e3 5cbf deb8 4dbf a6fd 703e
00000180: ae67 9cbe 6b16 943e 9a5a aabc d2d7 72bd
00000190: 9fc6 89be 6f0a 61be cf1c 0ebe 2e19 0a3e
000001a0: 2021 93bd a0e1 02bf ed0f 76be 336c e73d
000001b0: a39d 233d 32c7 9ebf 8f56 22bd ddbb 2fbf
000001c0: c93a 173f 2f84 8bbc f021 6e3e 57d7 9cbc
000001d0: b0cb 35bd 9669 9dbe 1e4d 70be 8190 7c3d
000001e0: 0d8e dc3e 6f86 c7be ef45 f83e 18f4 803e
000001f0: 3e52 913e af9c 64bd 6677 adbe 6791 43bf
00000200: fcb5 793d f439 393e e896 80bd 5808 133f
00000210: b327 bbbe e744 b43d 155b b6be c9e8 50be
00000220: 4ec1 efbe 628c fe3d 5603 8fbd 68c0 30bf
00000230: 1646 923e 8b0b 693d f5b2 9bbe 9e54 02be
00000240: ab64 47be 73e4 1abe 7344 2dbe ca1e a73d
00000250: b851 5a39 41d1 b2bd c1e9 c1bd ec64 563d
00000260: d6fa 153d 2542 e6bd 6f65 87bd b197 5dbe
00000270: 5c1c 39be 4948 92bd 723b a23b 1eea 4d3e
00000280: 7437 86bd da32 613e 15be 0abe 2f2f 3dbd
00000290: a6eb 77bb 2204 a8bc a4d3 bf3d fef1 333e
000002a0: 3a30 8b3e 9d55 3cbe e386 393e 99b5 d63c
000002b0: b0a8 243e 5130 8b3e a59b 023e 813a 743d
000002c0: d3a5 3bbd fb0d 3abd e86c 6c3e ee4d f4bd
000002d0: 556d 383d 72af 65bc d7f3 d03b acd2 f1bb
000002e0: 1a54 25bf 9317 d93e fd71 f6bc dff6 3e3d
000002f0: 33a4 80be ca08 aa3e b3cf a93d d084 953e
00000300: 7b66 01be 2803 183e d6b5 933e 3cb9 49be
00000310: f562 fa3d 0bbf ce3c 15b7 493e d1e5 aa3e
00000320: 77c7 84be bb7a 40bf f1a5 803d f5c7 afbb
00000330: 92d9 893d a0d5 16be b25b 053e fff6 86be
00000340: 9d0c 96be 6015 1ebc c518 453e 2d8e 6ebd
00000350: adeb bf3d cadf 013b 9d8d 98be 126d a1bd
00000360: 8903 453c 0ab7 d8bd ed36 343d e5a2 acbe
00000370: 5432 73be 3a58 2e3d 913a 9a3e 8822 dabe
00000380: e5ad 0b3f c6de 43bf 5e35 b93d b582 1b3d
00000390: f6a9 a33d 4c88 07bf 0fca 593e 5fe1 6cbd
000003a0: 67c1 f8bd e1bb 6abf bdde 1e3e 8e26 0e3f
000003b0: 68f1 d7be c836 8d3e 1ecb 58bf 334e 153f
000003c0: d606 613d 7e08 b3bd 80df f1bd e9aa 973d
000003d0: 0fb8 f73d ba42 db3c 6cd0 82be 5858 12be
000003e0: f6b5 e43d 254e b13c 723a 15be 802e 4cbe
000003f0: 365c 0b3e ac88 1c3e 4299 833c 6d45 48bf

network.MLP.0.bias f4 [64]
-0.28419378 0.16001171 -0.11726605 0.31878114 -0.19274896 0.54977965 0.15611087 0.039447036
0.3446991 -0.026234725 -0.37843454 -0.023129186 0.01917519 -0.27938652 0.63723636 -0.14456746
-0.01859699 -0.19263327 0.2294756 -0.23459288 0.28657803 0.36026943 0.08085024 0.27047288
-0.40025693 0.33863518 0.14849177 0.20861363 0.19150856 -0.01617696 -0.102335386 -0.16332515
-0.0021516827 -0.37260607 0.9114039 0.63660073 0.26036942 -0.1749467 -0.2241204 0.26335853
-0.78397715 0.2797839 -0.6690477 -0.21498618 0.11082705 -0.15141368 -0.119514905 -0.3277732
0.10549996 -0.46229738 0.64660555 -0.5942363 -0.33261785 0.30695173 -1.3250223 0.11279644
-1.3357098 -0.55589813 -0.08730987 -0.3642186 -0.12298161 -0.09333554 0.09781969 -0.027624467
00000000: d981 91be 1cda 233e 2f29 f0bd 4837 a33e
00000010: fc5f 45be 5cbe 0c3f 87db 1f3e 3793 213d
00000020: 677c b03e 35ea d6bc 2cc2 c1be 6b79 bdbc
00000030: 4a15 9d3c c00b 8fbe ec21 233f 7e09 14be
00000040: b758 98bc a841 45be a7fb 6a3e 1e39 70be
00000050: 5bba 923e 3c75 b83e d094 a53d 6c7b 8a3e
00000060: 7aee ccbe 9761 ad3e 3a0e 183e d09e 553e
00000070: d21a 443e 8b85 84bc 3795 d1bd b53e 27be
00000080: 3f03 0dbb 39c6 bebe c451 693f 44f8 223f
00000090: 244f 853e 3a25 33be d17f 65be eed6 863e
000000a0: bab2 48bf d63f 8f3e b646 2bbf 5625 5cbe
000000b0: 4bf9 e23d 300c 1bbe 3bc4 f4bd e4d1 a7be
000000c0: 5d10 d83d 3eb2 ecbe f187 253f df1f 18bf
000000d0: e34c aabe c728 9d3e 559a a9bf d201 e73d
000000e0: 8af8 aabf 574f 0ebf 84cf b2bd dc7a babe
000000f0: c8dd fbbd b426 bfbd b155 c83d b54c e2bc

network.MLP.2.weight f4 [64, 64]
-0.07647319 0.27914518 -0.04534955 0.22453487 0.3118933 -0.10196447 -0.06186182 -0.14553301
0.25352982 -0.0014329778 0.060391184 0.099395946 -0.03950888 -0.04978315 0.4962344 0.15079318
0.0017593324 -0.15549758 0.06363976 -0.019545635 0.062688865 -0.02221493 0.095998354 0.14773831
0.07035311 0.008202266 0.12651621 0.17291278 0.20881128 0.20858005 -0.11274615 0.03311325
0.057871874 0.120122366 0.15529823 0.04426758 0.09644217 0.14323643 0.10030957 0.11638021
0.2085899 -0.17735736 -0.04983565 0.8771969 0.024191098 -0.105773546 -0.13637438 -0.11536524
-0.055457536 -0.036191724 -0.1297856 -0.10195846 0.07750789 0.07488993 -0.4377348 -0.01783902
-0.27689663 -0.11616882 0.01699467 -0.21106714 -0.048522394 0.13260126 -0.3268672 -0.1257972
-0.10845088 -0.36632296 -0.07385228 -0.16153827 -0.10635726 -0.03774453 -0.046698507 -0.123151
-0.15099256 -0.017920189 -0.02918924 0.321891 0.118745185 0.17530492 -0.35922143 0.01769564
0.10623718 0.36412585 -0.029956138 0.031919956 -0.26028544 -0.16285954 0.26774162 -0.104043156
-0.27453455 0.23273376 0.035808403 0.15284565 -0.34724337 0.2888124 -0.07407592 0.0967127
-0.033315025 -0.0036243554 0.48632228 0.036123425 -0.03855931 -0.034347206 0.11598043 0.09794258
-0.17705818 0.17756326 0.12889674 -0.6467048 0.29227188 0.21919827 0.07335658 -0.0009374222
-0.21465479 -0.11824977 0.021872193 -0.10637749 -0.28110117 0.55993724 0.44273543 -0.14717443
0.35889566 0.042576328 -0.33634108 -0.011478862 -0.12417303 -0.1533584 -0.03793943 -0.21837977
-0.17306237 0.13325325 -0.011450869 -0.101726204 0.14790425 0.1306575 -0.37311763 0.14862001
0.040356737 0.011995901 -0.04524702 -0.062378105 0.10664179 -0.0069142687 -0.35110614 -0.10044932
-0.0645085 -0.17130192 -0.045653336 -0.011895754 -0.18677154 0.12598884 -0.3747332 -0.0035175823
0.11213755 0.019751906 -0.45442167 0.17532225 -0.12830411 0.13682732 0.013003573 0.025146637
-0.12320265 0.27283436 -0.03481529 0.117197946 -0.11598584 -0.023697423 0.0053500272 -0.115322195
-0.28645918 0.14011858 0.15868728 -0.06748612 0.30306453 0.15581541 -0.13250789 -0.2532085
-0.024457965 0.0009576915 0.117657915 0.25343964 -0.09060322 0.013417545 0.5475691 -0.38846606
0.18622914 0.027381018 -0.0006694377 -0.17415625 0.014189238 -0.09058461 0.5304134 0.08359558
-0.032988805 -0.14649229 0.01571128 -0.16529699 -0.4668639 -0.05099976 0.023340357 0.14720763
-0.08171851 0.032285035 0.055146802 -0.11913834 0.035733815 0.2221594 -0.36268628 0.08580013
0.12419726 -0.17095266 -0.0065451693 0.08557574 -0.01812013 -0.06133982 0.16486855 -0.027036125
0.14879967 -0.092292845 0.00034416173 -0.01644087 -0.06531749 -0.0803931 -0.12257779 0.09638736
0.11870718 -0.008710505 -0.11638313 -0.052191526 -0.08957945 -0.12235219 -0.12189206 0.0398072
-0.13136588 -0.049870353 0.12479126 -0.47213155 -0.05870121 -0.032165814 0.060116652 0.18883957
-0.17272419 0.10580467 -0.15550177 -0.02959078 0.114209406 -0.335594 0.6408221 -0.011576358
0.22107452 0.06690454 -0.18321317 -0.0729166 0.044067755 0.082873374 -0.27468032 -0.028974585
00000000: fa9d 9cbd 1eec 8e3e 73c0 39bd 78ec 653e
00000010: 7bb0 9f3e c0d2 d0bd d262 7dbd 9b06 15be
00000020: a9ce 813e c2d2 bbba bf5c 773d 1a90 cb3d
00000030: 10d4 21bd 6be9 4bbd 6f12 fe3e 8769 1a3e
00000040: 6699 e63a c23a 1fbe 9055 823d 2b1e a0bc
00000050: 0563 803d 16fc b5bc c99a c43d b648 173e
00000060: 4b15 903d cc62 063c 778d 013e 0c10 313e
00000070: a0d2 553e 0296 553e 74e7 e6bd c2a1 073d
00000080: 0f0b 6d3d b702 f63d 8006 1f3e ec51 353d
00000090: 7983 c53d 92ac 123e 1b6f cd3d bf58 ee3d
000000a0: 9798 553e 2b9d 35be 7720 4cbd fa8f 603f
000000b0: 692c c63c cd9f d8bd baa5 0bbe 9c44 ecbd
000000c0: 7127 63bd c63d 14bd 84e6 04be 99cf d0bd
000000d0: 75bc 9e3d e45f 993d c71e e0be 2323 92bc
000000e0: 65c5 8dbe ebe9 edbd 6838 8b3c fc21 58be
000000f0: 6bbf 46bd a0c8 073e 235b a7be fbd0 00be
00000100: 7f1b debd af8e bbbe dd3f 97bd 4a6a 25be
00000110: d6d1 d9bd 029a 1abd ef46 3fbd 9736 fcbd
00000120: cb9d 1abe 5ccd 92bc 461e efbc e6ce a43e
00000130: ad30 f33d 2283 333e dfeb b7be 72f6 903c
00000140: e192 d93d b46e ba3e 9366 f5bc 80be 023d
00000150: 2244 85be a7c4 26be 6e15 893e 9414 d5bd
00000160: cb8f 8cbe c251 6e3e d5ab 123d 9283 1c3e
00000170: e2c9 b1be 38df 933e 1eb5 97bd 4f11 c63d
00000180: 5675 08bd 9886 6dbb 3cff f83e 28f6 133d
00000190: 5ef0 1dbd a8af 0cbd 2687 ed3d 1f96 c83d
000001a0: bd4e 35be 25d3 353e 82fd 033e 728e 25bf
000001b0: a9a4 953e 8375 603e fa3b 963d 57bd 75ba
000001c0: 77ce 5bbe ef2c f2bd 502d b33c 71dc d9bd
000001d0: 7eec 8fbe 0c58 0f3f 38ae e23e e5b4 16be
000001e0: 2cc1 b73e 8464 2e3d e634 acbe d611 3cbc
000001f0: 6e4e febd fc09 1dbe 6066 1bbd f29e 5fbe
00000200: 4337 31be 8a73 083e 6d9c 3bbc d455 d0bd
00000210: 3674 173e 14cb 053e 4609 bfbe d82f 183e
00000220: 1b4d 253d 758a 443c f054 39bd 2f80 7fbd
00000230: 0367 da3d 1791 e2bb 2fc4 b3be 60b8 cdbd
00000240: 081d 84bd c569 2fbe fefe 3abd 69e6 42bc
00000250: 0a41 3fbe 3803 013e 08dd bfbe 3d87 66bb
00000260: 5fa8 e53d c0ce a13c f5a9 e8be ad87 333e
00000270: 2762 03be 761c 0c3e f00c 553c 5200 ce3c
00000280: ac51 fcbd f2b0 8b3e 7a9a 0ebd 7a05 f03d
00000290: fc89 edbd 1921 c2bc 484f af3b 0b2e ecbd
000002a0: c7aa 92be 3f7b 0f3e eb7e 223e 2a36 8abd
000002b0: 462b 9b3e 138e 1f3e 26b0 07be 8ba4 81be
000002c0: 125c c8bc 970d 7b3a a2f6 f03d d7c2 813e
000002d0: 2e8e b9bd 43d5 5b3c 7d2d 0c3f 06e5 c6be
000002e0: dab2 3e3e 284e e03c 347d 2fba 0456 32be
000002f0: fa79 683c 6d84 b9bd 2cc9 073f 2934 ab3d
00000300: 451f 07bd 1302 16be f1b4 803c 9d43 29be
00000310: c908 efbe 20e5 50bd 4734 bf3c 99bd 163e
00000320: 095c a7bd 503d 043d 9de1 613d cdfe f3bd
00000330: 9f5d 123d c17d 633e 04b2 b9be fbb7 af3d
00000340: 225b fe3d 370e 2fbe dc78 d6bb 5542 af3d
00000350: ab70 94bc 773f 7bbd 4dd3 283e dd7a ddbc
00000360: f15e 183e 0804 bdbd 9b70 b439 01af 86bc
00000370: 2dc5 85bd 23a5 a4bd 100a fbbd bc66 c53d
00000380: c01c f33d 82b6 0ebc 475a eebd c8c6 55bd
00000390: 6e75 b7bd c993 fabd 8ba2 f9bd e00c 233d
000003a0: c784 06be db44 4cbd 8f92 ff3d 3abb f1be
000003b0: ae70 70bd 4dc0 03bd e13c 763d 295f 413e
000003c0: 9cde 30be 1eb0 d83d db3b 1fbe 5d68 f2bc
000003d0: 9fe6 e93d fad2 abbe eb0c 243f c4aa 3dbc
000003e0: 5c61 623e 3f05 893d 3c9c 3bbe 4c55 95bd
000003f0: 6480 343d 84b9 a93d e6a2 8cbe 1c5c edbc

network.MLP.2.bias f4 [64]
0.39614567 0.17216526 0.04680961 -0.62284136 0.44764078 0.2944578 -0.10913419 0.14499539
-0.006966392 -0.1634514 -0.563921 -0.2883102 0.32041702 -0.5559297 0.15041338 0.3226105
-0.13751678 -0.12364564 0.14130007 -0.13892244 0.6292288 -0.17251886 -0.08243684 -0.012321395
0.530604 0.018937528 -0.20166041 0.5650586 -1.1223207 -0.081692986 -0.024735782 0.16380043
0.35528147 0.18678902 -0.13141225 0.0072883177 -0.118638 0.682393 -0.20544668 0.01719585
0.24703233 0.40133145 0.055741046 -0.16176401 -0.3369076 0.9596474 -0.10128105 0.13582355
0.14992379 0.41020453 0.1893035 0.13296898 0.07216442 -0.04930368 -0.07239647 0.15666534
-0.5122015 -0.11511904 0.08015425 -0.10004639 -0.58987784 0.073934145 0.24326876 -0.16714959
00000000: 9bd3 ca3e 174c 303e 6fbb 3f3d 8872 1fbf
00000010: 2c31 e53e 2cc3 963e bf81 dfbd ac79 143e
00000020: 5546 e4bb ce5f 27be 205d 10bf 659d 93be
00000030: b30d a43e 6951 0ebf f705 1a3e 342d a53e
00000040: 33d1 0cbe ed39 fdbd f7b0 103e af41 0ebe
00000050: 2315 213f c9a8 30be a5d4 a8bd addf 49bc
00000060: aad5 073f e022 9b3c 1180 4ebe aea7 103f
00000070: 34a8 8fbf a74e a7bd b2a2 cabc 4dbb 273e
00000080: 74e7 b53e 9f45 3f3e ef90 06be d7d2 ee3b
00000090: 7bf8 f2bd 4fb1 2e3f 9d60 52be 50de 8c3c
000000a0: 0bf6 7c3e 517b cd3e b950 643d 77a5 25be
000000b0: 277f acbe 74ab 753f 706c cfbd 5415 0b3e
000000c0: 9f85 193e 5406 d23e c7d8 413e 0529 083e
000000d0: f0ca 933d a8f2 49bd 9a44 94bd e16c 203e
000000e0: a31f 03bf 88c3 ebbd e927 a43d 1fe5 ccbd
000000f0: 3c02 17bf c96a 973d 721b 793e 4329 2bbe

network.MLP.3.weight f4 [64]
0.80847764 1.3791171 1.547824 0.8706907 0.85191524 1.0418768 1.373636 0.7902414
1.3304958 1.3123239 0.8112498 1.4685777 1.5248839 0.71437335 0.6769463 1.554695
1.487477 1.4180171 1.7672445 1.296917 0.9852726 1.263264 0.38415137 1.3717943
0.92786974 1.5901242 1.9821166 0.8547263 0.7758676 1.6803771 1.395999 1.2009144
1.4900589 1.76899 1.4392697 1.6328863 1.5907141 1.0946542 1.024579 1.6771408
1.5387993 1.1730245 1.6387323 1.3737376 0.96484864 0.8969046 1.5400201 1.1869886
1.1910237 0.73803854 1.1203706 1.0728457 1.4699461 1.6038994 1.4269546 1.3658178
1.0053775 1.7483662 1.3102627 1.553729 0.90209144 1.2040347 1.3397241 1.3205144
00000000: 64f8 4e3f e986 b03f 191f c63f 96e5 5e3f
00000010: 1e17 5a3f 385c 853f 4ed3 af3f 434d 4a3f
00000020: b04d aa3f 3bfa a73f 11ae 4f3f 5bfa bb3f
00000030: 652f c33f 2ce1 363f 5a4c 2d3f 3f00 c73f
00000040: a565 be3f 9681 b53f 1135 e23f 6001 a63f
00000050: d33a 7c3f a2b2 a13f 7daf c43e f596 af3f
00000060: df88 6d3f 3189 cb3f ffb5 fd3f 58cf 5a3f
00000070: 429f 463f 9916 d73f 18b0 b23f 90b7 993f
00000080: 40ba be3f 446e e23f fd39 b83f 6b02 d13f
00000090: 859c cb3f a11d 8c3f 6825 833f 8dac d63f
000000a0: 60f7 c43f ab25 963f fbc1 d13f a2d6 af3f
000000b0: 5200 773f 8a9b 653f 611f c53f 3eef 973f
000000c0: 7773 983f 18f0 3c3f 4e68 8f3f 0253 893f
000000d0: 3227 bc3f 934c cd3f 73a6 b63f 1ed3 ae3f
000000e0: 36b0 803f 77ca df3f b0b6 a73f 98e0 c63f
000000f0: 77ef 663f cf1d 9a3f 147c ab3f 9e06 a93f

network.MLP.3.bias f4 [64]
-0.016354896 0.17911464 0.0051926817 -0.15836763 0.07134364 0.28994274 -0.031910285 -0.13748048
0.04407118 -0.18276767 -0.10103117 0.18167982 0.068246275 -0.07424418 -0.20574945 0.101823635
0.10230319 0.10410056 -0.019758021 0.0011509595 0.0076694726 0.12188946 0.49013227 0.05751269
0.1492261 -0.11996336 0.049389426 -0.15264265 0.06570012 -0.07710947 -0.076580815 -0.008971704
-0.0527627 -0.07039218 0.0514014 0.08284121 -0.034687914 0.16497031 0.111552626 0.049230315
0.11497504 -0.10761873 -0.11483607 0.11804818 0.030894725 0.10124573 0.06642523 -0.12978013
0.03601465 -0.06536856 0.07626524 0.123630285 -0.040072154 0.04295265 0.0012554128 0.09677172
-0.16403992 0.16408817 -0.029486908 -0.02402549 -0.15551929 0.10683397 0.12536842 0.120493025
00000000: b4fa 85bc d469 373e 5f27 aa3b 202b 22be
00000010: 9d1c 923d 6073 943e 5cb4 02bd afc7 0cbe
00000020: fb83 343d 7327 3bbe 6ee9 cebd 460a 3a3e
00000030: b4c4 8b3d 550d 98bd fcaf 52be e988 d03d
00000040: 5684 d13d ad32 d53d 93db a1bc cbdb 963a
00000050: 3350 fb3b 2ea1 f93d 9ef2 fa3e 6d92 6b3d
00000060: bace 183e 5aaf f5bd 914c 4a3d 5b4e 1cbe
00000070: c98d 863d 92eb 9dbd 67d6 9cbd 0efe 12bc
00000080: b31d 58bd c629 90bd 468a 523d a7a8 a93d
00000090: ea14 0ebd faed 283e b475 e43d baa5 493d
000000a0: 0978 eb3d 3567 dcbd 2c2f ebbd 3fc3 f13d
000000b0: ef16 fd3c ec59 cf3d f309 883d 15e5 04be
000000c0: 1984 133d f4df 85bd f330 9c3d e031 fd3d
000000d0: b322 24bd 1eef 2f3d aa8c a43a 4030 c63d
000000e0: 15fa 27be bb06 283e 878e f1bc 1bd1 c4bc
000000f0: 7340 1fbe c5cb da3d 9460 003e 0cc5 f63d

critic.0.weight f4 [1, 64]
-0.017234799 0.050053135 0.06623457 -0.28737792 0.09410807 0.075672396 -0.0009378932 0.07025983
0.018026497 0.042340785 -0.23402816 -0.007713185 0.026487967 -0.031187292 0.1696335 0.08180875
0.007693759 0.012182213 0.0075986884 -0.010633993 0.06208864 -0.012705484 -0.076983385 0.020140164
0.090467 -0.013318173 0.028575411 0.037267633 -0.20782542 -0.016870901 0.0017313893 0.052805215
0.054289486 0.03419563 0.054601375 0.015926069 -0.008346886 0.3083995 -0.0010215117 0.017511765
0.018439945 0.059888702 0.003477982 0.02271959 -0.005378228 0.30684757 0.031748764 0.004946351
0.04575759 0.035854656 0.040135358 0.047232073 -0.03055864 -0.015609474 0.032333627 0.027445385
-0.38216037 0.035729032 0.034221675 -0.012672506 -0.22230788 0.056744255 0.07208129 -0.00031393048
00000000: fe2f 8dbc 8404 4d3d fea5 873d 3323 93be
00000010: bbbb c03d 21fa 9a3d f2dc 75ba 63e4 8f3d
00000020: 4eac 933c 886d 2d3d 14a5 6fbe e3be fcbb
00000030: 4bfd d83c 7e7c ffbc 67b4 2d3e 598b a73d
00000040: ee1b fc3b e897 473c 6bfe f83b 333a 2ebc
00000050: a850 7e3d aa2a 50bc 77a9 9dbd fcfc a43c
00000060: c346 b93d 7734 5abc fb16 ea3c f2a5 183d
00000070: 30d0 54be d834 8abc c9ef e23a 484a 583d
00000080: a75e 5e3d b810 0c3d b1a5 5f3d 6377 823c
00000090: 61c1 08bc 8ae6 9d3e 3fe4 85ba d574 8f3c
000000a0: 5e0f 973c db4d 753d dbee 633b 6f1e ba3c
000000b0: d93b b0bb 201b 9d3e fe0a 023d 0015 a23b
000000c0: 506c 3b3d 55dc 123d f964 243d 6b76 413d
000000d0: 1d56 fabc e1be 7fbc 4470 043d 25d5 e03c
000000e0: 86aa c3be 9b58 123d 072c 0c3d 58a0 4fbc
000000f0: ada4 63be aa6c 683d 5b9f 933d 0997 a4b9

actor.0.weight f4 [22, 64]
0.20095961 -0.49660146 -0.21350096 -0.124589354 0.28356364 0.16721457 0.48188403 0.53673106
0.5943975 0.30197012 -0.298954 0.38754058 -0.17213123 0.06095939 0.084229946 -0.033658884
-0.037720803 -0.29223904 -0.61171204 -0.07217574 0.09001415 -0.09168117 -0.07981471 0.039722864
0.42290562 -0.49001387 -0.239509 -0.0023306052 -0.13579918 0.39499083 -0.19478922 -0.10836333
0.0401256 -0.58390373 -0.34863266 -0.062956534 -0.13267241 0.38910928 0.18822251 0.25459412
0.47090417 0.1321564 -0.5271277 -0.40770987 0.27784777 0.18516596 0.6209828 -0.49865416
0.47936076 -0.20665656 -0.57948816 -0.32920098 0.11039286 0.26991817 0.47615528 -0.28443363
-0.13322729 0.4868692 -0.03304985 0.35052115 -0.36408415 -0.17358074 -0.22098312 0.51949036
-0.042566612 -0.14232492 0.052715886 -0.27366957 0.15059672 -0.48254237 -0.20960195 0.14952789
0.15187627 0.029777588 -0.09867181 -0.046149094 -0.11709245 -0.22256422 0.0154707795 0.24709834
-0.17350616 -0.24799737 0.51174545 0.3774128 0.087056324 -0.026465295 -1.9657931e-05 0.055894673
0.13337031 -0.70244646 0.4355604 -0.17378189 -0.0402322 -0.053264175 -0.0026207396 0.041071024
-0.37033126 -0.37857357 0.09709519 -0.43763134 0.10531695 0.3647206 0.4777657 0.016337711
0.2076595 -0.018980518 -0.46564728 0.6738367 0.13971363 0.07435602 0.3514939 0.17626183
-0.024757149 0.010344445 -0.121416196 -0.19701786 0.04783653 0.54026616 -0.6156351 -0.5949036
-0.1230475 0.26983696 0.22634515 0.035697293 -0.12648526 -0.21222395 0.15829195 0.376208
-0.23683077 0.32285622 0.121603794 -0.007701749 -0.114876546 -0.2562387 0.013120664 5.8150254e-05
-0.1491944 -0.3329853 -0.007369558 -0.21448424 -0.11968463 0.063273005 0.009101275 0.6208791
-0.31952414 0.1141054 0.085267425 -0.16867316 0.29051006 -0.28251848 -0.03825519 0.14610632
-0.033021007 0.14841697 -0.65067965 0.20736964 -0.012262292 0.3508493 0.07580417 0.063428536
0.34652594 -0.118308164 -0.37893057 -0.18939997 -0.18966603 0.048410118 0.17565341 -0.12736084
-0.4417476 0.14111063 0.4593453 -0.31905678 -0.24577568 0.000985074 -0.24901862 -0.32920796
0.29720062 0.1450679 0.4297976 -0.075934835 -0.22214387 0.4107005 -0.062393196 -0.05199647
-0.083750196 0.47222173 0.023166716 -0.35296932 0.08688231 0.16200472 0.23057464 -0.23385474
0.0807408 -0.28712004 -0.055919282 -0.08998672 0.26706067 0.2767506 0.4321079 0.0011568746
-0.14700544 0.114520475 0.015154458 0.0077522704 0.18290234 -0.1179134 0.08526487 -0.109967835
0.2565153 -0.44176325 0.13715841 -0.053251583 -0.03232248 0.21797584 -0.07691485 0.030328615
0.043918755 0.24517567 0.020645909 -0.38039392 -0.03445158 0.2923068 -0.16846646 -0.3727403
-0.294762 -0.055475194 -0.13208084 -0.0065700025 -0.25213233 -0.033086713 0.019745508 -0.2339073
0.122314684 -0.32792544 -0.15878254 0.08248401 0.005761194 0.024314202 -0.037287403 0.08392742
0.15896042 0.19549572 -0.29035956 -0.18276387 0.364972 0.052206166 0.25069278 -0.105548464
0.13915853 0.40955496 0.00075559225 0.16930123 -0.052289214 -0.13211985 -0.3719666 0.15053163
00000000: 5bc8 4d3e 8c42 febe ff9f 5abe b428 ffbd
00000010: 412f 913e 4c3a 2b3e 81b9 f63e 3567 093f
00000020: 6f2a 183f d49b 9a3e 8010 99be b86b c63e
00000030: 2b43 30be 8eb0 793d c080 ac3d e6dd 09bd
00000040: 2181 1abd 5ba0 95be 2999 1cbf e0d0 93bd
00000050: 5759 b83d 56c3 bbbd e575 a3bd 71b4 223d
00000060: 1687 d83e 19e3 fabe d941 75be 11bd 18bb
00000070: f10e 0bbe 3d3c ca3e d376 47be 98ed ddbd
00000080: be5a 243d b77a 15bf fb7f b2be 5bef 80bd
00000090: 47db 07be 5539 c73e 67bd 403e 295a 823e
000000a0: 5a1a f13e 0254 073e d7f1 06bf 59bf d0be
000000b0: 1042 8e3e 259c 3d3e bbf8 1e3f 994f ffbe
000000c0: c66e f53e c79d 53be 5659 14bf 088d a8be
000000d0: a715 e23d b732 8a3e a0ca f33e 49a1 91be
000000e0: bc6c 08be eb46 f93e 485f 07bd 8277 b33e
000000f0: 3d69 babe 26bf 31be 6649 62be 52fd 043f
00000100: 545a 2ebd a0bd 11be 9dec 573d 6b1e 8cbe
00000110: 0736 1a3e cb0f f7be e5a1 56be d71d 193e
00000120: 7485 1b3e 21f0 f33c 7214 cabd d506 3dbd
00000130: 2bce efbd e0e7 63be 2779 7d3c 5907 7d3e
00000140: 99ab 31be 06f3 7dbe c001 033f 403c c13e
00000150: 964a b23d bfcd d8bc 16e7 a4b7 d0f1 643d
00000160: 3a92 083e 88d3 33bf c601 df3e e1f3 31be
00000170: 85ca 24bd 892b 5abd b7c0 2bbb 173a 283d
00000180: 0f9c bdbe 65d4 c1be d8d9 c63d 3711 e0be
00000190: 6ab0 d73d a9bc ba3e b59d f43e aad6 853c
000001a0: b1a4 543e 087d 9bbc 5269 eebe 9080 2c3f
000001b0: 1711 0f3e f847 983d 02f7 b33e fb7d 343e
000001c0: 81cf cabc bf7b 293c 0ea9 f8bd 0dbf 49be
000001d0: 3df0 433d e24e 0a3f 439a 1dbf 9a4b 18bf
000001e0: 5400 fcbd 1228 8a3e 06c7 673e 5337 123d
000001f0: 5a85 01be 3c51 59be 4917 223e 569e c03e
00000200: c483 72be 694d a53e 690b f93d f45e fcbb
00000210: 6544 ebbd b831 83be 0ef8 563c 5ce6 7338
00000220: 6bc6 18be 0d7d aabe 557c f1bb c2a1 5bbe
00000230: 371d f5bd 4795 813d 841d 153c eff1 1e3f
00000240: ab98 a3be 18b0 e93d b0a0 ae3d a8b8 2cbe
00000250: bcbd 943e 43a6 90be 79b1 1cbd e59c 153e
00000260: 0941 07bd 9efa 173e f192 26bf b558 543e
00000270: c8e7 48bc 85a2 b33e 373f 9b3d d2e6 813d
00000280: d96b b13e 8d4b f2bd 3003 c2be 11f2 41be
00000290: d037 42be b049 463d 7dde 333e e16a 02be
000002a0: be2c e2be 4e7f 103e 4f2f eb3e 695b a3be
000002b0: 9fac 7bbe 991d 813a bdfe 7ebe f28d a8be
000002c0: ae2a 983e ae8c 143e 6e0e dc3e b983 9bbd
000002d0: af79 63be 5647 d23e 0290 7fbd 40fa 54bd
000002e0: 3985 abbd 0cc7 f13e 20c8 bd3c 65b8 b4be
000002f0: 5aef b13d 91e4 253e c21b 6c3e 9e77 6fbe
00000300: 6f5b a53d 6601 93be 9e0b 65bd f54a b8bd
00000310: 2dbc 883e 41b2 8d3e 3f3d dd3e 45a2 973a
00000320: 9888 16be b689 ea3d 674a 783c c206 fe3b
00000330: c04a 3b3e 957c f1bd 599f ae3d d136 e1bd
00000340: f955 833e cb2e e2be 4173 0c3e 551e 5abd
00000350: 9464 04bd 0f35 5f3e 8885 9dbd b773 f83c
00000360: 27e4 333d 550f 7b3e 9c21 a93c fec2 c2be
00000370: 1a1d 0dbd 3da9 953e 7982 2cbe d1d7 bebe
00000380: 0beb 96be f539 63bd 3340 07be 2d49 d7bb
00000390: 7d17 81be ef85 07bd 55c1 a13c 6585 6fbe
000003a0: 1f80 fa3d d8e5 a7be e497 22be 60ed a83d
000003b0: 66c8 bc3b 942e c73c adba 18bd 24e2 ab3d
000003c0: 85c6 223e 0830 483e 02aa 94be 7426 3bbe
000003d0: 9cdd ba3e 22d6 553d ce5a 803e cb29 d8bd
000003e0: 937f 0e3e 30b1 d13e f012 463a 4d5d 2d3e
000003f0: 372d 56bd 6d4a 07be 6872 bebe f724 1a3e

actor.0.bias f4 [22]
0.08923527 0.06480361 0.012126459 0.0539341 -0.019053793 0.0020926807 0.03235719 -0.097148776
-0.053868424 -0.097376324 -0.055974923 0.09230773 0.02162341 0.056562494 -0.07062387 -0.02435053
-0.030084256 -0.009630229 -0.14298509 -0.013420463 0.024430653 0.10876684
00000000: fbc0 b63d c1b7 843d 0eae 463c 01ea 5c3d
00000010: b316 9cbc 5b25 093b f988 043d f0f5 c6bd
00000020: 23a5 5cbd 3d6d c7bd f645 65bd d60b bd3d
00000030: 9423 b13c 13ae 673d 3fa3 90bd c37a c7bc
00000040: 4273 f6bc 1cc8 1dbc af6a 12be 80e1 5bbc
00000050: cb22 c83c 26c1 de3d
