paper/training_results/seed-8/momarl/checkpoints/mlp_(negotiation=False)_(num_agents=12)_(window=False)_(reduced_space=False)_(fixed_savings_rate=False)_(rewards=['inverse_global_temperature', 'global_economic_output'])(wgen=uniform)(num_ensembles=1)(seed=8)_2025-01-16_22:50:48_w=[0.8975 0.1025].pt (torch, 38168 bytes, 9 tensors)

network.MLP.0.weight f4 [64, 18]
000000 fe fd 03 3d 64 ea f5 be 0e 22 cb 3d d1 1a 8b be
       0.032224648 -0.48030388 0.09918605 -0.27168897
000010 3b 04 ff bd f8 25 31 bf 4c 49 09 be b6 fc 14 be
       -0.12451979 -0.6919856 -0.13406867 -0.14549527
000020 d3 0e a1 bd 6f b2 1c bd a7 a9 0c 3e 48 8b 4e be
       -0.078641556 -0.038256105 0.13736592 -0.20170319
000030 bb bc 17 be d8 07 e1 bc cd aa 5d 3c 21 fa e3 bd
       -0.14818089 -0.02746956 0.013529492 -0.11131693
000040 70 e7 5a bd e2 d7 55 bd 2c ba ee 3c 7e 26 b0 3d
       -0.053443372 -0.052207835 0.029141508 0.08601092
000050 b7 0a 1e 3d 6d fb e9 be 98 b6 4b be 84 ee a2 bc
       0.038584437 -0.45699635 -0.19893873 -0.019889124
000060 0b 0b 1e be b6 1d 99 be 6f 8a 40 3e a4 65 6f bf
       -0.154339 -0.2990548 0.18802808 -0.93514466
000070 7b bb d4 3e 77 3d 20 3f fc 23 4d 3d 23 ae ae 3e
       0.41549286 0.6259379 0.050083145 0.3411723
000080 cb 8c de be 43 61 09 bf d4 2c e3 be ea 42 8f be
       -0.43466792 -0.53664035 -0.4437014 -0.2798074
000090 8e 1a e5 be 47 67 19 bf a2 86 bb 3d bc 5b 6e 3e
       -0.44746822 -0.59923214 0.091565385 0.23277181
0000a0 81 86 54 3f 61 66 a0 bd 4d 35 e4 3d 51 ac ab 3e
       0.83017737 -0.07832027 0.11142979 0.33529904
0000b0 dc ab 14 3e f0 7e a7 3e 0d 29 fd bd 9b e8 67 3e
       0.14518684 0.32714033 -0.123613454 0.22647326
0000c0 16 87 e2 3d 03 74 2f bd 76 c0 0a 3c 2e e2 c8 be
       0.11060922 -0.042835247 0.008468738 -0.3923506
0000d0 5e 4b 29 be 5c ea ea 3c a8 20 6f be 49 76 db 3c
       -0.16532657 0.028676204 -0.23352301 0.026789801
0000e0 f0 7a d2 bd 78 85 1b 3d 4e b8 5b be fe ca 16 bd
       -0.10277355 0.037969083 -0.21457025 -0.036814682
0000f0 cd 1e ba 3d 26 c3 9a 3d 79 7d 14 bc 32 fd 0a be
       0.09087906 0.07556753 -0.009063118 -0.13573149
000100 df 96 da 3d 99 a4 e8 3d 37 f4 4f be 70 b5 fd 3d
       0.106733076 0.113595195 -0.20308004 0.12388122
000110 af f9 ae bd 15 ec 34 3e 62 0b 10 bc 90 38 38 3e
       -0.08543717 0.17668183 -0.008791776 0.17990327
000120 73 30 5a be 18 05 4f bd 6d 3a 5f be 80 da 28 be
       -0.21307544 -0.050541967 -0.21799631 -0.16489601
000130 72 ee 29 3d e2 91 6c 3e 2e e0 79 3c c0 d6 b3 bd
       0.041487165 0.23102525 0.0152512025 -0.08781195
000140 7f 2b 9d 3d 3e e6 c5 bd a0 c1 48 be 24 da 49 3e
       0.07674312 -0.09663056 -0.19605112 0.1971212
000150 a2 a7 17 3e 20 54 1e be 46 38 20 3e 70 f8 1d be
       0.1481004 -0.15461779 0.15646467 -0.15426803
000160 b4 75 c9 3d d7 66 47 be ae d7 f8 3c 6d 60 04 3f
       0.09836903 -0.19472824 0.030376282 0.51709634
000170 c2 81 c7 3c ff 6b 99 be 9c 4a 8d 3f 59 cc cb be
       0.024353866 -0.29965207 1.1038394 -0.39804342
000180 79 59 fc 3d 95 86 db 3d 26 30 2b bd e3 89 15 3d
       0.12321753 0.10719029 -0.041793965 0.036508452
000190 aa 4b da 3d 33 8a 12 3d 37 cd 52 3d 71 37 09 bd
       0.10658963 0.03577633 0.05146524 -0.03350014
0001a0 65 10 9c bb 35 49 98 bd 29 10 8f 3c ba 05 ad 3d
       -0.0047626966 -0.07435838 0.01746376 0.08448358
0001b0 16 be 93 3c 90 5d 4e 3e 41 70 1b 3e 01 30 15 bf
       0.018034976 0.20152879 0.1517954 -0.58276373
0001c0 18 5d 6f be 91 62 20 bf be 64 20 bd d5 70 23 3d
       -0.23375356 -0.626504 -0.039158575 0.039902527
0001d0 6e c4 91 3d f5 3d 22 be 78 27 43 be 1d 0d 34 bd
       0.07117544 -0.15843947 -0.19058025 -0.04395782
0001e0 3f 1a 73 bd 78 8a fe bd 76 0e 4a 3d 44 b8 0a be
       -0.059351202 -0.124287546 0.049330197 -0.13546854
0001f0 5e 46 d9 bd 6d 1a b2 bd 9a 78 3d bf 4c 75 d1 b9
       -0.106091246 -0.086964466 -0.7401215 -0.0003995098
000200 3a 9b 55 3d 40 f4 52 c0 0b 4b 28 3f 0d 76 79 be
       0.05214999 -3.2961578 0.65739506 -0.24361439
000210 bf 67 93 3d f4 ab 2b 3d fa af 1b be 2b c4 a4 3c
       0.07197522 0.041912034 -0.15203848 0.020113071
000220 96 8d 8c 3d b1 bc 93 3d 06 e5 58 3d 42 65 8f 3e
       0.06862943 0.072137244 0.05295279 0.2800694
000230 3e 00 ac bd ed 06 00 3d 93 c9 07 bd 81 7c 01 3e
       -0.08398484 0.031256605 -0.03315122 0.1264515
000240 aa 8a bd 3d b8 50 2a bf 08 d8 a7 bd fa 0f 47 bf
       0.09254964 -0.6652942 -0.081955016 -0.77758753
000250 a1 92 c8 3e dd 24 6d 3e 51 30 57 bb e1 69 84 be
       0.3917437 0.23158593 -0.0032835195 -0.2586203
000260 85 e5 8b 3d 2a 14 42 be 82 33 e8 3e 14 1a 52 3e
       0.06830887 -0.18953004 0.45351797 0.2051776
000270 75 e6 ac 3e 86 40 d5 3e 42 f9 c9 be ce b4 67 3e
       0.33769575 0.4165079 -0.3944798 0.22627565
000280 18 4a c9 bd 0d 04 dd bd b4 c6 b7 bd 90 d8 c5 bd
       -0.098285854 -0.10791788 -0.089734465 -0.09660447
000290 b2 c1 9a 3c 82 23 1c 3e 44 93 49 3e a8 d6 e8 3d
       0.01889119 0.1524792 0.19685084 0.113690674
0002a0 c5 0c 55 bf 1f db 27 bf 98 d9 21 3e 9b 30 74 bd
       -0.8322261 -0.6556873 0.15805662 -0.059616666
0002b0 d4 94 11 3e f3 34 e4 be 96 95 43 be c6 32 5e bf
       0.1421693 -0.44571647 -0.19100031 -0.86796224
0002c0 a5 67 4e 3e 87 32 24 3f 1f 8c 61 3e d8 cb f1 3d
       0.20156725 0.641396 0.22026108 0.11806458
0002d0 65 9c 8e 3a 1a 49 59 be 2c 72 02 be 31 59 cd bd
       0.001088035 -0.21219292 -0.12738866 -0.100267775
0002e0 af 17 33 3d 51 4e 5a be 7d d8 64 be 47 51 75 3d
       0.04372376 -0.21318938 -0.22348209 0.059891965
0002f0 20 62 d7 bd ee e5 32 be d2 5f 2a bd 9d 99 12 3e
       -0.10516763 -0.17470524 -0.041595288 0.14316411
000300 ca 1a 6c 3e 1f 2a 42 be 91 2a 46 be 42 a5 19 3e
       0.23057094 -0.1896138 -0.19352175 0.15004447
000310 7b 2d fc 3d a7 4b 3f bd 1b 66 88 3e 3e d1 2f be
       0.12313362 -0.046703007 0.266404 -0.17169663
000320 e6 3a c7 be 0d 81 ba 3d 60 93 8b bf 6c 49 d8 3e
       -0.38912123 0.09106646 -1.090435 0.42243516
000330 02 f0 f0 3c 06 9c a4 3c ae 86 14 be eb 35 82 bc
       0.02941132 0.020093929 -0.14504501 -0.01589485
000340 3c 2a 0d bd f4 d5 ab 3d 29 0d 0d bd 92 f4 b7 bb
       -0.034464106 0.08390418 -0.03443638 -0.005613872
000350 b3 e2 d4 bd 2c a9 9e 3d 76 da 9e bd 46 d3 f7 3d
       -0.10394802 0.07747111 -0.07756512 0.12100844
000360 aa b0 0f 3e 7b 7f 2c bd 12 1b 9f bd 03 25 67 bf
       0.14032236 -0.042113762 -0.07768835 -0.9029085
000370 e0 ab a7 3e c0 79 a3 3d 02 1e 1d be 00 2a 04 3f
       0.32748318 0.07982206 -0.15343478 0.51626587
000380 0b 45 4b 3d 54 fa 91 be fc 1b 87 be 18 ce 9f be
       0.04962639 -0.28511298 -0.26388538 -0.31211925
000390 90 23 98 3c 69 1c bd be 17 9d 7c 3d 95 2a 56 3e
       0.018571645 -0.36935738 0.06167325 0.20914681
0003a0 a2 ce 0a bf bb 41 28 be 32 b3 c6 3d 93 26 c9 be
       -0.54221547 -0.16431324 0.097021475 -0.39287242
0003b0 ef 97 c0 3d 82 cd 00 3e 6d b7 cd be e4 8f 1e 3f
       0.09403979 0.12578395 -0.40179005 0.6193831
0003c0 13 17 14 be 87 c5 17 bc 31 27 f7 3c 54 66 64 bd
       -0.14461927 -0.009263403 0.030170055 -0.05576165
0003d0 b8 6f be 3c 4d d1 db bd 8f 1f 9e 3c 46 12 6f be
       0.023246631 -0.1073328 0.019302158 -0.23346815
0003e0 e2 e0 58 3d 9d 9e 65 be 37 c7 98 bd 02 cf 66 3d
       0.05294884 -0.22423787 -0.07459872 0.05634976
0003f0 55 47 be 3d e4 cc fd bd 43 f4 dc bd eb 8b 1e be
       0.09290949 -0.123925954 -0.10788777 -0.15483062

network.MLP.0.bias f4 [64]
000000 16 38 2a 3e 5c 62 df bd b3 81 f6 bc 46 7a a9 3d
       0.16622958 -0.109074324 -0.030091142 0.08275275
000010 69 d4 42 ba d4 ac 56 3f 70 7d 03 be 3c fd 93 3e
       -0.0007432164 0.83857465 -0.1284082 0.2890414
000020 c7 e1 e8 be 44 d2 0a bf 8c 23 a3 3e a2 15 2d bf
       -0.45484754 -0.5422709 0.31863058 -0.67611134
000030 38 04 36 3e 9f 1b 00 bf b2 87 50 be e2 9c ce bc
       0.17775047 -0.50042146 -0.20364264 -0.025221292
000040 dd 2b 3f be 25 98 e3 3e 90 eb fe 3d f5 27 f5 3d
       -0.18669076 0.44452015 0.12447274 0.11970512
000050 6f 69 ae bd 0b c6 19 be 43 8e 20 bd 60 cd d0 3e
       -0.085162036 -0.15016954 -0.03919817 0.4078169
000060 d0 15 32 bf bd ae 6a be a5 7f 44 3d 81 c7 78 3e
       -0.69564533 -0.2291822 0.047973294 0.24294855
000070 87 c4 0d be cb 5d c8 ba e7 2b ea bc a8 00 86 bd
       -0.138445 -0.0015286742 -0.028585387 -0.06543094
000080 04 68 aa 3e 6b 6e 3a 3e ad 94 44 be 00 5a af bf
       0.33282483 0.18206184 -0.1919734 -1.3699341
000090 3f d5 c6 3d e1 25 e5 3d ba 21 94 3c 2c 9c 54 bf
       0.09708642 0.111888655 0.018082488 -0.830508
0000a0 4d 69 7b be ae 22 39 3d b1 e1 d6 be ea a1 cf 3c
       -0.24551888 0.04519909 -0.41969064 0.025345761
0000b0 87 6f c4 bd aa 63 b3 3e 9e 7d d6 bd 0f d0 0a 3f
       -0.09591585 0.35036975 -0.10473178 0.5422372
0000c0 79 72 01 bd 33 4b b9 bc 4b be 25 3f d1 2e 97 bf
       -0.03160331 -0.022618866 0.6474349 -1.1811162
0000d0 a2 6d 9f bc a0 7a f2 be f8 63 6e be 55 ce 5f be
       -0.019461457 -0.4735918 -0.23280323 -0.21856053
0000e0 f0 a9 c8 3e b6 cd 36 3f 74 44 a7 bd d9 6d 90 be
       0.39192152 0.7140764 -0.08167353 -0.28208807
0000f0 ec 7e f0 3c 18 62 01 3e 22 5b 09 be fc 4b 84 3e
       0.029357396 0.12635076 -0.1341367 0.2583922

network.MLP.2.weight f4 [64, 64]
000000 57 cb 4c 3e 37 8c 25 3e c4 df f1 3d 6a 37 ee 3c
       0.19999443 0.16166769 0.11810258 0.029079158
000010 e8 42 88 3d 89 d6 38 bd 41 73 af bb 5c 73 de 3c
       0.06653386 -0.04512647 -0.0053543155 0.027154617
000020 e5 dc 24 be 0b c1 31 3e 77 84 e4 bd b9 c8 e0 3c
       -0.1609989 0.17358796 -0.11158078 0.027439462
000030 e8 6f 51 3e 6c b5 51 3d 7a 69 66 bd b8 6e 54 bd
       0.20452845 0.051198408 -0.056252934 -0.051863402
000040 65 15 e1 bd e6 b3 9b 3e 27 1f c9 3c 9e 89 d6 bb
       -0.10990409 0.3041069 0.024550987 -0.006547167
000050 88 ad 96 bd 56 3c f1 bd 60 4b bc bc 5b 07 01 3e
       -0.07357317 -0.11779086 -0.02298516 0.12600462
000060 72 4c d0 bd 4c 9d 76 3d 5f 43 d4 3e b8 1b b9 bc
       -0.10170831 0.060208604 0.4145765 -0.022596225
000070 0c 22 40 3e da fc 38 be 82 8c 23 be a0 ca d2 bb
       0.18762988 -0.18065205 -0.15971568 -0.006432846
000080 1f bc e6 bd 7a 15 1a bd 54 5e bc be 2d 95 02 3e
       -0.1126635 -0.037618138 -0.36790717 0.12752219
000090 33 20 19 be 5f b5 c1 bd 1b 86 8d 3e 1a 98 e5 be
       -0.1495369 -0.09458422 0.27641377 -0.44842607
0000a0 86 a6 e2 3e 4a 6a 1a be a5 6d c8 bd 16 38 49 be
       0.44267672 -0.15079609 -0.09786538 -0.19650301
0000b0 23 82 b7 bd 56 d1 fa bd fb 06 1e 3f ce e4 ad be
       -0.089603685 -0.12246959 0.617294 -0.33963627
0000c0 5e 9d c5 bd b8 1e 48 3d f0 80 b3 3e 03 5c a2 bd
       -0.09649156 0.04885742 0.3505931 -0.07927706
0000d0 99 86 6d bc 4e 75 b1 3d 50 1f ec 3c 3e b0 e1 3c
       -0.014497423 0.08664952 0.028823525 0.02754986
0000e0 23 a9 8b 3c 84 ab a7 bd 93 10 98 be 22 cf f6 bd
       0.017048424 -0.08187011 -0.29700145 -0.12051226
0000f0 4b 4b e9 3e c2 56 7d 3d fc f8 cd bd d5 e8 9c bd
       0.45565256 0.061850317 -0.100572556 -0.07661597
000100 1a eb 01 be a3 a2 81 3e ec 40 af be 53 49 cb 3d
       -0.1268734 0.25319394 -0.3422922 0.09926095
000110 4d d4 13 3d 6c 23 12 3e bb d1 19 be e0 a3 72 3e
       0.036091138 0.14271325 -0.15021412 0.23695326
000120 36 36 1d be 41 2d e5 3e b6 50 82 3b 96 89 2d be
       -0.15352711 0.44761088 0.0039769066 -0.16947016
000130 67 a3 5e be 83 d7 60 bd 0a 79 2b 3e 24 1c 70 3e
       -0.2174202 -0.054893028 0.16745391 0.23448235
000140 9d cb 8b 3e d3 48 11 3d de 51 3c be b5 f6 70 be
       0.27303782 0.03546984 -0.18390605 -0.23531611
000150 04 82 e2 bd 56 5b d6 3d 48 4c a3 bc ac 9d 97 3d
       -0.11059955 0.1046664 -0.019933835 0.074031204
000160 e5 d3 28 3b 78 b6 98 3d 0d f9 63 be 91 77 f1 bd
       0.0025761065 0.07456678 -0.22262974 -0.117903836
000170 f9 b9 9c 3d 12 78 64 bc f3 71 0f 3c b9 9a 8f 3d
       0.07652659 -0.013944643 0.008755195 0.07011933
000180 db fb 25 bf 8b 32 8c be e5 93 07 3e 82 c6 9f 3e
       -0.64837426 -0.2738231 0.13240011 0.31206137
000190 d2 3d 2c 3e 51 ec 35 bd f9 c9 af be 10 77 63 bb
       0.16820458 -0.044414822 -0.3433378 -0.0034708418
0001a0 1b ba af 3d de f6 5e 3d b9 d5 0e 3d 68 7e d0 3d
       0.08580419 0.05443465 0.03487179 0.1018036
0001b0 91 9b 29 3e e2 98 40 bd fe 9a b8 3d 63 19 26 be
       0.1656325 -0.0470208 0.090139374 -0.16220622
0001c0 a8 09 e0 bd e6 76 98 3d 0d 9d c1 3e 4f ba 6a be
       -0.10939342 0.07444553 0.37815133 -0.22922634
0001d0 72 4f 1c bf b2 9b 52 3d e2 1b b1 3d 4f 68 99 be
       -0.61058724 0.051418014 0.08647896 -0.29962394
0001e0 a4 d6 96 3d 15 98 c6 be 7c e6 59 bc 4f 7f d8 3e
       0.07365158 -0.38787904 -0.013299581 0.4228463
0001f0 1f 79 ce bb 88 85 54 be 62 ca 96 bd 5d 50 fe bd
       -0.00630106 -0.20754063 -0.0736282 -0.12417672
000200 c5 9e 79 be f3 d6 27 bd 7c 25 d0 bd 75 ae cd 3d
       -0.24376972 -0.040976476 -0.101633996 0.10043041
000210 5e 10 9a bd ed 82 f3 3c 29 9a 40 be b2 da 0b bd
       -0.07522653 0.029725516 -0.18808807 -0.03414411
000220 b6 cb 8a 3c e9 6b 57 3e 76 81 6f 3e f3 3b 5c 3e
       0.01694284 0.21037258 0.23389229 0.21507244
000230 f0 0d 4d 3e 17 d1 e6 bd 35 b2 76 3d da db c8 bd
       0.20024848 -0.112703495 0.060228545 -0.09807558
000240 29 50 dd bd 06 3f 39 be 71 a5 5a 3e 43 95 45 3c
       -0.10806305 -0.18090448 0.21352173 0.012059513
000250 b0 4d 8c bd 50 43 14 bc ac fb 8d bd 87 10 ab bd
       -0.06850755 -0.009049252 -0.06932768 -0.08352762
000260 17 8e 22 3e 08 59 63 bd 63 23 c7 bd 81 dc 0f 3d
       0.15874515 -0.05550483 -0.09723546 0.0351224
000270 ce 54 95 3b 6e 09 1e bd b0 10 31 bd 71 18 d0 bd
       0.0045572286 -0.03858321 -0.043228805 -0.10160912
000280 8b 60 26 3d 51 f6 cb 3d c9 7b 45 3e 05 c3 28 3e
       0.040619414 0.099590905 0.19285502 0.16480644
000290 0d e2 6f 3e d0 8b 6f bd 54 13 89 3e 53 71 cf bd
       0.23426075 -0.058482945 0.2677256 -0.10129037
0002a0 75 58 6b bf 01 30 06 3e 5d 9a f1 bb c2 47 5d be
       -0.9193185 0.1310425 -0.007373138 -0.21609405
0002b0 ce f7 59 3e 8a 36 e4 bd 21 5d 58 3d 7a 1a 0a be
       0.21285936 -0.11143215 0.05282319 -0.13486663
0002c0 64 44 8c bd 3c c0 fb 3d b8 41 ab be a5 74 45 3e
       -0.06848982 0.12292525 -0.33448577 0.19282778
0002d0 be 19 74 be 7a 9f 4a be 38 c8 54 bd e0 f0 03 bf
       -0.23837945 -0.19787398 -0.051948756 -0.5153942
0002e0 b5 6a 30 3e db 88 ae bc d4 d5 88 bd e2 d5 16 3f
       0.17228206 -0.021305492 -0.066814095 0.5892011
0002f0 50 17 2e be 5d cd fd 3e de 85 6f 3e 30 73 5e 3e
       -0.1700108 0.49570742 0.2339091 0.21723628
000300 87 ea 11 3e 18 41 80 be ac 93 44 3e 9f 7b 43 bc
       0.14249621 -0.25049663 0.19196957 -0.011931329
000310 8e b2 e8 bd b9 09 4a 3e d2 4a 42 3d 81 f1 f5 3d
       -0.113621816 0.19730271 0.047434635 0.12008954
000320 69 30 7c 3d 88 b7 91 3c d0 93 4e 3d c3 3f 3f bc
       0.061569605 0.01778771 0.050433934 -0.011672917
000330 46 ba 03 3e 76 00 3b be 12 f3 83 bd 9d 67 b8 3d
       0.12864026 -0.18261895 -0.06442846 0.09004138
000340 97 6d 4e bd 4a 1b 88 3e f6 8f 2e bc 02 62 1e 3d
       -0.05039748 0.2658332 -0.01065444 0.038667686
000350 00 d4 51 b9 b4 34 e2 3d c0 e0 70 3c 87 76 46 3e
       -0.0002001077 0.110452086 0.014702022 0.19381152
000360 8a 9c 05 3e 66 e5 e2 3d b4 9b f5 3d d8 fb e9 3d
       0.13047996 0.110789105 0.11992589 0.114249885
000370 0f 09 94 3d 10 71 4f 3e 74 ca 87 3d ae 8b f1 bd
       0.0722829 0.20257974 0.06630412 -0.1179422
000380 5d 3f 6d 3d 63 29 b4 ba e1 e2 59 be b7 5c 2e be
       0.057921756 -0.0013745244 -0.21277954 -0.17027555
000390 1e 86 89 3c 51 bb 11 be 66 f9 a2 bd 09 73 45 be
       0.016787585 -0.14231612 -0.07957725 -0.19282164
0003a0 67 1d 07 3e 58 fb 21 3d 67 4f cf bd 65 74 34 bd
       0.1319481 0.03954634 -0.10122567 -0.044056315
0003b0 75 2a 58 be 94 d1 05 be 79 2d 71 3e 59 0e f9 3c
       -0.21109946 -0.13068229 0.23552503 0.03040235
0003c0 fa 17 f0 bd 74 65 5a 3d 2e 2c 17 bd 5b d5 c6 be
       -0.11723323 0.05331941 -0.036907367 -0.38834652
0003d0 18 4a aa be 5f 02 9c bd c0 96 9f bc 29 4e 20 be
       -0.33259654 -0.0761764 -0.019481063 -0.15654816
0003e0 ea 25 1c 3d 70 fd c2 bc 51 ee 71 be d3 ac 60 bd
       0.038122095 -0.023802489 -0.23626067 -0.054852318
0003f0 9d b1 0f 3e ae 2e bd bd af 39 ec 3d cc ff 1a be
       0.14032598 -0.09237419 0.1153444 -0.15136641

network.MLP.2.bias f4 [64]
000000 fa c8 df 3a af 7b 2f 3e 08 82 3c 3e 22 7a df 3e
       0.0017073445 0.17137025 0.18408978 0.43647867
000010 08 92 cc 3c b8 ab a0 3f 7c fc 0e 3f 51 99 36 3e
       0.024971977 1.2552404 0.5585401 0.17831923
000020 65 cd d1 be 04 99 b7 be 8d e2 c2 3e 2b 95 0b 3d
       -0.40977016 -0.3585893 0.3806347 0.034077805
000030 7f 51 0c 3e f9 7b b6 bc d7 67 35 bc 1e 4f dc be
       0.13702963 -0.022275912 -0.011072121 -0.43029112
000040 74 63 03 3f a2 22 37 be 8b f7 44 3e 07 94 cf be
       0.5132363 -0.17884305 0.19235055 -0.40542623
000050 d6 f6 bf bd 31 4e 94 be 6f 38 85 be dc 6c 0a bf
       -0.09373252 -0.28965905 -0.26019618 -0.54072356
000060 43 55 6b bd 4f c9 50 bd fd 37 02 3e 7f 52 2b be
       -0.05745436 -0.050973233 0.1271667 -0.16730689
000070 5b c0 1d bf a0 a5 c6 be f8 40 81 3e 73 ce 84 bd
       -0.61621636 -0.38798237 0.2524488 -0.064846896
000080 b6 42 38 3e f2 8f 00 3e 9d 62 41 bd bf 94 17 bc
       0.17994198 0.12554911 -0.047213186 -0.009251772
000090 16 0b d0 3d d6 24 20 3e 00 89 5b 3d 02 1a bf 3e
       0.101583645 0.15639052 0.05359745 0.3732453
0000a0 68 31 ec 3d 06 07 03 3e 5c ac 36 be 28 69 43 3d
       0.11532861 0.12795648 -0.17839187 0.047707707
0000b0 2b c1 e5 be d1 2f 79 bd 5f a0 76 3d a7 e4 a2 bd
       -0.44873938 -0.060836617 0.060211536 -0.07953768
0000c0 8c d5 a0 be a9 8f 6f be 37 60 b6 be d8 7b 26 3e
       -0.31412923 -0.23394646 -0.3562028 0.1625818
0000d0 49 96 ea be ab ab 18 3e 76 dd 2c 3e 6d 8e d7 3e
       -0.45817783 0.14909236 0.16881356 0.4210085
0000e0 4c bb f7 be a6 75 b3 3e 98 e0 21 bd 15 c6 f9 bb
       -0.48385084 0.35050696 -0.03952083 -0.00762249
0000f0 1b 4f 0e 3f a0 d7 b5 be b3 cf 96 3a f6 14 5d bf
       0.55589455 -0.3551607 0.0011505991 -0.8636011

network.MLP.3.weight f4 [64]
000000 47 a9 cc 3f b4 c5 99 3f 58 46 ae 3f aa 78 56 3f
       1.5989159 1.2013459 1.3615217 0.8377787
000010 23 43 e8 3f e7 f9 4e 3f 31 42 68 3f 12 11 b7 3f
       1.8145489 0.8085007 0.90726 1.4302084
000020 43 94 a6 3f 54 2f 9d 3f 33 b6 42 3f 3b bb b3 3f
       1.3013996 1.2280068 0.76059264 1.4041513
000030 af e3 8d 3f ec f9 af 3f 12 01 2d 3f a6 57 5f 3f
       1.1085109 1.3748145 0.6757976 0.87243116
000040 da 57 5d 3f 96 49 84 3f b4 c6 c2 3f c8 84 9b 3f
       0.86462176 1.0334957 1.5216889 1.2149897
000050 a0 18 de 3f c4 4f 02 40 9b ee b0 3f 1d ad 52 3f
       1.7351265 2.0361185 1.3822817 0.822954
000060 31 23 5a 3f 44 55 e6 3f 56 24 c4 3f 0a 8a 92 3f
       0.8520995 1.7994771 1.5323589 1.1448376
000070 e2 c3 8e 3f bb fb 80 3f 3f 2a a1 3f d0 83 d9 3f
       1.1153529 1.0076822 1.2591017 1.6993351
000080 f9 a7 78 3e d4 c3 e6 3f aa 0b f2 3f 21 12 f4 3f
       0.24282826 1.8028512 1.890981 1.9068033
000090 13 ac cf 3f f2 71 85 3f 5d 2d 01 40 20 90 86 3f
       1.6224388 1.0425398 2.0183938 1.0512733
0000a0 50 6a ca 3f a7 3c d2 3f 44 30 8a 3f d7 b9 ac 3f
       1.5813694 1.642476 1.079598 1.3494214
0000b0 e9 03 c8 3f b4 c1 a6 3f 4b 61 b9 3f 8f 05 bb 3f
       1.5626193 1.3027864 1.4482816 1.4611071
0000c0 f2 10 88 3f 93 d3 b2 3f f6 b8 81 3f 1d dd 03 40
       1.0630171 1.3970817 1.0134571 2.0603707
0000d0 8a de 71 3f 3e 9f cc 3f a3 45 c5 3f 40 d3 80 3f
       0.9448019 1.5986097 1.5411876 1.0064468
0000e0 68 84 a3 3f 48 30 59 3f 2a e2 35 3f 94 e4 cc 3f
       1.2774782 0.84839296 0.71048224 1.6007257
0000f0 d0 8d 81 3f cf 31 d1 3f 48 24 c2 3f 86 8c 52 3f
       1.0121403 1.6343325 1.5167322 0.8224567

network.MLP.3.bias f4 [64]
000000 a0 8d 1d bd 9e 06 37 be 3e 56 7f 3d 3f 1b 20 3e
       -0.038465142 -0.17873618 0.062338106 0.15635394
000010 f7 2e ce bd 65 d9 18 bc f2 93 24 3e 87 30 d2 3b
       -0.100675516 -0.009329175 0.16072062 0.0064144763
000020 6b d4 43 bd da 0a 9c bd 0f f9 9a bd b1 ca 2c be
       -0.04781 -0.07619257 -0.075670354 -0.16874196
000030 83 14 59 be ef dc 38 bd 0e 78 3b 3e 85 ce 2b be
       -0.21199231 -0.045132574 0.18307516 -0.16778
000040 f1 dc 4e 3d 7f d6 b4 3d 00 2a a2 bd bb 5a b7 bd
       0.050503675 0.088299744 -0.07918167 -0.08952852
000050 84 91 47 bd 9b 80 de 3c c3 e0 85 bd af 24 f9 bd
       -0.04872276 0.027160933 -0.065370105 -0.121652
000060 de ea 1d bc e1 46 ca bd ca aa db 3d 6e 2e 8d bd
       -0.009638516 -0.098768 0.10725935 -0.068936214
000070 ff 4d 37 be 2b 13 07 be 00 07 0e bd 37 30 18 be
       -0.17900847 -0.13190906 -0.034674644 -0.14862143
000080 57 9b 78 bf 49 ac 28 3d 43 7f a9 bc cf b2 95 bd
       -0.9711203 0.04117993 -0.020690566 -0.07309496
000090 88 16 51 bd 8a 67 ee bc 09 23 9f 3d bc 6e 10 be
       -0.051046878 -0.029102106 0.07770354 -0.14104742
0000a0 ac ef 26 3d 37 a3 0e bd 1c 0b b9 3b 0b 57 9b bd
       0.040755913 -0.034823623 0.0056470763 -0.075849615
0000b0 1a c3 15 be 8c 14 4c bc fd b8 fd 3d bc 1e 0d be
       -0.14625207 -0.012456071 0.12388799 -0.13781255
0000c0 6d f6 1f bd 16 49 37 be f6 fe 8e 3d c3 df 3d be
       -0.03905337 -0.17898974 0.06982224 -0.1854239
0000d0 09 57 c1 bd f4 b8 d0 3d 53 52 46 3b 22 e5 26 3e
       -0.09440429 0.10191527 0.0030261471 0.16298345
0000e0 8a bb 87 3c b5 76 0d 3e 3e 3b 9a be a1 3e 2b be
       0.016568918 0.13814814 -0.30123323 -0.1672311
0000f0 b4 03 3c 3e 6b b8 80 bd 25 ee 61 3b 0c 10 46 bd
       0.18360788 -0.06285175 0.003447422 -0.048355147

critic.0.weight f4 [1, 64]
000000 77 e6 27 bb 6b ae 15 bd 3e 7a 96 bb 6a f9 e1 3d
       -0.0025619545 -0.03654329 -0.004592209 0.110339
000010 28 a1 e4 bc eb 41 76 3e a3 9b 12 3e ff 8f 19 3c
       -0.027908877 0.24048583 0.14317183 0.00937271
000020 3b 3a c9 bd a9 5f ba bd 32 b5 8d bc ac b6 12 bd
       -0.0982556 -0.09100277 -0.017298315 -0.03581874
000030 11 f6 79 bd 72 7d 49 bd 7c ad 42 be a0 d7 22 be
       -0.061025683 -0.0491919 -0.19011492 -0.15902567
000040 37 25 85 3b 83 df 60 bd 8a 04 86 bd ba c2 d7 bc
       0.0040632742 -0.054900657 -0.065438345 -0.02633797
000050 26 4e ce bc 50 9b 8a bd 48 6f 53 bd a3 5c 02 be
       -0.025183748 -0.06767905 -0.051619798 -0.1273065
000060 9f 4a d9 bd 0d de 95 bd 05 d4 31 bd 4b 3a 40 bd
       -0.10609936 -0.073177435 -0.04341509 -0.046930593
000070 de a7 cf be 78 5d e8 bd 31 70 f6 bc 0c dd 07 bd
       -0.4055776 -0.11345953 -0.030082794 -0.03316979
000080 be 4c 89 be c9 1d cd bc e3 b0 87 bc fc 04 ad bc
       -0.26816362 -0.025038617 -0.016563838 -0.02112054
000090 d9 f5 84 bd 84 55 43 bd da 4f a5 bc 44 08 46 bd
       -0.06492204 -0.047688976 -0.020179678 -0.048347726
0000a0 21 9d 23 3c 7c 5a 0d bd f5 fc 63 bd cf 9d 8f bd
       0.009986193 -0.03451012 -0.05566116 -0.070125215
0000b0 71 0d ce bd ce 70 83 bc 3a 6a 32 bd 67 50 a3 bc
       -0.100611575 -0.016045 -0.043558337 -0.0199358
0000c0 28 ac e2 bd 7b 4b 62 bd f8 7f ef bd 7c ea 0a 3c
       -0.110679924 -0.055247765 -0.1169433 0.008478757
0000d0 e7 23 1a be e7 e5 79 bd 3c 96 39 bd 42 4f f1 3e
       -0.15052758 -0.061010268 -0.04530929 0.4713078
0000e0 cc 11 6e bd eb 5e 70 3e 71 97 8f bd 4d 04 a4 bd
       -0.05812244 0.23473708 -0.07011307 -0.08008633
0000f0 3e 23 9b 3e ee 76 51 bd 82 c9 ad bd 2a cd 50 be
       0.30300325 -0.05113881 -0.084857 -0.20390764

actor.0.weight f4 [22, 64]
000000 28 06 46 3e aa 67 2c 3e ba 61 d3 be 2a cb 70 3e
       0.19338286 0.1683642 -0.41285497 0.23515001
000010 54 bb d6 3e aa 3e 40 3d db f3 2c 3e 2e 4b a5 3e
       0.41939795 0.04693476 0.16889898 0.3228392
000020 ab 71 13 3f 1e 46 9a 3c e2 43 0e 3d c7 55 82 be
       0.5759532 0.018832263 0.034732707 -0.25456068
000030 e1 50 65 be 10 c2 86 3e b7 2e 87 bd 8f 60 ae be
       -0.22394134 0.26319933 -0.06600707 -0.34058043
000040 8b 15 df 3d 19 3e b2 be e5 c3 86 3e 1c 66 26 3e
       0.10892781 -0.34813002 0.2632133 0.16249889
000050 5d 97 1e be 72 56 c5 3e dc 7d 98 3e 7f f0 2f bd
       -0.15487428 0.38542515 0.29783523 -0.042953964
000060 7f 09 c0 be a7 3c 87 bd 26 cf 31 3f a9 20 dd be
       -0.37507245 -0.066033654 0.6945671 -0.4318898
000070 fe e2 06 3d 84 07 f3 be ae 1f 54 3f 6a c7 33 bf
       0.03293132 -0.4746667 0.8286084 -0.70226157
000080 7b cd d2 bc d2 ba 5f 3e 3d 01 26 3e 46 45 a6 be
       -0.025732746 0.2184861 0.1621141 -0.32474726
000090 97 ea fe 3e 0f ed 14 3a 3d 6d e2 3e fd 54 ae 3d
       0.49788353 0.00056810764 0.44223967 0.08512304
0000a0 5b 9f 7d 3e f3 2b 26 bf 2b 90 ac be 87 20 dd be
       0.2476782 -0.6491081 -0.3370374 -0.4318888
0000b0 64 52 7a 3c 66 21 a4 3e 4c 98 2f 3f 69 18 0b bf
       0.0152784325 0.3205673 0.6859176 -0.5433412
0000c0 54 c6 95 be 85 d0 14 3f 56 6f 0b bf 3a 5c d5 be
       -0.29252875 0.58130676 -0.5446676 -0.41671926
0000d0 5e 81 bb be 62 8f 30 3f ee 25 15 bf 4b d8 64 3c
       -0.36622137 0.68968785 -0.58261 0.013967584
0000e0 c7 e2 2c be dc 7d 07 3e c9 44 4c 3e 89 1d ec be
       -0.16883384 0.13231605 0.19948114 -0.46116284
0000f0 00 c5 55 3e 05 e6 53 3d 1a ed 24 bf 8d 1e 17 be
       0.20875931 0.051733036 -0.6442429 -0.14757748
000100 57 27 66 be 5d f5 05 be d3 70 ba be 1e f6 01 bc
       -0.22475944 -0.1308188 -0.36414203 -0.007932214
000110 a1 c7 39 be f6 65 23 3d 38 e6 10 3d 0e 71 42 be
       -0.18142559 0.03989216 0.035375804 -0.1898844
000120 99 10 bf 3e f5 7a c6 be cd 9f 21 3e 5a f6 e7 bb
       0.3731735 -0.38765684 0.15783615 -0.007078928
000130 80 b0 a7 3e 4b 21 98 3e 36 f5 8a bd 48 c7 18 be
       0.32751846 0.297129 -0.067850515 -0.1491977
000140 0d b1 68 3d 24 9b 6e 3e a8 4c 8d be b9 06 dd bd
       0.056809474 0.23301369 -0.27597547 -0.10792298
000150 73 78 1d 3d 54 3c 0b 3f bb 95 3a 3f 9f 1b d1 bd
       0.038444947 0.5438893 0.7288472 -0.102103464
000160 c0 65 9b 3d e5 45 5f be 1a ca 57 be 4e 48 4d 3e
       0.07587767 -0.21804006 -0.2107319 0.20047113
000170 be e0 bd bd 4f 5b 3e 3e e5 74 09 bf 7f 43 45 be
       -0.09271382 0.18589519 -0.5369399 -0.19264029
000180 44 10 d2 3d 5a e7 c6 3e 6d 85 0c 3f 88 a3 b3 3d
       0.10257009 0.38848382 0.5489109 0.087714255
000190 24 6e b4 3e a6 b8 a3 be 24 47 47 3e 8c fa 3f 3e
       0.3524028 -0.31976813 0.19460732 0.1874792
0001a0 c0 d1 3e be ed 46 98 3d c0 b2 1d be f2 5c 8a 3d
       -0.18634701 0.07435403 -0.15400219 0.06756009
0001b0 85 41 1a bd 5c 78 a2 3e a1 bf a7 be e4 42 10 bf
       -0.03766014 0.31732452 -0.3276339 -0.56352067
0001c0 86 ad c2 bd ff dc 87 be af e4 0e 3f 44 c4 d2 be
       -0.09505753 -0.26535794 0.55817693 -0.41165364
0001d0 9c b2 21 be d7 c6 7e bd 01 f4 ae be 63 1d 50 3e
       -0.1579079 -0.062201347 -0.34170535 0.2032371
0001e0 ec ac cf bb 99 be 3b 3e 5b 11 9c 3d 8d 4b 40 bf
       -0.0063377526 0.18334426 0.07620498 -0.7511528
0001f0 4f d1 55 3d dc 9e 91 3c c4 ca 77 3c 28 a2 b4 bd
       0.052201565 0.017775945 0.015124027 -0.08819991
000200 c0 c9 c1 3c 11 6b 92 be a5 ea e2 ba 87 64 3c 3e
       0.023655772 -0.2859731 -0.0017312361 0.18397723
000210 33 1a 8c be 26 39 c0 3d 77 d2 54 bd af 73 01 3e
       -0.27363738 0.093859 -0.051958527 0.12641786
000220 28 51 36 bd 60 b5 2a 3d 49 c7 06 bd c0 21 4e bd
       -0.04451099 0.04167688 -0.032904897 -0.050325155
000230 e4 f3 38 be f5 25 23 be 5c 45 1e bc 35 9c 13 be
       -0.18061787 -0.15932448 -0.009660091 -0.14415057
000240 b0 1d 12 3e 8a 7d 63 be 01 f1 1c be 53 2f e9 3d
       0.14269137 -0.22215858 -0.1532631 0.113859795
000250 11 2f b6 be 8a 07 e1 3e b0 5d 21 be 69 9d 62 3d
       -0.35582784 0.43951064 -0.15758395 0.0553259
000260 f8 ed b7 3e cc ee 67 be 3d 97 2f bc 58 89 5a be
       0.35923743 -0.22649688 -0.01071721 -0.21341455
000270 5e 19 0e bd 2b 21 af bd 65 cc 88 be e7 44 f3 bd
       -0.03469216 -0.08551248 -0.2671844 -0.118783765
000280 b4 66 ea be 3e 6a 83 bd ba 3b bc 3e d7 3f 8e be
       -0.4578148 -0.064167485 0.36764318 -0.2778308
000290 d1 48 cc 3d d8 e1 d2 be 62 27 da 3c 13 c4 e8 3d
       0.09974826 -0.4118793 0.026630107 0.11365523
0002a0 6f e9 bd bc a1 f3 34 3d 4a d2 e6 bd 1f 25 8d 3e
       -0.023182599 0.044177655 -0.11270578 0.27567384
0002b0 b6 87 f5 3e 72 63 5c 3e 5c 77 82 be 42 f7 c1 3e
       0.47955102 0.2152231 -0.2548169 0.37883955
0002c0 1f 43 42 bd dd 76 5e 3e fe f7 e1 bd c6 2a d5 be
       -0.047427293 0.2172503 -0.11033629 -0.41634196
0002d0 ad 37 94 be cf 1c 64 3e fa 68 a7 be 0f a8 00 3e
       -0.28948727 0.22276615 -0.32697278 0.1256411
0002e0 f2 d3 54 bd 17 ab 30 3e 3b 42 8c 3d 23 30 b2 3b
       -0.05195994 0.17252766 0.0684857 0.0054378673
0002f0 a8 02 01 3e af cc 61 3d 6e 8c 35 be 81 96 08 be
       0.1259867 0.055126842 -0.17729351 -0.13338663
000300 04 78 d8 be 5c 21 b6 3e 84 be 2a be 57 4d 22 be
       -0.42279065 0.35572326 -0.16674238 -0.15849815
000310 b1 83 00 3e 4c 20 34 3d fd 49 2f 3e 56 eb 40 bf
       0.12550236 0.043976113 0.17118068 -0.75359094
000320 51 8b 7c bc 1a ad 62 3e ec 08 c3 bd 69 87 a7 3d
       -0.015414075 0.22136346 -0.09523186 0.08180124
000330 0f 0a ac 3d 1f 73 ff 3e ec 01 d9 bc 8f 6a 2c 3e
       0.08400356 0.49892518 -0.026490174 0.16837524
000340 b5 20 44 3d 98 e7 29 3c 84 0c ff 3e 8d b9 ec be
       0.047882754 0.010370158 0.49814236 -0.46235314
000350 3c ae b6 be df 8e 3d be 58 72 ab 3d 83 93 cf 3b
       -0.35679805 -0.18511532 0.08371419 0.0063347234
000360 1e c0 05 bf 16 9e 98 3e 06 a0 c3 3d 78 82 69 be
       -0.5224627 0.2980811 0.095520064 -0.22803676
000370 5d 6c e8 bd ec 97 22 bd 0c 66 e9 bd 80 8b c1 bc
       -0.11348794 -0.039695665 -0.11396417 -0.02362609
000380 fa 91 11 3e b2 16 00 3e 21 e3 b5 3d df 7d 1e be
       0.14215842 0.12508658 0.08881212 -0.15477704
000390 68 5e 54 be 78 52 0f bc 2e f1 8b 3e 64 e2 75 bd
       -0.20739138 -0.008747689 0.27332443 -0.060030356
0003a0 0a 45 b3 3e 98 52 e4 3d 5f dc 47 bd 5c ad 2a 3e
       0.3501361 0.11148566 -0.048794147 0.16667694
0003b0 2f 5b f1 bd 55 36 53 bd 41 fc 8d 3e 8d 98 94 be
       -0.1178497 -0.051565487 0.27731517 -0.29022637
0003c0 42 60 86 3d a3 fd b2 bd 0e 0e 66 be 9e b5 66 3e
       0.065613285 -0.087397836 -0.22466299 0.22530219
0003d0 36 87 76 be 91 b9 30 3e fc 24 fa bb d4 9b e9 3d
       -0.24075016 0.17258288 -0.0076338034 0.11406675
0003e0 96 e5 61 be ad 86 50 3e fa 67 a7 3e 3f 26 82 3e
       -0.22060236 0.20363875 0.32696515 0.25419804
0003f0 c9 db 10 bd 84 63 b9 be e6 7c 58 bd 47 fe 15 bd
       -0.035365853 -0.36208737 -0.052853487 -0.03661945

actor.0.bias f4 [22]
000000 e5 d2 61 3d f4 fb 0c 3d bc f0 3a 3d 23 3c 2b 3b
       0.055132765 0.03441997 0.04563974 0.0026128374
000010 0f 7a 1e bb ee 00 09 3d 29 39 fc 3c dc da 3e bd
       -0.002418164 0.033448152 0.030788975 -0.04659544
000020 4a 30 0a be 15 59 fc bb c9 7b 49 bc 4d d4 a2 bc
       -0.13494983 -0.007701049 -0.012297579 -0.019876624
000030 53 d0 55 bc 78 75 1e 3d fc 83 e3 3d 62 21 a1 3b
       -0.013050157 0.038686246 0.111091584 0.0049173096
000040 ce 91 97 bd a5 df e8 bc 58 ff bb bc eb 2e 4b 3d
       -0.07400857 -0.028426955 -0.022948906 0.04960529
000050 26 6e 91 3d 7d 53 83 3c
       0.07101087 0.016031021
