paper/training_results/seed-8/momarl/checkpoints/mlp_(negotiation=False)_(num_agents=12)_(window=False)_(reduced_space=False)_(fixed_savings_rate=False)_(rewards=['inverse_global_temperature', 'global_economic_output'])(wgen=uniform)(num_ensembles=1)(seed=8)_2025-01-16_22:50:04_w=[0.7402 0.2598].pt (torch, 38168 bytes, 9 tensors)

network.MLP.0.weight f4 [64, 18]
0.20941652 -0.032627046 -0.31338564 -0.7045346 -0.5699836 0.112447724 0.16019969 -0.024121517
0.21132869 0.21642481 0.083099745 0.071090445 0.043501318 0.20340161 -0.08196927 -0.034414772
-0.08786213 0.17614484 0.027640639 -0.5902362 0.014748672 0.06183814 -6.8673763 0.5889038
-0.09888566 0.0076549337 -0.08116867 -0.15845336 -0.15979017 -0.07881927 -0.09048973 -0.043903578
0.043237094 0.0419568 -0.06687557 -0.0792628 -0.09078007 0.22416504 -0.20348394 -0.04353764
-0.17588665 -0.07838743 -0.120520316 0.07585896 0.050133422 -0.19004883 -0.16987993 0.056804962
0.18182844 -0.20728458 0.19902709 0.22753316 -0.12665853 -0.083481275 -0.27038357 -0.9643292
-0.051172376 1.0176928 -2.2678475 0.3868448 0.26770738 -0.22805241 0.09787295 -0.29832804
0.3993236 -0.20105773 0.29199123 0.35125896 0.29671514 -0.11845689 0.20312235 -0.2862005
0.072698146 -0.2468978 -0.027002042 -0.75746834 0.15813877 0.13011256 0.15917687 -0.25499937
-1.0568019 0.053682733 0.45183346 0.37851426 -0.7946259 -0.5702914 0.3043689 -0.45733765
-0.45842794 -0.020095367 -0.20659211 -0.09638046 -0.18011501 0.15800358 0.005638012 -0.18334259
0.14264916 0.18180124 -0.16808847 -0.076345816 -0.13114189 0.121762164 0.0022078487 -0.15927179
0.16999462 -0.22101754 0.08863179 -0.11648686 -0.76189816 0.575368 0.04889895 -4.1153502
0.3579402 -0.3983818 0.015797531 0.019301254 0.006149572 -0.083244726 -0.033357993 -0.01745086
-0.09413976 0.14970048 -0.1406615 0.027434012 0.081620105 0.0069951126 0.061453924 -1.0534297
0.021731485 -0.49871296 -0.6695039 -0.024335872 0.4190141 -0.14753674 0.6288834 -0.070135064
-0.1561855 -0.3123932 0.29012328 -0.5882393 -0.16731936 0.14823286 -0.11334568 -0.41891852
-0.11427466 -0.12369721 -0.17000948 0.0521107 0.09523277 -0.025093166 -0.21064419 0.1842867
-0.12510443 0.12477035 -0.13571306 -0.20110299 0.23209092 0.015440554 -0.14509949 -0.14592087
0.1559689 0.03590827 0.0077858567 0.2999797 0.028142676 -0.92867994 0.42469445 -0.6347754
0.1297932 0.18539281 -0.34248498 -0.018646386 0.08114594 -0.087992445 0.37832725 0.1118762
0.37525013 -0.41261184 -0.009295792 -0.049178127 0.14636531 -0.025296213 0.06285137 0.013715573
-0.0046305014 -0.5820971 0.035107754 0.0040004426 -0.047515556 -0.0015358744 0.03240508 0.037517495
-0.14031327 -0.09908488 0.062032834 -0.01484402 -0.0572245 -0.08451329 -0.12722743 0.16242158
-0.0041893534 -0.041277368 -0.65813106 0.27414674 0.16810296 -0.17600234 -0.5568707 -0.10935799
-1.1249759 -0.65599346 0.05383322 0.46360624 -0.58644587 -0.26741004 -0.29239756 0.35943297
-0.21491608 0.02033147 -0.016770512 -0.19677474 -0.21396288 -0.22763936 0.014160392 -0.09629513
-0.0046964814 -0.13494101 -0.036030468 0.11097835 -0.14971426 0.04786038 0.08016324 -0.111390606
-0.031347424 0.04846603 -0.026344024 0.31043234 -0.0062553775 0.12582114 -2.593721 0.29372466
0.02635423 0.15921986 0.0602453 -0.1197475 0.14738902 -0.0040456345 0.05167553 -0.049235176
-0.11258688 -0.022024177 0.20317908 -0.0023056725 -0.010671102 0.09192401 0.03958716 -0.7214223
00000000: 4971 563e f0a3 05bd 1574 a0be 615c 34bf
00000010: 72ea 11bf fe4a e63d 630b 243e 7d9a c5bc
00000020: 8c66 583e 779e 5d3e 3330 aa3d de97 913d
00000030: 702e 323d 8348 503e 81df a7bd 81f6 0cbd
00000040: 0ff1 b3bd 505f 343e 9f6e e23c b819 17bf
00000050: 6aa4 713c fd49 7d3d 8cc1 dbc0 66c2 163f
00000060: 9184 cabd 3dd6 fa3b c23b a6bd 9941 22be
00000070: 09a0 23be ff6b a1bd ae52 b9bd 3dd4 33bd
00000080: 6119 313d e5da 2b3d 0ff6 88bd 8954 a2bd
00000090: e7ea b9bd 858b 653e 185e 50be 8654 32bd
000000a0: a11b 34be 9789 a0bd 5bd3 f6bd f15b 9b3d
000000b0: b458 4d3d 299c 42be 01f5 2dbe 52ac 683d
000000c0: 3c31 3a3e 6942 54be c2cd 4b3e 74fe 683e
000000d0: c6b2 01be 3bf8 aabd b76f 8abe 47de 76bf
000000e0: 209a 51bd c243 823f 6a24 11c0 8610 c63e
000000f0: f110 893e 9286 69be 9d71 c83d 74be 98be
00000100: 2574 cc3e 14e2 4dbe e07f 953e 37d8 b33e
00000110: 0ceb 973e 8799 f2bd 4eff 4f3e df88 92be
00000120: c4e2 943d c7d2 7cbe 6333 ddbc 72e9 41bf
00000130: 21ef 213e 3a3c 053e 43ff 223e 478f 82be
00000140: 4945 87bf 6de2 5b3d b756 e73e 9fcc c13e
00000150: 9a6c 4bbf 9efe 11bf 3ed6 9b3e 2928 eabe
00000160: 11b7 eabe 0a9f a4bc e28c 53be 1e63 c5bd
00000170: 1270 38be b1cb 213e 13bf b83b 29be 3bbe
00000180: 9f12 123e 1b2a 3a3e 621f 2cbe 325b 9cbd
00000190: 0f4a 06be 715e f93d 8eb1 103b 2518 23be
000001a0: 1213 2e3e 6c52 62be 9584 b53d aa90 eebd
000001b0: c20b 43bf 514b 133f 444a 483d f3b0 83c0
000001c0: f043 b73e b3f8 cbbe d369 813c aa1d 9e3c
000001d0: 5982 c93b 367c aabd 64a2 08bd 1bf5 8ebc
000001e0: 59cc c0bd 154b 193e 9109 10be 4bbd e03c
000001f0: 7128 a73d 4237 e53b 1cb7 7b3d c9d6 86bf
00000200: 3a06 b23c 4e57 ffbe 9c64 2bbf 065c c7bc
00000210: 0489 d63e df13 17be 81fe 203f f9a2 8fbd
00000220: 17ef 1fbe 00f2 9fbe 0a8b 943e da96 16bf
00000230: c455 2bbe 5bca 173e c821 e8bd 7d7c d6be
00000240: d508 eabd f654 fdbd f716 2ebe 0872 553d
00000250: 6609 c33d 2f90 cdbc 1cb3 57be a7b5 3c3e
00000260: 601b 00be 9987 ff3d 5df8 0abe f1ed 4dbe
00000270: 3ea9 6d3e 61fa 7c3c f694 14be 486c 15be
00000280: 50b6 1f3e 8d14 133d 8020 ff3b f096 993e
00000290: 788b e63c f8bd 6dbf 8d71 d93e a480 22bf
000002a0: 82e8 043e 9dd7 3d3e 315a afbe 4ec0 98bc
000002b0: d82f a63d 6235 b4bd 1cb4 c13e 591f e53d
000002c0: c920 c03e dc41 d3be 614d 18bc 016f 49bd
000002d0: cae0 153e 013a cfbc 38b8 803d 48b7 603c
000002e0: 76bb 97bb 5104 15bf 26cd 0f3d 2516 833b
000002f0: ac9f 42bd 654f c9ba 30bb 043d f2ab 193d
00000300: 48ae 0fbe 03ed cabd 2416 7e3d 5534 73bc
00000310: 3d64 6abd 4e15 adbd e847 02be d851 263e
00000320: d846 89bb 7512 29bd 477b 28bf f65c 8c3e
00000330: 2f23 2c3e f539 34be 148f 0ebf 15f7 dfbd
00000340: 36ff 8fbf 30ef 27bf 3980 5c3d cc5d ed3e
00000350: 5121 16bf f8e9 88be 22b5 95be 9907 b83e
00000360: f612 5cbe 2f8e a63c 5062 89bc 517f 49be
00000370: 1619 5bbe 4b1a 69be fd00 683c 6236 c5bd
00000380: f1e4 99bb fa2d 0abe af94 13bd 9e48 e33d
00000390: b24e 19be 3f09 443d a02c a43d c220 e4bd
000003a0: 2866 00bd 5184 463d 6ccf d7bc fdf0 9e3e
000003b0: e9f9 ccbb 42d7 003e 86ff 25c0 1463 963e
000003c0: d3e4 d73c 880a 233e c7c3 763d 2d3e f5bd
000003d0: 26ed 163e 3e91 84bb b8a9 533d d3aa 49bd
000003e0: f393 e6bd 0c6c b4bc 2d0e 503e c41a 17bb
000003f0: d9d5 2ebc a842 bc3d 2526 223d 22af 38bf

network.MLP.0.bias f4 [64]
0.01550049 -1.4200649 0.41096684 -0.33155194 -0.038910747 -0.048021615 0.27262595 0.0295648
0.29128644 0.046095874 0.40766186 0.21321444 0.37516856 -0.077142656 0.3393128 0.11877061
-0.19099721 0.18873532 0.3132131 -0.61581486 -0.84732974 -0.2621389 -0.09176473 -1.0499219
-0.22732157 0.43670595 0.18591188 -0.5692264 0.38022602 0.36846495 0.32226375 0.4132555
0.3569348 0.25410092 0.029521095 0.20057067 0.31111288 -0.17263106 -0.059538115 -0.23821256
0.051748313 -0.05587077 -0.048140302 -0.18293579 -1.0370606 -0.104150034 -0.11607268 -0.07779863
-0.24013318 -0.0028848855 -0.3775974 0.39922556 0.8256893 -0.5328835 0.66159457 -0.16134651
-0.08813906 0.6234522 -0.13898008 -0.70404416 0.41199514 -0.3090521 -0.0005012638 -0.82381237
00000000: c4f5 7d3c b0c4 b5bf 3f6a d23e 2dc1 a9be
00000010: e060 1fbd 50b2 44bd a195 8b3e e131 f23c
00000020: 7f23 953e 07cf 3c3d 0eb9 d03e e354 5a3e
00000030: 1816 c03e f8fc 9dbd 68ba ad3e 013e f33d
00000040: c694 43be d543 413e 785d a03e 0ba6 1dbf
00000050: 9aea 58bf 1237 86be 26ef bbbd d763 86bf
00000060: fcc6 68be ec97 df3e af5f 3e3e d2b8 11bf
00000070: fcac c23e 70a7 bc3e c1ff a43e 3a96 d33e
00000080: 28c0 b63e 8419 823e 39d6 f13c 6662 4d3e
00000090: 304a 9f3e 32c6 30be 3dde 73bd feed 73be
000000a0: 0af6 533d c0d8 64bd c42e 45bd 8553 3bbe
000000b0: 67be 84bf 9d4c d5bd 83b7 edbd e354 9fbd
000000c0: 79e5 75be 5910 3dbb 7254 c1be 4b67 cc3e
000000d0: 6060 533f 0e6b 08bf 435e 293f 0538 25be
000000e0: 4082 b4bd 909a 1f3f cb50 0ebe 3d3c 34bf
000000f0: 07f1 d23e 143c 9ebe 3f67 03ba 5ee5 52bf

network.MLP.2.weight f4 [64, 64]
-0.08433443 -0.049883425 0.010790321 0.7226804 -0.85861224 0.010618195 0.1374926 0.16655451
0.1304709 -0.21672791 -0.024896499 0.25754538 0.006324108 -0.028256433 -0.17455082 0.08404202
-0.21117795 0.031783976 0.2402804 0.19678405 0.1670123 -0.68442947 -0.51675415 0.2812005
0.33716255 0.25782293 -0.068610236 -0.060942173 0.41456234 0.29712862 0.049808208 0.07870326
0.105256565 0.16904165 0.06819097 -0.16811351 0.039141025 0.28133467 -0.03351904 0.023789348
-0.20513617 0.11802777 -0.049465258 -0.066109285 0.2267917 -0.020720258 -0.124552906 0.27462733
0.0224428 -0.25325987 -0.0063007493 0.18884017 0.16433609 0.28843674 -0.24057212 0.06088434
-0.11648932 -0.33636662 0.4128438 -0.24608666 0.042873025 -0.0922191 0.032826077 0.104285136
0.09083813 -0.22790107 0.0337931 -0.19572017 0.09701453 0.08582765 0.68719643 -0.083095685
0.052332073 0.2104953 0.14953291 0.025019674 0.27366805 -0.16348661 -0.1535768 -0.009473416
0.09840562 0.048763804 0.39922994 0.04078459 -0.2563892 0.09105172 0.08348041 -0.14119938
-0.01016658 0.18625203 0.14693715 -0.1309986 -0.00882704 -0.046145167 0.16214217 -0.22744043
0.18991476 0.029242484 0.011482758 -0.10953163 0.21589722 0.11090196 0.056451477 0.043637134
0.00874537 -0.18412234 -0.08314119 -0.04474553 -0.05758392 0.025030807 0.08387914 0.1077023
-0.05294465 -0.059215873 -0.06861604 -0.2427265 0.29506564 -0.23759064 0.16429456 0.017007902
-0.0023152109 0.455549 0.083313614 -0.0896001 0.22565342 -0.073834434 -0.01734402 -0.08879584
-0.13102016 -0.28568 0.31663266 0.23750016 -0.0063675395 -0.024626955 0.47420478 0.11649299
0.15357362 -0.09803692 -0.057815973 0.41072464 0.21513878 0.027763633 -0.089773305 0.2487925
0.12104871 -0.0056832624 -0.002407133 0.16363455 -0.036009055 0.2758721 -0.4571154 0.025722709
0.3581627 0.41746 -0.1201263 0.17434733 -0.01583186 -0.22575934 0.1813124 -0.11455286
0.108346365 -0.012994156 -0.32447577 0.032703526 0.09284954 0.071109764 -0.058956783 0.055285588
0.008472825 -0.23280564 -0.008700089 -0.11575671 -0.08428569 0.011449531 -0.09463975 -0.45348227
-0.056749143 -0.009545824 0.1697081 -0.039326563 -0.32873815 0.3364727 0.1310908 -0.08835009
-0.054474708 0.24480951 0.2670791 -0.080055974 0.08693884 0.35671896 0.114888206 -0.23134659
-0.06845519 0.23949514 -0.19935271 0.113473065 0.006814334 -0.02710931 -0.52609175 -0.05544273
-0.19488078 -0.0764303 -0.19089761 0.014408661 -0.08105104 0.052793995 -0.05167985 -0.06547778
-0.100029 0.016974822 -0.2544142 0.03854924 0.13290201 -0.09357039 0.042312056 0.012953588
0.07882715 -0.08172422 0.0020014336 0.16995782 -0.1363572 -0.00836044 -0.20092484 -0.2295143
-0.14141884 -0.00075099 0.096498355 -0.02293149 -0.018635489 -0.047449015 0.03928766 -0.032171775
-0.10516034 0.056635104 0.046329886 -0.08013761 0.06666757 -0.025641456 0.118277 0.039344113
0.1544009 -0.012364019 -0.053950123 -0.050440162 -0.40177393 -0.11390086 -0.051060922 0.00686879
-0.029210083 -0.43711376 -0.11955686 0.20615306 -0.33157182 -0.060313787 -0.01545172 0.15589452
00000000: 88b7 acbd 9052 4cbd e3c9 303c 9501 393f
00000010: 03ce 5bbf f0f7 2d3c dcca 0c3e 448d 2a3e
00000020: 2a9a 053e eced 5dbe bef3 cbbc fddc 833e
00000030: 773a cf3b 097a e7bc 73bd 32be 391e ac3d
00000040: 083f 58be ea2f 023d 110c 763e c281 493e
00000050: 4605 2b3e c536 2fbf 004a 04bf 83f9 8f3e
00000060: 92a0 ac3e 5e01 843e 8683 8cbd 809e 79bd
00000070: 8441 d43e 3e21 983e b103 4c3d 2d2f a13d
00000080: c190 d73d 4119 2d3e b5a7 8b3d f325 2cbe
00000090: 5752 203d 190b 903e 434b 09bd e1e1 c23c
000000a0: 370f 52be 8bb8 f13d 159c 4abd 4e64 87bd
000000b0: 153c 683e 88bd a9bc 9815 ffbd f49b 8c3e
000000c0: f7d9 b73c 47ab 81be 8476 cebb 515f 413e
000000d0: b847 283e fbad 933e 8a58 76be dc61 793d
000000e0: f491 eebd 3f38 acbe 4360 d33e 24fe 7bbe
000000f0: a09b 2f3d 5edd bcbd a374 063d 7293 d53d
00000100: 5709 ba3d e65e 69be a26a 0a3d de6a 48be
00000110: 8eaf c63d 68c6 af3d 1bec 2f3f 122e aabd
00000120: 285a 563d 148c 573e 281f 193e 0ff6 cc3c
00000130: 381e 8c3e 0969 27be 3d43 1dbe 6336 1bbc
00000140: e388 c93d 8ebc 473d de67 cc3e be0d 273d
00000150: 7245 83be 5379 ba3d c7f7 aa3d 9296 10be
00000160: ba91 26bc dab8 3e3e b176 163e 7f24 06be
00000170: 4a9f 10bc b702 3dbd 9908 263e 25e6 68be
00000180: 0479 423e ef8d ef3c 2e22 3c3c 1f52 e0bd
00000190: 2914 5d3e 9120 e33d aa39 673d dabc 323d
000001a0: be48 0f3c 918a 3cbe ee45 aabd 1747 37bd
000001b0: 1edd 6bbd 680d cd3c d4c8 ab3d 0693 dc3d
000001c0: 7ddc 58bd 588c 72bd 9186 8cbd 4c8d 78be
000001d0: d812 973e f64a 73be d53c 283e 2854 8b3c
000001e0: cbba 17bb b83d e93e 54a0 aa3d 4280 b7bd
000001f0: b111 673e 8236 97bd 0c15 8ebc 98da b5bd
00000200: 262a 06be a644 92be ad1d a23e 3e33 733e
00000210: cba6 d0bb 78be c9bc f8ca f23e e093 ee3d
00000220: 6742 1d3e 95c7 c8bd 71d0 6cbd 804a d23e
00000230: 574d 5c3e 8f70 e33c 11db b7bd 76c3 7e3e
00000240: 63e8 f73d a93a babb fec0 1dbb d18f 273e
00000250: 3b7e 13bd 1c3f 8d3e 080b eabe 6eb8 d23c
00000260: 1a61 b73e 51bd d53e c704 f6bd 1b88 323e
00000270: d1b1 81bc 752d 67be f5a9 393e b19a eabd
00000280: b3e4 dd3d 71e5 54bc b021 a6be 22f4 053d
00000290: e627 be3d ffa1 913d ab7c 71bd 2473 623d
000002a0: 9bd1 0a3c 9a64 6ebe d18a 0ebc db11 edbd
000002b0: fa9d acbd d096 3b3c 7cd2 c1bd d42e e8be
000002c0: ca71 68bd 1666 1cbc f6c7 2d3e e414 21bd
000002d0: 5e50 a8be 2646 ac3e ab3c 063e e4f0 b4bd
000002e0: df20 5fbd 58af 7a3e 97be 883e 63f4 a3bd
000002f0: fe0c b23d dea3 b63e 824a eb3d 1fe6 6cbe
00000300: 3c32 8cbd 373e 753e 1e23 4cbe 9164 e83d
00000310: c74a df3b 5814 debc f3ad 06bf eb17 63bd
00000320: d48e 47be 7d87 9cbd aa7a 43be 4e12 6c3c
00000330: 16fe a5bd 843e 583d 40ae 53bd 3719 86bd
00000340: 01dc ccbd c80e 8b3c 9442 82be cfe5 1d3d
00000350: 7717 083e d5a1 bfbd 684f 2d3d 493b 543c
00000360: 2170 a13d 075f a7bd 7c2a 033b 6c09 2e3e
00000370: 39a1 0bbe 3afa 08bc 3ebf 4dbe cc05 6bbe
00000380: 1ad0 10be 16de 44ba eea0 c53d d2da bbbc
00000390: 74a9 98bc e659 42bd 19ec 203d 8dc6 03bd
000003a0: 4e5e d7bd 36fa 673d 68c4 3d3d 301f a4bd
000003b0: 0289 883d 080e d2bc 363b f23d 4b27 213d
000003c0: 451b 1e3e 7492 4abc cefa 5cbd 589a 4ebd
000003d0: 50b5 cdbe db44 e9bd 4225 51bd 9613 e13b
000003e0: fc49 efbc 60cd dfbe 3ada f4bd ca19 533e
000003f0: c8c3 a9be 970b 77bd 3629 7dbc d0a2 1f3e

network.MLP.2.bias f4 [64]
-0.21755227 0.62582916 -0.25890207 -0.5857559 -0.65807056 0.2709102 0.26135173 0.082257904
0.27287972 0.15316881 0.4709891 -0.17852035 -0.027963702 0.16515282 0.11256129 -0.12794207
-0.24892195 0.23814785 -0.22638528 0.25924444 -0.3414769 0.080224894 -0.088831365 -0.60591334
-0.101238675 -0.45207894 -0.0039218506 0.32071376 0.19442101 -0.17715982 0.3436972 0.11788219
0.0033439975 -0.39365825 0.12134788 0.32272702 -0.36343366 -0.123007275 -0.04044964 0.46537608
-0.010457195 0.39286143 -0.0012575396 -0.31228444 0.256243 0.09955417 -0.25585374 0.5457399
-0.16286631 -0.43166417 0.22663662 0.12898587 0.68571067 0.6646859 0.10672075 -0.69989973
-0.32804146 0.019684346 0.006511237 -0.041755974 -0.040411998 -0.11263435 -0.21637774 0.053447947
00000000: 06c6 5ebe 5736 203f d08e 84be 19f4 15bf
00000010: 5077 28bf beb4 8a3e e5cf 853e d576 a83d
00000020: e4b6 8b3e 49d8 1c3e 7c25 f13e 0ace 36be
00000030: 2214 e5bc d21d 293e 8986 e63d 3f03 03be
00000040: 65e5 7ebe 08dd 733e 8bd1 67be b0bb 843e
00000050: 0fd6 aebe f34c a43d 38ed b5bd 231d 1bbf
00000060: 3956 cfbd e476 e7be de82 80bb 9834 a43e
00000070: 4d16 473e 6269 35be 14f9 af3e 386c f13d
00000080: f826 5b3b 938d c9be 3d85 f83d 7a3c a53e
00000090: fa13 babe 3deb fbbd 86ae 25bd c645 ee3e
000000a0: a854 2bbc 2225 c93e 07d4 a4ba bfe3 9fbe
000000b0: 4832 833e 0fe3 cb3d 43ff 82be 9cb5 0b3f
000000c0: 6dc6 26be 1603 ddbe 6e13 683e df14 043e
000000d0: bc8a 2f3f db28 2a3f 6990 da3d a12c 33bf
000000e0: 0df5 a7be 1141 a13c 375c d53b 5008 2bbd
000000f0: 0d87 25bd d7ac e6bd 2092 5dbe 3cec 5a3d

network.MLP.3.weight f4 [64]
1.7503861 0.81562597 1.62166 1.0615369 0.7214343 0.74088055 1.6466516 1.6383532
1.1865977 1.2589042 1.2993082 1.4740795 1.1324682 1.6293806 2.076929 1.5171303
1.4663943 1.721235 1.5656788 1.0622115 0.59470487 1.2330047 1.1442871 0.92714673
1.6489102 0.63151217 1.517149 1.2085304 1.6468499 1.5328709 1.5244441 1.5141492
1.7938396 0.93637836 1.428075 1.0866777 0.8085462 1.805613 1.2248106 0.7878434
1.2914236 0.74160016 1.3888353 1.817917 1.601428 1.8938442 1.7862784 0.9338166
0.90773505 1.2738032 1.1134503 1.9531988 0.78141665 0.8405873 1.4570222 0.72647804
1.3998798 1.4385524 1.4791011 1.5663129 1.509088 1.2451775 0.19699052 1.6116556
00000000: a70c e03f ddcc 503f 8e92 cf3f 71e0 873f
00000010: ebaf 383f 59aa 3d3f 7bc5 d23f 8fb5 d13f
00000020: 6fe2 973f c623 a13f bb4f a63f a3ae bc3f
00000030: b8f4 903f 8b8f d03f 68ec 0440 5331 c23f
00000040: cfb2 bb3f 6e51 dc3f 2a68 c83f 8cf6 873f
00000050: 943e 183f 19d3 9d3f 0078 923f 7d59 6d3f
00000060: 7d0f d33f c8aa 213f f031 c23f 20b1 9a3f
00000070: facb d23f 1d35 c43f fc20 c33f a4cf c13f
00000080: 899c e53f 7eb6 6f3f 29cb b63f 4118 8b3f
00000090: e2fc 4e3f 541e e73f 98c6 9c3f 1bb0 493f
000000a0: 5e4d a53f 82d9 3d3f 5bc5 b13f 81b1 e83f
000000b0: 98fb cc3f 7d69 f23f c5a4 e43f 9b0e 6f3f
000000c0: 5361 683f fc0b a33f 8a85 8e3f 6b02 fa3f
000000d0: ec0a 483f bb30 573f b47f ba3f 77fa 393f
000000e0: 432f b33f 7c22 b83f 2f53 bd3f f17c c83f
000000f0: cc29 c13f fa61 9f3f e2b7 493e bb4a ce3f

network.MLP.3.bias f4 [64]
0.12982853 0.14598453 -0.18779954 -0.24390055 -0.14895825 -0.1733931 0.050298877 0.13548586
-0.24905841 0.104126826 0.02208873 0.041890547 -0.04108305 0.13241114 0.12624556 -0.062224004
0.021624729 0.17600173 -0.053281326 0.04524462 0.18289292 0.062182166 0.1032604 -0.25866804
0.088102035 -0.03129979 0.031180479 0.09515886 0.08840231 -0.058220267 0.098147005 0.013180173
0.04495735 -0.25766462 0.13233007 0.04830175 0.18477954 0.062046897 -0.0031498438 0.04700232
0.17959598 0.0745949 0.23249982 -0.012366013 -0.08259868 -0.10865138 -0.045213796 0.24377406
-0.01944985 0.0028552487 -0.1508058 -0.021490902 0.10929975 0.16719185 -0.028976722 -0.005807244
-0.19312276 -0.09708717 0.027950888 0.20028593 0.035062816 -0.07085124 0.45293322 0.14583492
00000000: c5f1 043e f87c 153e 864e 40be 11c1 79be
00000010: 8388 18be f68d 31be 3206 4e3d cebc 0a3e
00000020: 2b09 7fbe 7240 d53d 6df3 b43c 6c95 2b3d
00000030: b346 28bd c996 073e 8446 013e 99de 7ebd
00000040: 5826 b13c cc39 343e 853d 5abd 6c52 393d
00000050: 4848 3b3e bab2 7e3d 307a d33d 2370 84be
00000060: d76e b43d 3534 00bd 346e ff3c a6e2 c23d
00000070: 450c b53d 6078 6ebd 4c01 c93d a7f1 573c
00000080: 3325 383d 9eec 83be 8981 073e 0ed8 453d
00000090: d936 3d3e e324 7e3d 9c6d 4ebb 8185 403d
000000a0: 02e8 373e 36c5 983d 6f14 6e3e d19a 4abc
000000b0: 7f29 a9bd 9d84 debd 1a32 39bd e89f 793e
000000c0: 4b55 9fbc 201f 3b3b d66c 1abe b00d b0bc
000000d0: 8cd8 df3d 5734 2b3e 9760 edbc b24a bebb
000000e0: f9c1 45be a3d5 c6bd 43f9 e43c c117 4d3e
000000f0: 079e 0f3d 741a 91bd dde6 e73e c055 153e

critic.0.weight f4 [1, 64]
0.035285298 0.17994456 -0.057432998 -0.3673302 -0.1383347 0.016260685 0.023291485 0.057698995
0.03170055 0.054227974 0.028934574 0.05901709 0.027491564 0.04157187 0.042147238 0.040505677
0.03168449 0.042761985 0.01226781 0.034970257 -0.110409066 -0.0073571014 0.06754118 -0.3780387
0.04332711 0.076319344 0.013684445 0.025382793 0.081229955 0.010124191 0.06829306 0.050320067
0.053447515 -0.2538999 0.039185658 0.021858301 0.057347186 0.030833941 0.041507434 0.20036322
0.058396634 0.10640311 0.06014671 0.029446807 0.062042326 0.0038838433 2.4320318e-05 0.2954817
0.03519246 -0.003515507 0.042774856 0.01993024 0.18033704 0.21827556 0.008651512 -0.15765835
-0.021305215 -0.06855512 0.00051495386 0.048573915 0.018303733 -0.0053357887 0.1979593 0.032964367
00000000: 5187 103d 6343 383e dd3e 6bbd b412 bcbe
00000010: 9da7 0dbe 2135 853c c9cd be3c c855 6c3d
00000020: 70d8 013d 271e 5e3d 3308 ed3c e7bb 713d
00000030: fd35 e13c 4447 2a3d 95a2 2c3d 48e9 253d
00000040: 99c7 013d 3127 2f3d edfe 483c f93c 0f3d
00000050: 261e e2bd d713 f1bb 0853 8a3d 4a8e c1be
00000060: c577 313d 514d 9c3d b934 603c 93ef cf3c
00000070: e45b a63d efdf 253c 3bdd 8b3d 6a1c 4e3d
00000080: c8eb 5a3d 2bff 81be 2481 203d 2e10 b33c
00000090: e2e4 6a3d 7697 fc3c b303 2a3d 042c 4d3e
000000a0: 4f31 6f3d e0e9 d93d 665c 763d 6e3a f13c
000000b0: 1820 7e3d 1488 7e3b 7c03 cc37 6149 973e
000000c0: f825 103d 6c64 66bb b034 2f3d be44 a33c
000000d0: 46aa 383e a183 5f3e 12bf 0d3c 3171 21be
000000e0: 4688 aebc a066 8cbd f8fd 063a 71f5 463d
000000f0: b6f1 953c d7d7 aebb d8b5 4a3e a505 073d

actor.0.weight f4 [22, 64]
-0.5191891 0.21262352 -0.0044648047 -0.21379846 -0.036776777 -0.14486845 -0.34066394 -0.045115087
-0.25940645 0.46064913 -0.43331966 0.5277762 -0.11722469 0.20065103 0.78243905 -0.4765835
-0.28061238 0.30305597 0.3249098 -0.30909464 -0.011376453 -0.028058842 -0.088750936 -0.027450649
-0.12151778 -0.08061985 0.025883475 0.0897149 -0.47736692 -0.03408156 -0.14664221 -0.6032014
0.16856861 -0.22789304 -0.42218745 0.4235297 -0.18974642 0.583718 -0.21627823 0.04463545
0.53785664 -0.048522923 0.372145 0.86066705 0.35099712 0.12985526 0.019126298 0.20335959
-0.06406121 0.21834175 -0.1058729 -0.21639228 -0.014314138 -0.008215469 -0.52160335 -0.06002744
0.6675094 -0.33631626 -0.22197114 -0.32228413 0.14987436 0.36500996 0.2093922 0.2420949
-0.4454584 0.030244762 0.25545433 -0.14039244 -0.14856958 0.09544151 -0.39694777 0.45513332
0.15402025 0.07365407 0.1482993 0.30036575 -0.20093787 -0.11344759 0.16586924 -0.40978238
-0.22920524 0.26273236 -0.35296482 0.08063929 0.10394435 -0.22378252 -0.18874519 -0.15848228
-0.82207674 0.046131223 0.24316987 -0.055120267 0.07918504 0.2687521 -1.0725019 -0.27857733
0.5380882 -0.28747994 -0.15576802 0.14897276 -0.24507439 0.504686 -0.3633965 -0.052447252
0.11231569 0.1305125 0.024745418 0.14244893 -0.0050887405 0.36382952 -0.6370451 0.076039866
-0.027292237 -0.4799344 0.2820995 0.6559239 -0.027817287 0.24669494 -0.2290685 0.057602573
0.083703384 0.18041512 0.28982493 -0.48020628 0.457292 -0.053128164 0.1617151 0.68572813
0.2847805 0.18306907 0.6828409 -0.21851099 -0.144055 -0.07000277 -0.25491434 0.4529817
-0.21186057 -0.35906434 0.4072464 -0.097080156 -0.29700014 -0.23827894 0.35810938 0.050136257
0.13683717 -0.18121673 -0.04020388 0.12289252 -0.09714282 -0.48009667 0.056787796 -0.0006269475
-0.10832637 0.0014744962 0.18415636 0.14765039 -0.30858403 -0.36076373 -0.22983852 -0.4731118
-0.052060056 -0.069427475 -0.108727165 -0.050852846 -0.32527027 0.32127476 -0.19469987 0.06856319
0.24884515 0.18573472 0.34918883 0.43847784 -0.01484779 -0.2550004 0.32444 0.21640891
0.07190306 0.041121732 0.14210738 -0.07830162 0.18745878 0.031417273 -0.2595823 -0.065395206
0.16711274 -0.16659586 0.50743115 0.050621957 -0.13666265 0.054295152 -0.019544698 0.4968559
-0.12630604 -0.073755234 -0.17589347 0.119248174 0.031396903 0.13396202 0.12783967 0.04289828
0.30567938 0.41663274 -0.17424189 0.3476185 -0.03249756 -0.7019539 0.25550124 -0.18663117
-0.06223871 -0.13239528 0.21121147 0.16898702 -0.061711922 0.007846907 -0.2091552 0.07912033
-0.052031763 0.09137543 -0.33692327 0.058293317 -0.27379948 0.33398238 -0.18680912 0.65465814
-0.048489276 -0.13177887 0.013399563 0.058657542 0.10087735 -0.08901403 -0.10524016 0.042713523
0.11175052 -0.02508358 0.2332799 0.5429738 -0.38910654 -0.33602518 -0.4728215 0.024800539
-0.18279268 0.30683163 -0.017675897 -0.38896027 -0.0140541885 0.038008567 -0.565243 -0.024588577
0.0041730707 0.20393501 0.40836924 -0.12156898 -0.3610006 0.3613673 0.07307526 -0.519166
00000000: 94e9 04bf fbb9 593e 7f4d 92bb fced 5abe
00000010: 3fa3 16bd 6558 14be 816b aebe 99ca 38bd
00000020: ecd0 84be 34da eb3e 13dc ddbe 571c 073f
00000030: 8013 f0bd 7777 4d3e ed4d 483f c102 f4be
00000040: 6dac 8fbe 272a 9b3e 945a a63e a741 9ebe
00000050: 4d64 3abc a8db e5bc 0dc3 b5bd 2fe0 e0bc
00000060: 50de f8bd 051c a5bd 9509 d43c 72bc b73d
00000070: 7069 f4be 1b99 0bbd 6029 16be 686b 1abf
00000080: 409d 2c3e cb5c 69be f428 d8be e3d8 d83e
00000090: e34c 42be 8b6e 153f 0a78 5dbe a9d3 363d
000000a0: f9b0 093f f9bf 46bd ca89 be3e ad54 5c3f
000000b0: e5b5 b33e c7f8 043e c1ae 9c3c 7f3d 503e
000000c0: 8632 83bd fb94 5f3e e4d3 d8bd f095 5dbe
000000d0: d985 6abc 2d9a 06bc cc87 05bf 55df 75bd
000000e0: e5e1 2a3f a531 acbe 674c 63be 6d02 a5be
000000f0: aa78 193e 96e2 ba3e e96a 563e bae7 773e
00000100: 2013 e4be ddc3 f73c e9ca 823e 09c3 0fbe
00000110: a022 18be d776 c33d bd3c cbbe 3c07 e93e
00000120: 7cb7 1d3e f2d7 963d c6db 173e 8ac9 993e
00000130: a8c2 4dbe 3657 e8bd a0d9 293e ffce d1be
00000140: c7b4 6abe db84 863e ceb7 b4be 3626 a53d
00000150: c6e0 d43d 3f27 65be 6b46 41be 2e49 22be
00000160: 9f73 52bf 18f4 3c3d 8601 793e cac5 61bd
00000170: c42b a23d e099 893e be47 89bf b0a1 8ebe
00000180: 26c0 093f 9230 93be a781 1fbe 518c 183e
00000190: c8f4 7abe 1a33 013f 1b0f babe eed2 56bd
000001a0: c505 e63d 12a5 053e e7b6 ca3c 22de 113e
000001b0: 73bf a6bb dd47 ba3e 6315 23bf caba 9b3d
000001c0: f893 dfbc f6b9 f5be 586f 903e a1ea 273f
000001d0: 14e1 e3bc 999d 7c3e ef90 6abe adf0 6b3d
000001e0: ae6c ab3d bebe 383e ef63 943e 99dd f5be
000001f0: 2d22 ea3e eb9c 59bd a598 253e e18b 2f3f
00000200: c0ce 913e 7576 3b3e a9ce 2e3f 58c1 5fbe
00000210: 2783 13be 9d5d 8fbd 2284 82be 38ed e73e
00000220: faf1 58be 48d7 b7be 9a82 d03e f6d1 c6bd
00000230: 6710 98be 65ff 73be 1d5a b73e ad5b 4d3d
00000240: 0b1f 0c3e e190 39be d3ac 24bd 13af fb3d
00000250: d1f2 c6bd 3bcf f5be 529a 683d bc59 24ba
00000260: 37da ddbd e243 c13a 7c93 3c3e aa31 173e
00000270: bafe 9dbe 06b6 b8be ca5a 6bbe b63b f2be
00000280: ed3c 55bd fe2f 8ebd 59ac debd 134b 50bd
00000290: d389 a6be 207e a43e 675f 47be dc6a 8c3d
000002a0: 43d1 7e3e 3e31 3e3e e1c8 b23e 2b80 e03e
000002b0: 2544 73bc 6a8f 82be 001d a63e 4c9a 5d3e
000002c0: e941 933d 436f 283d 9984 113e 9a5c a0bd
000002d0: 32f5 3f3e 66af 003d f9e7 84be eced 85bd
000002e0: 9a1f 2b3e 1b98 2abe 02e7 013f f858 4f3d
000002f0: 4bf1 0bbe 9864 5e3d 341c a0bc e663 fe3e
00000300: 5f56 01be fc0c 97bd 6b1d 34be 6338 f43d
00000310: 0a9a 003d 572d 093e 67e8 023e 1bb6 2f3d
00000320: 0282 9c3e e350 d53e 776c 32be 0dfb b13e
00000330: 291c 05bd 40b3 33bf 0fd1 823e 3e1c 3fbe
00000340: 04ee 7ebd a192 07be d247 583e ef0a 2d3e
00000350: a4c5 7cbd 5090 003c c82c 56be d709 a23d
00000360: 421f 55bd 0b23 bb3d 3581 acbe f9c4 6e3d
00000370: 722f 8cbe bdff aa3e e44a 3fbe ad97 273f
00000380: b19c 46bd 0af1 06be d789 5b3c e442 703d
00000390: c998 ce3d fd4c b6bd 2788 d7bd 60f4 2e3d
000003a0: 75dd e43d 147c cdbc ede0 6e3e 5500 0b3f
000003b0: f938 c7be 7e0b acbe a915 f2be 802a cb3c
000003c0: 012e 3bbe 0919 9d3e 0bcd 90bc cd25 c7be
000003d0: 8a43 66bc dfae 1b3d c4b3 10bf fc6d c9bc
000003e0: 41be 883b 57d4 503e c615 d13e 28f9 f8bd
000003f0: 12d5 b8be 2205 b93e 7ba8 953d 10e8 04bf

actor.0.bias f4 [22]
0.056104474 -0.057020605 0.069274396 0.0044077 0.0020041573 0.02530255 -0.034265704 -0.03617997
-0.054840572 -0.056287013 0.035088062 0.1256597 -0.021740418 -0.029456958 0.084000796 0.05163684
0.031690568 -0.09145706 0.06521192 -0.037361994 -0.086361766 0.023226406
00000000: cecd 653d 708e 69bd bcdf 8d3d 786e 903b
00000010: 2e58 033b 4b47 cf3c 325a 0cbd 7331 14bd
00000020: 82a0 60bd 368d 66bd 80b8 0f3d f0ac 003e
00000030: f618 b2bc b84f f1bc 9c08 ac3d 2781 533d
00000040: f8cd 013d d74d bbbd d48d 853d e408 19bd
00000050: 70de b0bd 4e45 be3c
