paper/training_results/seed-4/momarl/checkpoints/mlp_(negotiation=False)_(num_agents=12)_(window=False)_(reduced_space=False)_(fixed_savings_rate=False)_(rewards=['inverse_global_temperature', 'global_economic_output'])(wgen=uniform)(num_ensembles=1)(seed=4)_2025-01-16_22:06:49_w=[0.277 0.723].pt (torch, 38076 bytes, 9 tensors)

network.MLP.0.weight f4 [64, 18]
00000000: 555f 56bd 184e 8a3e 16e9 64be d6b0 463d
00000010: 953d e73d dcd5 37be 8ddb 88be 198f b83d
00000020: 6285 8d3d 2f59 b9bd 2c0c c73d e231 d23c
00000030: fdf3 a5bc bb4c be3d 5cfe 43be 9c0f 153e
00000040: c3d2 74be 89dc a5be 1a2f aebd 99f0 debe
00000050: c264 94bd 3809 05bf 24d6 7ebe 6aea 033f
00000060: f6b9 0d3e 4bde 54be fed5 95be 4be1 04be
00000070: 232b 583d 5883 dcbd 93f3 9e3d 4cd0 d7bd
00000080: 2b73 243d 6d65 783e ffb5 17be a72c b0bd
00000090: 017c 893a f2f8 62be 58b4 60be 51ab 5dbe
000000a0: 6921 013e d128 4ebe dec5 babd e579 9c3d
000000b0: 481f 5abc 0e6e 1e3d 5bd4 c43d 40db 403e
000000c0: 0da8 60be 1275 66be c928 44be 8ce0 97bd
000000d0: 211a ba3d 21b7 213e 01b3 c2be c924 96be
000000e0: 5379 823d 9524 2bbf 9088 11bf 819d efbb
000000f0: e743 a1be 53fb c23e 09ac 00be fc89 513d
00000100: 0954 783e e59c 0bbf 36aa de3d 5050 5d3e
00000110: 081e 95be a8b2 98bc 2033 b73e 76c0 01bf
00000120: 4d80 e33d 2008 debd 7dcf 13be 1145 83bf
00000130: ef02 7e3e 7f6f 28be 80ab fbbd ec33 b33d
00000140: 5318 b93d b569 08be 9932 283e ca76 d63e
00000150: 231c 53be 1cd3 8f3e 4cba 333d 69aa 943e
00000160: f9c8 89be 27d7 89be 2904 7ebd 0342 583e
00000170: 24d2 2dbe 4bae 5e3e 13ec 75bd 81b3 59be
00000180: ffaa 69bc f6d2 2abe df34 743d 00d5 153e
00000190: 571b 23be 1fcb 64be 6e91 60bc 8a24 dabd
000001a0: 6282 14be 3f2b ea3d 9a66 0e3e bbba 603e
000001b0: 40f1 d4bd f148 f63e 7d7e 33be 4563 2c3f
000001c0: e274 36bd 71ed 35bc 1a41 463e f04f 423e
000001d0: 334e 103f 3196 883d 7b56 853e 4f86 79bd
000001e0: c0d4 e0bc ea20 123d 8df9 353e c6d7 d43e
000001f0: 13ab 2e3e a94e 62bd ce97 22be b387 54be
00000200: e1c2 853d 5c66 0f3f 5768 82c0 e675 9b3e
00000210: 0bcb e6bc 6f47 60bd 0205 a13c 60b0 183d
00000220: 897d 0fbc 969a efbc b0cd d3bb 5482 89bc
00000230: 561b 9b3b 3a6f d53d 8124 cabc 35be a73c
00000240: a790 98bd 80d8 c33e 3cef 49be c79e 0ebf
00000250: 7fdc 31bf c031 823e 8a74 803d f9d7 14bf
00000260: f577 3a3e ec2a 66be 981a 343e 25d5 433e
00000270: eb3e d53e e592 623d f52a 1abe 8ed9 923d
00000280: a78a f73c fec5 a43e 1a87 083e 5925 083d
00000290: e902 a4be 80b7 13bf 6f30 8d3f ddc5 2dbf
000002a0: 1eae 813e a947 713e 82ae 563f 46f5 5abe
000002b0: da07 453e f6c1 b13e 97dd 6cbf 5f8c 203e
000002c0: fd37 743e 6f5a 9bbd e150 0c3d 6eb3 0f3f
000002d0: 5e22 8bbd 303a 923d 7a5c aabd 252c 473d
000002e0: f30a af3c 61db 07be a7e2 63be e6ff f3bd
000002f0: 2ffa 513e 6932 5a3e 8174 553e 0448 eabd
00000300: f117 86bd 9502 e7bc 2ef8 aebd c000 68be
00000310: a4bb cd3d cf67 ffbd a86f 39be caf9 25be
00000320: fae4 e1bd 6285 7cbd 07d9 fc3b 7598 4a3d
00000330: 70a8 27be 467d 3e3e fbbd 36bd 3f90 dd3d
00000340: 292a 793d 061f bbbd 4b0a 633c e484 35be
00000350: c7c2 153e 55fe 19be 5e00 aebd 75ec 4cbd
00000360: ddfd 34be 06bd 2c3e 64c9 14be 4b63 e13d
00000370: bda0 563e e747 043d 6004 65bd a141 e6bd
00000380: 4865 663e 8b2b 11be 9b21 3d3d 7210 64be
00000390: 5684 5dbe 1387 3d3e ac6f 0e3e 903c 673e
000003a0: 87df 503e 6d4f 63be a8d4 42bc 5ef7 0cbf
000003b0: 4467 453d 4a7c 24bf d35b 8d3e 7138 99bd
000003c0: f513 cebd 7004 5a3e 6d84 b63e a3d6 96be
000003d0: 7c43 25bf de5d 3e3e 16f0 753e e802 d53c
000003e0: 4555 d5bd 2743 993e 34fd d13e cf6f 50bf
000003f0: 4f71 c4bc 857f 27be 603d 2abc dfdb 78be
-0.05233701 0.27012706 -0.2235454 0.048508488 0.11291043 -0.17952675 -0.26730004 0.09011669
0.069102064 -0.090502135 0.097191185 0.025658552 -0.020257944 0.09291979 -0.19139999 0.14556736
-0.23908524 -0.32394817 -0.08505078 -0.43542936 -0.072457805 -0.5196719 -0.24886376 0.5152956
0.1384047 -0.20787923 -0.29264826 -0.12976567 0.052775513 -0.10767239 0.07761302 -0.10537776
0.040148895 0.24257441 -0.1481552 -0.08602267 0.0010489227 -0.22165278 -0.21943796 -0.21647383
0.12610401 -0.20132758 -0.091197714 0.07640437 -0.013313122 0.038679175 0.09610816 0.18833637
-0.21939106 -0.22505596 -0.19156183 -0.07415876 0.09087015 0.15792514 -0.38027194 -0.2932494
0.06370797 -0.66852695 -0.56849 -0.007312477 -0.31497118 0.3808237 -0.12565626 0.051156983
0.24250807 -0.5453628 0.10872309 0.21612668 -0.29124475 -0.018639877 0.35781193 -0.506843
0.11108456 -0.108413935 -0.14434619 -1.0255452 0.24805807 -0.16448782 -0.122885704 0.08750138
0.090378426 -0.13321574 0.16425551 0.41887504 -0.20616202 0.2809075 0.04387884 0.29036263
-0.26911142 -0.2692196 -0.062015686 0.21118931 -0.16974694 0.21746175 -0.06003959 -0.21259882
-0.01426196 -0.16682038 0.059620734 0.14632034 -0.15928398 -0.2234311 -0.013706548 -0.106515005
-0.14502862 0.1143403 0.13906327 0.21946232 -0.10397577 0.48102525 -0.1752872 0.67338973
-0.044545062 -0.011103974 0.19360772 0.18975806 0.5636932 0.06669272 0.26042542 -0.060919102
-0.027445197 0.03567592 0.17770977 0.41570872 0.17057447 -0.055250797 -0.15878221 -0.2075489
0.06531311 0.56015563 -4.075237 0.30363387 -0.02817299 -0.054755624 0.019655708 0.03727758
-0.008757957 -0.029248517 -0.006463729 -0.016785778 0.0047334833 0.104216054 -0.02467561 0.02047644
-0.07449465 0.38251114 -0.19720167 -0.55711025 -0.69477075 0.2542858 0.06272228 -0.5814205
0.18209822 -0.22477311 0.1758827 0.19124277 0.41649565 0.05531587 -0.1505545 0.071704015
0.030217482 0.32182306 0.13332787 0.033238743 -0.3203347 -0.57701874 1.1030406 -0.6788004
0.25328153 0.23562492 0.8386003 -0.21382627 0.19241276 0.34718293 -0.9252562 0.15678547
0.23849483 -0.07585608 0.03425682 0.5613316 -0.067936644 0.07140005 -0.0831842 0.048626084
0.021367526 -0.1326728 -0.2225443 -0.11914043 0.20505594 0.21308292 0.20845224 -0.11439517
-0.06547535 -0.028199473 -0.0854343 -0.22656536 0.10045555 -0.12470972 -0.18109 -0.16208568
-0.11030002 -0.06165064 0.0077163014 0.0494618 -0.16372848 0.18602476 -0.044614773 0.108185284
0.060831223 -0.091367766 0.0138574345 -0.17726475 0.14625083 -0.15038426 -0.08496164 -0.05003019
-0.17674966 0.16868982 -0.1452995 0.11005267 0.20959754 0.032295134 -0.055912375 -0.112429865
0.22499573 -0.14176767 0.046174627 -0.22271898 -0.21632513 0.18508558 0.13909787 0.22581697
0.20397769 -0.22198267 -0.0118915215 -0.5506495 0.048194185 -0.6425215 0.2760912 -0.074814685
-0.100624 0.21290755 0.35647908 -0.2946063 -0.645561 0.18590495 0.24017367 0.026002362
-0.104166545 0.29934046 0.4101349 -0.81420606 -0.023979811 -0.16357239 -0.0103906095 -0.24302624

network.MLP.0.bias f4 [64]
00000000: 1451 273e 9be0 073d bf85 32be 1027 983e
00000010: 7c84 8e3e 4216 bbbd 7f65 7d3e 356b 70bf
00000020: 6618 983e 0a8e c83e 297c 86bd 89c4 ee3e
00000030: 4b3f 8fbd efda 52be 5063 e33e dd44 c6be
00000040: 1f0f 6abf d509 163d a45f b63e fd59 22bf
00000050: daea 61bc d132 0dbf 0903 7bbd b796 d43e
00000060: 4e7a b33e 14e8 88be fdaf f83d 5c10 fc3d
00000070: 74ee a83e 369d be3d 699e 903e 7b2e 523e
00000080: e801 72be 303a ad3e 2d82 ec3e 18a5 80be
00000090: b5f3 c53e 99ff 06ba 490a 62be 8011 ad3e
000000a0: c003 fdbb 8b61 70be 90da 40be f9a8 02bf
000000b0: da14 343f b705 893f 3cf7 72be 785a 4d3f
000000c0: ea97 12bf c27b bb3e ae79 9a3e 0afd d6bd
000000d0: 1031 043f 17cb 74be ddc6 ae3e e7f0 dcbe
000000e0: 2553 6bbf 50ad cf3d 5f57 99bc a94d 19be
000000f0: 7bf9 07bd f7ce d63e 42be 973e 49de cb3e
0.16339523 0.033173185 -0.17433833 0.29717302 0.27835453 -0.09135105 0.24745749 -0.93913585
0.29706115 0.39170867 -0.065666504 0.4663432 -0.06994494 -0.20591329 0.44411707 -0.38724414
-0.9142932 0.03663047 0.35619843 -0.6341856 -0.013788903 -0.55155665 -0.06128219 0.41521236
0.3505425 -0.26739562 0.12142942 0.12307808 0.32994425 0.09307329 0.28245857 0.20525543
-0.2363354 0.33833456 0.46193066 -0.25125957 0.38662496 -0.00051497814 -0.22074236 0.33802414
-0.0077213943 -0.2347471 -0.18833375 -0.5103908 0.70344317 1.0704869 -0.23727125 0.8021617
-0.5726305 0.36617857 0.3017096 -0.10497482 0.51637363 -0.23905598 0.34136096 -0.43152544
-0.91923743 0.101404786 -0.01871842 -0.14971031 -0.033196907 0.41954777 0.29637343 0.39818028

network.MLP.2.weight f4 [64, 64]
00000000: 218c 293e 6fc9 3bbd 4a1e fdbd d135 8cbe
00000010: 8a08 063e 900c bf3c 269f 9d3e 377e bebe
00000020: 6f29 9d3e cf73 61bd bed7 9bbd 10e9 fd3d
00000030: 62d0 ccbd a86a 023e a909 8a3e 0216 e9bd
00000040: 38ee 40be 269f 083e b72a 203d d374 c1bc
00000050: 74e1 0cbd 2e4b 3f3d 541e 08bd 6c16 8c3d
00000060: 596a c23d 3731 493e b19f 903d 32f4 293e
00000070: 4bf0 b03e 57f4 7b3e 2004 29be e4bb 283e
00000080: 180e 1abf d741 6e3e 4db6 1abd 1734 6e3d
00000090: 3272 04be eac9 a13d ea60 583e 53c3 fc3d
000000a0: 8dfc e33d b070 133e ecda fabd 3c71 34bd
000000b0: d217 a4bc 4302 88be 517e 5abc fcec 6abd
000000c0: 8126 2e3e 7e0c e5bc e15f a73d 8b25 ab3d
000000d0: 2128 de3d e443 013e bb75 8f3d 8924 3d3e
000000e0: 24e2 0bbf d062 44bd b48c 6a3f 9bb5 b33c
000000f0: 7cab b0bd 7e19 27bd 3a0e 83be 6614 343e
00000100: f489 85bd c372 a93d 7ef5 80bd 4ae6 8fbe
00000110: 8b46 57bd 74d1 9bbd c75c c0bd b6e9 ad3d
00000120: c374 933e 9e66 94be 502a 9fbc d73d e9bd
00000130: 1ccf fabd a117 0fbe ad54 58be a8d7 1d3e
00000140: 084f 293e f0ca 06bc 53b3 13be 9ba7 81bd
00000150: bed0 ffbd 1299 36bd 885a c9bd 9d47 703d
00000160: 4213 78bd 70d9 8dbd 9007 b6bd f0f5 33bf
00000170: a2a8 013e 645a bbbe 31a9 573e 9621 cd3c
00000180: daa3 013f 9f78 003e b81b fdbc c59e 813e
00000190: 91ec 953e 50f9 f2bd db61 11bd 55dd c83d
000001a0: d881 16be 2351 b13e 4c1d 053d 14d4 7e3c
000001b0: fcf3 47bd 8f43 c8be 38a1 2b3e bb53 05bc
000001c0: 121b 243e 8b88 923e cdb7 8b3e 325a 213d
000001d0: 3b79 823e ac75 00be b881 02be 281f 103e
000001e0: db87 84be 4821 5bbe ceb9 f5bd 75c5 643e
000001f0: 10f1 e43c 6044 e63d 1b43 0f3e 1082 90bd
00000200: c076 23be 8c62 d33c f887 9dbc 5e87 d03d
00000210: c80c 3a3d a0a2 053d 9cc3 b13e 547e 833d
00000220: 3dc5 54be 0400 72bc 70ad ea3d c256 dbbe
00000230: 08f5 fa3c 0659 abbd 78c4 e8bd b2e2 9f3d
00000240: 8a7b cabc af31 5dbe 7c42 1b3b cdc9 e6bd
00000250: ac9e c73d e3e5 70bd 507f e0bd 40a0 0abe
00000260: ee39 d83d 7f40 93be cefa 8e3c 7859 edbe
00000270: b299 093e c9ab 6abe c81c 29be 7eb3 51bd
00000280: e137 29bf eb7f cdbc 9c18 053e 4117 75be
00000290: 5d8b 50be 4da6 ea3d 9fff b93b 2c1b 64be
000002a0: 5b18 7a3e 2f03 9cbd c423 1d3d 187c 363d
000002b0: 99ca 2f3b 4bc8 d23e 4948 d6be 32a4 0d3d
000002c0: d8c6 25bd 41e3 8f3e 4ba7 62be a594 853e
000002d0: 4c2d 29bd c02e 8e3d 9e92 63be 7344 fc3d
000002e0: b628 033e 10a4 373d 0616 aabc 8cfa 3cbe
000002f0: 263e 89bd 3e01 953c 7936 66be f842 aabe
00000300: d55e 23be bf1c 2ebe 2c21 fa3d fee5 9f3c
00000310: 2b14 a1bd a0b0 d1bc d286 a8bd d508 1b3f
00000320: 9d02 d6bd de27 ef3e a887 09bd 94a8 0fbe
00000330: 44c2 e43d 2ebf 0a3e cf62 bbbc db90 8cbd
00000340: 2165 bfbb e672 5a3d 2224 4d3e 24c4 613d
00000350: 0024 b23c a465 b33d 423b dabd d165 9ebe
00000360: b0ea 513d 7df6 19be 257d 8cbe f71a 143f
00000370: 2243 6ebd 0e9e bc3e 3066 c4bc f06f a8be
00000380: 2647 7c3f cc0d 363e 9191 05be 41bf 243e
00000390: 1c1d 153e 3638 88bd 9f04 1dbd 4291 80be
000003a0: 6c20 493e 6e0e d7bc dc71 3d3d d9ce 46bb
000003b0: f896 09be 2909 c1be d553 753e 4679 7ebd
000003c0: cab5 8d3e f45a d2bd 4a5f 7a3d af5d 9e3c
000003d0: 9fe5 8abd 0215 89be fccb 83be 5944 bb3b
000003e0: cb73 bdbd d52e 26be 0266 edbe e38e 133e
000003f0: 4077 57bb 0569 d63d cc5f 9fbc 65b7 a3bd
0.16557361 -0.0458464 -0.12359293 -0.2738481 0.13089195 0.02332142 0.30785483 -0.3720567
0.30695674 -0.055042084 -0.07609509 0.12397969 -0.10000683 0.12735999 0.26960495 -0.11381151
-0.18840873 0.1334196 0.039103236 -0.023615276 -0.034394696 0.046702556 -0.03323205 0.06840214
0.094929405 0.1964768 0.07061709 0.1659706 0.3455833 0.24604927 -0.1650548 0.16477925
-0.60177755 0.23267303 -0.03777151 0.058155145 -0.12934187 0.0789984 0.2113072 0.12341943
0.111321546 0.14398456 -0.12248787 -0.0440533 -0.02003089 -0.26564226 -0.01333578 -0.057354912
0.17006876 -0.027960058 0.08172584 0.0835677 0.10847498 0.12623554 0.07004877 0.18470968
-0.5464194 -0.047945797 0.91620946 0.021937182 -0.08626458 -0.040795796 -0.25596792 0.17585906
-0.06520453 0.08273842 -0.06296824 -0.28105384 -0.05255751 -0.076083094 -0.09392696 0.084918424
0.2880002 -0.2898454 -0.019429356 -0.11388748 -0.12246534 -0.13973857 -0.21126051 0.15414298
0.16534054 -0.008227095 -0.14423876 -0.06330796 -0.12490986 -0.044579573 -0.098317206 0.058662046
-0.06056524 -0.069262385 -0.08888161 -0.70297146 0.12661985 -0.365924 0.21060635 0.02504043
0.5064064 0.12546013 -0.030897006 0.25316444 0.29282048 -0.11863959 -0.035493713 0.09807841
-0.14697969 0.34632215 0.032498643 0.015553493 -0.048816666 -0.39114043 0.16760719 -0.008137639
0.16025952 0.286198 0.27288666 0.039392658 0.25483117 -0.12544888 -0.12744796 0.14074385
-0.258849 -0.21399415 -0.1199833 0.22340949 0.027946979 0.1124351 0.13990442 -0.070560575
-0.15963268 0.025803827 -0.019229874 0.10182069 0.045422345 0.032625794 0.3471955 0.064205796
-0.20778365 -0.014770512 0.11458862 -0.42839628 0.030634418 -0.08366589 -0.113655984 0.078069106
-0.024717111 -0.21600984 0.002369075 -0.11268959 0.09747061 -0.058812987 -0.10961783 -0.13537693
0.10557924 -0.28760144 0.017453577 -0.46357322 0.13437536 -0.22917093 -0.16514885 -0.051196568
-0.6610089 -0.02508541 0.12997669 -0.23934652 -0.20365663 0.114575006 0.0056762244 -0.2227599
0.24423353 -0.07617795 0.038364187 0.04455194 0.0026823638 0.41168436 -0.41852024 0.034580417
-0.040472835 0.28103068 -0.2213413 0.2608997 -0.041302964 0.069425106 -0.22223899 0.12317743
0.12808499 0.044834197 -0.020762455 -0.18454951 -0.06701307 0.018189069 -0.22481717 -0.33254218
-0.15954144 -0.17003153 0.12213358 0.019518849 -0.07865175 -0.025596917 -0.0822884 0.6056035
-0.10449717 0.46710104 -0.033576638 -0.14029151 0.11169866 0.13549492 -0.022874264 -0.068635665
-0.005840913 0.053332232 0.20033315 0.055118695 0.021745682 0.08759621 -0.10655834 -0.30937055
0.051249206 -0.15035434 -0.27439228 0.57853645 -0.05816949 0.36839336 -0.023974508 -0.32897902
0.98546064 0.177787 -0.1304381 0.16088583 0.14561886 -0.066513464 -0.038334485 -0.25110823
0.19641274 -0.026251998 0.046251163 -0.0030335693 -0.13436496 -0.377023 0.2395776 -0.062127374
0.27677757 -0.10271254 0.06112603 0.019331781 -0.06782078 -0.2677384 -0.25741565 0.005714935
-0.092506014 -0.16228803 -0.46366888 0.14409976 -0.0032877475 0.1046925 -0.01945486 -0.07993964

network.MLP.2.bias f4 [64]
00000000: de41 dd3d f09c 2abe bfa5 d7ba 2cf0 68be
00000010: 50a5 143e 1847 113e 37d1 85be 078f 1b3e
00000020: ed99 04bd 10c1 57be 2144 2dbd ac24 12bf
00000030: fd68 71bc db37 4fbd fce2 a4bd a713 94be
00000040: 95f6 3a3e a32d b33d 7d96 d6bd 8eb8 0440
00000050: 0bfb a23d 608b 5e3f ce19 4b3d 7d7f 303e
00000060: ac32 1cbe 1ad6 693c 18a8 f7bd 0307 8b3d
00000070: c2e8 443e 9393 1d3e e016 cb3e 55d6 a23c
00000080: 5f41 03be 268b 2a3c adf3 10bc 0a22 97be
00000090: 594b babf 0385 6a3d 2cdd 233e 448a d3bc
000000a0: ec1d 803c ba24 77bd fe88 b53f 366d adbe
000000b0: cb53 3abd 17bd 103e 2f44 70bf 1a38 4cbe
000000c0: e768 2a3d 9a16 00be 6959 db3b f0ed 55bc
000000d0: 6ecf b7bd 8e5f 773d 7b7b 42be b58e a8bc
000000e0: fdc3 06be 3b69 253e c9df e3ba 6389 ed3d
000000f0: 342a 583e 5ce5 95bf 66f6 aabd eeed 913c
0.10803579 -0.1666143 -0.0016452594 -0.22747868 0.14516187 0.14187276 -0.2613618 0.1519128
-0.032373358 -0.21069741 -0.0423013 -0.57087207 -0.014734504 -0.050590377 -0.08051106 -0.28921244
0.18258126 0.08748939 -0.10477922 2.0737643 0.07958039 0.8693142 0.049585156 0.17236133
-0.15253705 0.014272237 -0.12092608 0.06788447 0.19229415 0.15388326 0.3966589 0.019877592
-0.12817906 0.010409152 -0.008847159 -0.29518157 -1.4554244 0.057255756 0.16002339 -0.025822766
0.015639268 -0.06033776 1.4182432 -0.33872384 -0.045490067 0.14134632 -0.9385404 -0.19943276
0.04160395 -0.12508622 0.006694008 -0.013057217 -0.08975111 0.060393862 -0.18992417 -0.02057586
-0.13160701 0.16153423 -0.0017385419 0.1159847 0.21109849 -1.171062 -0.08347778 0.017813649

network.MLP.3.weight f4 [64]
00000000: 7340 6e3f 2168 a93f 7820 b03f cec5 7d3f
00000010: 5222 ca3f bd23 c63f 9366 ba3f 6e99 a93f
00000020: 8791 ac3f 9e69 e23f 2b7b 8e3f 1da8 203f
00000030: 9db5 ae3f a35d bc3f 8791 8e3f 1680 423f
00000040: bd69 a93f af88 b23f 14fd b93f daad 073f
00000050: ca59 cb3f c576 ca3e 856d a33f e52d 7c3f
00000060: 1c41 ba3f f0c9 c13f e5f9 833f 87d6 963f
00000070: a554 363f 8ad4 813f c457 4f3f 3ec6 c33f
00000080: 8d4f ba3f 8191 923f 995e 9d3f f748 453f
00000090: 34db 4f3f 1357 923f 62e8 aa3f c4a8 553f
000000a0: 5d0d 8f3f b898 a53f 2eec 883e f0e4 8b3f
000000b0: 169d b23f e322 4b3f 038b f33e 939c 9c3f
000000c0: fc02 b63f d985 943f 9076 863f 9527 663f
000000d0: f02f 9c3f 7dff b33f 3f22 863f af91 d13f
000000e0: 137e ab3f 1b4d 763f 74d5 a73f 5790 b63f
000000f0: 87d7 493f 7798 203f 7798 9b3f bcb1 d83f
0.9306709 1.3234903 1.3759909 0.9912995 1.5791724 1.5479656 1.4562553 1.3249948
1.3481911 1.7688482 1.1131338 0.6275652 1.3649174 1.4716076 1.1138161 0.75976694
1.3235394 1.3947963 1.4530358 0.5299965 1.5886776 0.3954374 1.2767798 0.9850753
1.455112 1.5139751 1.0310637 1.1784219 0.7122291 1.0142987 0.80993295 1.5294874
1.4555527 1.1450654 1.2294494 0.7706446 0.8119385 1.1432823 1.3352168 0.8346064
1.1175953 1.2937231 0.2674269 1.0929241 1.3954189 0.7935011 0.47566995 1.2235283
1.4219661 1.1603347 1.0504932 0.8990415 1.2202129 1.4062344 1.0479201 1.6372584
1.339785 0.96211404 1.3112016 1.4262799 0.78844494 0.6273264 1.2155904 1.692924

network.MLP.3.bias f4 [64]
00000000: 99e1 3abd 2f5c 92bd adc5 81bd 0cb1 253e
00000010: c6cf 3cbd 7622 843c 9d7d f2bd 7f4d b0bd
00000020: 7a62 abbc f171 0abd d692 6fbe b189 003e
00000030: eda7 a6bd 9d1b 01be 5e26 14bd 3259 503d
00000040: 7d8f 123d cb56 c2bc 5f3e ad3c bb9b 97be
00000050: 8d30 8bbd e527 e8bd 73da ef3b e97e 713d
00000060: e8dc 20bd b522 be3d 26f6 fc3c 79eb 10be
00000070: 326a 493e 4346 2f3d 6fd1 2ebe e8c5 553c
00000080: d138 38be 38de f9bd 7907 9a3d ec9f 97ba
00000090: 3a57 52bd c40a 32be b4fa 37be d7d9 7cbd
000000a0: dad0 a4bc fa79 f0bc 7f23 dcbe 0dd7 013e
000000b0: 4b80 cbbc 7701 d0bd a638 fbbd 21c7 cfbd
000000c0: 1949 f1bd 2ad3 f33d f010 11be 8f69 f33c
000000d0: 2e77 9dbd 15b1 ca3d a0e6 143d 7e95 80bd
000000e0: 7802 7d3d fc14 e1bd ac26 2e3d f4f4 2bbd
000000f0: fd06 8abe 9d60 6a3d bd64 d7bd 0832 113d
-0.045625303 -0.07146489 -0.06336532 0.1618082 -0.046096586 0.016129714 -0.11840365 -0.08608531
-0.02092098 -0.03380007 -0.23395857 0.12552525 -0.08137498 -0.1260819 -0.036169402 0.050866313
0.035781372 -0.023723027 0.021147905 -0.29611 -0.0679637 -0.11335734 0.0073197423 0.05895892
-0.039273173 0.092839636 0.030879091 -0.14152326 0.19669417 0.042791616 -0.1707208 0.013047673
-0.17990424 -0.12200588 0.075209565 -0.0011568046 -0.051352717 -0.1738692 -0.1796673 -0.061731186
-0.02011912 -0.029355038 -0.4299583 0.12679692 -0.024841448 -0.101565294 -0.12266664 -0.10145403
-0.117815204 0.11905511 -0.14166617 0.02971342 -0.07688747 0.09897057 0.036352754 -0.06278513
0.061769933 -0.109903306 0.04251735 -0.041981652 -0.26958457 0.057221044 -0.10517261 0.035448104

critic.0.weight f4 [1, 64]
00000000: 1fd0 b23c d4e9 85bd 80ae 0bbc 6c77 1cbc
00000010: d005 69bd 3fd2 fdbc ae9c babd 166c 27bc
00000020: 1194 cbbc b427 39bc 5140 63bd 2dd8 54bd
00000030: a4c3 dfbb 0ea9 aabd 59e0 c2bd 957d a2bd
00000040: 6900 9c3d 85fa e2bc 3622 1fbd b00f 2e3e
00000050: 2f5f 2abd 2a5d a63d dc51 8ebc a722 4e3d
00000060: 26f0 46bd d42c 69bd 2317 75bc 9c94 73bd
00000070: f039 913e edf4 213c 844a 9bbc f58b 8eba
00000080: cccd e4bd c2aa 2bbd a661 3abc b203 c4bd
00000090: b0a8 aabe d024 8fbc e723 26bd 66da bebc
000000a0: 22c0 37bc e791 48bd ce5a 65bc 556c c7bc
000000b0: 9146 c7bc 3de0 083c 8516 3fbe 2674 57bd
000000c0: 707a 16bd ead0 50bc 6178 57bd 790d 0abd
000000d0: f2ab 93bd da97 cdbd 2d04 4dbd e45f f8bc
000000e0: 61c1 94bc 67f0 12bb b849 06bd 9af1 49bd
000000f0: d8b3 51bd 3abb 1cbe e7b7 84bd 6982 b7bc
0.021827755 -0.0653874 -0.008525491 -0.009549957 -0.05689031 -0.030984042 -0.091119155 -0.010218641
-0.024850877 -0.01130097 -0.05548126 -0.051963974 -0.006828742 -0.08333026 -0.09515447 -0.07934109
0.07617266 -0.027707348 -0.038850985 0.16998172 -0.04159468 0.081232384 -0.017373018 0.050326016
-0.048568867 -0.056927517 -0.0149591295 -0.059467897 0.28364515 0.009885055 -0.01895643 -0.0010875451
-0.11172065 -0.041910894 -0.01137582 -0.09571017 -0.33331823 -0.017473608 -0.040561583 -0.0232975
-0.011215242 -0.04896727 -0.0139987 -0.024343649 -0.02432564 0.008354244 -0.18660934 -0.052601002
-0.03673786 -0.0127451215 -0.052605037 -0.033704255 -0.0721053 -0.10038729 -0.05005281 -0.030319162
-0.018158616 -0.0022421123 -0.032785147 -0.049302675 -0.051196903 -0.15305796 -0.06480389 -0.022401052

actor.0.weight f4 [22, 64]
00000000: fb54 e8be 3e2e d13e 5db4 ae3d 0296 d9be
00000010: c41d 4ebe 52ad e1be 0aff c1be ef9a 823e
00000020: 7b4c 493e 313f 2d3e 5249 293f f171 dfbe
00000030: 4dbb de3e af61 bf3e 9fbf 8e3d d97b 52be
00000040: d563 1d3e b1e7 e93d c05f 7fbd bc02 513d
00000050: ec21 86be 8d3a f4bd 5cb7 06bd b3eb 7cbd
00000060: 98d7 153f 1bc5 97be cfba 8ebe d497 92be
00000070: 9ed4 d43d 7add 4abe 1124 583d d207 5a3e
00000080: f2a5 d2bd b1a3 a3bd 342f 403e 86cc 28be
00000090: b50b dabb 82bb 8c3e 1dab 6e3e 3cb0 e83e
000000a0: 988f 9abe 29f1 91be 8528 96bc ae2c 89be
000000b0: 224f 9ebd 8669 ec3d 34c1 1cbd 9363 fc3d
000000c0: c63d 89bc 79df 39be 5c19 7c3c 63cb 69bd
000000d0: 988d c83d b8b6 7dbe 7ebe 223d 5445 c73e
000000e0: 184a 403e ef20 ad3e 769d a13c 1203 90bd
000000f0: 075c b43e 3af6 10bd 9a85 163e 3b01 7e3a
00000100: 92a0 5cbe 7dc9 69be 3af7 263e c208 853d
00000110: 6a39 ad3d f69c 3dbf 7c1e 123e c848 87bc
00000120: 4c12 7dbe 366f 873e dae5 db3e 1739 cc3d
00000130: 336c 13be 07ba 2fbe e201 493e a89d 28bd
00000140: 1190 b3be 216d cf3e d74a 203f 4a5d c2bc
00000150: feed da3d 9bf6 18bc 5cf0 b83c 59d1 44bd
00000160: 6d80 e6bd 6a0d b73e 24a9 de3b 59df 173e
00000170: 460b 4bbd ab6a 133e d77b f43b fb46 63be
00000180: 6230 bfbe 5265 7c3e 3d09 5dbe 7e46 b6bc
00000190: e2c6 483c 7ffc 8e3e ced1 48bd 088f 1abd
000001a0: 77ae 683d e874 763d d403 193e de52 1cbe
000001b0: 12c7 55bd 651a 1fbe c557 833d 9df3 6fbb
000001c0: 1160 4ebd c231 52bd 7f9b 61be 9019 8dbd
000001d0: c2a6 643e 394e b9be 4268 80bd da1d 1e3f
000001e0: c9bc 38ba 594d 123e bd8b 443e 3e88 d7bd
000001f0: 1b67 833e 4097 83bd fdb7 cd3e 1fd6 213e
00000200: 60e0 75bd 1f88 67be 3a85 b5bd 951e 823e
00000210: 1bb3 48bd 1f41 d93c 4e6e 87be bf1a d7be
00000220: a459 51be 7f98 53be eab4 2abe 3bc8 3b3c
00000230: 0a0b a0be af70 563e 425a df3e b7ab f2bd
00000240: c234 7f3e 5866 db3e 8f54 b9bc 9b37 903d
00000250: b02e a5be 8e7e 1e3d 34e8 36be 23d1 c6be
00000260: 71c7 94bd d4c7 a1bd 1522 a63d 2b93 bc3e
00000270: 0cd2 14bd 8b4c a8be 14e9 9abe 8438 9c3d
00000280: eea7 43bf c201 ca3e 9cf1 0f3f 97f7 693e
00000290: 07f8 4cbd a7b3 043e 5370 0e3e 4ccf 833e
000002a0: 8942 f5ba ca87 85be 9946 6cbd 1068 a03e
000002b0: 605a 533e 7415 b3be d886 263d 213f 913e
000002c0: 409e 96be fec0 b33e 17c5 c93d 612e 673d
000002d0: 284b 033e da54 e73d ecf2 bdbd c1e7 2c3e
000002e0: 3053 b53e 28b7 e33e 8cf0 0cbf 4b62 bf3d
000002f0: 7e45 86bd 7508 c2bd 8992 70be ce7c c439
00000300: 79e2 283d 2af9 a7be 4e19 183f a1f6 81bd
00000310: 2ef7 a4be c4ae 72be 7313 bd3e d9a0 92bd
00000320: d05c f4bd c4bc 703e 01ad 00be 41b0 563d
00000330: 4643 1b3e 9611 4d3e 4638 ba3d 0156 8c3e
00000340: 8473 0abf 5c8f 1a3d dbd6 ae3d 8c08 4cbc
00000350: 91c8 31be e6c6 52bd 541a 39bc d93c fa3d
00000360: 34d9 493e e714 da3d 8638 6fbd b016 033e
00000370: 32af e53c 8b68 e93c 43da 1d3e 8c38 333f
00000380: 66ed 5d3e f670 ae3c 2f56 2abe 8870 98bd
00000390: e81d c3bc 5a58 173e f082 223e 5b58 89bd
000003a0: af50 bb3e daa3 00bf c154 8ebd 5024 e3bd
000003b0: 838d 75bd f55a 85be e87a fdbc 9e4a 80be
000003c0: ffb4 873d 7545 cd3d d508 a5be a7b6 493e
000003d0: 7e7f b63e 1286 d9be df82 20be 265a b73e
000003e0: 7e80 d53e 929a 333d 834a cabd 583b 49be
000003f0: b4b4 22be d268 8f3d 1b87 d2bc 0617 d7bc
-0.45377335 0.40855592 0.08530495 -0.4249726 -0.20128542 -0.44077545 -0.37889892 0.2550883
0.19658081 0.16918637 0.661275 -0.43641618 0.43502274 0.37379214 0.069701426 -0.20555057
0.15370114 0.11421145 -0.062347174 0.051028 -0.26197755 -0.1192523 -0.03288971 -0.061748218
0.58532095 -0.29642567 -0.278769 -0.2863146 0.10392116 -0.19811049 0.05276877 0.21292046
-0.10285558 -0.07990206 0.18768007 -0.1648427 -0.0066542276 0.27486807 0.23307462 0.45446956
-0.30187678 -0.28504303 -0.018329868 -0.267919 -0.07729937 0.115435645 -0.03827019 0.1232368
-0.016753089 -0.18151654 0.0153869055 -0.05707873 0.09792632 -0.24776733 0.03973245 0.3892008
0.18778265 0.3381419 0.019728404 -0.070318356 0.3522646 -0.03539107 0.14699402 0.00096895144
-0.21545628 -0.22830768 0.16305247 0.06495811 0.084582165 -0.7406763 0.14269441 -0.016514197
-0.24714011 0.26452035 0.429488 0.099718265 -0.14396743 -0.17160808 0.19629624 -0.041165978
-0.3507085 0.40512946 0.62614197 -0.023726124 0.10689925 -0.009336139 0.02257555 -0.048051212
-0.11254964 0.35752422 0.0067950655 0.14831294 -0.049571298 0.1439616 0.007461052 -0.22195046
-0.373416 0.24648026 -0.21585555 -0.02225041 0.012254449 0.27927014 -0.04902821 -0.03773406
0.056807008 0.060170084 0.14942867 -0.15265986 -0.0521918 -0.15537412 0.06413225 -0.003661371
-0.050384585 -0.051316984 -0.22031973 -0.06889641 0.22329238 -0.36192492 -0.062698856 0.617643
-0.0007047174 0.14287318 0.19193931 -0.10524033 0.256646 -0.06425333 0.40179434 0.15804337
-0.060028434 -0.2261052 -0.088633016 0.25413957 -0.048998933 0.02652031 -0.26451343 -0.42012593
-0.20444351 -0.20663641 -0.16670576 0.011461313 -0.31258422 0.20941423 0.4362355 -0.11849158
0.2492247 0.4285152 -0.022623328 0.07041856 -0.32262182 0.03869491 -0.17862016 -0.38831434
-0.07264603 -0.07899442 0.081119694 0.3683103 -0.03633313 -0.32870898 -0.3025595 0.07627967
-0.76428115 0.39454466 0.5622804 0.22848354 -0.050041225 0.12959157 0.13910036 0.25744092
-0.0018711846 -0.2608016 -0.057684515 0.31329393 0.20639944 -0.34977305 0.04065594 0.28368476
-0.2941761 0.3510818 0.09852045 0.056440715 0.12821639 0.11295481 -0.09274849 0.16885282
0.3541503 0.44475675 -0.55054545 0.0934492 -0.06556223 -0.09474269 -0.23493399 0.0003747702
0.041231606 -0.32807285 0.5941361 -0.06345869 -0.32219833 -0.2369948 0.369289 -0.071595855
-0.11931765 0.23509508 -0.12565996 0.052414183 0.15162382 0.2002624 0.090927646 0.27409366
-0.5408251 0.037734374 0.08537074 -0.01245321 -0.17361666 -0.051459216 -0.011297781 0.12218637
0.19711763 0.10648518 -0.058403514 0.12801623 0.028037641 0.028492233 0.15415291 0.7000816
0.21672592 0.021294098 -0.16634439 -0.07443339 -0.023817971 0.14779797 0.15870261 -0.067063056
0.36584994 -0.5025002 -0.06949759 -0.110909104 -0.05994941 -0.26045957 -0.030942395 -0.25056928
0.06626319 0.100230135 -0.322333 0.19698583 0.35644144 -0.424851 -0.15674923 0.35810965
0.41699594 0.04384858 -0.09877493 -0.19651544 -0.15889245 0.07002415 -0.025699189 -0.026256096

actor.0.bias f4 [22]
00000000: fcf3 68bd 6867 bd3c 4667 343d a82f 87bd
00000010: c490 a3bd 590a ad3b b705 be3b 51cf e83b
00000020: 4fcb 133e aa86 ff3c 1a9b 57bc a477 85bd
00000030: 9384 0fbd e951 2fbd 4486 483c 0db8 2f3c
00000040: 9137 13bd d560 82bb b418 38bd b3a7 f2bd
00000050: 0c5a ef3d dcca 103e
-0.056873307 0.023120597 0.0440438 -0.066008866 -0.07986596 0.0052807746 0.005799021 0.007104792
0.14433025 0.031192143 -0.013159538 -0.0651696 -0.035038542 -0.042802725 0.012239043 0.0107250335
-0.035941664 -0.0039788284 -0.044945434 -0.11848392 0.11687097 0.14139885
