paper/training_results/seed-4/momarl/checkpoints/mlp_(negotiation=False)_(num_agents=12)_(window=False)_(reduced_space=False)_(fixed_savings_rate=False)_(rewards=['inverse_global_temperature', 'global_economic_output'])(wgen=uniform)(num_ensembles=1)(seed=4)_2025-01-16_22:06:18_w=[0.1225 0.8775].pt (torch, 38168 bytes, 9 tensors)

network.MLP.0.weight f4 [64, 18]
000000 04 36 ab bd fd 9f aa bc c4 6e d7 bd 03 60 b1 3d
       -0.08359912 -0.020828241 -0.10519174 0.08660891
000010 84 83 b8 bd 80 01 3e be b7 d8 12 3d b0 70 4d bd
       -0.090094596 -0.1855526 0.035851207 -0.050156295
000020 6e 90 be bd f7 d1 1f be 6c 45 47 3e 9b be 2c bd
       -0.093048915 -0.15607439 0.19460076 -0.042173963
000030 ee d5 5e bd 9f 66 9a bc 77 d4 88 bd 68 51 bc bd
       -0.054403238 -0.018847762 -0.066811495 -0.091952145
000040 ca 46 8e bd 21 17 43 bd fa d5 51 3c db b4 c3 be
       -0.06947096 -0.04762948 0.012807364 -0.3822392
000050 65 92 63 bc 9f 5f 57 3d 0d cf 6f bf 89 9d 27 3e
       -0.013889884 0.052581426 -0.9367531 0.16368689
000060 e6 d2 72 bf 9d 5e 5f 3e a7 63 fe be 16 73 0c bf
       -0.94853055 0.21813436 -0.49685404 -0.5486311
000070 b0 66 a4 bd 09 52 f9 bd fb 8f a5 3e cf 6d de be
       -0.080273986 -0.1217385 0.3233641 -0.43443152
000080 3f 9c b1 3e 14 bd 31 bf 34 5c b1 3e ab 67 99 3e
       0.3468952 -0.69429135 0.34640658 0.29961905
000090 d6 ce 0e be a9 9c 74 bd 7f 17 e6 3d cd dc ed 3e
       -0.13946089 -0.059719715 0.1123495 0.4645752
0000a0 92 c9 89 be cd 3b 94 3e 81 e3 78 3d b2 d9 43 be
       -0.26911598 0.28951874 0.06076384 -0.19126013
0000b0 9e 3b e0 bd 2e 72 c1 bd 3b 8b 90 3d 09 02 31 3e
       -0.10948871 -0.09445606 0.07057806 0.17285933
0000c0 6d 6c 3f 3e 15 18 00 3e 81 76 58 3e a6 36 c4 bd
       0.18693705 0.12509187 0.21138956 -0.09580736
0000d0 03 d6 79 3d e8 fb 13 be c8 1f e9 bb dd 2f 7b 3e
       0.060995113 -0.14451563 -0.0071143843 0.24529977
0000e0 5b 9d 04 3d a9 ea 2d bf 2b 60 5d 3f b4 5f 17 bf
       0.03237663 -0.6793619 0.86474866 -0.59130406
0000f0 06 c8 5d 3c 2d d5 a4 3d fa 31 29 3e 57 59 02 3d
       0.013536459 0.080484726 0.16522971 0.031823482
000100 70 e6 2d bd f6 a4 95 3e d3 84 3d 3d 0e 0c 30 3d
       -0.04245609 0.29227418 0.04626925 0.042980246
000110 06 cf 2f 3e cb d7 bf 3d 56 88 e8 3d d2 7f ac bd
       0.17168817 0.09367331 0.11354129 -0.08422817
000120 31 1d 9b bd 2f 2b 1e be 76 1d 35 3d 03 e9 8b bf
       -0.07573927 -0.1544616 0.04421755 -1.0930485
000130 83 3f 47 3f ea bd 07 3e a0 fa 81 3d 9b 93 e7 3e
       0.77831286 0.1325604 0.06346631 0.45229802
000140 b1 5f 3a 3e c9 ce 9c bd c5 b3 17 3d e0 62 04 be
       0.18200566 -0.07656629 0.037036676 -0.12928343
000150 4e 83 55 3d 1f 55 3f 3d 87 e9 86 3b 4d a4 8e be
       0.052127175 0.046712037 0.004117194 -0.27859727
000160 e4 65 76 3d e6 cb 74 3d a3 7b 26 be 92 12 3c be
       0.060155764 0.059764765 -0.16258101 -0.18366459
000170 e5 ad 1a 3e a8 55 2b 3c a7 cd 30 3f 1b 4a d9 be
       0.15105398 0.010457434 0.690638 -0.4243935
000180 56 2f 40 3e 84 eb a1 3b 75 1f 65 bf 04 dd 6f be
       0.18768057 0.0049414057 -0.89501125 -0.23424155
000190 38 68 dc be c9 a8 cf be 29 f7 82 bc 6c e0 d2 be
       -0.43048263 -0.4055846 -0.015986996 -0.41186845
0001a0 8f 73 97 3e 24 7a 05 3e 46 05 05 bf d5 c9 03 bf
       0.29580352 0.13034874 -0.5196117 -0.51479846
0001b0 16 a8 a9 be 01 8a 8c bf e5 7e 5f bc d6 da b2 3f
       -0.33136052 -1.0979615 -0.013641094 1.3973033
0001c0 b8 28 23 bf 06 16 cf 3e a2 f1 28 3d 28 37 ab 3d
       -0.63734007 0.4044649 0.041246064 0.083601296
0001d0 8e 25 01 3e 37 9f 4e 3c fc c7 98 bd 38 ae 45 bd
       0.12611982 0.012611202 -0.07460019 -0.04826185
0001e0 9f 07 3e 3d 93 04 ef 3d b6 f4 e6 3d 50 f9 e9 3d
       0.046393987 0.11670794 0.11277144 0.11424506
0001f0 a8 78 dd 3d 4a 97 38 3e 73 87 4d be 51 2d 1e bf
       0.10814029 0.18026462 -0.20071201 -0.617879
000200 58 69 2d 3e fe 06 e7 bf 26 a6 2f 3e 16 8a 28 bf
       0.16934717 -1.8049009 0.17153224 -0.658357
000210 03 ec 8d be 07 11 f1 bd 46 84 d2 3b 05 bd 0b be
       -0.27719125 -0.11770826 0.0064244596 -0.13646324
000220 4a 40 65 bb 60 3d 98 bc 7f 4a 8f 3e 56 a6 1d be
       -0.0034980946 -0.018583953 0.27986524 -0.15395483
000230 2f 13 bf bd da 35 11 3e 7a 2c 5f 3d b5 f6 31 be
       -0.09329831 0.14180699 0.054485776 -0.17379268
000240 2b 31 37 3d 3f e8 5f 3e e3 ad 59 3c ec 2b 01 c0
       0.044724625 0.21865939 0.013286087 -2.0183058
000250 34 22 42 3d 00 8e e0 be 57 90 2a 3e 4a d9 6d be
       0.0473959 -0.43858337 0.16656624 -0.2322742
000260 02 01 58 3e 95 4e 3d 3e cb 4f 56 3e 1c c7 20 be
       0.21094134 0.18487008 0.20928876 -0.15700954
000270 2a 67 56 3d 32 96 36 3d b6 54 a2 bc 9e 6f 46 3e
       0.05234448 0.04457683 -0.019815784 0.19378516
000280 96 aa 50 3e 2d 1f a2 3e 44 5e 1d be 9b 76 95 bd
       0.20377573 0.3166441 -0.1536799 -0.07298013
000290 77 d1 00 3e 08 c6 af bd 71 0e 26 be 99 d9 86 be
       0.12579904 -0.08582693 -0.16216446 -0.2633789
0002a0 f7 b1 ec 3d 43 7f c6 3e b5 20 88 bd 28 db a6 be
       0.115573816 0.38768968 -0.06646863 -0.32589078
0002b0 25 de 22 3f dd 66 6a bf 16 98 d4 3d 0d 83 74 be
       0.63620216 -0.91563207 0.103805706 -0.23878117
0002c0 88 ce 98 be f5 b9 e4 bd ac dc be 3e b0 24 e6 3d
       -0.2984507 -0.11168281 0.37277734 0.11237466
0002d0 bc dc 81 39 74 26 6e 3e 5c 9b 9d bc bb 3e 25 3f
       0.00024769257 0.23256856 -0.01923912 0.64548844
0002e0 f5 1d fb bf 21 e3 29 bf f3 fa fa bd 7d 55 70 3d
       -1.9618517 -0.66362196 -0.12254896 0.058675278
0002f0 f9 e5 1f 3e 23 cd 28 be 14 4d f5 bd 52 69 65 be
       0.15615071 -0.16484503 -0.11977592 -0.22403458
000300 09 c7 3e 3d 5b 9a 31 bf e0 10 61 3e 0e ca 14 be
       0.046576533 -0.6937615 0.21979094 -0.14530203
000310 f9 1f ff 3e 3b 1c bd bd 7c c1 e6 be fa 89 07 3f
       0.4982908 -0.092339 -0.45069492 0.5294491
000320 48 0f 5e 3e 6c 26 66 be a9 fc 97 be 09 8e d9 be
       0.21685517 -0.22475594 -0.29684952 -0.42491177
000330 ac 9e 8f bd 54 8a 9a bc e1 ab 42 be e7 9a 0e be
       -0.07012686 -0.018864788 -0.19010879 -0.13926278
000340 f9 96 f1 bd e9 62 25 be 56 63 ca be e5 70 14 be
       -0.11796374 -0.16151012 -0.39528912 -0.14496191
000350 73 13 56 3e 31 9f b5 bd 7f f9 87 be a6 de 10 be
       0.20905857 -0.08868254 -0.26557538 -0.14147434
000360 25 2c dc 3c dc 58 a1 bf 55 03 f1 bd ce 94 eb bc
       0.026876519 -1.2605243 -0.11768214 -0.028757479
000370 4a 72 4b c0 3a cd 15 3f 91 e8 88 3d 4b 6b 0b bd
       -3.1788507 0.58516276 0.066849835 -0.03403787
000380 47 7c cd 3c b4 3c d3 3c 7f 40 98 bd 54 82 12 3e
       0.025083674 0.025785781 -0.07434177 0.14307529
000390 e9 14 d1 3c 18 e1 ad bb c9 12 89 bd d7 f6 5c 3d
       0.025522666 -0.0053063743 -0.06693036 0.053946342
0003a0 cd aa 0b 3e ca e0 ae bd 5d 58 d2 3d 97 cf 57 3e
       0.13639374 -0.08538969 0.1027076 0.21075283
0003b0 a3 75 b5 be a8 ee b3 3d 84 ca d9 3e 55 52 e2 3e
       -0.35441312 0.087857544 0.4253732 0.4420344
0003c0 44 a2 f5 bc 7a 6a ee bd aa 52 83 be cd b8 bd be
       -0.0299846 -0.116414025 -0.25649005 -0.37055054
0003d0 90 db 33 bd a3 9c 18 be c7 8b 20 bb b8 49 fa be
       -0.043910563 -0.14903502 -0.0024497376 -0.48884368
0003e0 82 d9 ec 3e 0e 23 17 3e 83 bc d9 be ed 3f 3c 3d
       0.46259695 0.14759466 -0.42526636 0.045959402
0003f0 00 66 20 bf 3e 06 e7 3d e7 0e 4a 3e 86 2d 56 bf
       -0.6265564 0.112804875 0.19732247 -0.83663213

network.MLP.0.bias f4 [64]
000000 52 2a 34 bb 9a de 21 be 7f 47 86 bf aa 20 9a 3f
       -0.0027491045 -0.15807572 -1.0490569 1.2041218
000010 ec 0e 78 3e ab 92 49 be a8 32 b8 bd 4f 14 52 3e
       0.24224442 -0.19684856 -0.08994037 0.2051556
000020 ea 58 f0 3e 5d 46 80 be 64 81 de be 81 f3 3e 3c
       0.46942836 -0.25053683 -0.43458092 0.011654736
000030 f9 a7 6e bf 1c 58 3a bf ec 08 03 bc 97 0f 4f 3f
       -0.93225056 -0.72790694 -0.007997733 0.80883163
000040 8d 89 52 3d 71 44 e4 3d 78 be 87 3e 11 38 b5 be
       0.05140071 0.11145867 0.26512504 -0.35394338
000050 f4 75 e8 3e 3e a2 8e b9 87 cf 42 3c 26 6d b4 be
       0.4540249 -0.0002720523 0.011890299 -0.35239524
000060 fd 52 4c bd 8f f7 b3 bd 29 fb 8d 3d 1f cb 1e 3d
       -0.04988383 -0.087874524 0.069326706 0.03876793
000070 5a 75 28 3d 7a eb e6 be d9 bb 20 3f 2f 00 50 be
       0.04112754 -0.4510153 0.6278663 -0.2031257
000080 e4 1e 05 3f 0a f1 88 be 8a fb 84 bf bb 7c 20 3f
       0.5200026 -0.26746398 -1.0389264 0.62690324
000090 bf 72 6c be 06 4b b2 3e b0 06 ba be 9d 5d 20 bd
       -0.23090647 0.34822863 -0.36333227 -0.039151777
0000a0 58 3f 8a bc 5d d3 11 3e 1a e2 49 3e e7 c0 47 bf
       -0.016875908 0.14240785 0.19715157 -0.7802872
0000b0 cf e4 03 be a2 e7 e3 be b9 99 31 3f 7d c0 84 b9
       -0.12880252 -0.4451266 0.6937519 -0.00025320417
0000c0 11 5d 72 3e b4 39 93 bd e5 63 2b bd c9 42 b1 bd
       0.23668315 -0.071887404 -0.041843314 -0.086553164
0000d0 3e a7 ae bd a4 d5 1a bb 0f 42 fc 3e eb a1 94 3e
       -0.08527993 -0.0023625875 0.4926915 0.29029784
0000e0 f4 85 b5 bd c5 61 1f 3e 76 f4 06 3e 3f db 6f 3f
       -0.0886344 0.1556464 0.13179192 0.9369392
0000f0 b0 0a 4d be dd 36 be be e9 9b 8f 3e d7 89 26 3e
       -0.20023608 -0.37151232 0.28048638 0.16263519

network.MLP.2.weight f4 [64, 64]
000000 bf 90 aa 3d c6 6a ca 3d 0c 27 9a bd a8 5e ed 3d
       0.083283894 0.09883647 -0.07526979 0.1159032
000010 03 d7 40 3d a8 42 69 3e 86 5a b4 bd 03 5e 11 be
       0.04708005 0.22779334 -0.088063285 -0.14196019
000020 cb 94 51 3d b2 d1 bd be e7 b9 59 be b1 ed be 3d
       0.05116729 -0.37074047 -0.21262322 0.0932268
000030 90 03 57 be bb e6 76 3d 15 60 ce bd 03 85 50 3e
       -0.20997453 0.060278635 -0.1007692 0.2036324
000040 cf d5 d7 3d 24 ee 56 be cf a0 81 be 13 cb ae bc
       0.10538828 -0.20989281 -0.25318 -0.021337068
000050 28 dc 73 3d 63 cf e1 3b e0 91 dc 3c 14 b3 84 be
       0.05953613 0.0068911775 0.026925027 -0.25917876
000060 14 2e d3 bd 17 83 db 3b 18 65 08 3d 9d 27 85 3d
       -0.10311523 0.0066989767 0.033299536 0.06501696
000070 b4 dd 75 3d 06 57 c9 3d 4f 76 a9 3c d5 8e 87 3d
       0.060025886 0.098310515 0.020686297 0.0661904
000080 4b 5e 91 be e0 8f 59 be a8 d8 8b 3d 6f c7 34 3d
       -0.28392252 -0.2124629 0.06828433 0.044135507
000090 cf b0 e9 3d 38 05 69 3e 36 7f 97 3e df 14 05 bc
       0.11410677 0.22755897 0.29589242 -0.008122652
0000a0 0c dc c2 bd b1 86 a2 be 97 96 b6 3e cb 7e 06 3e
       -0.09514627 -0.31743386 0.35661766 0.13134305
0000b0 5c f6 01 be 51 ca 8f 3c 37 c9 96 bc 3c 01 58 be
       -0.12691635 0.017552527 -0.018406494 -0.21094221
0000c0 e8 6d a6 3c 8a 81 80 be 5a 68 45 be f6 da 6e be
       0.02031608 -0.2509883 -0.19278088 -0.23325714
0000d0 a0 81 2f 3d 34 24 c3 3c 5b 40 41 3e e6 e2 34 bd
       0.04284823 0.023820974 0.18872206 -0.0441617
0000e0 4a 2b f4 3d 51 35 1f bb fa 07 31 3d 2d 10 45 3e
       0.11922319 -0.0024293254 0.043220498 0.19244452
0000f0 d8 8c 23 bd 7e f9 85 3e d5 2d f3 3d 6a 9f 82 bd
       -0.03992924 0.2616691 0.11873976 -0.06378062
000100 c5 c0 0c be 45 af 19 be e9 f5 94 3e 03 3f 83 3e
       -0.1374541 -0.15008266 0.29093865 0.25634012
000110 89 7a 4d be d1 00 1b bf 60 8d e7 be 91 a2 99 3c
       -0.20066275 -0.6054812 -0.45225048 0.018754276
000120 f3 e5 9f be b3 ec 25 bd d0 74 88 bd e5 50 27 bd
       -0.31230125 -0.040508937 -0.06662905 -0.04084863
000130 dd 7e 53 be a3 40 61 3d cf a0 82 3e 84 01 8f be
       -0.20653863 0.054993283 0.25513312 -0.27930844
000140 f8 f6 45 3e 4a 07 00 3e 3c f7 54 3e 61 73 da 3b
       0.19332492 0.1250278 0.20797437 0.0066665863
000150 9b 7a 08 be 62 18 58 3c 51 69 68 bc 31 2a 7f 3e
       -0.1332802 0.013189407 -0.014185266 0.24918438
000160 34 b0 22 bd 54 72 23 3c bb bc 24 be 0a 0f c4 bd
       -0.03971882 0.009975988 -0.1608762 -0.09573181
000170 d1 d8 1c 3e a9 ff 0b be 1a 01 be 3d 39 7b da bd
       0.15317084 -0.13671745 0.09277554 -0.10668034
000180 95 f8 99 bd f7 17 03 be 6f 00 26 3d 86 b7 1c be
       -0.075181164 -0.1280211 0.040527757 -0.15304384
000190 d4 0d 20 3e a0 17 23 3e 41 ac ba 3e 89 69 7c be
       0.15630275 0.15926981 0.36459544 -0.24649633
0001a0 5e d9 8d 3d e5 6c 5b 3e 7f 40 c8 be 28 c1 82 3e
       0.06926225 0.21428259 -0.39111707 0.25537992
0001b0 9e 32 9c 3d a7 e5 7a 3d c5 d2 91 bd 0e 2a 8c 3e
       0.07626842 0.06125417 -0.07120279 0.27375835
0001c0 33 a4 5f be e4 37 4a 3d 3f ba 81 3e b3 8e f0 be
       -0.21839981 0.049369708 0.25337407 -0.4698387
0001d0 b0 0e 94 be 19 37 07 be 91 93 15 3e 57 4d e6 bd
       -0.28917456 -0.13204612 0.14607073 -0.1124522
0001e0 14 f0 f0 3d 67 d5 05 3e c2 56 0f be 3e 9f c4 be
       0.11764541 0.13069688 -0.13997939 -0.38402742
0001f0 9c cc 03 3d d9 97 10 bd 9f 0c 46 3e 6c 4c 53 3e
       0.032177553 -0.035301063 0.19340752 0.20634621
000200 f4 66 80 bd 16 18 ea 3c 05 e9 c5 3e 87 b8 7a bf
       -0.06269637 0.028575938 0.38654342 -0.97937816
000210 2f 15 d2 3d 19 79 35 be 8d bc c5 3e 04 e8 3f bf
       0.10257947 -0.17721976 0.38620415 -0.749634
000220 2f b3 50 bf 3d d0 3b 3e 9c a4 38 bf 3b ff 01 bf
       -0.8152341 0.18341155 -0.72126174 -0.50780076
000230 e6 37 c7 3e ce a9 22 3f dc 40 09 bf 6a 27 b3 be
       0.38909835 0.6354035 -0.5361459 -0.34991008
000240 05 dd f7 bd 13 b8 06 3e 39 ed dd be 9a b8 46 3d
       -0.12102703 0.13156156 -0.4334505 0.048515894
000250 31 00 86 3a f0 4f bd bd 1e be fd b9 32 ad a5 3c
       0.0010223446 -0.092437625 -0.0004839757 0.020224188
000260 04 11 4f bd 91 5b ee bd b3 c0 4a bf ff 56 6b bf
       -0.050553337 -0.11638559 -0.79200286 -0.9192962
000270 f7 dc 93 3d d8 0e 2e be 33 12 a4 bf 75 12 88 3f
       0.0721988 -0.1699785 -1.2818054 1.0630633
000280 c2 71 24 bd 0c 29 a9 3d 60 a1 b9 3e 7d b0 cd bd
       -0.04014755 0.08259782 0.36255932 -0.10043428
000290 e1 e5 f7 3d e4 e7 26 3d 90 17 3f 3d 62 ba b0 3e
       0.12104393 0.040748492 0.04665333 0.345172
0002a0 40 c5 46 3c a9 46 c9 bd 38 99 3c bd ad 79 a3 3d
       0.012131989 -0.098279305 -0.04604456 0.07982192
0002b0 e9 fb 8c be 19 1d 19 3f 21 71 97 be a9 dd 8c 3e
       -0.27535942 0.59810024 -0.29578498 0.27512863
0002c0 1d ac 1a 3d 44 05 2d be 3f 80 88 3c 06 c6 7a 3c
       0.037761796 -0.1689654 0.016662715 0.0153060015
0002d0 b8 ec 80 bd 49 d1 52 be de d4 8d bf 1a 9a 0a bd
       -0.062951505 -0.20587648 -1.1080587 -0.03383837
0002e0 c2 06 af 3d 87 ec 2f be c2 ac d3 3d 6f 67 25 be
       0.08546211 -0.17180072 0.10335685 -0.16152738
0002f0 c2 80 84 3d 2f f7 57 3e a1 f3 28 3e 42 95 e6 be
       0.06469871 0.21090387 0.16499187 -0.4503575
000300 c7 c5 95 3d c2 9f 50 be 7f da 46 3e 59 c8 97 bb
       0.07313114 -0.20373443 0.19419287 -0.0046320376
000310 fd c5 14 3e 54 b0 1e be 58 a1 f9 be e1 8a 26 3e
       0.14528652 -0.15496951 -0.48755908 0.16263916
000320 31 42 e7 bd 4a 0f 86 3d 28 0f 57 be 2e 7c 86 3e
       -0.11291922 0.06545885 -0.21001875 0.26266617
000330 b4 35 2a 3e 7f 4d 87 3e cb 0f 9b bc 4f 2b 05 3e
       0.16622049 0.26426312 -0.01892843 0.13004802
000340 3b a2 41 bd 9b b9 57 3e 48 1d a2 bd b8 51 48 bd
       -0.047273856 0.21066897 -0.07915741 -0.048906058
000350 08 00 a7 3d 05 b7 96 bd 11 6c 83 3d 8c fe 27 3e
       0.08154303 -0.07359127 0.064170964 0.16405696
000360 50 6f 21 bd f4 cd ec 3c 04 12 88 be 4d 37 cd 3d
       -0.039412796 0.0289068 -0.26576245 0.100203134
000370 37 10 8f 3e 69 02 1e 3e 07 db bd 3d 40 f6 82 3e
       0.27942058 0.15430607 0.09270292 0.255785
000380 84 a5 42 3e 8f 48 d7 3d ab 7f 8d be 15 e6 1f 3e
       0.19008452 0.10511886 -0.27636465 0.15615113
000390 da a1 4f 3e 9e e7 d9 bd 84 50 10 3d 4e 92 01 bf
       0.20276585 -0.106398806 0.035233036 -0.5061387
0003a0 28 7b a9 bc 04 ea 4c be 81 9f fd be 2d 41 48 bd
       -0.020688608 -0.20011145 -0.49535754 -0.04889028
0003b0 51 72 f7 bc 7f ba b1 3e 19 54 15 be 9c ad 1c be
       -0.030205877 0.34712598 -0.14582862 -0.15300602
0003c0 37 09 6e be e3 b2 9a be f3 25 a7 be 16 d2 a6 be
       -0.23245703 -0.30214605 -0.3264614 -0.32582158
0003d0 d1 9f 3d 3e 77 7a 39 3e 6e db 81 bd 84 e4 1e bd
       0.18517996 0.18113123 -0.06340681 -0.03879215
0003e0 12 eb ad bd db 05 45 3d bc 4a 76 3d 1f ce b9 3e
       -0.08492102 0.048101287 0.060129866 0.3629007
0003f0 08 10 bf 3d 3f 1e c3 3e 81 29 e6 bd 50 ef 5d be
       0.093292296 0.38109013 -0.11238385 -0.21673322

network.MLP.2.bias f4 [64]
000000 22 b7 d7 3c c0 c8 9e bd ea 2e 8b bf 8b a6 a0 be
       0.026332442 -0.07753134 -1.0873692 -0.31377062
000010 19 5f 74 bd 01 ad de 3d 84 41 6c bf c8 f9 6a 3e
       -0.059661005 0.108728416 -0.9228747 0.22946846
000020 dd ad 31 bf 0f 57 1a 3f 83 8f 6b 3d 88 1e 38 3e
       -0.6940592 0.6028909 0.05750991 0.17980397
000030 03 54 39 be 29 d6 14 3f 2b 5e 23 bf cb b0 0d 3f
       -0.18098454 0.5813928 -0.63815564 0.5534789
000040 73 94 81 be 6e 5e f1 3c 67 de 87 bc d4 d2 06 3f
       -0.2530857 0.029463973 -0.016585542 0.5266545
000050 4c e7 97 3f 4e d3 c7 3d a1 48 e1 bf d6 4f ab 3d
       1.1867461 0.097571 -1.760029 0.08364837
000060 20 b3 9f be cc 5f 35 be 4e 29 40 3e ff 35 a8 be
       -0.3119135 -0.17712325 0.18765756 -0.32853696
000070 e1 c4 dc 3e 0f bc b2 3d 93 91 ac 3e 00 ad bd 3d
       0.43118957 0.087272756 0.33704814 0.09261513
000080 40 cd 47 bf 0c 57 c4 3e 29 47 15 3e cb d2 06 3e
       -0.7804756 0.38347661 0.14577927 0.13166349
000090 02 dc fb 3d 73 cc 08 be 8e b8 18 3e f7 00 2f 3c
       0.122978225 -0.13359241 0.14914152 0.010681382
0000a0 4e 53 31 3e 45 c7 58 3d 4e d5 83 be bf 92 07 3e
       0.17316934 0.052924413 -0.25748676 0.13239573
0000b0 31 e8 bb 3e d6 d0 be 3f 07 73 13 3e c6 93 45 be
       0.36700585 1.4907482 0.14399348 -0.19294652
0000c0 6b 7d d4 bd 9f 88 87 bd 35 fa ee 3b 43 2b 34 3e
       -0.10375484 -0.06617855 0.0072930106 0.17594628
0000d0 1c 24 ee be 33 44 ef 3d 05 81 ff bc d3 3f 66 3e
       -0.46511924 0.1168293 -0.031189451 0.22485285
0000e0 69 1b ec bd 84 37 de 3d 85 7f 64 3e 2b 29 d8 bc
       -0.115286656 0.108504325 0.2231427 -0.026386818
0000f0 50 c8 e7 bd 26 bb 15 3d cd 14 25 be 5f cd 8d 3d
       -0.113175035 0.03655543 -0.16121216 0.06923937

network.MLP.3.weight f4 [64]
000000 99 a1 a5 3f e6 91 d6 3f fb 4e 0f 3f 9a ff a2 3f
       1.2939941 1.6763275 0.5597989 1.2734253
000010 af d0 b5 3f 37 ec b9 3f c3 65 13 3f a8 40 a1 3f
       1.420431 1.4525212 0.5757715 1.2597857
000020 b7 8c 4a 3f 78 43 19 3f 49 4a 8e 3f 73 28 24 3f
       0.79120964 0.59868574 1.111642 0.6412422
000030 ee 64 90 3f 73 25 3f 3f b8 85 47 3f f4 8a 19 3f
       1.1280801 0.7466652 0.77938414 0.5997765
000040 59 af b5 3f de 02 84 3f d5 1e aa 3f ff 18 28 3f
       1.4194137 1.0313375 1.3290659 0.6566314
000050 c1 0b 81 3e b1 d6 b4 3f 12 be 22 3f 7a c6 aa 3f
       0.2520428 1.4128019 0.63571274 1.334182
000060 c1 60 3d 3f 23 4d 90 3f f2 ac a6 3f ff 2d 24 3f
       0.7397576 1.127354 1.3021529 0.64132684
000070 3d b7 ea 3e 95 53 b2 3f 82 3e be 3e d0 c5 b7 3f
       0.45842925 1.3931757 0.37157065 1.4357243
000080 c4 42 36 3f 52 de 80 3f 95 c5 bd 3f c6 ff 92 3f
       0.71195626 1.0067847 1.4825922 1.1484306
000090 59 81 c4 3f 94 2e b9 3f cf 4a 3d 3f 9a 97 a3 3f
       1.5351974 1.446734 0.73942274 1.278064
0000a0 37 f0 7d 3f 7f 19 2c 3f a1 bf 83 3f 32 cc b1 3f
       0.99194664 0.67226404 1.0292856 1.389044
0000b0 88 62 45 3f 05 0d 15 3f ec ba de 3f f2 02 b7 3f
       0.7710347 0.5822299 1.7400794 1.4297774
0000c0 44 c6 9f 3f ae 3b c8 3f c8 45 87 3f ea d8 9e 3f
       1.2482381 1.5643213 1.056817 1.2409947
0000d0 cf ac 75 3f 2d ec a3 3f 22 e8 8c 3f 26 ef 36 3f
       0.9596681 1.280645 1.1008341 0.7145866
0000e0 14 8e b3 3f b0 ea 86 3f bd 3c ba 3f d0 e9 b4 3f
       1.4027734 1.0540371 1.4549786 1.4133854
0000f0 80 5c 7c 3f 0d ae c0 3f 25 21 f3 3f 43 b5 d2 3f
       0.98578644 1.5053116 1.899449 1.6461567

network.MLP.3.bias f4 [64]
000000 03 3a e9 3c cc b4 89 3d 19 9e 7b 3e e7 d1 9b bc
       0.028470045 0.067239374 0.24572028 -0.019020988
000010 bd 74 1d be 0b 84 4b be f0 c9 99 3e 88 28 dc bd
       -0.15376563 -0.19874589 0.3003688 -0.10749918
000020 89 bd 32 bd db bb 32 be 9e f2 b7 3d 90 52 77 be
       -0.043637786 -0.17454474 0.089818224 -0.24152589
000030 e9 86 30 3e 11 1d 87 be e8 68 72 3e 78 b1 6c be
       0.17238964 -0.26389363 0.23672831 -0.23114574
000040 cf df 04 3e 40 ea e7 3d 43 e6 0b bd 5c 3f 9a be
       0.12976001 0.113239765 -0.03415514 -0.30126464
000050 c0 e6 b1 be a0 51 57 3b dd e1 71 3e 0a a8 08 be
       -0.3474636 0.0032855049 0.23621316 -0.13345352
000060 bd 66 73 3e b4 78 70 bd e8 48 8b be f7 12 65 3e
       0.2376966 -0.05870886 -0.2720406 0.22370516
000070 e4 0a ed be 64 d2 b1 be 6c 96 48 be 7b 30 b7 bd
       -0.4629737 -0.34730828 -0.19588631 -0.08944794
000080 fc 5b 4f bc 16 b1 4c be df 07 ab bd 27 5c 25 be
       -0.012656208 -0.19989428 -0.08351111 -0.16148435
000090 38 f9 a4 bd a2 2a 9e bd 89 96 d4 3d d4 53 6b be
       -0.08055347 -0.07722975 0.10380275 -0.22981197
0000a0 72 0a 5d be ce bf c7 3d 85 51 f8 3d 45 32 41 bd
       -0.21586016 0.09753381 0.121249236 -0.04716708
0000b0 d6 49 c2 be af 4f c5 be fd c3 8d bd d7 c2 bb bd
       -0.37946957 -0.38537356 -0.069221474 -0.09168022
0000c0 a7 82 42 be 8f 12 bd bd fd f2 4d 3d e3 4f 9a bd
       -0.18995152 -0.092320554 0.05028056 -0.075347684
0000d0 44 ea 2a 3e 25 ac 99 bd 84 36 ae bc 89 0a af be
       0.16690928 -0.07503537 -0.02126623 -0.34187725
0000e0 50 ea 0a 3e cc 0e 2a 3c 7c 14 0d bd fb 89 13 bd
       0.13565946 0.010379504 -0.034443364 -0.03602026
0000f0 53 dc 68 3d b1 53 8c 3d 4a 03 22 3d 24 ac 4a bd
       0.056850743 0.068519 0.039553918 -0.049480572

critic.0.weight f4 [1, 64]
000000 61 21 fd bc e5 53 6e bc 8d fc 06 be ae 34 5c bc
       -0.030899705 -0.014546369 -0.13182278 -0.013440294
000010 a3 e9 38 bc 3c 25 50 3c f7 63 6d bd 67 e0 6b 3c
       -0.011286172 0.01270419 -0.057956662 0.014396763
000020 bc ae 85 be 7e 57 e1 3c ba 5b 90 bd 7f fe 80 39
       -0.26109874 0.02750754 -0.070487455 0.00024603677
000030 17 ef 0a bd 47 6f d4 bb 56 52 61 bd e3 a2 1a 3d
       -0.03391942 -0.006482992 -0.055010162 0.037752997
000040 98 2e 97 bc 1e da 76 bd 63 ba 0e bc ff 0a e1 3b
       -0.018454835 -0.060266607 -0.00871143 0.006867766
000050 30 0a c5 bc 18 22 96 3c ad a4 49 be 31 8a 9f bc
       -0.02405271 0.018326804 -0.19691725 -0.019475074
000060 2f 8a 92 bc ff 1e 3a bc b2 5d 1e 3d 37 7e ce bd
       -0.017888157 -0.011359929 0.038663574 -0.10082667
000070 86 cc 27 ba 67 2f 4b bc f2 20 ea 3c d2 e3 01 3c
       -0.0006401021 -0.012401438 0.028580163 0.007927852
000080 55 7b 7e be 73 c8 e2 bc 4e 66 06 3c dc 71 12 3d
       -0.24851735 -0.027683472 0.008203102 0.035753116
000090 c9 8e f9 3a 51 96 c0 3c 47 20 6e 3e d2 22 8b ba
       0.0019039746 0.023509176 0.232545 -0.0010615236
0000a0 c9 aa 0a bc 10 50 ae bd 04 a9 36 bd c4 11 6e bd
       -0.00846357 -0.085113645 -0.04459478 -0.05812241
0000b0 9a 27 7b bc e4 02 61 3e 94 f5 a1 bc 82 91 1d bd
       -0.015329266 0.21973759 -0.019770421 -0.038468845
0000c0 5e ab 06 3b 5e 31 ea bc 3d 22 aa bd 2d 31 8d 3c
       0.002054892 -0.028587993 -0.08307312 0.017235363
0000d0 9b 60 04 bd e7 48 2c bd c5 0f d2 bc eb 30 ad bb
       -0.032318693 -0.042061713 -0.025642285 -0.0052853725
0000e0 d0 17 03 bd 15 5c 41 bd e3 00 e4 bc 93 14 be bc
       -0.03200513 -0.047206957 -0.027832454 -0.02320317
0000f0 27 86 6b bd 3f f4 86 3c 9d 8b da 3c 52 f9 33 38
       -0.057500985 0.016473887 0.0266779 4.2909123e-05

actor.0.weight f4 [22, 64]
000000 76 a1 b3 bd 92 7b a2 bd c6 ec 71 3e a8 73 e5 3b
       -0.087710306 -0.079337254 0.23625478 0.0070023127
000010 78 ae b0 be cb 9c ff 3d 4a e7 3b be bf 7f e8 3e
       -0.3450811 0.12481078 -0.18349949 0.45409963
000020 8b 6f a2 3d 20 e9 10 be 34 65 87 bd 7f ab 15 be
       0.079314314 -0.1415143 -0.066111 -0.14616202
000030 b9 f3 f3 bd 33 e3 31 3e 38 70 87 be 64 5c 52 3e
       -0.11911721 0.17371826 -0.26452804 0.20543057
000040 87 f1 f8 be 40 7d db bd 64 99 62 3e 03 48 63 3e
       -0.4862177 -0.10717249 0.22128826 0.22195439
000050 e2 b0 4c 3e 6f 45 97 be 6f f0 33 be bc fa a5 3e
       0.1998935 -0.2954516 -0.17572187 0.32417858
000060 90 14 e7 3b c6 ed 17 3e 00 64 e1 bd 8b 8e 09 bd
       0.007052012 0.14836797 -0.110054016 -0.033583205
000070 65 7a 48 3d 16 9a 92 3e 7e d4 4c 3e 3b af 16 3e
       0.04894485 0.28633183 0.20002934 0.14715283
000080 07 ae 5d 3d af 93 82 3e cb 6f 9b 3d fd 1f d4 3d
       0.054121044 0.255033 0.07589682 0.10357664
000090 bf 3e 08 3f 5b e8 b2 3e 48 60 98 be 2c 4f b0 3c
       0.5322074 0.34942898 -0.29760957 0.021522127
0000a0 48 29 c5 3e 9a fe c0 bd 26 e5 54 3d 17 03 82 3d
       0.38508058 -0.094235614 0.051976345 0.063482456
0000b0 f6 06 de 3d a8 2e 47 bd 0f 6a 04 3f 8a f4 2d bd
       0.108411714 -0.04862848 0.5172433 -0.04246954
0000c0 ef af f0 3e dc 39 fe be 8c ba 2b be 3f 89 77 be
       0.47009227 -0.49653518 -0.1677038 -0.24173449
0000d0 e6 91 e2 be 4e b4 7e 3e e1 2d 24 3c 4f 2e 70 3e
       -0.44251937 0.24873468 0.010020704 0.23455165
0000e0 d0 a8 1b bd 6f d4 86 be c3 a9 e0 3e 79 62 c7 be
       -0.03800279 -0.2633395 0.43879518 -0.38942316
0000f0 64 ae ab be 52 64 c9 3d 97 07 8d 3d b3 f8 15 3e
       -0.33531487 0.09833588 0.06886213 0.14645652
000100 0a ee 25 3e 58 f9 04 bd 81 a7 4a bd b7 44 a0 bb
       0.16204086 -0.032464355 -0.04947615 -0.004891004
000110 10 dc 8f be 7f db 0e bc f3 9e 85 bd 87 8d 03 3e
       -0.28097582 -0.008719324 -0.06524458 0.12846957
000120 3f 17 c5 3d a7 94 f5 3d 06 5f 09 bc 37 e2 64 3e
       0.096235745 0.11991244 -0.008384472 0.22351919
000130 81 f8 ad 3d 66 57 87 3b 02 47 5d bd 49 50 30 3e
       0.08494664 0.0041302918 -0.054022796 0.17218126
000140 f9 3e 1d bf 73 75 e7 3c fb 80 79 3d 77 62 55 3e
       -0.61424214 0.028254246 0.06091402 0.20838343
000150 2b 26 0b 3e 14 7b 37 3e 55 09 1a bc 7e 19 ee be
       0.13588779 0.17918044 -0.009401639 -0.46503824
000160 60 62 5d bd 43 c8 6f 3d be 86 87 3e 8e 87 56 bd
       -0.054048896 0.058540594 0.26469988 -0.05237537
000170 30 d5 0e 3d 1c 33 3e be dd c5 a7 3b e8 3f c2 3e
       0.03487128 -0.18574184 0.0051200227 0.37939382
000180 a7 93 dc 3d f0 08 c6 3e d2 aa 63 3d ea 59 22 be
       0.1077035 0.38678694 0.05558283 -0.15854612
000190 93 da 24 be 0d 37 98 3d bf 4b 68 be 9d 68 d6 be
       -0.16099004 0.07432375 -0.22685145 -0.4187669
0001a0 af c3 8f 3e c5 9e 4c 3e 41 21 53 3e 4b 49 99 3d
       0.28078982 0.19982441 0.20618154 0.07484683
0001b0 c5 28 60 3e 19 67 08 be e8 c3 12 bf 02 24 c6 be
       0.21890552 -0.13320579 -0.5733018 -0.38699347
0001c0 9f a8 ad 3d e9 80 3b 3f f6 99 8d 3e 77 59 be 3e
       0.084794275 0.73243576 0.27656525 0.3717763
0001d0 92 57 f1 be e8 d4 9c be 10 5d 88 be 25 db f2 3e
       -0.47137123 -0.30631185 -0.266335 0.4743282
0001e0 f1 61 b7 3e ca 6f 53 be 7f 0b 85 bd f2 78 aa 3e
       0.3581691 -0.20648113 -0.06496333 0.332954
0001f0 e5 74 98 be fe bf 8a 3d 73 d0 59 be 08 c2 11 3e
       -0.29776683 0.06774901 -0.21270923 0.14234173
000200 15 39 29 3e 0b f0 01 bf 08 4c ba 3b 5d bc 2a 3f
       0.16525681 -0.507569 0.005685333 0.6669367
000210 f7 1d ec 3e c2 b9 19 3e ac 83 89 bd 8a a7 b7 3d
       0.4611661 0.15012267 -0.067145675 0.089675024
000220 25 7a 68 bd 0f 5d 95 be 1e 82 af bd b4 1f a0 3e
       -0.05675711 -0.2917256 -0.0856974 0.31274188
000230 25 0f 3a 3e 0b 3d db 3d 68 34 09 be db 89 04 3c
       0.1816984 0.107050024 -0.13398898 0.008089508
000240 ea 03 a9 be 4e 9b 6a bd 29 98 f5 3a 7e 3a 23 bd
       -0.330108 -0.057277016 0.0018737364 -0.039850704
000250 da f8 d7 3d da ac cf be 72 a3 9a 3d 6e 7d ae be
       0.105455115 -0.40561563 0.07550706 -0.3408007
000260 e5 9e 45 bd 64 bf e7 bc e9 37 ee 3c fb c9 84 be
       -0.048247237 -0.028289504 0.029079394 -0.2593535
000270 b4 0d 34 bd 92 7a 49 3d 7f 7f 1b 3e 95 16 64 bd
       -0.04395838 0.049189158 0.15185355 -0.0556856
000280 e7 b3 0d 3d 91 45 a5 3e 8e 8e 0a bf 98 5b dd 3c
       0.034595396 0.32279637 -0.5412377 0.027021214
000290 a0 9a 99 3d 49 b2 4c 3d 93 ce 9c 3d d7 e0 03 3e
       0.075001955 0.049974713 0.076565884 0.12878738
0002a0 ce 8c 95 3e da ef 1a 3e 1a be 3e be 7c 83 07 bf
       0.29208988 0.15130559 -0.18627205 -0.52935004
0002b0 2d 56 06 3f 0a 9b fb bc b8 6f 84 bb c4 96 8e 3c
       0.52475244 -0.030713577 -0.004041638 0.017405875
0002c0 e9 ca 8e 3d c0 73 4b be e0 d0 74 be 78 fc 7e bd
       0.06972296 -0.19868374 -0.23907804 -0.06225249
0002d0 68 7f 01 bb 69 5c 3e 3e e4 6e eb bd 8a 35 df 3e
       -0.0019759778 0.18589939 -0.1149576 0.43595535
0002e0 70 88 4e be 9f 7c 1c 3d 15 f9 a2 be 35 68 80 3e
       -0.20169234 0.038204785 -0.3183066 0.25079504
0002f0 3f 52 6d bd 3a d4 fb bd a1 5d a6 be 96 80 cf 3e
       -0.057939764 -0.122963384 -0.32493308 0.4052779
000300 75 02 fc be 97 16 bf 3e f6 fa 2f 3e 70 b0 1f be
       -0.49220625 0.37321922 0.17185578 -0.1559465
000310 f9 8c 8c be 8a 99 dd 3d c0 b4 c1 bd 1c 76 b3 bc
       -0.27451304 0.10820301 -0.094583035 -0.021906905
000320 b0 5f 9f bd 58 21 10 be 58 cc db bd 9b 04 f1 bc
       -0.07781923 -0.1407522 -0.10732335 -0.029421141
000330 73 4d 28 be a0 cf be 3e 4b ab f0 bc 2d de 0a 3e
       -0.16435795 0.3726778 -0.029378554 0.13561316
000340 6d eb 36 be 67 38 4b be 56 e5 7a bc 74 5a 80 bd
       -0.17863245 -0.19845735 -0.015313467 -0.062672526
000350 38 54 57 be e3 05 d9 3d d9 c8 0d 3d 91 0c f0 3d
       -0.2102822 0.10596826 0.03461537 0.11721147
000360 9e 32 66 be 67 f3 57 be 38 66 16 3b b1 40 61 bd
       -0.22480246 -0.21088944 0.002294911 -0.054993335
000370 bd 06 bb 3d 77 22 96 3e 3d da 45 3d 7e 30 d6 3e
       0.091321446 0.2932317 0.04830383 0.41833872
000380 21 c2 82 bd cc 62 56 3e f3 77 d5 3e 57 e0 b3 bd
       -0.063846834 0.20936126 0.41693076 -0.08783024
000390 34 d0 89 3e 0a 13 78 3c 2a ad 47 3d db ce ba 3d
       0.2691666 0.015141258 0.048749126 0.09121486
0003a0 b9 16 8b be 8d ad f7 bd c1 c1 ce 3c 00 0b 68 3d
       -0.27165774 -0.12093649 0.025238873 0.056651115
0003b0 d1 5d a1 be 78 df 8d bb 00 c5 82 3e 5b af b7 bc
       -0.3151689 -0.004329618 0.25540924 -0.022422483
0003c0 1d 03 2f bc ab 9d be 3e 8d 96 27 be 03 e6 a6 bd
       -0.010681895 0.37229666 -0.16366024 -0.0814934
0003d0 6b 32 49 bd d3 63 a5 3d ab 47 5d bd 2f 61 ea bd
       -0.049120348 0.080756806 -0.054023426 -0.114443175
0003e0 d8 69 aa 3e be 23 24 3d 2b aa e2 3e 43 b5 01 be
       0.33283877 0.04007315 0.44270453 -0.12666802
0003f0 8f 69 5d be e0 8a d6 3e 13 c8 21 bf 4d 4e c7 be
       -0.21622299 0.41902828 -0.63195914 -0.38926926

actor.0.bias f4 [22]
000000 92 8b 0c be 3e e2 ef bd f7 b3 40 bd de 1e d5 3c
       -0.13725117 -0.11713074 -0.047046628 0.026015695
000010 86 db ab 3d 4e 89 57 bd ee bf 70 bd d5 7e 50 3d
       0.0839148 -0.05262118 -0.05877679 0.050902206
000020 fa f0 20 bc 6c d2 19 3d e8 fa 17 3e 19 ff 0d 3d
       -0.009823078 0.03755419 0.14841807 0.03466711
000030 61 e4 7f bd 6e ba e4 3c f3 0f 20 bd 28 9a 13 bc
       -0.06247366 0.027920928 -0.03907771 -0.009008922
000040 8d 84 40 3d 5e 35 2d bc 57 40 b7 3b 75 1d ba 3d
       0.04700141 -0.010571806 0.0055923867 0.0908765
000050 4c 27 ee bd f9 8a e4 3c
       -0.11628589 0.027898299
