paper/training_results/seed-4/momarl/checkpoints/mlp_(negotiation=False)_(num_agents=12)_(window=False)_(reduced_space=False)_(fixed_savings_rate=False)_(rewards=['inverse_global_temperature', 'global_economic_output'])(wgen=uniform)(num_ensembles=1)(seed=4)_2025-01-16_22:07:26_w=[0.6336 0.3664].pt (torch, 38168 bytes, 9 tensors)

network.MLP.0.weight f4 [64, 18]
0	0xbe2afeb3	-0.16698723
1	0xbd11727a	-0.035509564
2	0xbc9b0632	-0.018923853
3	0xbf02d336	-0.5110353
4	0xbe96ea1d	-0.2947549
5	0x3f025513	0.5091106
6	0x3dee9c1c	0.11650869
7	0xbd229bd1	-0.03969938
8	0xbddd4ddb	-0.108058654
9	0x3d30ff67	0.04321232
10	0x3e870564	0.263713
11	0xbdeeb331	-0.11655272
12	0xbdc716b3	-0.097211264
13	0x3d8b2602	0.06794359
14	0xbf062736	-0.5240358
15	0xbd8645e3	-0.065562986
16	0x3f045c1d	0.51703054
17	0xbe6f7865	-0.2338577
18	0x3c448c11	0.011996285
19	0x3e09b71f	0.13448761
20	0x3be61c43	0.007022412
21	0xbdc8ea06	-0.098102614
22	0x3f096919	0.5367599
23	0xbeea3685	-0.4574472
24	0x3e5a6a16	0.21329531
25	0xbe436342	-0.19080833
26	0xbd62ed79	-0.055402253
27	0x3edd3ae9	0.43209007
28	0x3d912df0	0.0708884
29	0xbde79acc	-0.11308822
30	0xbe186260	-0.14881277
31	0xbcc78441	-0.024355056
32	0x3edd5c3f	0.4323444
33	0x3f403b6e	0.7509068
34	0x3d4aaa82	0.049479015
35	0xbd5dcc60	-0.054149985
36	0xbd46f751	-0.048575703
37	0xbda0119b	-0.07815858
38	0xbe684a2f	-0.22684549
39	0xbe35b2f1	-0.17744042
40	0x3e20a50f	0.15687965
41	0xbc91968a	-0.017771978
42	0xbd59d417	-0.05318078
43	0xbe5b3558	-0.21407068
44	0x3e3d159b	0.18465273
45	0xbb33c2fb	-0.002742945
46	0x3d86519e	0.06558536
47	0xbca28aff	-0.01984167
48	0x3bf97f4e	0.007614053
49	0x3e396c21	0.18107654
50	0x3d0996e7	0.033591177
51	0xbd1fdcf4	-0.039029077
52	0xbdb5dbe5	-0.08879832
53	0xbd7b9a72	-0.061426587
54	0x3d1a95c5	0.037740488
55	0x3dcebe33	0.10094871
56	0xbe5120c6	-0.20422658
57	0xbe59a099	-0.2125267
58	0xbc37ec1a	-0.011225725
59	0xbe6101e8	-0.21973383
60	0x3e09d3cd	0.13459702
61	0x3e579cbb	0.21055882
62	0xbe60cbaa	-0.21952692
63	0x3e0c3076	0.13690361
64	0xbe2a749c	-0.16646045
65	0xbdc37ed3	-0.09545674
66	0xbe0d516e	-0.13800594
67	0x3e4d5e16	0.20055422
68	0xbe3cca63	-0.1843658
69	0xbdb46a89	-0.088093825
70	0x3c0fe2c2	0.008782091
71	0xbd8e101d	-0.06936667
72	0x3da1c03e	0.078979954
73	0xbe5f3089	-0.21795858
74	0xbdc18a20	-0.094501734
75	0xbe811c46	-0.25216883
76	0xbe15fceb	-0.14647262
77	0xbd37b81c	-0.044853315
78	0x3e3418b5	0.1758755
79	0xbdc5abf4	-0.09651938
80	0xbe6ba67b	-0.23012726
81	0x3f2a59c8	0.66543245
82	0xbf0e9336	-0.55693376
83	0x3f0ffcc6	0.56245077
84	0x3d8bd294	0.06827274
85	0xbdcbaf9a	-0.09945603
86	0xbe1c5f56	-0.15270743
87	0xbf16bf92	-0.58886063
88	0xbdc31669	-0.09525759
89	0x3f013c82	0.5048295
90	0x3e0ab89c	0.13546985
91	0xbe089ab4	-0.13340265
92	0xbdd541f7	-0.104129724
93	0xbe785354	-0.24250537
94	0x3daa18ad	0.08305488
95	0x3e09de3c	0.13463682
96	0x3e0256c6	0.12728414
97	0xbe4b2744	-0.19839197
98	0x3eae3be5	0.3403007
99	0xbcfbf1f0	-0.030755013
100	0xbe218b22	-0.15775731
101	0x3e0f9f16	0.1402553
102	0xbe0017c5	-0.12509067
103	0xbdb5dcd3	-0.088800095
104	0xbf12c447	-0.57330745
105	0xbeb65d0f	-0.35617873
106	0xbd80309a	-0.0625927
107	0x3e2731d4	0.16327602
108	0x3e168697	0.1469978
109	0xbd423852	-0.047416992
110	0xbe9a5aa2	-0.30147272
111	0x3eddb468	0.43301702
112	0xbf583414	-0.84454465
113	0x3ef0cf87	0.4703333
114	0xbe3ff133	-0.18744354
115	0xbe351f5a	-0.17687741
116	0x3dc7ea60	0.097615
117	0xbe6b50d0	-0.22980046
118	0xbe1df5a8	-0.15425742
119	0x3ccd3b3e	0.025052663
120	0x3c359d7b	0.01108491
121	0x3cd884fe	0.026430603
122	0xbe7b0f56	-0.24517569
123	0xbdf7706f	-0.12081992
124	0xbda036f4	-0.078229815
125	0xbc1b24b8	-0.009469204
126	0xbd0c7076	-0.03428694
127	0xbe80368f	-0.25041625
128	0xbc249a8a	-0.010046611
129	0xbbb2078b	-0.005433028
130	0x3f09d987	0.53847545
131	0x3dbdc496	0.092660114
132	0x3eb12312	0.3459707
133	0x3e608a8f	0.21927856
134	0xbe92d38b	-0.2867702
135	0xbf5c82aa	-0.8613688
136	0x3ebff30d	0.3749012
137	0xbe0dd710	-0.13851571
138	0x3e6cf923	0.23141913
139	0x3e560e14	0.20903808
140	0xbe9418ad	-0.28925076
141	0x3e6a4fc5	0.22881992
142	0xbe943474	-0.2894627
143	0x3e7a702e	0.24456856
144	0x3df5d158	0.1200282
145	0x3d747157	0.0596784
146	0x3d15f399	0.036609266
147	0xbea2c7ce	-0.31793064
148	0x3d498f0f	0.049208697
149	0xbf8cecc5	-1.1009756
150	0x3d9c30ef	0.07626521
151	0xbd3726dd	-0.044714797
152	0xbc7ed161	-0.0155528495
153	0x3b0e5552	0.0021718335
154	0x3bfe1a40	0.007754594
155	0xbc182927	-0.009287155
156	0xbc07e865	-0.008295153
157	0x3d38ee31	0.045149032
158	0xbc8adacf	-0.01695004
159	0xbc972d59	-0.01845424
160	0x3c841877	0.016124947
161	0x3d765ebd	0.060148943
162	0xbecf486c	-0.4048494
163	0xbd637e90	-0.05554062
164	0x3dd84b75	0.10561267
165	0xbebe3c6c	-0.37155473
166	0xbf9d426a	-1.2285893
167	0x3e49a398	0.19691312
168	0xbe2b5fce	-0.16735765
169	0xbe4337fe	-0.19064328
170	0x3c84109b	0.0161212
171	0xbf06bc10	-0.5263071
172	0xbd335189	-0.04377893
173	0xbee48300	-0.44631195
174	0x3ead533f	0.33852574
175	0x3e1fc31c	0.15601772
176	0xbda4928f	-0.08035766
177	0xbe00d4b3	-0.12581138
178	0x3e07ed2d	0.13274069
179	0xbdf753dd	-0.120765425
180	0x3e27e61d	0.16396375
181	0xbeb3a68e	-0.3508801
182	0xbd0397ed	-0.03212731
183	0xbe82df0c	-0.25560796
184	0xbe3ed890	-0.186373
185	0xbfb250b6	-1.3930881
186	0xbe721c40	-0.23643589
187	0x3dee030b	0.11621674
188	0xbdec2d13	-0.11532035
189	0xbe17f1a7	-0.14838277
190	0xbc325e98	-0.010886811
191	0xbdc0370e	-0.09385501
192	0xbeaf8f5f	-0.3428907
193	0xbca57791	-0.020198615
194	0xbe66b3cd	-0.22529526
195	0xbb99ec49	-0.004697357
196	0xbe3ae3b3	-0.18250923
197	0x3de10ce6	0.10988788
198	0xbdd85d75	-0.105647005
199	0xbc56ba07	-0.013105876
200	0x3c34a2c2	0.011025133
201	0xbef213c3	-0.47280702
202	0xbcbbce15	-0.022925416
203	0x3e92e8d3	0.28693256
204	0x3f1c5e05	0.6108096
205	0xbe35d53f	-0.17757128
206	0xbd6d7279	-0.057970498
207	0x3e9bc4d4	0.30423605
208	0xbe5a35b4	-0.21309549
209	0x3e9e9e51	0.3098016
210	0x3dcfe949	0.101519175
211	0x3e900d5a	0.28135186
212	0x3eacf83d	0.3378314
213	0xbc18b884	-0.009321336
214	0xbd88a67f	-0.066723816
215	0xbf081c21	-0.5316792
216	0x3d988858	0.074478805
217	0xbed08e26	-0.4073345
218	0xbe0bab6a	-0.13639608
219	0xbf697e8e	-0.9120873
220	0xbeb9fb23	-0.36324415
221	0x3dec96f6	0.11552231
222	0x3c9bc287	0.019013656
223	0xbf0884bc	-0.53327537
224	0xbf057854	-0.5213673
225	0xbc33b0c7	-0.01096744
226	0x3e0f7d99	0.14012755
227	0xbdaf0718	-0.08546275
228	0x3f24b462	0.6433774
229	0xbe9583a6	-0.29202002
230	0xbf694b3b	-0.9113042
231	0x3e6142e3	0.21998172
232	0x3edd1fb8	0.43188262
233	0x3ee38497	0.44437096
234	0x3b3ebccc	0.002910423
235	0x3da1e12c	0.07904276
236	0x3d058cfa	0.03260515
237	0xc002914e	-2.0401187
238	0x3e61c31b	0.22047083
239	0xbf2f4494	-0.68464017
240	0xbd4e0cfb	-0.050305348
241	0xbd91f0a8	-0.0712598
242	0x3e14c9f5	0.14530165
243	0x3d93f1cc	0.072238535
244	0x3dd34af2	0.10317029
245	0xbd374788	-0.044745952
246	0x3daba439	0.08380932
247	0x3cbb6c54	0.022878803
248	0x3d8859e0	0.06657767
249	0x3c1b8e17	0.009494326
250	0x3bf219e6	0.0073883412
251	0xbcfcb5f5	-0.030848483
252	0x3be76ad5	0.007062296
253	0xbeccae9f	-0.39976975
254	0x3db9dbf2	0.09075154
255	0xbe23e80a	-0.16006485

network.MLP.0.bias f4 [64]
0	0x3e2bc33f	0.16773699
1	0xbd8b850b	-0.06812485
2	0xbe25cc96	-0.16191325
3	0x3e8f0bef	0.27938792
4	0x3d82d848	0.063889086
5	0x3e8ffc74	0.28122294
6	0xbf186c71	-0.5954047
7	0x3c59bd1f	0.013289719
8	0x3f06bc00	0.52630615
9	0xbe5315fa	-0.20613852
10	0x3e1f6760	0.15566778
11	0xbe2d5010	-0.16925073
12	0xbe86e703	-0.26348123
13	0x3f56a523	0.8384573
14	0x3eabe586	0.3357355
15	0xbf386563	-0.72029704
16	0xbe0f6794	-0.14004356
17	0x3e0ce75c	0.13760132
18	0xbe12a048	-0.14318955
19	0xbeee1b3c	-0.46505153
20	0xbf70b242	-0.94022
21	0x3cb44ef5	0.022010306
22	0x3e897519	0.2684715
23	0x3d20778c	0.03917651
24	0xbe15aca3	-0.14616637
25	0xbed77b43	-0.4208623
26	0xbe453f8b	-0.19262521
27	0x3e8d7246	0.27626246
28	0xbd6d0c09	-0.057872806
29	0x3dc0aa82	0.09407522
30	0xbe1da65e	-0.15395495
31	0x3ed2d6a9	0.41179398
32	0x3d87f12b	0.06637796
33	0xbe2b6c01	-0.16740419
34	0x3e69731a	0.22797814
35	0xbe32dcd4	-0.17467052
36	0x3f13de2d	0.5776089
37	0x3e88d4f3	0.26724967
38	0x3e86cb74	0.26327097
39	0xbf9fed8e	-1.2494371
40	0xbdff60a6	-0.12469606
41	0xbf96e051	-1.1787206
42	0xbd762dfb	-0.060102444
43	0xbe875e49	-0.2643912
44	0xbf6d6d12	-0.92744553
45	0xbe2b260a	-0.1671373
46	0x3aea8c41	0.0017894582
47	0xbaf0b8d4	-0.001836563
48	0xbd8a049b	-0.0673916
49	0xbe4e82ef	-0.20167135
50	0xbe2c4b0f	-0.16825508
51	0x3d17c86e	0.03705638
52	0xbeec9de4	-0.4621421
53	0x3f80587e	1.0027006
54	0x3dbb7202	0.09152605
55	0xbec24dc8	-0.37949967
56	0x3ecf5e1b	0.40501484
57	0x3ee94c2d	0.4556593
58	0xbe0967b6	-0.13418469
59	0x3c852a14	0.016255416
60	0xbe90d08d	-0.28284112
61	0xbe33a353	-0.17542772
62	0xbd02c7e3	-0.031928908
63	0xbd73b814	-0.059501722

network.MLP.2.weight f4 [64, 64]
0	0xbd6282af	-0.05530041
1	0xbe26f682	-0.16304973
2	0xbdcd4ea4	-0.10024765
3	0x3d9c7e45	0.076412715
4	0x3b3329db	0.002733818
5	0xbdccac9b	-0.099938594
6	0x3e72ce99	0.23711623
7	0xbd933ce6	-0.0718935
8	0xbee6b07a	-0.45056516
9	0x3d727db1	0.0592019
10	0xbe61fe77	-0.22069727
11	0xbdf0b6d8	-0.11753625
12	0x3d8494a9	0.06473667
13	0xbda4b037	-0.08041423
14	0x3d01b802	0.031669624
15	0x3e2adbd6	0.16685423
16	0xbdc3cf49	-0.09561021
17	0xbe37bfaa	-0.17944208
18	0x3da5a84d	0.080887415
19	0x3c7fabb7	0.015604905
20	0x3e43b348	0.19111359
21	0xbd44433f	-0.047915693
22	0x3cdab20c	0.026696227
23	0xbe72b027	-0.2370001
24	0x3d81f676	0.06345837
25	0xbcdf6f9c	-0.0272749
26	0x3d0be0c4	0.0341499
27	0x3e48170e	0.19540045
28	0xbdadde83	-0.08489706
29	0x3d47eca8	0.048809677
30	0x3c10131a	0.008793617
31	0xbe50e1f6	-0.20398697
32	0xbd8058f2	-0.06266965
33	0xbdbf92d0	-0.09354174
34	0x3e3f4412	0.1867831
35	0x3d0aef43	0.033919584
36	0xbde5b025	-0.112152375
37	0xbedc6575	-0.43046156
38	0x3e722d13	0.23650007
39	0x3ddee0be	0.1088271
40	0xbd6a5a77	-0.05721518
41	0x3eceac1d	0.40365687
42	0x3e618f15	0.22027238
43	0x3db73e6f	0.08947455
44	0x3da22058	0.07916325
45	0xbebda6bb	-0.37041268
46	0xbe70cfe7	-0.23516808
47	0xbdb92d80	-0.090418816
48	0xbdae1bc2	-0.08501388
49	0x3d98ebdf	0.07466864
50	0xbd6665ed	-0.056249548
51	0xbe03c2f2	-0.12867334
52	0x3e60dfbf	0.21960352
53	0xbe37acb6	-0.17936978
54	0xbe5a606e	-0.21325848
55	0xbdc6cea8	-0.09707385
56	0x3dbd3989	0.092394896
57	0xbe89ccba	-0.26914006
58	0xbd7256b4	-0.059164718
59	0x3e098343	0.13428979
60	0x3ea4aa60	0.32161236
61	0xbdb3f81a	-0.08787556
62	0x3d8e5822	0.06950404
63	0xbd2093c3	-0.039203417
64	0xbf1f95f3	-0.6233818
65	0xbddfed9f	-0.109339945
66	0x3cb61940	0.022228837
67	0x3eb65cb2	0.35617596
68	0xbd67a8ce	-0.05655747
69	0xbe4edb53	-0.20200853
70	0x3dcc41de	0.09973501
71	0x3b855679	0.0040691462
72	0x3da7dc2c	0.08196291
73	0x3e3f2fbc	0.18670553
74	0x3e2b87b1	0.16750981
75	0xbe53b463	-0.20674281
76	0x3e896d36	0.26841134
77	0x3c0ac1ed	0.008469087
78	0xbe131d8d	-0.14366741
79	0x3dc6e7db	0.09712192
80	0x3e49f6b2	0.19723013
81	0x3e40a1f2	0.18811777
82	0xbe96ab42	-0.29427534
83	0xbeb0a2ca	-0.34499198
84	0x3e4b5a32	0.19858626
85	0x3ec4c9e2	0.38435274
86	0x396624b9	0.0002194819
87	0x3e287d30	0.16454005
88	0x3daa4a9a	0.0831501
89	0xbebb980d	-0.36639443
90	0xbc27b270	-0.010235414
91	0x3ed80814	0.42193663
92	0xbe8416a6	-0.2579853
93	0x3d8dad0d	0.069177724
94	0xbe2602ea	-0.16212049
95	0xbe5a2af0	-0.21305442
96	0xbea9d380	-0.33169174
97	0x3c463ee0	0.0120999515
98	0x3ebb67a7	0.36602518
99	0xbeb15086	-0.34631747
100	0x3c52d990	0.012869254
101	0x3e77df93	0.2420638
102	0x3e7b6db6	0.2455357
103	0x3dee452c	0.11634287
104	0xbd83847c	-0.06421754
105	0xbe836726	-0.25664634
106	0x3cf6b847	0.030117167
107	0x3ef7721b	0.48329243
108	0x3e12a367	0.14320146
109	0xbe351f3e	-0.17687699
110	0xbce82780	-0.028339148
111	0x3a647300	0.0008714646
112	0x3f0c0be9	0.54705673
113	0x3fa03d34	1.2518678
114	0xbcb602bc	-0.0222181
115	0xbca2304c	-0.01979842
116	0x3de2e95d	0.11079667
117	0xbdc29674	-0.09501353
118	0x3e2560ec	0.16150254
119	0xbde28cda	-0.110620216
120	0x3ead179e	0.3380708
121	0x3da48a00	0.08034134
122	0x3dadc516	0.08484857
123	0xbe5c51cc	-0.21515578
124	0x3e73e2a4	0.23816925
125	0xbd6ae35a	-0.057345726
126	0xbcd3a798	-0.02583675
127	0x3d5e279e	0.054237
128	0x3d8b2a84	0.067952186
129	0x3c185887	0.00929845
130	0xbc8581d0	-0.016297251
131	0xbb44fdf4	-0.0030058594
132	0x3cb9522a	0.022622187
133	0xbdae6d58	-0.085169494
134	0xbe1826d6	-0.14858565
135	0xbcc03ae8	-0.023465589
136	0x3ed83caa	0.42233783
137	0x3e192116	0.14954028
138	0x3edd8b96	0.43270558
139	0x3bd5b5fd	0.006521939
140	0xbd9b188d	-0.07573042
141	0x3dc1979d	0.09452746
142	0xbddfd402	-0.10929109
143	0xbe94c195	-0.2905394
144	0x3de7d0b8	0.11319107
145	0x3d1f423e	0.038881533
146	0x3d585962	0.052819617
147	0xbe3e9ecf	-0.18615268
148	0xbe9bfac8	-0.30464768
149	0x3e55d879	0.20883359
150	0x3de3ff39	0.11132664
151	0x3e47723f	0.19477175
152	0xbdde080e	-0.1084138
153	0x3d11076f	0.03540748
154	0x3df8fb32	0.12157287
155	0x3cf24f66	0.029578876
156	0xbe0b48db	-0.13602011
157	0xbe2cb819	-0.16867103
158	0xbd9370fb	-0.07199284
159	0x3e2c69cd	0.16837235
160	0x3c7d4644	0.015458647
161	0xba76cb00	-0.00094144046
162	0xbd9975ac	-0.07493147
163	0xbdeb341b	-0.11484548
164	0x3d2faf01	0.042891506
165	0x3ebbf904	0.3671342
166	0x3ceae9ca	0.028675932
167	0xbd8f5b49	-0.06999833
168	0x3df7b110	0.12094319
169	0xbed88fd0	-0.4229722
170	0xbdb21aa6	-0.08696489
171	0xbd8e5a5b	-0.06950828
172	0xbd79d6a0	-0.060995698
173	0x3edc826c	0.43068254
174	0x3e895208	0.26820397
175	0xbdbcda2e	-0.09221302
176	0x3c19923c	0.009373244
177	0x3d9fa868	0.07795793
178	0x3dd3d4d0	0.10343325
179	0x3d52071c	0.05127631
180	0xbdd1a5cb	-0.102367006
181	0x3deb6f2a	0.11495812
182	0x3d6b8497	0.057499494
183	0x3dc8f031	0.09811438
184	0xbda04509	-0.078256674
185	0x3d541d15	0.051785547
186	0xbdd3ddc6	-0.10345034
187	0xbe62c398	-0.22144926
188	0xbe75cf12	-0.24004772
189	0x3e4c38c2	0.19943526
190	0x3db10278	0.08643049
191	0x3db82e6a	0.08993228
192	0xbe7565b2	-0.23964575
193	0xbcaa327c	-0.020776026
194	0xbd7534a0	-0.05986464
195	0x3e9bc5d3	0.30424365
196	0xbdaf3abc	-0.085561246
197	0x3e7e7abd	0.24851508
198	0xbd7c341a	-0.061573125
199	0xbd018f80	-0.031630993
200	0xbea0ac89	-0.31381634
201	0xbe90983f	-0.28241155
202	0xbd6551cd	-0.055986214
203	0xbdbd17c0	-0.092330456
204	0xbf14dcd1	-0.5814944
205	0x3e33b6cf	0.17550205
206	0x3e2b5bba	0.1673421
207	0x3e93a60e	0.28837627
208	0xbe469bce	-0.19395372
209	0x3ea7ca30	0.32771444
210	0xbf369bda	-0.7133156
211	0x3d967ce3	0.07348039
212	0x3e683df2	0.2267988
213	0x3cf896fb	0.03034543
214	0xbe448468	-0.19191134
215	0xbe2308ed	-0.15921374
216	0x3d539db0	0.051664054
217	0xbe72c694	-0.23708564
218	0xbde6ec86	-0.11275582
219	0x3e86febc	0.26366222
220	0x3f03fccb	0.51557606
221	0x3ec222cc	0.37917173
222	0x3d817da3	0.063227914
223	0xbda238c0	-0.079209805
224	0x3d14407a	0.036194302
225	0x3daa0c82	0.08303167
226	0x3e8d38b1	0.27582315
227	0x3bda804f	0.0066681276
228	0x3d66530b	0.05623154
229	0x3edf96c0	0.436697
230	0x3e211598	0.15730894
231	0x3d9d8e4b	0.07693156
232	0x3cdd294a	0.026997227
233	0x3c2f2212	0.010689275
234	0xbe7d8063	-0.24756007
235	0x3efb1b59	0.49044302
236	0x3e79c0cc	0.24389952
237	0xbe8bdce1	-0.27316955
238	0xbddbcb5a	-0.107321456
239	0x3db15292	0.08658327
240	0xbe2ae1d3	-0.16687708
241	0xbea926a7	-0.33037302
242	0x3d801d51	0.06255592
243	0x3d0fb20d	0.03508191
244	0xbd6112a3	-0.054949414
245	0xbe213ca4	-0.15745789
246	0x3dae41de	0.08508657
247	0x3d897fff	0.067138664
248	0x3e97d077	0.29651234
249	0x3c8b2f90	0.016990453
250	0x3dd863f4	0.105659395
251	0x3d8c1eb8	0.06841797
252	0x3f2bba84	0.67081475
253	0x3e5dc1bd	0.21655937
254	0x3d83f06e	0.06442343
255	0x3a918371	0.0011101795

network.MLP.2.bias f4 [64]
0	0xbf15b3db	-0.5847756
1	0x3e863a23	0.2621623
2	0x3f0321cd	0.5122345
3	0x3d1e9de9	0.038724814
4	0xbe1ebb9e	-0.15501258
5	0xbe5f28bf	-0.21792887
6	0x3db549ea	0.088519886
7	0xbe928ddd	-0.28623858
8	0xbe2d953b	-0.16951458
9	0xbcef8350	-0.02923742
10	0x3ea50050	0.322268
11	0x3f038858	0.5137992
12	0xbd6ce896	-0.057839
13	0x3e2c565f	0.16829823
14	0x3dfe33e9	0.12412245
15	0xbd537c57	-0.05163225
16	0xbeb4e7cc	-0.35333097
17	0x3e6d5c5b	0.23179762
18	0xbf056dc6	-0.52120626
19	0xbd13d9a1	-0.03609622
20	0xbdb1fecc	-0.08691177
21	0xbe352cf6	-0.17692932
22	0x3eb39b8e	0.35079616
23	0x3e3a3c42	0.18187049
24	0xbe131ef3	-0.14367275
25	0xbed82513	-0.42215785
26	0xbeefb662	-0.46818835
27	0x3ef64622	0.48100382
28	0xbf1b3b79	-0.60637623
29	0x3e1446a5	0.14480074
30	0xbe9b59c1	-0.30341914
31	0x3e113fae	0.14184448
32	0xbe2de854	-0.16983157
33	0xbdeda13a	-0.11603017
34	0x3ef97ad1	0.48726514
35	0xbe72752b	-0.23677509
36	0x3e3669a3	0.17813735
37	0x3e7fe573	0.24989872
38	0xbe320648	-0.17385209
39	0xbdb835c6	-0.089946315
40	0x3f3eaa7a	0.74478877
41	0x3e73cb52	0.2380803
42	0x3dbc8e0d	0.092067815
43	0x3dc7facb	0.09764632
44	0xbefe50d6	-0.49671048
45	0xbd977d9b	-0.07397004
46	0xbe8a9a6e	-0.27070946
47	0x3e63ef77	0.22259317
48	0x3e70d447	0.23518477
49	0x3e94a759	0.29033926
50	0xbe28d2fa	-0.16486731
51	0x3dfe00c2	0.12402488
52	0xbe879a89	-0.26485088
53	0x3e87cca7	0.26523325
54	0x3ecd2195	0.40064684
55	0xbea1b59c	-0.3158387
56	0xbeec26a9	-0.46123245
57	0xbdf95538	-0.12174457
58	0x3bbe8a8c	0.005814856
59	0xbe07cc89	-0.13261618
60	0xbe95f0ce	-0.29285282
61	0x3ee79e80	0.45238113
62	0xbe62d880	-0.221529
63	0x3d037ea1	0.032103185

network.MLP.3.weight f4 [64]
0	0x3f731732	0.9495727
1	0x3fed34b3	1.8531708
2	0x3f5867a9	0.8453317
3	0x3fe5b2f1	1.7945234
4	0x3f7e4aa2	0.9933263
5	0x3fadcbba	1.3577797
6	0x3fba6dac	1.4564719
7	0x3fc70089	1.5547038
8	0x3fccb497	1.5992612
9	0x3fc611de	1.5474203
10	0x3f5956cb	0.8489806
11	0x3f576b7f	0.841484
12	0x3fbde8be	1.4836652
13	0x3fc38ce0	1.5277367
14	0x3fcf6d43	1.6205219
15	0x3fb6c419	1.4278594
16	0x3f075b9d	0.52874166
17	0x3faae1dc	1.3350177
18	0x3f603752	0.8758441
19	0x3f91b509	1.1383373
20	0x3f9862f7	1.1905202
21	0x3fcac08a	1.5840008
22	0x3f30284b	0.6881148
23	0x3fac5879	1.34645
24	0x3fcf5d96	1.6200435
25	0x3f7fe692	0.999612
26	0x3fda52b7	1.7056493
27	0x3f87833a	1.0586922
28	0x3f0d0a6c	0.5509403
29	0x3fbfa1e1	1.4971277
30	0x3fd6cfba	1.6782143
31	0x3f43aa9b	0.764322
32	0x3fcee62e	1.6163995
33	0x3fbd2a5d	1.4778553
34	0x3f394d78	0.7238383
35	0x3f95ebf4	1.1712632
36	0x3fdb844d	1.714975
37	0x3f57e612	0.84335434
38	0x3f7c30ee	0.9851216
39	0x3fa54484	1.2911534
40	0x3f43a4f2	0.7642356
41	0x3fa4fb35	1.2889162
42	0x3fb94707	1.4474801
43	0x3fc5357f	1.5406951
44	0x3f6622d0	0.8989687
45	0x3fcbee30	1.5932064
46	0x3e2ca1d3	0.16858606
47	0x3fa33f4b	1.275369
48	0x3fdc2b68	1.7200747
49	0x3fb2b3a1	1.3961068
50	0x3fc48c07	1.5355233
51	0x3ff6db0d	1.9285599
52	0x40011c6b	2.0173595
53	0x3fb77d78	1.4335165
54	0x3f76ed02	0.96455395
55	0x3fa35444	1.2760091
56	0x3e821eb8	0.25414062
57	0x3fa87c73	1.3162979
58	0x3fe28e39	1.7699653
59	0x3fbead46	1.4896629
60	0x3f5d152e	0.8636044
61	0x3f8f451e	1.1192968
62	0x3f644b84	0.8917773
63	0x3fb63f87	1.4238137

network.MLP.3.bias f4 [64]
0	0xbe3abce9	-0.18236126
1	0x3c746217	0.014915965
2	0x3e2182d4	0.15772563
3	0x3dda6fb1	0.10665835
4	0xbc44abdf	-0.012003868
5	0x3e71bd3a	0.2360734
6	0x3de8bf22	0.11364581
7	0x3c8cd2ae	0.017190304
8	0x3e37c7ca	0.17947307
9	0x3dff829c	0.12476084
10	0x3e1ed692	0.1551154
11	0x3decf417	0.11569994
12	0x3d9278ba	0.07151933
13	0x3dff0eba	0.12453981
14	0x3d5f73f4	0.05455394
15	0x3dc69e73	0.096981905
16	0xbe351fbb	-0.17687885
17	0x3d8d482a	0.0689853
18	0x3ed45713	0.41472682
19	0x3e8c4454	0.2739588
20	0x3e91d6a4	0.2848407
21	0x3e24e3f1	0.16102578
22	0xbd9552cb	-0.07291182
23	0x3d140c94	0.036144808
24	0x3de58c86	0.11208443
25	0x3e6ee806	0.23330697
26	0xbdf68f9f	-0.12039112
27	0x3d5a2a8b	0.05326323
28	0x3eb8b156	0.36072797
29	0x3dd53d58	0.10412091
30	0x3e11953f	0.14217089
31	0x3dab4fbc	0.083648175
32	0x3e317997	0.17331539
33	0x3d875cbb	0.06609484
34	0x3ca45ab9	0.020062791
35	0x3e183daf	0.1486728
36	0x3b194989	0.0023389778
37	0x3ddd671d	0.10810683
38	0x3e2d6e23	0.16936545
39	0x3d348638	0.044073313
40	0xbc43f980	-0.011961341
41	0x3cef64ed	0.02922293
42	0x3d9cf7f5	0.076644816
43	0x3d818fa2	0.06326224
44	0xbe498c2f	-0.19682382
45	0x3dd67d3e	0.10473107
46	0x3f54e69f	0.831644
47	0x3d068bc1	0.032848123
48	0x3db056dc	0.08610317
49	0x3e059fcd	0.1304924
50	0xbb025bdf	-0.0019891185
51	0x3e5b7527	0.21431409
52	0x3dadcefa	0.08486743
53	0x3dbdcc5d	0.09267495
54	0x3e878084	0.26465237
55	0x3be8e898	0.0071078055
56	0x3f46253b	0.7740056
57	0xbd1fdc42	-0.039028414
58	0x3d9c74df	0.07639479
59	0x3e62a08e	0.22131559
60	0x3ccf55ab	0.025309404
61	0x3e5910a9	0.21197762
62	0xbe48ef06	-0.1962243
63	0x3d80a71a	0.06281872

critic.0.weight f4 [1, 64]
0	0xbece2cfd	-0.40268698
1	0x3d847ff7	0.0646972
2	0x3e929fb7	0.28637478
3	0x3d9bc657	0.0760619
4	0x3d96fd44	0.07372525
5	0x3d6a951b	0.057271104
6	0x3dcbe681	0.099560745
7	0x3c0b60d2	0.0085069705
8	0x3d85aa82	0.065266624
9	0x3d0353dc	0.032062396
10	0x3e2b5c16	0.16734347
11	0x3e3be502	0.18349078
12	0x3d38c586	0.045110248
13	0x3db26086	0.08709817
14	0x3d66fa78	0.05639121
15	0x3d305b0f	0.04305559
16	0xbcebe1cd	-0.028794194
17	0x3de63110	0.11239827
18	0x3db246d5	0.087049164
19	0x3e01b368	0.12666094
20	0x3dab7a98	0.08372992
21	0x3d576f89	0.052596603
22	0x3e13e46b	0.14442603
23	0x3dcb16b3	0.09916439
24	0x3d7959a2	0.060876496
25	0x3db03266	0.08603363
26	0x3cb11397	0.021615786
27	0x3dfb93a8	0.122840226
28	0x3e08f450	0.13374448
29	0x3daddb6d	0.08489118
30	0x3d249670	0.04018253
31	0x3e15f381	0.1464367
32	0x3d8858f1	0.06657589
33	0x3d82cc92	0.06386675
34	0x3e0818ba	0.13290682
35	0x3d70e8bb	0.0588157
36	0x3dab3cba	0.08361192
37	0x3de91032	0.11380042
38	0x3ddd7eb8	0.10815185
39	0x3d09f503	0.033680927
40	0x3e6ea1f0	0.23303962
41	0x3dd9f5c3	0.106425785
42	0x3d9dca26	0.077045724
43	0x3dbaf9d7	0.091296844
44	0xbe701b35	-0.23447879
45	0x3d8ff9b0	0.07030046
46	0x3ed04169	0.40674904
47	0x3de46a7e	0.11153124
48	0x3d5eaa16	0.054361425
49	0x3ddf2e48	0.10897499
50	0x3db24729	0.08704979
51	0x3d6d06d2	0.057867832
52	0x3d2d0394	0.04223974
53	0x3e18cf12	0.14922741
54	0x3e90ffba	0.28320104
55	0x3c3a4d33	0.011370945
56	0x3e9607ab	0.29302725
57	0x3d44d6a6	0.048056267
58	0x3ce18b3c	0.027532212
59	0x3d7645f9	0.060125325
60	0x3d84e269	0.06488497
61	0x3e95424b	0.2915214
62	0xbcae8ec5	-0.021308312
63	0x3db3a5cc	0.087718576

actor.0.weight f4 [22, 64]
0	0x3d1adf21	0.03781045
1	0x3de1ef8a	0.110320166
2	0xbd42df35	-0.047576148
3	0xbe4376eb	-0.19088332
4	0x3deee379	0.11664481
5	0x3e016f23	0.12640052
6	0xbe70094c	-0.23441046
7	0xbde2cda8	-0.11074382
8	0x3ed84977	0.4224355
9	0x3d998eff	0.074979775
10	0x3ecc35a8	0.39884686
11	0x3e38df88	0.1805402
12	0xbe8632dd	-0.2621068
13	0xbf37d7b0	-0.7181349
14	0xbece00f3	-0.402351
15	0xbf222332	-0.63334954
16	0xbebd9f9d	-0.37035838
17	0x3e15350a	0.14571014
18	0xbe00455d	-0.1252646
19	0xbf068e0a	-0.52560484
20	0x3f02c2e0	0.51078606
21	0x3e898e74	0.26866496
22	0x3e0488c2	0.12942794
23	0xbf0746bc	-0.5284231
24	0x3ec0c153	0.37647495
25	0x3dc2a959	0.09504957
26	0xbe2eb783	-0.17062192
27	0x3e8fdb5d	0.28097048
28	0xbe870da5	-0.26377597
29	0x3bf0dd42	0.0073505947
30	0x3e72c0c9	0.23706354
31	0x3e8bd126	0.27308005
32	0x3eab5e2d	0.33470288
33	0xbe431c6a	-0.19053808
34	0x3d8c7082	0.06857397
35	0x3e75afde	0.2399287
36	0xbebffc0e	-0.3749699
37	0x3e84cc5d	0.25937167
38	0x3d9401e0	0.0722692
39	0xbe8610d9	-0.2618473
40	0xbaef360b	-0.0018250359
41	0x3e2bfaee	0.16794941
42	0xbeec94c4	-0.4620725
43	0x3ea50de2	0.32237154
44	0xbdeef380	-0.11667538
45	0x3f192b29	0.5983148
46	0x3d1b4328	0.037905842
47	0x3e620294	0.22071296
48	0x3e552c38	0.2081765
49	0xbd746f98	-0.059676737
50	0x3ccb49a1	0.024815382
51	0x3e023d7b	0.12718765
52	0x3f243ee7	0.6415848
53	0x3ed8285e	0.42218298
54	0x3e5c676d	0.21523829
55	0xbeaedc33	-0.34152374
56	0xbe27acf3	-0.16374569
57	0xbeb9e996	-0.36311024
58	0xbf27e120	-0.6557789
59	0xbedb007e	-0.42773813
60	0xbe529a54	-0.20566684
61	0xbed492c0	-0.4151821
62	0xbe516edc	-0.20452446
63	0xbec5babf	-0.38619038
64	0xbdb646b7	-0.089002065
65	0xbf546e39	-0.82980686
66	0x3dddd636	0.10831873
67	0xbf396444	-0.7241862
68	0x3e9de493	0.3083845
69	0x3e5b379e	0.21407935
70	0xbd9fe5ef	-0.07807528
71	0xbe682e90	-0.22674012
72	0x3f1268bb	0.57191056
73	0x3b2c0075	0.002624539
74	0x3dd0bd3e	0.10192345
75	0xbd028e4c	-0.031873986
76	0xbe117814	-0.14205962
77	0x3dbd3129	0.09237892
78	0xbf314968	-0.69252634
79	0x3d89841f	0.06714653
80	0xbe57bc8d	-0.2106802
81	0xbda012f5	-0.07816116
82	0x3e711141	0.23541738
83	0xbeac4574	-0.3364674
84	0x3e80820e	0.25099224
85	0xbc8d23fa	-0.017229069
86	0x3db0e57b	0.0863752
87	0xbd9f81ee	-0.07788454
88	0x3ec5c1e9	0.38624504
89	0xbdeedd16	-0.116632625
90	0x3d85a399	0.065253444
91	0x3e5d73ca	0.21626201
92	0x3e6c9da8	0.23107016
93	0xbee18c8e	-0.44052547
94	0x3df080d6	0.117433235
95	0xbdf7081d	-0.12062094
96	0x3ef79e45	0.48362938
97	0x3ec7b073	0.39001808
98	0x3e661727	0.2246977
99	0x3e932165	0.28736416
100	0xbdd282a9	-0.10278828
101	0x3e47c2d7	0.19507919
102	0xbdea9d9e	-0.11455844
103	0xbb615d2f	-0.0034387817
104	0x3d60e27b	0.05490349
105	0xbf25aa6d	-0.64713174
106	0x3f00ee52	0.5036365
107	0x3e514cd3	0.20439462
108	0xbe6cd609	-0.23128523
109	0x3e59ad6e	0.21257564
110	0x3cc630ad	0.024193132
111	0xbd217b92	-0.039424486
112	0xbbc8ba44	-0.00612572
113	0x3ea599f8	0.3234403
114	0xbea43d33	-0.3207794
115	0x3f0712e6	0.5276321
116	0xbe692bdc	-0.22770637
117	0x3eabf339	0.33584002
118	0x3e5a81ee	0.21338627
119	0x3cea7fab	0.02862533
120	0xbd2eed1d	-0.042706598
121	0x3eb3894f	0.35065696
122	0x3f1be577	0.6089701
123	0xbf05bab1	-0.52237993
124	0xbeae14f5	-0.34000364
125	0x3e1a5cc4	0.1507445
126	0xbe0493f2	-0.12947062
127	0xbe52279b	-0.20522921
128	0xbda9a059	-0.08282537
129	0xbde9337d	-0.11386774
130	0x3cacb63c	0.02108299
131	0x3eea3f89	0.45751598
132	0xbeb86441	-0.36013988
133	0x3dcdde06	0.10052113
134	0xbde1613f	-0.11004876
135	0x3f11cbca	0.5695158
136	0x3ebd964b	0.37028727
137	0xbddb4172	-0.10705842
138	0xbd19e41f	-0.03757107
139	0x3e11387a	0.141817
140	0x3eaa6b9d	0.33285227
141	0x3e384ee4	0.17998844
142	0xbd580614	-0.05274017
143	0xbc7d977c	-0.015478011
144	0xbe3563d1	-0.17713858
145	0x3d312706	0.043250106
146	0x3d9ea279	0.07745833
147	0x3cb86def	0.022513358
148	0x3e34c400	0.17652893
149	0x3ecb79ca	0.39741355
150	0x3e0fd984	0.1404782
151	0xbea2e9fe	-0.31819147
152	0x3c9b1697	0.01893167
153	0x3c27c090	0.010238782
154	0xbe798174	-0.24365789
155	0xbd7afcaf	-0.061276134
156	0xbc2c45cb	-0.010514687
157	0xbec033ac	-0.37539423
158	0x3eab280b	0.33428988
159	0x3e42c40e	0.19020101
160	0x3ed1d330	0.40981436
161	0x3e063733	0.13106994
162	0x3d1e16cc	0.03859596
163	0x3e8e8827	0.2783825
164	0xbe1af60d	-0.15132923
165	0x3e512c4d	0.20427056
166	0x3d3f0af5	0.04664131
167	0xbdbbf4dc	-0.091775626
168	0x3cffc153	0.031220114
169	0xbea506c2	-0.32231718
170	0x3de32fc4	0.11093095
171	0xbebcbfb1	-0.36865
172	0xbe8f1213	-0.27943477
173	0xbe6b6840	-0.22988987
174	0x3e025703	0.12728505
175	0xbe5fdc66	-0.21861419
176	0x3e19b84f	0.15011714
177	0xbd92d0e2	-0.071687475
178	0xbe66b908	-0.22531521
179	0xbd6e2350	-0.058139145
180	0xbe87fcf1	-0.26560166
181	0xbde2f05b	-0.110810004
182	0x3c1114f6	0.008855095
183	0x3df1023d	0.11768005
184	0xbe3acf79	-0.18243207
185	0xbb23c039	-0.00249864
186	0x3dd6be6c	0.10485539
187	0x3e1754dd	0.14778467
188	0xbe7a6dbe	-0.24455926
189	0xbd9db1aa	-0.07699902
190	0xbe86be83	-0.26317224
191	0x3d752d9f	0.05985796
192	0xbdaefb65	-0.085440435
193	0xbe915b6d	-0.28390065
194	0x3dc2295b	0.09480544
195	0x3e982666	0.29716796
196	0xbe9e1e3d	-0.30882445
197	0x3dbab5ea	0.091167286
198	0x3efc2fca	0.4925521
199	0x3e1a0311	0.15040232
200	0x3e8ae810	0.27130175
201	0xbe22e53f	-0.15907763
202	0xbdb57e51	-0.088619836
203	0xbe79159b	-0.24324648
204	0x3db201e7	0.08691769
205	0xbee31156	-0.44349164
206	0xbe71f9bc	-0.23630422
207	0xbd93dc74	-0.072197825
208	0xbe31718a	-0.17328468
209	0xbcebd891	-0.02878979
210	0xbdbfd633	-0.09367027
211	0x3eebbbef	0.4604182
212	0xbeb0fc94	-0.34567702
213	0x3ee793a1	0.4522982
214	0x3d4d6a0d	0.050149966
215	0x3c84886b	0.01617833
216	0x3e179a15	0.14804871
217	0x3cadcf8b	0.021217128
218	0xbe1c9c14	-0.15293914
219	0xbe3cd381	-0.18440057
220	0x3f076887	0.5289387
221	0xbcce460b	-0.025179883
222	0x3e99869a	0.29985505
223	0x3d4e1262	0.0503105
224	0x3ee8d1c5	0.4547254
225	0x3dd16357	0.10224026
226	0xbdcf9dcc	-0.10137519
227	0xbee929fd	-0.45539847
228	0xbdbb234c	-0.09137592
229	0x3c4161c2	0.011803092
230	0x3eb98a8f	0.36238524
231	0xbead8bc7	-0.33895704
232	0xbacba1fa	-0.0015535944
233	0x3ed93b18	0.42427897
234	0x3eb9feb9	0.3632715
235	0xbe639f84	-0.22228819
236	0x3d575465	0.05257072
237	0x3dd83929	0.105577774
238	0x3de19810	0.11015332
239	0xbea65cbf	-0.32492635
240	0xbeb1492d	-0.3462614
241	0xbdd252d0	-0.102697015
242	0x3ea6b6b5	0.3256127
243	0xbd877d0b	-0.06615647
244	0xbe854187	-0.26026556
245	0xbf21e625	-0.632418
246	0x3e804c98	0.25058436
247	0x3e6dcc9c	0.23222584
248	0xbe07c8d2	-0.132602
249	0x3ea8cad2	0.3296724
250	0xbec124fb	-0.37723526
251	0x3eef852d	0.46781293
252	0x3e41ffe3	0.1894527
253	0x3e4af334	0.19819337
254	0xbeb5ea63	-0.35530385
255	0xbed975c6	-0.42472667

actor.0.bias f4 [22]
0	0x3d474079	0.04864547
1	0x3d9057ff	0.07048034
2	0x3d928cb7	0.071557455
3	0xbc1fd6c4	-0.009755794
4	0x3cd21d69	0.02564879
5	0xbc6e38a8	-0.014539875
6	0xbd698197	-0.057008352
7	0xbd2e1f51	-0.042510334
8	0xbde138df	-0.109971754
9	0xbc117d1d	-0.008879927
10	0xbbe883dd	-0.0070957975
11	0x3dbfc01d	0.093628146
12	0x3b99ddde	0.004695638
13	0x3bf763b9	0.0075497297
14	0x3a8e752e	0.0010868663
15	0xba2f23ca	-0.0006681053
16	0xbcf25bc8	-0.02958478
17	0xbd2a9834	-0.04164906
18	0xbc7d4c22	-0.015460046
19	0xbd44a9db	-0.04801355
20	0x3beb6a74	0.007184321
21	0x3dba97cc	0.09110984
