paper/training_results/seed-4/momarl/checkpoints/mlp_(negotiation=False)_(num_agents=12)_(window=False)_(reduced_space=False)_(fixed_savings_rate=False)_(rewards=['inverse_global_temperature', 'global_economic_output'])(wgen=uniform)(num_ensembles=1)(seed=4)_2025-01-16_22:06:51_w=[0.5225 0.4775].pt (torch, 38168 bytes, 9 tensors)

network.MLP.0.weight f4 [64, 18]
00000000: 0436 abbd fd9f aabc c46e d7bd 0360 b13d
00000010: 8483 b8bd 8001 3ebe b7d8 123d b070 4dbd
00000020: 6e90 bebd f7d1 1fbe 6c45 473e 9bbe 2cbd
00000030: eed5 5ebd 9f66 9abc 77d4 88bd 6851 bcbd
00000040: ca46 8ebd 2117 43bd f037 fcbd 56a1 ec3e
00000050: ffa4 62bc 44cd c8be d289 cdbd 1fa8 19be
00000060: 2033 253d 08ef f23e e429 7bbe ab33 05bf
00000070: 626d 573e d81a 9abe 4ab5 9239 8b75 99bf
00000080: ae9f 8abe b4b2 3fbe f31a b0bd 87f7 20bd
00000090: 19cd 32be e611 273c f4d7 533d 5106 633f
000000a0: 7762 b4bf a814 4d3e cf71 ad3d becf 85bd
000000b0: 9134 143c fd85 923d 3003 c53c 6dcd 58bc
000000c0: 1234 d33c b85e 15bc 5e39 c03d e1ff bb3e
000000d0: 6e8c 7ebc 959f 903d 871a c93c 12eb b2ba
000000e0: fca7 6a3d 68bf dbbe 08f4 543f 1b54 debe
000000f0: 3183 03bd d721 1cbd ee24 853d 4e1b a43d
00000100: 786c df3d ede9 403c 13f6 543c 3d73 b23d
00000110: 6a69 003d 8ed5 4f3d b31e 403d 99e1 843c
00000120: 6c51 c3bd 6564 a0be 92c9 ef3d f299 48bf
00000130: 47bb 9a3e ceba 6f3d c9df ca3d 4ebc 46bc
00000140: 82a6 043e 49f7 53be 5bb7 dcbd f267 f3bd
00000150: e418 553c f986 833e e3bf 713e 1842 893e
00000160: d6c6 3b3e a8e5 c9be 5ba5 e6be ac06 213f
00000170: eaa3 063e b7a3 12c0 c0d6 033f aeed 06bf
00000180: 1c4f 603d 0101 90bd f8c7 59bd 9082 b23d
00000190: 2a02 ebbd 7a0b f6bd 99b5 203e 0502 063e
000001a0: 37f2 de3e 2e56 243d d82f c8be b66b b9be
000001b0: cb7e 82be abc0 8dbf 8269 4abd 18ad 7e3f
000001c0: 51db a13e 6535 ba3e 1d68 be3e c74d f63c
000001d0: c97c c73d 3fb7 a73e 1a07 82bc e81e 13bc
000001e0: 50e1 21be 4572 7d3e dacd 893e 28eb 153d
000001f0: f37b 873e 15fa c6be 7236 86be 2fe9 2b3f
00000200: f751 7d3d 79d1 dbbf 2ccb d23e 4829 10bf
00000210: bd0e 933d ff07 893e 6685 303d fa9d 643e
00000220: 5192 903d ef59 fd3d db12 283d c0db 30bd
00000230: 0767 06bd f814 243f ceb6 ac3e eb22 e3bd
00000240: dc4e 1ebe 5932 9e3d e346 953d 13f2 b7bf
00000250: 7834 813f 2714 a9be 4b57 573e 43a2 1c3e
00000260: 0ec7 a3be c8f4 0abe fb00 9e3e c15d 88bc
00000270: af68 2dbd 7a80 c0bc c267 52bc c374 20be
00000280: 52ec 6e3e 9b88 8dbe 714e cd3c 1d7c 13c0
00000290: bff6 843d cd4d 2c3e 472a ef3e 1aa9 80be
000002a0: c5bd 953c 151f 013e 78ad 44be f2ab bc3d
000002b0: d259 f83d d714 3fbe b110 ed3e 4a46 69be
000002c0: 77ae f4bd 5de5 babb b25e 54bd b328 8a3d
000002d0: e63b 0e3e 06b4 eb3d d5f1 013d df0f 7ebe
000002e0: 422f 893e 1990 96bf bd13 1f3d 2731 023d
000002f0: bc5d 033c a7a8 29ba 29a2 183d 86cf c73b
00000300: 95a7 8abc 8b43 20bd fbcb 423c fcad 74bc
00000310: 8b64 02bd 804d e7ba 5123 a1bd f1dc d93e
00000320: e254 413d 9cfd 08bf 0728 80bf 351a 9a3e
00000330: 76fc 64be 2bc9 a4be 1a27 5f3d adfa 22be
00000340: dc7c 8a3e d326 e0be ff5f 0f3e f1bb 46bf
00000350: 79e1 623e 9a33 2abf 75b2 27bf 2e2c 15bd
00000360: ad47 dbbc 6ced febf fe60 8fbd 89ea df3d
00000370: 635b 63bf 9b89 0e3f c022 293e e395 a2bd
00000380: 1191 d63d dc0b 273e e131 ea3d 89f9 173c
00000390: 4905 e2bd 411f c33d 366d 0fbd 72ba 8c3e
000003a0: 77cc 183e d159 0f3b 7f8e 32bc a464 c63e
000003b0: 8e96 1abe 2da6 1dbf 401f 81be ff37 1f3f
000003c0: e3d1 50be d506 6a3d a286 0439 3b83 8f3e
000003d0: c687 843c e6c9 18bf e419 0fbf 0185 de3e
000003e0: 275b a2be 57b5 6e3e 319b 323d 6d52 423e
000003f0: 190a 2fbe 6f15 ce3d 1c23 ab3d d069 ccbe
-0.08359912 -0.020828241 -0.10519174 0.08660891 -0.090094596 -0.1855526 0.035851207 -0.050156295
-0.093048915 -0.15607439 0.19460076 -0.042173963 -0.054403238 -0.018847762 -0.066811495 -0.091952145
-0.06947096 -0.04762948 -0.12315357 0.4621684 -0.013833283 -0.39219105 -0.10036053 -0.1500554
0.04033196 0.4744799 -0.24527699 -0.52031964 0.2103782 -0.30098605 0.0002798236 -1.1988996
-0.2707495 -0.18720514 -0.0859889 -0.03929856 -0.17461051 0.010197138 0.05171962 0.88681513
-1.4092549 0.20027411 0.08468973 -0.06533764 0.009045736 0.071544625 0.024049371 -0.013232571
0.025781665 -0.009116821 0.09385942 0.36718658 -0.015536411 0.07061688 0.024548782 -0.0013650379
0.05728911 -0.4291947 0.8318486 -0.43423542 -0.032107536 -0.03811821 0.065011844 0.080130205
0.10909361 0.011774522 0.012998122 0.08713386 0.03135053 0.05074077 0.046904277 0.016220855
-0.09537014 -0.31326595 0.11708368 -0.783599 0.30221006 0.05852776 0.09905965 -0.012129856
0.12954143 -0.206998 -0.1077716 -0.1188506 0.013006423 0.25688913 0.23608355 0.26808238
0.18337569 -0.39433026 -0.4504803 0.62900805 0.13148466 -2.2912424 0.5149956 -0.5270642
0.054762945 -0.070314415 -0.05316922 0.08716309 -0.11475022 -0.12013908 0.15694274 0.13086708
0.4354417 0.04012125 -0.39099002 -0.3621499 -0.2548736 -1.1074423 -0.049417026 0.9948287
0.31612638 0.36368862 0.37188807 0.030066384 0.09740598 0.32756993 -0.015872527 -0.008979537
-0.15808606 0.24750622 0.26914865 0.036601216 0.26461753 -0.38862672 -0.26213413 0.67152685
0.061845746 -1.7173301 0.41170633 -0.5631299 0.071805455 0.26763913 0.04309597 0.22325888
0.07059158 0.12370669 0.041033607 -0.04317832 -0.0328131 0.64094496 0.3373322 -0.110906444
-0.1545977 0.07724447 0.07288911 -1.437075 1.0094137 -0.33023188 0.21029393 0.15296273
-0.31987804 -0.13569939 0.30860123 -0.016646268 -0.042336162 -0.023498762 -0.012842121 -0.15669541
0.23332337 -0.27643284 0.025061818 -2.3044503 0.064923756 0.16826554 0.46711943 -0.25129014
0.018278966 0.12609513 -0.19206798 0.092124835 0.12126507 -0.18660294 0.46301797 -0.2278072
-0.11947339 -0.0057036118 -0.05184812 0.06746044 0.13890037 0.11508946 0.03172477 -0.24810742
0.26793867 -1.1762725 0.038837183 0.031785157 0.0080179535 -0.00064719695 0.037264023 0.006097737
-0.016925612 -0.039126914 0.011889453 -0.014934059 -0.031834166 -0.0017646998 -0.07868064 0.42551377
0.04720009 -0.5351198 -1.0012215 0.3009812 -0.22361931 -0.3218473 0.05448065 -0.15915938
0.27048385 -0.4377962 0.14001463 -0.77630526 0.22156323 -0.6648499 -0.6550668 -0.036419086
-0.026767576 -1.9916205 -0.07000922 0.10933406 -0.8881132 0.5567872 0.16517162 -0.07938745
0.10476888 0.16313118 0.11435295 0.009275802 -0.11036164 0.095274456 -0.03501626 0.27485996
0.14921747 0.0021873603 -0.0108982315 0.38748658 -0.15096495 -0.6158169 -0.25219154 0.6219482
-0.20392565 0.05713542 0.00012638656 0.28029808 0.016178023 -0.5968307 -0.5589888 0.4346085
-0.3171017 0.23311363 0.043605033 0.18976755 -0.17093696 0.10062682 0.08356306 -0.3992448

network.MLP.0.bias f4 [64]
00000000: b1a5 d6ba 82af a5bc fbac 29bf 164c 333f
00000010: db72 07bd d724 f13d 0fcd 89ba 7507 94bd
00000020: a16b e63c 2107 42be aa8f fd3e 83b1 063e
00000030: 20b6 3fbf 06ef 83be 64a5 cd3b 1691 f8ba
00000040: b565 dabd 220a 7b3e 1891 da3b ef46 eebe
00000050: b41a 263d abf1 b03e a4ce e83d e4af 57bf
00000060: fd52 4cbd a074 4dbe 7345 803e 2fb0 893f
00000070: ff10 11be b79d 8a3d b8e3 583e cbdc 14bf
00000080: 2ebf cc3e a2f3 03be 65b0 8fbf d1ec 893e
00000090: cfdb ac3d 7f7f 333e 844e 5dbc ddab bcbd
000000a0: 583f 8abc e308 573e 0921 5cbf a733 09bf
000000b0: 8514 d73d 857b d2be 81d7 893e 4933 ae3e
000000c0: dc14 823e e6c9 82be 0c68 10be 36a4 91be
000000d0: 88a8 0abe aeda 2ebb 2792 d93e 8e26 6bbe
000000e0: f485 b5bd 23a9 2d3e 291f cabd 55b9 0fba
000000f0: b00a 4dbe 9358 b63d 65f6 513f 4530 19be
-0.0016376284 -0.02022529 -0.6627957 0.7003797 -0.03306852 0.11774605 -0.0010513383 -0.07227985
0.028127493 -0.18948032 0.4952367 0.13153653 -0.74887276 -0.25768298 0.0062758196 -0.0018964137
-0.1066393 0.24515584 0.0066701286 -0.46538493 0.04055281 0.34559378 0.113675386 -0.8425276
-0.04988383 -0.2006402 0.25052986 1.0756892 -0.1416664 0.06768363 0.21180618 -0.58149403
0.3998961 -0.12885907 -1.1225706 0.2693849 0.08440363 0.17529105 -0.013507489 -0.09212468
-0.016875908 0.20999484 -0.8598791 -0.5359444 0.10501961 -0.41109863 0.2692223 0.34023502
0.2540654 -0.2554466 -0.1410219 -0.28445596 -0.13540852 -0.0026680636 0.42494318 -0.22963926
-0.0886344 0.16959052 -0.098692246 -0.0005482634 -0.20023608 0.08903613 0.82016593 -0.1495982

network.MLP.2.weight f4 [64, 64]
00000000: e7e9 0d3e 99e7 c1bd 444e bdbd 6e30 80bd
00000010: aa47 c13d 410b a5be 9993 3e3e 48f6 c0be
00000020: 64df 393d ed07 10be 4c3e 3fbe 795d 4e3e
00000030: 8c64 093c 15eb 70bd e835 203e f739 0e3e
00000040: 2b59 953d 4ea2 5d3d 6369 5fbd 7ec1 1f3f
00000050: 828a 5d3d de1b 243e 218e 2fbf 0a0c 18be
00000060: 142e d3bd b3b4 02be c189 d43d 83d2 063e
00000070: f518 98bd d6c1 c43d 0a37 7abd ba36 453d
00000080: 02f8 bc3d 186e e83d 85b2 623e 6bf2 fdbb
00000090: 476f f23e e938 2b3e 3aa1 873e 73ad 39bd
000000a0: 0cdc c2bd eb7a c7bd ac4c 823e 678d cabd
000000b0: 2e14 98bc fe55 fe3e 2116 223b c6cd f0bd
000000c0: 6354 a7bc 62d2 b3be 4dc9 adbc bf90 f13c
000000d0: b283 683e e2a8 773d 8cd2 64bd 85e3 87bd
000000e0: 4a2b f43d 6186 9abe 8ea2 81be 7cca 973d
000000f0: d88c 23bd 58e0 153d 31ec 2d3e 3626 923d
00000100: 552e 15be 6de1 00be 46c9 203e 845c ef3d
00000110: 2e4e 84bd 7904 063e edd8 e4be b4bc 43be
00000120: 8c8d 0b3e d1c8 513e d4be 26be 8e77 413e
00000130: 21e4 3d3d f0ff 51be fd1b 9dbd 4d10 b7bd
00000140: 36f9 19be 81b0 cbbe 4ed1 733e 5fa7 9abd
00000150: 565e 1bbe 89f2 97bc 95de b9bc bcb9 1c3e
00000160: 34b0 22bd b104 a1bc 69b3 f2bd 358f 90be
00000170: a883 983c a0cc f2be 4a95 843e 25c8 28bd
00000180: f853 05be 402e 7dbd fda7 383e 1c01 b7bd
00000190: a2b5 913e 7be9 4b3e 1e8b 603e b849 a6be
000001a0: 5ed9 8d3d 77ae 93bd 8ed2 913c 54dd a5bd
000001b0: feba 363c 6917 a63e 4a22 10be 2464 82bd
000001c0: e8ed 5cbb 6c63 183d a91a 993d 1d8f 98bd
000001d0: 943d ca3e 0a6d 07be 5aaa 153e 4d25 95bd
000001e0: 14f0 f03d cd35 0cbe 1eda 44be c6a3 24be
000001f0: 9ccc 033d 870b 8fbd 3b6c 663d ee1b e7bc
00000200: f399 513d 8c5b 963e 39da 203f d626 a7be
00000210: 0d95 ee3d 56b7 6d3c 092f 013e 0971 84bd
00000220: 41d5 b43e 9716 03be 462b a6be 72da 6d3e
00000230: 5a47 a43e dbb0 57bd 01ce aabd 1d6e 4dbe
00000240: 705b 8cbd 3aec 80be 812f 1d3f 6a29 08be
00000250: 5074 aebe a84a cabe 7529 7bbe 5a50 153f
00000260: 0411 4fbd 30d9 a4be 15e7 63bf c314 0c3f
00000270: 1db7 11be f1cb 82bd 8f3f c13e b539 be3f
00000280: a081 92be 5851 64be cac7 dc3f 6e6f 12be
00000290: ea01 0abf bd50 87be c46e f4bc 8420 f7be
000002a0: 40c5 463c 3dcc ebbe d376 683f 11b7 bb3e
000002b0: f04c 46be 7d01 2a3f 6169 84be 49e8 91be
000002c0: bbfb c23d f132 1dbd eaa7 45bd c2b6 0cbf
000002d0: b765 333e 0f1d bdbd c714 46be b2a8 0fbf
000002e0: c206 af3d a9e9 a03d 86ca c3bc 6173 9e3c
000002f0: c280 843d 4a06 fdbe e4b3 bdbe 50f5 293d
00000300: 999c 2f3c 1247 833e 2020 cd3c da39 a03c
00000310: 22ed 42be 12f5 923e 0c43 bcbd 8d38 c53c
00000320: 6231 593e 9765 d1be 50b8 b23d 17f6 10be
00000330: bc1c c53e 9edc 78bd efb5 4e3c f38c 753e
00000340: b932 55be 6bbf 723d c9e9 f63d e139 0ebf
00000350: e170 083e 7c21 5f3d 1602 873d fcda 313e
00000360: 506f 21bd 3c0d 10be d212 a7be 54c8 a53e
00000370: af7b c3bd b565 573d a5ab 693e 1e3d a0bd
00000380: 74cc e8bd 5824 093e d8d7 bc3d 1e8c 273e
00000390: 1a7e 82bc 60b4 a6bd 1f83 053e fbbe b8be
000003a0: 287b a9bc acc0 5a3e 8753 ea3d b564 c0bc
000003b0: e679 bdbd 411a ba3e 2377 5d3e 741e 133e
000003c0: 5012 bc3b 866e 2abd b980 023e a774 47bf
000003d0: 2d75 50be 75db 613e ac74 d3be 6dd5 153e
000003e0: 12eb adbd ae8c 32be 4868 5b3d 8d00 d53d
000003f0: 0810 bf3d 97ae be3b 91c9 dabd a061 8f3e
0.13858758 -0.09468002 -0.092434436 -0.06259237 0.09437497 -0.3223515 0.18610992 -0.37687898
0.045379058 -0.14065523 -0.18676108 0.20152844 0.008385789 -0.05881794 0.15645564 0.138893
0.07292398 0.054109864 -0.054543864 0.6240462 0.05408717 0.16026255 -0.68576247 -0.14848343
-0.10311523 -0.12764244 0.10377837 0.13166241 -0.07426635 0.09607284 -0.061087646 0.048147894
0.09226991 0.11349124 0.22138412 -0.0077498457 0.47350523 0.16720928 0.26490194 -0.04533143
-0.09514627 -0.097402416 0.2544912 -0.098902516 -0.01856431 0.49674982 0.0024732428 -0.11757998
-0.02042598 -0.35121447 -0.021214152 0.029487966 0.22706488 0.060463794 -0.055864856 -0.06635193
0.11922319 -0.30180648 -0.25319332 0.07411668 -0.03992924 0.036590904 0.16984631 0.071361944
-0.14568456 -0.12585993 0.1570178 0.11687568 -0.06460224 0.13087644 -0.4469675 -0.19114953
0.13628215 0.20486762 -0.16283733 0.18893263 0.04636014 -0.20507789 -0.07671354 -0.08938656
-0.15036473 -0.397831 0.23810312 -0.07551455 -0.15172705 -0.018548267 -0.022689143 0.15305227
-0.03971882 -0.019655557 -0.11850626 -0.28234258 0.018617466 -0.4742174 0.2589515 -0.041206498
-0.13020313 -0.061811686 0.18032832 -0.089357585 0.28458887 0.19913284 0.21928069 -0.32478118
0.06926225 -0.07211011 0.017800596 -0.080988556 0.011152981 0.32439736 -0.1407558 -0.063667566
-0.003371114 0.03720419 0.07475788 -0.07449172 0.39500105 -0.13225189 0.14615765 -0.07282505
0.11764541 -0.13692398 -0.1922383 -0.160781 0.032177553 -0.069846205 0.05625556 -0.02821156
0.051172208 0.2936672 0.6283298 -0.32646817 0.11649523 0.014509043 0.12615599 -0.06466872
0.3531895 -0.12801586 -0.3245489 0.23227862 0.32085687 -0.052658897 -0.083400734 -0.20061536
-0.06853378 -0.25180227 0.6140061 -0.13297048 -0.34073114 -0.39510083 -0.24527533 0.5832573
-0.050553337 -0.3219695 -0.8902448 0.5471918 -0.14230008 -0.06386555 0.37743804 1.4861361
-0.2861452 -0.22296655 1.7248471 -0.1430032 -0.5390917 -0.26428786 -0.029837973 -0.48266995
0.012131989 -0.4605426 0.9080631 0.36663106 -0.19365287 0.6640852 -0.25861648 -0.28497532
0.0952067 -0.03837866 -0.04825584 -0.54966366 0.1751927 -0.09234058 -0.19343863 -0.56116784
0.08546211 0.07857067 -0.023900282 0.019342126 0.06469871 -0.4941886 -0.37051308 0.041493714
0.010718488 0.2564016 0.025039732 0.019558836 -0.19035771 0.287026 -0.09192476 0.024074817
0.21210244 -0.4089782 0.08726561 -0.14156376 0.38498485 -0.060757272 0.012616619 0.23979549
-0.2082013 0.05926458 0.1205631 -0.55557066 0.1332431 0.054475293 0.06592195 0.17368692
-0.039412796 -0.14067549 -0.32631546 0.323794 -0.09545075 0.05258723 0.22819383 -0.07824157
-0.11367121 0.1339277 0.092208564 0.16362044 -0.01592927 -0.081398726 0.130383 -0.36083207
-0.020688608 0.21362561 0.11441713 -0.02348552 -0.09251766 0.36348155 0.21627478 0.14367086
0.0057394877 -0.04160931 0.12744416 -0.7791237 -0.20357199 0.22056372 -0.4129995 0.14632197
-0.08492102 -0.17436478 0.053566247 0.10400496 0.093292296 0.0058191526 -0.10682977 0.2800417

network.MLP.2.bias f4 [64]
00000000: ddd1 8b3e 5eed 1f3e 3b59 5cbf dd30 1abe
00000010: 66a7 4b3c 63f5 0b3e c589 47ba 4b0b 1f3d
00000020: b155 05bf 00c3 213f a210 77be 312f 373d
00000030: 0e49 72be 4281 663e 19e1 eebe ae0b 213f
00000040: 715b dcbc 2f77 1b3e ca4c 33be f51c 8a3e
00000050: 49f9 8d3e 895d 4f3e bf90 43bc f2b2 ea3d
00000060: b346 06bf 2b5c efbd 1dee 973e fe36 c5be
00000070: f1fb 8fbd 2e59 cdbc 6fe0 703c 07fd e1bb
00000080: a527 60bf 3550 943e 3bab 483e 668b bc3e
00000090: 15df c83d 154e 5fbe fa5b e33e 8234 fb3d
000000a0: 291f 393f 802b a1bf 236c 93be 7340 8a3d
000000b0: 4e1e 6f3e 3b0e 8b3e b0f4 cd3e 44f7 6abe
000000c0: 2e07 83bd 54e3 e93d c5ba 493e 4387 8a3e
000000d0: 4f74 7fbd 420e a3be 26f0 973e ec52 82bd
000000e0: 6e5f 9ebe 233a 9c3e 5b59 2d3e b63a 78be
000000f0: ea16 f6be 1a81 553d e063 573d 5446 723e
0.2730855 0.15617892 -0.86073655 -0.15057702 0.012430048 0.13667826 -0.0007611777 0.03882913
-0.5208388 0.6318817 -0.24127439 0.04472274 -0.2366068 0.22510245 -0.4665611 0.62908447
-0.026899071 0.15182184 -0.17509761 0.26975217 0.27729252 0.20250525 -0.011936366 0.11459912
-0.5245163 -0.116875015 0.29673854 -0.38518518 -0.07030476 -0.025066938 0.014701947 -0.0068966183
-0.8756049 0.28967443 0.19596569 0.36825103 0.098081745 -0.2180713 0.4440611 0.122658744
0.7231317 -1.25914 -0.2879344 0.06750574 0.23351404 0.27159294 0.40225744 -0.22945887
-0.06397854 0.114203125 0.19700153 0.27056322 -0.06236678 -0.31846815 0.29675406 -0.06363472
-0.30932182 0.30513105 0.16928618 -0.24241146 -0.48064357 0.052125074 0.052585483 0.2365964

network.MLP.3.weight f4 [64]
00000000: ade2 d53f 8b48 993f 4009 1e3f 8541 c03f
00000010: 5360 9d3f e9c2 313f 1a3a b13f e8ad a43f
00000020: 3847 7f3f 98fd 333f c61b 6b3f e110 ba3f
00000030: 715b ba3f dce5 a93f ab7b 9b3f 889e 3a3f
00000040: 1972 bc3f 3c81 f13f 5aa7 ab3f 1e2d 8a3f
00000050: 464f a83f 65d7 913f 6487 8c3f 2239 c33f
00000060: c2d2 4f3f dec6 a43f 2b51 bd3f e3cc 783f
00000070: 10ed 0c3f e84f af3f 2e26 c23f 27a5 943f
00000080: fc09 1b3f 908e ab3f ca2e e63f 2755 8c3f
00000090: bbb1 9d3f 10cf 903f 0f5d 753f c0a3 a73f
000000a0: 96c7 8c3e b0d5 473f 4c38 993f ebe9 e43f
000000b0: 5a7e 8d3f 4bb5 d23e dc20 a13f 792e c73f
000000c0: 3228 943f dfba 653f 97ce 6e3f b66a c93f
000000d0: c018 c93f 1f98 ad3f 9dc6 783f 29d9 893f
000000e0: 5f50 cf3f cbba cd3f 485e 493f 7fe4 483f
000000f0: a502 683f c79c a23f 0e5c d03f ca59 ba3f
1.6709801 1.1975263 0.61732864 1.5019995 1.2295021 0.69438034 1.3845856 1.2865572
0.99718046 0.7030883 0.91839254 1.4536401 1.4559156 1.3273273 1.2147115 0.7289815
1.472232 1.8867564 1.3410447 1.0795019 1.3149192 1.1393858 1.0978818 1.525181
0.81180966 1.287319 1.4790395 0.9718763 0.5504923 1.369626 1.5167902 1.16129
0.6056211 1.3402882 1.7983029 1.0963486 1.2319864 1.131319 0.9584512 1.3096848
0.27496022 0.78060436 1.1970305 1.7883886 1.1054184 0.4115394 1.2588153 1.5561057
1.1574767 0.8973827 0.9328398 1.573569 1.5710678 1.3562049 0.9717806 1.0769397
1.6196402 1.607263 0.78659487 0.7847366 0.90629035 1.2704095 1.6278093 1.4558651

network.MLP.3.bias f4 [64]
00000000: f99e b93d 0e3a 8f3d 39e1 f83d 2fe4 75bd
00000010: 7349 f2bd 4b9d 82be 095f 2c3e 3ad8 af3d
00000020: 1428 86be 1b74 923d 53e4 013e b2f9 70bd
00000030: 25c9 f53d e0b8 9bbc c66e 22be 6d2c 3c3e
00000040: add9 f23d f155 d93d 2b4a 0cbe 9f1f b7bd
00000050: be12 87bc f799 a4bd 7f21 743e d2b3 4dbd
00000060: 3844 27bd c3ee e0bd fcfc 89bd d93b 873d
00000070: 915f 92be f6e9 56be 5e5f 01bd 1fea f2bc
00000080: 10cb 1cbb 4a3c cbbd fe17 97bd 1fc4 82be
00000090: 821f 133e aed7 6dbd a9b3 843e bf23 6bbd
000000a0: 2094 f9be 1e6b c2bd 82ce 093e e901 073c
000000b0: 9cff 71be e1a8 c3be d64a 833d 09b2 f1bc
000000c0: b445 5bbe 2a4e 21be 0201 6e3d f1a6 8d3c
000000d0: 882f dd3d 565b 4ebe 6d52 ddbc d567 6fbe
000000e0: 50c0 65bd 0bf8 d33c 834f 63be 0861 06bd
000000f0: b997 62be 2df0 84bc b732 463d 2cc1 023d
0.09063525 0.06993495 0.12152333 -0.060032066 -0.118304156 -0.2551063 0.16833128 0.08586164
-0.26202452 0.071510516 0.12684755 -0.058831878 0.12001256 -0.019009054 -0.15862569 0.18376322
0.118579246 0.10612095 -0.13700168 -0.08941578 -0.01648843 -0.08037179 0.23840903 -0.05022032
-0.040836543 -0.1098304 -0.06737706 0.06603212 -0.28588536 -0.20987687 -0.03158509 -0.029652653
-0.0023924746 -0.099236086 -0.07377623 -0.25540254 0.14367488 -0.058067016 0.2591832 -0.057407137
-0.48745823 -0.09493087 0.13457683 0.0082402015 -0.23632663 -0.38214782 0.06410758 -0.02950384
-0.21413308 -0.15752473 0.05810643 0.017291518 0.108000815 -0.2015203 -0.027016843 -0.23379453
-0.056091607 0.025875112 -0.221983 -0.03280738 -0.2212819 -0.016227806 0.04838821 0.031922504

critic.0.weight f4 [1, 64]
00000000: a77d ce3c b9e6 2d3c 480a 15be d0ba 3dbd
00000010: 3f0b 3dbc 59cb 28bd b86a 1e3c 7366 c43b
00000020: 908b e6be 27c8 213d dd6a f0bc f081 48bc
00000030: b954 073b aefc cd3c fd24 0bbe 2d48 663e
00000040: 38d3 4e3b a500 e83c e658 6fbd dacd 87bb
00000050: 0a8c 7cba a7f1 f6bc e9b5 d53c 9123 933b
00000060: 8dd4 51bd 7908 5dbd ef7b a1b8 134e 81bd
00000070: 3fa6 08bd 9301 0dbd 5a9a b9bc b7a3 46bc
00000080: 38ff 33be 6fb4 40bb 1060 62bc ce8d 44bd
00000090: 5983 fa3a f314 52bd 9e13 ce3e 260e 36bd
000000a0: e1d6 15be 9be4 8ebe e8b3 c2bb 1021 633b
000000b0: 502e 43bd 4432 db3d f292 dc3c 7b96 3fbd
000000c0: 6feb 65bd 8277 a7bc 8295 af3c 7c6c 6e3c
000000d0: 9100 8f3c 7448 b8bd 8efc 4039 c2a6 95bd
000000e0: 0566 10bd f658 493d 7a1a bebc d2d2 24bd
000000f0: 2f55 8fbe 9ac3 5abb 4cbb 04bc 3cd0 debb
0.0252064 0.010614091 -0.14554703 -0.046320736 -0.011538326 -0.041209552 0.009668998 0.005993658
-0.45028353 0.03949752 -0.029347831 -0.012238011 0.0020649864 0.025144901 -0.13588329 0.2248847
0.0031559002 0.02832062 -0.05843439 -0.0041444125 -0.00096339046 -0.030144526 0.026087718 0.004490324
-0.051228095 -0.05396316 -7.700163e-05 -0.063137196 -0.03336167 -0.03442533 -0.022656608 -0.012123994
-0.17577827 -0.0029404422 -0.013816848 -0.047986798 0.0019112631 -0.05128951 0.40249342 -0.044447087
-0.14632751 -0.27908787 -0.0059418567 0.0034657158 -0.04765159 0.10702947 0.026925538 -0.04677437
-0.05613273 -0.020442728 0.021433596 0.014552232 0.017456325 -0.08998194 0.00018404631 -0.07307197
-0.035253543 0.049157105 -0.023205984 -0.040240116 -0.27994677 -0.0033380748 -0.008101296 -0.006799726

actor.0.weight f4 [22, 64]
00000000: bedf a8be e8c5 aabe 2ec7 a83d 69a3 493e
00000010: 9388 01be 3a43 a6bd 408b 11be d19c a33e
00000020: 4089 babd 0887 ba3d 1e9a abbd b84e 35be
00000030: e046 273e 416d 843e f5e3 efbe aaad 893d
00000040: 0f68 323d 600d 433f 00e1 acbe 15ad 9b3e
00000050: 6e38 0a3e 84af e63d 68db a4be cd9c a33e
00000060: a496 5d3d 394c c1bc 0c60 a73e 51c6 5c3e
00000070: 23cf 313b 30d1 d43e 7173 16be c73f 8bbe
00000080: 1eeb fb3d ef78 653e 8dbb 0c3f d7f8 92be
00000090: 62b6 353e 23b4 b03e f37f adbd abf3 de3e
000000a0: b607 553d 4b70 01bd e0c2 ee3e 8468 be3e
000000b0: 866d 10bd 5d07 6fbc c4d0 22be a265 2a3e
000000c0: af58 ebbe dc96 30bd f068 06be 5475 82bd
000000d0: 57d5 f3be f19c 37be f681 80be a2eb 883e
000000e0: 4fae 1abf 6c83 c2be f6fa 613e 7d8b 3bbe
000000f0: e145 48be d9c4 1cbe 3a9f 0b3e ee0c 373e
00000100: 151c c3bd 90e1 b83e 0eb1 543d c73e 43be
00000110: a7d4 8cbe 300e 05bd 0040 95be 8b66 413e
00000120: 8300 9abd b70c a1be c93d b1bd 01c0 e2be
00000130: 6a9b debd e3a0 f5bd e5c8 4a3d 78e8 9e3d
00000140: 37db 8e3e 7db1 ce3d e744 c5bc 0d18 bcbe
00000150: 4d61 6b3e 47d7 d03e 6247 6fbe 1b77 313e
00000160: b8bc 86be 5ee5 d03d 68fa 303e be0f c1be
00000170: eb76 6f3d 4e05 cb3e 35ed c4be feb2 f23e
00000180: 545d c3bd d872 11be 8e42 e33e 788c 9cbe
00000190: a553 9db9 2411 303e 203f 09bd c720 df3e
000001a0: e99c e1bd 7bdb 823c 6608 4a3e 1cc7 183f
000001b0: 5f57 d53d dccb 40bd a54a 86be f5cb c4be
000001c0: 8425 3dbe 45fe b1bd 184c 983e f27f 043e
000001d0: 1537 84bd a092 84be 4a85 86bd e5dd 033f
000001e0: 6572 ecbe 5c60 623e d45a 313d 4b4e 673d
000001f0: 6ff1 65be 684d eb3e a95a 983d 2f51 003f
00000200: be03 8ebe 44b3 293e 07ff 6cbe 3a06 6abe
00000210: 182e 24bd a274 c73d 7933 bc3c 02b8 213d
00000220: c865 8f3b fff3 7a3e 2466 6dbe 75b1 76be
00000230: d7b9 a2bd 0371 be3e 296a 823e 80a5 b3bd
00000240: c8b7 66be deac 35be fb1c d53c fee9 35bd
00000250: 190d 1c3f 55d9 f8bd 7281 a13d 3160 86bc
00000260: 79e5 b9be f5f7 a3bd a0d5 513f 8849 62bd
00000270: 33cb 3fbe b93f 0a3e 3cea 0f3f 5886 643c
00000280: 407c c0bd a219 61be 7017 263f 5ea3 3f3e
00000290: e4a5 613e e14f 5d3b 9a36 083e 234e 3cbe
000002a0: 01a5 cf3c 2dae 1c3d e7dc 70be eed0 0d3d
000002b0: 733b bdbd 8fff 7b3b 40d5 ad3d 4030 153e
000002c0: 5c8e 53be 1b15 0fbe 8730 c1bd 46b2 3bbe
000002d0: 14b6 95be 6eea cc3e c537 4ebe 4b8f a73d
000002e0: 358e 1cbc 073b c93e 4e90 dbbc b074 80be
000002f0: cc4f c43d fe7e 20be d834 103f a3a6 8ebc
00000300: 6dd5 09bf 9fe3 91be a475 cc3d d92d ba3e
00000310: a027 883e 0e07 23be 35ae c63e 832c f9be
00000320: 2a3d f8bd 9458 98bd bab3 43bd 24a8 013e
00000330: 0f1b 9f3e 588b febe 7fa4 09bd 2361 77ba
00000340: 6d26 b43e 395f 023f 0388 ecbd 54ea 22be
00000350: 286b 93be e5ef 513e c83c 843d bce7 69be
00000360: 0f10 f63d b82b d9be 52be f3b7 afcc 2d3d
00000370: da04 cb3c 0f21 a7bc 5a01 a23e 2f13 89be
00000380: 0602 83bd 28e1 d53d da91 2cbd 7e88 d8bd
00000390: bd4c 3dbd 5ffd 463d 23d6 413e 4270 c5bd
000003a0: 946d 13be 11f8 83bd d096 213f daee 0d3e
000003b0: e4a0 25bf 10c8 a23d 0953 50be f7b0 e8bc
000003c0: 96c4 d1bc c4f2 453e 0191 0ebe ec92 febc
000003d0: 957e aa3e b357 b4be 768e 773e 4b02 88be
000003e0: 3166 073e c397 d5bd 7c1f d1be 63db e53d
000003f0: 3c1f 963d e753 693b 2ee4 593e 251f c63e
-0.32983202 -0.33354115 0.082411155 0.19691242 -0.12649755 -0.08118291 -0.14213276 0.3195558
-0.091082096 0.091077864 -0.08379005 -0.1770581 0.1633563 0.25864604 -0.46853605 0.06722577
0.04355627 0.76192284 -0.3376541 0.3040549 0.13498089 0.11263946 -0.32198644 0.31955567
0.05409874 -0.023595916 0.32690465 0.21560027 0.002713152 0.41565847 -0.14692475 -0.27197096
0.123007044 0.22409414 0.5497368 -0.28705475 0.17745355 0.34512433 -0.0847167 0.4354528
0.052009307 -0.03160123 0.46633053 0.37189114 -0.0352607 -0.014589158 -0.1589995 0.16640332
-0.45966098 -0.04311262 -0.13125968 -0.06370035 -0.47623703 -0.17930962 -0.25099152 0.26742274
-0.60422224 -0.37990892 0.2206839 -0.1831493 -0.19557907 -0.15309466 0.13634959 0.17876026
-0.095268406 0.3610959 0.051926665 -0.19066916 -0.2750599 -0.032484233 -0.2915039 0.18886773
-0.07519629 -0.31455013 -0.08654363 -0.44287112 -0.10869487 -0.11993577 0.049507994 0.07759184
0.27901623 0.10092447 -0.024080707 -0.367371 0.22986336 0.40789244 -0.23367074 0.17330591
-0.26315856 0.10199998 0.17283022 -0.37707323 0.05846302 0.39652485 -0.38462225 0.47402185
-0.09539285 -0.14203966 0.44386715 -0.3057592 -0.00030007694 0.17194039 -0.033507466 0.43579695
-0.11016256 0.015973797 0.19729766 0.59678817 0.10417055 -0.047069415 -0.26228824 -0.38436857
-0.18471342 -0.08691076 0.29745555 0.12939432 -0.064558186 -0.25893116 -0.065683916 0.5151046
-0.46181026 0.2210707 0.04329951 0.05647115 -0.22455381 0.45957494 0.07439167 0.50123876
-0.2773723 0.1657229 -0.2314416 -0.22853938 -0.04008302 0.09739043 0.022973763 0.039482124
0.004376147 0.2450714 -0.23183495 -0.24091132 -0.079456024 0.37195596 0.2547162 -0.08771801
-0.22531044 -0.17741725 0.026014796 -0.044412605 0.60957485 -0.12150828 0.07886018 -0.01640329
-0.36307886 -0.080062784 0.8196659 -0.055245906 -0.18729858 0.13500871 0.5621679 0.013948046
-0.09398699 -0.21982434 0.6487951 0.18714663 0.22035939 0.0033769535 0.13302079 -0.18389182
0.025347235 0.038252044 -0.23521768 0.03462308 -0.09239855 0.0038451885 0.0848794 0.14569187
-0.20659775 -0.13972895 -0.09433084 -0.18329725 -0.29240477 0.40022606 -0.20138462 0.08181628
-0.009555389 0.39302847 -0.026802208 -0.25089025 0.095855325 -0.15673444 0.56330633 -0.017413443
-0.53841287 -0.28493974 0.09983376 0.36363104 0.2659273 -0.1592066 0.38804784 -0.48666772
-0.12121041 -0.0743877 -0.047778822 0.12661797 0.31075332 -0.49715686 -0.03360414 -0.0009436777
0.35185567 0.5092655 -0.1154938 -0.15909702 -0.2879269 0.20501669 0.064569056 -0.22842306
0.12014782 -0.42416167 -2.9056482e-05 0.04243153 0.024782587 -0.020401506 0.31641656 -0.26772448
-0.0639687 0.10443336 -0.042131282 -0.10572909 -0.04621576 0.048581477 0.18929343 -0.09640552
-0.1439727 -0.06443799 0.63120747 0.13860646 -0.64698625 0.07948315 -0.20344175 -0.028404696
-0.025606435 0.19330889 -0.13922502 -0.031075917 0.332997 -0.3522316 0.24175438 -0.2656425
0.13222577 -0.10429337 -0.40844333 0.11223485 0.07330176 0.0035602988 0.2127845 0.38695636

actor.0.bias f4 [22]
00000000: 6362 58bb 9911 4ebc 28f1 d33c f3d6 f53d
00000010: 2164 0c3d b97b f33c d7ad 22bd ced9 b83c
00000020: e452 e7bd f2f2 c5bc caba 4fbc d651 3c3d
00000030: a4ad b93d 2a71 f5bb e088 87bd 1b24 8d3d
00000040: d633 dfbd 9eda 94bc c596 ba3c 0552 843b
00000050: 894e a2bd 47c9 3d3d
-0.0033017627 -0.012577438 0.025871828 0.12003889 0.034275178 0.029722081 -0.039716568 0.022564795
-0.11295107 -0.024163697 -0.012678811 0.045976482 0.090663224 -0.007490297 -0.06617904 0.06891652
-0.10898559 -0.018170651 0.02277697 0.004038098 -0.07925136 0.04633453
