paper/training_results/seed-4/momarl/checkpoints/mlp_(negotiation=False)_(num_agents=12)_(window=False)_(reduced_space=False)_(fixed_savings_rate=False)_(rewards=['inverse_global_temperature', 'global_economic_output'])(wgen=uniform)(num_ensembles=1)(seed=4)_2025-01-16_22:07:49_w=[1. 0.].pt (torch, 37992 bytes, 9 tensors)

network.MLP.0.weight f4 [64, 18]
00000000: 31cb 3dbe b479 dcbe f317 4ebd 5b20 92be
00000010: f3de 95bd 5d05 10be 27fd 8d3e ac9f c23e
00000020: a708 c83e a3e9 fc3e ea3b 673d 74ba 193c
00000030: 8fea 99bf fd2f c43e fa3d 863e c8fd 9d3d
00000040: 29de 3b3d ebe6 a03c 1754 8d3d e609 f3be
00000050: ba91 56be ec30 f03e 3554 54c0 8818 0d3f
00000060: 5ad5 a0be c898 98bd f897 6bbf 258f 51be
00000070: dc8f c13d b91e 8e3d 2cf9 2bbe a3db 63bc
00000080: c667 29bf e900 89be cd12 b83e d179 883d
00000090: 1b1f ccbd 2bee 4a3f 949e 9fbc 5041 08c0
000000a0: d1dd 863c 94d4 c8be 42fd 1a3e 6b5a a13d
000000b0: 6840 733d 8688 b33d 3f43 e23d a103 f33d
000000c0: 7b3b 9f3a 37a5 843e b61a 6a3e 2b5f ed3d
000000d0: c47a 913d cd47 383e dcbe d8bc 9333 0abf
000000e0: c69d c3bb 0752 18bf f7fd 60be 899a cebd
000000f0: d094 c63c 4f0a b23e e212 af3e 9b17 45be
00000100: 9da5 d93c 14d3 fb3d 6fbe 46bd de6b 683e
00000110: d3e5 a63e 44ef f03e d948 1abe ece2 813c
00000120: ee5f e63d 3bcb d53e 151b febd 0d3c fcbe
00000130: a865 f1bf c059 03bd f9a1 943d ccb2 d23e
00000140: 4c09 8d3e e3b9 53bc fb79 0a3f 127b 673e
00000150: 3218 15be 9c1d 9ebb 5301 e9be 701f 413d
00000160: 0691 733e ed3f 8c3d 68a2 903d 2272 343e
00000170: 3dc5 e93c 6b06 88bf 09b4 0c3f 6b8a 89bf
00000180: 648e 983d 7925 653d a22d 1abd 83d3 abbd
00000190: 3395 0e3e 4ab7 0abe f2a0 2f3e f7b2 90bc
000001a0: d480 08be bf37 f93c 540c 023e c597 083e
000001b0: 3b9c 753d a4e9 04bd 9b59 c3bd b1bc e23e
000001c0: 487a b03e 70bd 4fbe df20 503d 0a21 05bf
000001d0: 433b 41be deb7 4a3e d473 993e 3f2e a8be
000001e0: 2672 943e 52b3 89be 365e d6be 9346 f7be
000001f0: 0eb7 fe3e 2296 98bd 2d99 183d 5c87 96be
00000200: a91a 103e cbc1 adbe f3ef 0cbf ddc1 8abe
00000210: 834a 00be ed71 d53d d3b0 143e 2ae0 ef3d
00000220: c611 59be e785 14be ff12 6abe f4e8 57be
00000230: 1e9d e0bc 84cd 0ebf 24c9 0bbf 3297 f1be
00000240: 7ba3 9f3c 2305 863e 6b90 213d cf1d 5fbe
00000250: 0386 a03b 367f 22bf f742 5b3c 9ab7 2fbc
00000260: 9293 16bd 592e e5bb 1317 2fbd de4d 6dbb
00000270: 1a9b 99bd 8a90 703b be1d 233d d6a7 dcbc
00000280: c76b 7d3d 5034 6c3d c076 903d 91cd 64bf
00000290: f71c 1b39 44e1 53bf d4ea e93e e83d a2be
000002a0: 038e d3be 358c 8d3e bcde 2a3e 5e25 afbe
000002b0: 78f3 8e3e 91e9 9dbd fa17 16bd 62ab ce3e
000002c0: 71ee d43e 0dcd fdbd 8bdb 643e 4c10 36bb
000002d0: 8b06 aabd 7bba 9ebf c2f1 503b 28b8 9e3f
000002e0: 87a3 133e 8c3f c03e 9cfd 38bd b180 573d
000002f0: 7548 1e3d 27a0 4bbc 5b8b b8bc 6aa7 8e3b
00000300: 3827 27bd 4ba9 1d3c a3d2 4cbd 99c0 833d
00000310: 9597 0b3d 6418 09bc 6282 82bc 5f79 bdbf
00000320: faf8 643c 3bb8 993e aca4 68c0 3cf6 183f
00000330: a64b 62bd 81e3 1d3d dc51 573c ecf6 26bd
00000340: d9da 43bd 3b0b 5abc 5396 653c 1b00 46bc
00000350: a21c cbbd 5383 2abd 1a48 30bd e563 c4bd
00000360: 3574 c5bd 6237 073f 5026 b33d 4d07 7bbe
00000370: a693 83bf e4d0 74bd 3eda 103e 850c 0fbf
00000380: e03b 823e 6f48 c9be 60d6 3c3e 11c7 ad3e
00000390: 89c0 d93e e96f 1ebf efe4 48be 70ee 65be
000003a0: 67a2 08be e90a 243c 0611 d33d bd69 643e
000003b0: a55b a6be 295b 7bbc da32 65c0 2f96 273f
000003c0: e5df 02be a993 8dbd 89e9 3f3d ed3b 1cbd
000003d0: 4f80 c2bd 4892 2a3e 285c 55bd ca16 d4bc
000003e0: 7120 003f 0398 9fbd 5c9f 8c3d 87a1 a03e
000003f0: fd27 b1bd 7993 debe 0325 e73d 1997 5fbe
-0.18534543 -0.43061602 -0.05031581 -0.2854031 -0.07317915 -0.14064546 0.27732202 0.38012445
0.390691 0.49397 0.056453623 0.009382833 -1.2024707 0.38317862 0.2621916 0.077144206
0.045866165 0.01964136 0.069008045 -0.4746849 -0.20954028 0.46912324 -3.3176396 0.55115557
-0.31412774 -0.07451016 -0.9202876 -0.20464762 0.09451267 0.06939454 -0.1679427 -0.013907346
-0.6617397 -0.26758507 0.35951844 0.0666386 -0.099668704 0.79269665 -0.019484796 -2.1289864
0.016463192 -0.39224684 0.15135673 0.07878574 0.059387594 0.08766274 0.110479824 0.118659265
0.0012148464 0.259073 0.22861752 0.115904175 0.07103494 0.1799614 -0.026458196 -0.53984946
-0.005969736 -0.59500164 -0.2197188 -0.10088069 0.024240881 0.3477349 0.34194094 -0.19247286
0.026568228 0.12296119 -0.048521455 0.22697398 0.32597217 0.47057545 -0.15066852 0.015855275
0.11248766 0.41756615 -0.12407509 -0.49264565 -1.8859148 -0.032068014 0.07257456 0.41152036
0.27546155 -0.012922737 0.5409238 0.22605541 -0.14560011 -0.004825307 -0.45508823 0.04714912
0.23785791 0.068481304 0.070622265 0.17621663 0.028536433 -1.0626959 0.5496221 -1.0745367
0.07449034 0.05594394 -0.037641175 -0.08389952 0.13924102 -0.13546482 0.1715124 -0.017663462
-0.13330394 0.03042209 0.12700015 0.13339145 0.059963446 -0.03244938 -0.09538575 0.44284585
0.34468293 -0.20287108 0.0508126 -0.5200354 -0.18870263 0.19796702 0.29971182 -0.32847783
0.28993338 -0.26894623 -0.41868752 -0.4829603 0.49749035 -0.074505106 0.037255455 -0.29400146
0.1407267 -0.33936915 -0.55053633 -0.2710103 -0.12528424 0.1042212 0.14520578 0.11712678
-0.21198186 -0.14504205 -0.22858809 -0.21084958 -0.02741867 -0.5578234 -0.5460379 -0.47185665
0.019487133 0.26175794 0.03944437 -0.21788715 0.004898788 -0.6347536 0.013382665 -0.010724926
-0.036761828 -0.0069940505 -0.042746615 -0.0036209743 -0.075002864 0.0036707246 0.039823286 -0.0269355
0.061870363 0.057667077 0.070539 -0.8937617 0.00014792742 -0.82765603 0.45686972 -0.31687856
-0.41319284 0.27646032 0.16686529 -0.34208196 0.27920127 -0.07710565 -0.03664396 0.4036513
0.41588166 -0.12392626 0.22349374 -0.002778071 -0.08302029 -1.2400659 0.003188238 1.239995
0.1441785 0.37548482 -0.045163736 0.052612964 0.03864332 -0.01242832 -0.022527387 0.0043534534
-0.040808886 0.009622882 -0.050005566 0.064332195 0.034080107 -0.008367632 -0.015931312 -1.4802665
0.013975376 0.3002337 -3.6350508 0.59750724 -0.055247925 0.038547043 0.013142075 -0.040762827
-0.04781613 -0.013308342 0.014012891 -0.012084986 -0.09917571 -0.041629147 -0.04303751 -0.09589366
-0.09641305 0.5281888 0.08747542 -0.24514504 -1.0279434 -0.059769526 0.14145753 -0.5587848
0.25436306 -0.39313075 0.18441153 0.33940938 0.42529705 -0.6188951 -0.19618581 -0.22454238
-0.13343202 0.010012367 0.10305981 0.22305961 -0.32491794 -0.0153415585 -3.5812287 0.65463537
-0.12780721 -0.069129296 0.046853576 -0.038143087 -0.09497129 0.16657364 -0.05208984 -0.025889773
0.500495 -0.07792666 0.06866333 0.31373236 -0.08650205 -0.43471888 0.11286356 -0.21834983

network.MLP.0.bias f4 [64]
00000000: 5219 a33e 3825 87be 7368 c73e cfda e43d
00000010: f829 083f 52c7 0b3e fdeb 03bf 3aa3 bcbe
00000020: 90c5 4b3f 6b7b b5bc dd82 24bf d13c 2abf
00000030: 6715 cdbe cd17 64bf b8de 41bd 77dd 113e
00000040: b739 353e 6a32 14be f9bf b73d e169 f2be
00000050: 4dd7 e6bd 5d8f a83e 7c05 643d a16d d03e
00000060: 4350 e7bd 25c1 c4be c16f 4e3e 844e b23d
00000070: 0c33 713e 63f0 973e df33 a73e 4626 e93e
00000080: f0af 46bc 51da a03d eb78 60be 38ae b13e
00000090: 41ac fe3d 19d4 c3be af35 733e 17b1 c23d
000000a0: 60cb 243f 2479 30be 3d05 283e f9ca a9bd
000000b0: 591d 8a3e 3295 0b3f 528e 5bbe 1840 7cbe
000000c0: d2ab c03d 5bf1 67bd c967 86bd 5586 df3d
000000d0: ace3 5fbf 9642 183d e128 d0bd 357d 8f3d
000000e0: d9b0 b3bd 3da7 a9be b8c8 553f 8d87 6dbd
000000f0: 7466 d139 7039 5ebe bee3 fdbe 81e6 5e3d
0.31855255 -0.26395583 0.38946876 0.11174547 0.5318904 0.13650253 -0.51531965 -0.36843282
0.7959833 -0.022153577 -0.6426218 -0.6649905 -0.4005539 -0.8909882 -0.04733154 0.14244638
0.17697798 -0.14472356 0.08972163 -0.47346404 -0.11271534 0.32921878 0.055669293 0.4070864
-0.112946056 -0.38428608 0.20159818 0.08706382 0.23554629 0.29675588 0.32656762 0.45537013
-0.012126908 0.078541405 -0.21921127 0.3470323 0.124351986 -0.38247755 0.23750947 0.095064335
0.64372826 -0.17233711 0.16408248 -0.08290667 0.26975515 0.5452453 -0.2144101 -0.24633825
0.09407772 -0.05662666 -0.06562764 0.10914294 -0.87456775 0.037172876 -0.10164047 0.07006303
-0.087739654 -0.33135405 0.835094 -0.0579906 0.0003993992 -0.21701598 -0.49587816 0.054419044

network.MLP.2.weight f4 [64, 64]
00000000: 40cf a33e bee7 27bf 54a0 023e 903d 15bb
00000010: 92f9 06bd 3cd6 79bd 543c 12bf 3af6 78be
00000020: 440d b6bd b24e d03e bed6 ee3e 3a67 8b3c
00000030: 6ae6 e0bd cc1d c1be 7b1a 993e 5b07 6c3e
00000040: 7f5c d53e 18ba 313d cde0 933e 4374 e3be
00000050: 4e9f b23d 53d5 093e 9e65 073e a4a0 293d
00000060: 78bc a3bd 9311 a6bd efd2 33be 81b9 0d3c
00000070: 9d4b 52bd 1a48 8dbd eea2 20bd 33b2 7b3c
00000080: f4c4 b83e 998a 903c 2282 f4bd e801 4fbd
00000090: 3873 58be c3cc 523d 6404 40bd 0d21 263d
000000a0: dfec 2abc c34c 11bf 91f6 9cbd fb16 033e
000000b0: 53ca 6abd 4608 523a 7043 5c3c f807 953d
000000c0: d52b 9abd b871 183e 641f d4bd 105d 1e3e
000000d0: 60b6 7c3c 0905 99be 08b4 233d e90f 8a3c
000000e0: 6891 fcbc 0408 8c3c bf04 963d ca77 adbc
000000f0: 545e 603e b026 a7bd 64a8 2d3d d628 81bd
00000100: 4be0 b23d 6ca2 90be 4cdc 49bd 4337 6ebe
00000110: e52d 1d3e b6ba 753e bff5 113d f580 6e3e
00000120: f6af 94bc ba51 9dbe 5ff2 e93d 251f 10bd
00000130: da4b 113e b411 6d3e 74bd 1c3c 4bd8 67bd
00000140: cdd9 96be 9c68 9abd 8831 16bd fd97 00be
00000150: d87b b1bc 90af 0e3e 1519 cd3e dbc0 46bc
00000160: fa9c 92bd f85d 143e 6c40 14be 34de c83d
00000170: cbf1 cbbd 8cc0 af3d 1bb6 903d f2e1 0bbf
00000180: ff68 303d 5039 a0bc 884a 88bc 6c11 683e
00000190: 3809 d7be 7dc8 a1bd 7392 2b3e d205 043e
000001a0: b159 243e c86d ccbe 53c8 073e 709e 66be
000001b0: f38b fa3c 7e06 cbbd 52c9 ee3d 3842 aebc
000001c0: 9d0d b83c c272 963e f874 1bbd ed4d a53d
000001d0: 0383 ea3d 84cd 5f3e ea2d 893d 010e 4bbe
000001e0: fe1b aebd 848b 5c3d d6c1 7fbe 90c2 90be
000001f0: d9b3 f73e 380f 353d e7f5 e1bd 6965 4c3d
00000200: 0b42 bcbd ef29 f9be 66f3 0abe 177a 573d
00000210: 2a68 cabe 9fd9 303e 971d cdbd 7163 a9bd
00000220: cb5e 063e 8f16 17be 800d 683e 58eb 43bc
00000230: 3c8d 82be 823e af3b 6e08 05be 4e8f d1be
00000240: eba8 c43e 601e bb3b dc50 95be 744f 1e3d
00000250: fa8a f6bd d1c7 1cbe a2a5 fdbd cd88 2d3e
00000260: fc25 cbbd 4a80 193d 4d25 8c3e 688f 413c
00000270: 5e0a 83bd 3867 81bd e878 79bd 4952 81be
00000280: b480 8cbe a9ad 5dbe e210 82bd bfc7 d7bd
00000290: 881d b33e 4b23 c03d b380 61bd 2326 08be
000002a0: 1502 d3bc 12a7 503d 9a3e 08be 2263 9ebe
000002b0: 5416 3ebe 3e6d 8e3d 46a1 e7bd 165e b93d
000002c0: 98b0 34be fbff 533d 0c1f cc3d 4ff5 37be
000002d0: ee94 04be 2e60 373e 9c69 d2bd be07 80be
000002e0: 96e8 dcbd 76e7 f53d 7657 a13e baa0 0abd
000002f0: 4037 a23e c047 32bd 4735 93bd c0fd bb3e
00000300: 5071 c4bd 62b1 04be 408c a73d b949 593d
00000310: 5b16 163c ce97 cebb 4038 4e3d 7e66 88bc
00000320: 3149 563e 54a3 80be 2a31 5bbe bd2b afbe
00000330: 78a8 6dbd 853b b3bd b783 60be a083 e23c
00000340: 9522 703e 9805 523d 1d81 8e3c ab4e b53d
00000350: 786d 273d 7ff6 7cbb f4c0 d53c 47dc 343c
00000360: a07b 24bd 52a3 31bd 43b8 033e 0e5d 583e
00000370: eba6 cdbd 3907 2d3e b856 713d e589 8a3e
00000380: 7d9c c73e 64e9 0c3e b08d d4bc 8bba f1bd
00000390: 8f30 343e d615 f4be 0cba 5d3e 5e42 13bb
000003a0: 44f4 8cbe 726b 6ebd 7160 673e 5d6a f53d
000003b0: 58bc 4a3c 89cf 6d3e b09a da3d f755 313d
000003c0: 0534 b73c 65a5 683d 1211 99bd e959 053e
000003d0: b975 02be eca7 1e3d 1e02 f23d 94a2 183e
000003e0: acf0 84bd ac73 b7bd 716f 1c3e b6a3 0cbe
000003f0: c8c5 e73b 1e67 eebd a82e a93c bb24 3dbe
0.31994057 -0.65587986 0.12756473 -0.002277229 -0.032952853 -0.060995325 -0.57123303 -0.24312678
-0.08889249 0.4068504 0.4664821 0.017016996 -0.10981448 -0.37718046 0.29903015 0.23049681
0.4167213 0.043390363 0.28882447 -0.44424638 0.08721791 0.13460283 0.13222358 0.041412964
-0.07994932 -0.08108821 -0.17560934 0.008650185 -0.05134164 -0.06898518 -0.03921788 0.01536231
0.36087763 0.017644214 -0.11938883 -0.050538927 -0.21137702 0.051464807 -0.046879187 0.040558863
-0.010432451 -0.56757754 -0.07664216 0.12801735 -0.057321858 0.0008012097 0.013443813 0.072769105
-0.075278915 0.1488713 -0.1035755 0.15465188 0.015424341 -0.29886654 0.039966613 0.01685329
-0.030831054 0.017093666 0.07325124 -0.021175284 0.21910983 -0.08161676 0.042396918 -0.06306617
0.08734187 -0.28248918 -0.049282357 -0.23263268 0.15349539 0.23997006 0.035634752 0.2329138
-0.018150311 -0.30726415 0.11423182 -0.03518595 0.14189091 0.23151284 0.0095666535 -0.056602757
-0.29463044 -0.07539484 -0.03666833 -0.12557979 -0.021665499 0.1393416 0.400582 -0.012130941
-0.07158847 0.14488971 -0.144777 0.09808007 -0.09958228 0.08581647 0.07065984 -0.5464164
0.043068882 -0.019558579 -0.016637102 0.22662896 -0.4199922 -0.07899568 0.16755085 0.12892845
0.1604984 -0.39927506 0.13260011 -0.22521377 0.030584311 -0.09913348 0.116594926 -0.02127181
0.022467429 0.29384428 -0.037953347 0.08071504 0.1145077 0.21855742 0.066982105 -0.19829561
-0.08501433 0.05384399 -0.24976286 -0.2827344 0.483794 0.044203967 -0.1103323 0.0499014
-0.09192284 -0.48664805 -0.13569412 0.05260667 -0.39532596 0.17270516 -0.100154094 -0.0827092
0.13122098 -0.14754699 0.226614 -0.011957966 -0.25498378 0.0053480277 -0.12991497 -0.40929645
0.38410124 0.005710408 -0.29163253 0.03864999 -0.120382264 -0.15310599 -0.123851076 0.16946717
-0.09919354 0.03747586 0.27372208 0.011813976 -0.06398462 -0.063185155 -0.06090632 -0.2525809
-0.27441943 -0.21648277 -0.063508764 -0.105361454 0.34983468 0.093817316 -0.055054378 -0.13295798
-0.025757829 0.05094058 -0.1330513 -0.30935007 -0.18563205 0.0695443 -0.11310057 0.090511486
-0.1764549 0.051757794 0.09966859 -0.17964672 -0.12947437 0.17907783 -0.1027405 -0.25005907
-0.1078655 0.12007038 0.3151204 -0.033844687 0.31682777 -0.043525457 -0.07187896 0.36717033
-0.09591925 -0.12958291 0.081810474 0.053048823 0.009160603 -0.0063047176 0.050346613 -0.016650435
0.20926358 -0.2512461 -0.21405473 -0.34213057 -0.058021992 -0.08751587 -0.21925245 0.027650654
0.23450692 0.051274866 0.01739555 0.08852895 0.040875882 -0.0038599072 0.026092984 0.011038846
-0.04015696 -0.043368645 0.12863259 0.21129248 -0.10041603 0.16897286 0.058920592 0.2705833
0.3898658 0.13760906 -0.025946468 -0.118031584 0.17596649 -0.4767291 0.21653003 -0.0022469978
-0.2753011 -0.058207937 0.22595383 0.11983178 0.012374006 0.232237 0.106740355 0.043294873
0.022363672 0.056798358 -0.07473959 0.13022579 -0.1274022 0.03873436 0.1181681 0.14905769
-0.06491217 -0.089576095 0.15276887 -0.13734326 0.007073138 -0.11640762 0.02065213 -0.18471043

network.MLP.2.bias f4 [64]
00000000: 19c9 793e 122b 04be 594a a0be 3dae 153f
00000010: 5b57 433d 6acf 09bf b694 a2bc 793d 103d
00000020: 128d 903d 0fec 5c3d baa5 023e dc4d 813e
00000030: 95a7 10bf 8ac0 60be 9228 143e 59ea 8dbe
00000040: 96fe 0ebf 7f59 a53e 4fed ecbd fe9a 2bbe
00000050: 5e80 103d 49db 1a3f e5ba 4abd 67e9 01bf
00000060: 9733 08bf 8a86 163f 7e30 bdbe 6b23 14be
00000070: c534 a53d 0616 47bb 9f01 d1be 74f6 993e
00000080: 048f 1abe ed43 443e cf71 92be 6483 eb3c
00000090: 41b7 4fbd dd61 013f 70ce 0dbe a47a cb3e
000000a0: b017 7cbe e1b2 42bf b12b f8be e925 a0bd
000000b0: 28c7 79bc b268 a13e c4c9 5a3f 805d 63be
000000c0: f41f 803b aaab 213f baed 8f3f 306a 1abf
000000d0: b7ce 37be f977 b93e fab4 02bc 3e32 0fbf
000000e0: 1b15 b6be 0142 14bf 9011 893e e5d9 e13e
000000f0: f3b2 cebe 32e5 583e fd14 8dbd 0a1a 3c3d
0.24393119 -0.12907055 -0.31306723 0.5846899 0.04769073 -0.53832114 -0.019846302 0.035214875
0.07058157 0.05393606 0.12758532 0.25254714 -0.5650571 -0.21948448 0.14468601 -0.27717856
-0.5585722 0.32294843 -0.115687005 -0.16758344 0.03527867 0.6049085 -0.049494643 -0.5074677
-0.5320372 0.5879904 -0.3695106 -0.14466636 0.080667056 -0.0030378117 -0.4082155 0.3007084
-0.15093619 0.19166537 -0.28602454 0.028749175 -0.050711874 0.5053995 -0.13848281 0.39742005
-0.24618411 -0.760542 -0.48470834 -0.07819731 -0.015245236 0.3152519 0.8546412 -0.22203636
0.003910059 0.63152564 1.1244423 -0.6031828 -0.17949949 0.36224344 -0.0079777185 -0.5593604
-0.35562977 -0.57913214 0.26771212 0.44111553 -0.40370902 0.21181181 -0.06888769 0.04592327

network.MLP.3.weight f4 [64]
00000000: 82b4 b03f eadd d63f c1c2 c33f 0d62 653f
00000010: f938 8b3f 07cc 563f 4c5f 8b3f f647 cb3f
00000020: e309 f43f 407c c03f 0b12 ba3f 4b14 cb3f
00000030: bc24 5a3f f501 003f 5e22 c13f ad8f 9e3f
00000040: 866c 463f 0d99 db3f 84c3 cb3f d57c c83f
00000050: bf65 ac3f 1775 473f 19c0 c93f 231f a13f
00000060: 96d8 603f e46d 4c3f e8d5 813f 30f1 a13f
00000070: ddba c43f f069 c63f d9c6 903f ff09 fb3f
00000080: ba22 de3f e28a bb3f 6c85 b73f 57ff b83f
00000090: 4fb9 cf3f 20df 913f 59d5 a03f 1894 683e
000000a0: d0ac d83f d983 323f d3a9 343f 9df5 be3f
000000b0: ee3a b63f ef60 853f 3b09 0f3f b097 bc3f
000000c0: f519 de3f 6571 8b3f c044 2b3f 25c2 553f
000000d0: 3417 de3f eb4d 643e 25ea cf3f 430f 973f
000000e0: c7e6 9a3f 204a 5a3f 9778 ac3f d60b 7c3f
000000f0: 1fe6 783f 4196 b13f 4b53 e83f 2e94 ad3f
1.3805087 1.6786473 1.5293809 0.8960274 1.0876762 0.8390507 1.0888457 1.5881336
1.9065517 1.5037918 1.4536756 1.5865568 0.852123 0.50002986 1.5088613 1.2387596
0.77509344 1.7156082 1.5919042 1.5663096 1.346855 0.7791304 1.5761749 1.2587627
0.87830484 0.7985518 1.0143404 1.265173 1.5369526 1.550108 1.1310683 1.9612426
1.7354348 1.4651759 1.4337592 1.4452924 1.6228427 1.1396217 1.2565109 0.22712743
1.6927738 0.69732434 0.7057163 1.4918705 1.4236734 1.0420207 0.5587346 1.4733791
1.7351671 1.089398 0.6690178 0.83499366 1.7350831 0.22295348 1.624333 1.1801533
1.2101678 0.85269356 1.3474301 0.9845556 0.97226137 1.3873979 1.8150419 1.3560846

network.MLP.3.bias f4 [64]
00000000: dc02 093e e508 a5bd cd1d 5a3c 0826 d33d
00000010: c20e d33d 119f e7bd f0b4 16be 363d 07bd
00000020: 1324 ccbc c78f 133d 123f 263d f25a 533d
00000030: 141b 263d cec1 ab3e d502 1cbe e954 373d
00000040: 754c 8a3d 7335 3abd f72e a43d 01fb d3ba
00000050: ec79 fdbd a70e 693c d5d9 033e 372c 85bd
00000060: 210d 82bd 426c 073e ce2c c0bd 3713 95bd
00000070: 9825 7cbd 969d cdbd 7876 69bd 41d2 c83b
00000080: 1d4b 15bd dfe7 91bd cc18 1ebd 587d 93be
00000090: 2480 4fbd c0e9 413e 6c89 ca3d 5d63 3abf
000000a0: b285 363d 068d 3bbd 637c 363e 357b d33d
000000b0: 4219 9d3b 4247 65bd 4801 86be 9097 51bb
000000c0: 9100 34bd 3ec0 603e 3f40 b1bd cdb3 1dbd
000000d0: 20e2 173d acb4 3fbf e7c7 a0bd dc66 52be
000000e0: f82a 51bd e3fa 00be 08d7 5f39 bfdb 3d3e
000000f0: 75d3 373d 94cb 473d 32d9 24be 3b48 e6bd
0.13379997 -0.08058337 0.013312769 0.10309988 0.10305549 -0.113096364 -0.1471746 -0.03301736
-0.024919545 0.03602579 0.040587492 0.051600404 0.040553167 0.335463 -0.15235455 0.04475871
0.06752864 -0.04546113 0.0801677 -0.0016172827 -0.123767704 0.014224685 0.12876065 -0.06502574
-0.063501604 0.13224891 -0.09383546 -0.072790556 -0.06155929 -0.10039823 -0.056997746 0.00612858
-0.036448587 -0.07124304 -0.038597867 -0.28806567 -0.050659314 0.18936825 0.098894924 -0.72807866
0.044561096 -0.045788787 0.17820887 0.10326234 0.0047942707 -0.05597616 -0.26172853 -0.0031981207
-0.043945853 0.21948335 -0.08654832 -0.03850155 0.037080884 -0.7488506 -0.07850628 -0.2054705
-0.05106637 -0.12595706 0.00021347043 0.18540858 0.044879396 0.04877813 -0.16098478 -0.112442456

critic.0.weight f4 [1, 64]
00000000: 01ab 39bd 49dc e3bc f1dd 87bc a08a 603e
00000010: 7cef 73bd b813 19be 9770 6dbd 8e6e 26bc
00000020: e9fa 26bd 0cbd 89bd ea58 0abc 32de 12bb
00000030: c584 a0bd 6bef 0dbe dfac d2bb 6085 24bd
00000040: f753 d1bd 1d3f 0ebd e4e9 b03b 62ec 563b
00000050: 2877 a0bd 47e9 b33d 15d5 c0bc 9d08 bdbd
00000060: bcd7 bfbd a02c 883e da53 f6bd f063 99b9
00000070: 4125 21bd c6c2 f2bc 3852 81bd 44e9 e739
00000080: 83b9 f83b 2d29 9ebc 227e ffbb 87be 6bbd
00000090: 28a1 80bd aff7 b73e 938e e8bd f517 42be
000000a0: e3af 0dbd 5a17 12be 82e2 4ebe 6a1a a3bb
000000b0: 0ea7 b9bb 8b3c 4dbc c49c 8a3d 9024 66bd
000000c0: f204 84bd 80de e13e fa00 1a3e bfd3 01be
000000d0: 4c2d f6bc b6a0 92be 6a52 bebd 28f4 e6be
000000e0: 67fb 8abd 6361 a7be c673 f9bc c3af d03d
000000f0: 2da2 9ebd b0cc 13bd fe3a e2bc 7671 2ebd
-0.045329098 -0.027815001 -0.016585322 0.21927881 -0.059554562 -0.14948928 -0.057968702 -0.010158194
-0.04076663 -0.06725511 -0.00844405 -0.002241027 -0.07837824 -0.13860862 -0.0064292992 -0.04016626
-0.10221093 -0.03472816 0.0053989757 0.0032794704 -0.07835227 0.087847285 -0.023539105 -0.092301585
-0.0936732 0.26596546 -0.12027712 -0.00029256893 -0.03934217 -0.02963389 -0.0631451 0.0004423355
0.007590474 -0.019306744 -0.0077970186 -0.057554748 -0.06280738 0.35931155 -0.11355319 -0.18954451
-0.034591567 -0.1426672 -0.20203593 -0.004977514 -0.0056656664 -0.012526642 0.06768182 -0.056187212
-0.06446256 0.44115067 0.15039435 -0.12678431 -0.030050896 -0.28638238 -0.09293063 -0.4510815
-0.067862324 -0.32691488 -0.030450713 0.10189774 -0.07745776 -0.036083877 -0.02761602 -0.042588674

actor.0.weight f4 [22, 64]
00000000: c117 d23d c0ca 30be 2fc4 0e3e 738c cb3e
00000010: 22ec a1be dcd7 e6bd cde8 9e3e b2e1 ce3e
00000020: 8585 9ebf 1143 21be 495a f2be 0fb1 bebe
00000030: 23ae 7dbd 4dd6 6bbd 7a75 08bf b475 fb3d
00000040: 79ba 7cbe 2ce4 c23e 6452 80be 405c f23e
00000050: ef28 82be d172 7c3e f826 7f3e 9352 493c
00000060: e7e6 93bd a125 9e3d d09a edbd 6246 93be
00000070: 2ba2 b9be 4d3d 1bbf afb4 a9bd 825a a83e
00000080: 23de a83e 515f 193f 6783 7dbe e863 333e
00000090: d741 22bf 9311 9a3d 599a e2be bddf 46be
000000a0: 9f22 9d3e 5287 9d3c 9bee a33b 9412 32be
000000b0: 7b70 553f 2866 e33e 425a 8f3e d7bc 26be
000000c0: ae05 f03e 3a39 343e 1108 443e 8b1f d1be
000000d0: 7f88 dd3e 627f 01be f33a 1b3e 2acc 66be
000000e0: b9a1 3fbe 060a 583c 43c7 94bd e631 943e
000000f0: db67 2c3e 20a5 133f 5532 b43d b6a1 adbd
00000100: 6118 27b8 53ea 5a3e 2087 7cbc a9a4 cb3d
00000110: f7da a2be 276d 8dbd 959e 2bbe 8f47 da3e
00000120: 1139 d6be f2de c4be db95 543d 8a1c 403f
00000130: b3ba 9ebe 072e c23c cdae 193d fe1d 2abe
00000140: cb22 f93d 18ad 0c3c 7b40 e8bd 019e 103f
00000150: 9c72 c0be 3122 843d d1c3 903d ed07 2dbe
00000160: c792 46be 10fb a23c abe4 313e 98e8 b2ba
00000170: 4357 cabe 92b4 68be 08a7 53be 589b bebe
00000180: fd0b a4be 97bb cabe a3f5 9b3e 6d5b bcbd
00000190: f3e9 1c3e 4f41 273e 8a32 59be d36a 5bbd
000001a0: 92f7 0a3d 2045 34bd 5296 78bc 1ede 493f
000001b0: 58a2 0c3e b114 653e 7a9a 7c3c 480e 84be
000001c0: 7d96 e63e a6a4 053e 6fc3 393d ecb0 e2bd
000001d0: 7515 c73d f3c5 33bd a56e 40be 03f0 653d
000001e0: 3cf8 dc3d c0c5 bbbb 8a98 b03e d71a fd3d
000001f0: 8da0 d93c c1da 14be 7d48 4abf fa76 b43e
00000200: 16d3 b83e f1c5 c43d 8bb1 4339 7068 d8bb
00000210: 7699 20ba a1d9 4abd b33b d63e c0ae ee3e
00000220: 36a9 27be 65e9 953e f92c a2be c763 d73c
00000230: e0fa 52bd d9d8 28be 9d40 fabe 04bf a93d
00000240: d86e bcbd 9c4b 3abe 0cda a93e 905b dcbe
00000250: 3ef6 4cbe 651d 1b3e 6df8 d8bd 3d20 9fbe
00000260: c9dc 8abd 719e 9dbc c007 1ebe 5a2c 25bd
00000270: 6bde 8abe abed 3fbe fef7 d73e 8bc8 12be
00000280: a799 8e3e e86a a53d 0f3a 2a3e 98ee 12be
00000290: 1f70 883d 1585 ff3d af57 863d 0911 8e3e
000002a0: 38cc edbc 1bd2 013d 059e 72be 5a4f d33e
000002b0: 473a cbbb 67ca a7bc 9d55 4d3e 7657 92bd
000002c0: 8de1 88be c754 093e 69b6 a13c b9b2 33bd
000002d0: 984c 76be a2cd 223e 34ef b5be 29ac 22be
000002e0: 25b2 343d fc6a dcbc 0486 4dbd 027c b33d
000002f0: e516 03be 4afb b3bd aebc 863e 8ecb 76be
00000300: e1aa 4ebd f406 eb3d 5d79 67be 017d 303c
00000310: 5b94 833e 1725 9dbd 7623 88be 9910 7cbd
00000320: c1a6 413e 16b4 fb3d 855f d53c 77fc cdbd
00000330: ad50 85bd a8de d03d 5e8b 9cbe 5de8 aabe
00000340: 0025 08bd 0dfd ca3e abcb 093e b7d0 25be
00000350: a908 313d 52bd c83d c1ab 8cbe f5c4 5abe
00000360: 8416 f6bc 110e aabd 58fa 8abe 667f 53be
00000370: 7730 823e dbe2 da3d ff17 523d 17e5 31be
00000380: 7ff9 88bc 8b8c 503e c3cd eebd f91a ac3d
00000390: 143b 89be a0f6 6d3e 31a4 f0bd 2268 6abc
000003a0: ae67 da3d b337 98bd 29a0 1a3d c2d2 453c
000003b0: 1e7b 19bb fd42 f33d 2f83 973c d102 f23e
000003c0: 05e0 bdbe 74b8 373d c7ad a53d 669f 76bc
000003d0: b002 6ebe d948 2a3c e7e5 573d 97e2 59be
000003e0: cb9c cabe d058 153d bdde 81bd 2593 7a3d
000003f0: e420 373e 3dc9 c9bd 4f27 3bbe c514 553e
0.10258437 -0.17264843 0.13942026 0.39755592 -0.31625468 -0.11271641 0.31036988 0.40406567
-1.2384497 -0.1574824 -0.47334507 -0.3724446 -0.061933648 -0.05757742 -0.53304255 0.122783095
-0.24680509 0.38064706 -0.2506286 0.47336006 -0.25421855 0.24653174 0.24917209 0.012287754
-0.072217755 0.07722021 -0.11601794 -0.28764635 -0.36256537 -0.6064041 -0.08286416 0.32881552
0.32981977 0.59911066 -0.24757157 0.1751858 -0.63381714 0.07522883 -0.44258383 -0.19421287
0.30690476 0.019229565 0.005002809 -0.173899 0.83374757 0.44413877 0.2799855 -0.16282974
0.46879333 0.17599955 0.19143702 -0.40844378 0.432682 -0.12646249 0.15159206 -0.2253882
-0.18714036 0.0131859835 -0.07264569 0.2894432 0.16836493 0.57673836 0.087986626 -0.084781095
-3.9838607e-05 0.2137845 -0.015413076 0.09943516 -0.31807682 -0.06905585 -0.16759713 0.4263272
-0.41840413 -0.38451344 0.051900726 0.7504355 -0.31001815 0.023703588 0.03752022 -0.16613004
0.12164839 0.008586191 -0.11340424 0.56491095 -0.3758744 0.06451834 0.07068599 -0.16897555
-0.19391929 0.019895107 0.17372386 -0.0013649641 -0.395197 -0.22725132 -0.20669186 -0.37227893
-0.32040396 -0.39596245 0.30460843 -0.091971256 0.1532362 0.16333507 -0.21210685 -0.053568672
0.033927508 -0.044011235 -0.015172558 0.7885455 0.13733804 0.22371174 0.015417689 -0.25792146
0.45036688 0.1305109 0.045352396 -0.110689014 0.097208895 -0.04388995 -0.18792208 0.056137096
0.107895344 -0.0057303607 0.34491378 0.12358635 0.026565814 -0.14536573 -0.7901686 0.35247022
0.36098546 0.09608067 0.00018662789 -0.006604247 -0.0006126383 -0.049523953 0.41842422 0.466177
-0.16373143 0.29279628 -0.31674936 0.026292695 -0.051508784 -0.16488971 -0.4887742 0.082883865
-0.09200829 -0.18192905 0.3317417 -0.43038607 -0.20015809 0.15147932 -0.105942585 -0.31079283
-0.06780393 -0.01924059 -0.15432644 -0.0403255 -0.27122816 -0.18743007 0.4218139 -0.14334314
0.27851602 0.080770314 0.1662371 -0.14348829 0.066620104 0.12476555 0.06559693 0.27747372
-0.029028043 0.031694513 -0.23693092 0.41271478 -0.0062020156 -0.020482255 0.2005219 -0.07145588
-0.26734582 0.13411246 0.0197403 -0.043871615 -0.24052656 0.15898755 -0.3553406 -0.15885986
0.044115204 -0.026906483 -0.050176635 0.08763887 -0.12801702 -0.08788164 0.26315826 -0.24101087
-0.05045593 0.114759356 -0.2260489 0.010771991 0.25699124 -0.0767309 -0.26589555 -0.061539266
0.18911268 0.12290208 0.026046524 -0.100579195 -0.06509528 0.10198718 -0.3057508 -0.33380404
-0.03323841 0.39646187 0.134566 -0.161929 0.04322115 0.09801735 -0.27474788 -0.21364196
-0.030040033 -0.08303464 -0.27144122 -0.20654067 0.254276 0.106878005 0.051292416 -0.17372547
-0.016720532 0.20366113 -0.1166034 0.08403582 -0.26802886 0.23238611 -0.11750067 -0.014307054
0.106643066 -0.07432499 0.037750397 0.012074174 -0.002341933 0.118780114 0.01849517 0.47267774
-0.37084976 0.044853643 0.08089786 -0.015052652 -0.23243213 0.010393345 0.052709486 -0.21277843
-0.3957275 0.03646165 -0.06341312 0.061175484 0.1788364 -0.09852836 -0.18276714 0.20808704

actor.0.bias f4 [22]
00000000: 5d7a 02bd cca1 ae3d db93 e73d aba0 c939
00000010: f51b afbc 4a1b 7cbc 6abb ecbc 39c8 1cbd
00000020: 3de7 9ebd e0f3 ea3c 7048 03bd b511 983d
00000030: 0de3 e13d f7b1 903d 7e17 59bd 157a bebc
00000040: bb65 03bd 5570 28bd fd55 c5bd f856 043d
00000050: 2552 243d 8e4d 4a3d
-0.031854976 0.08526954 0.11307498 0.00038457414 -0.021375636 -0.015387366 -0.02889796 -0.038276885
-0.07758949 0.028680742 -0.032051504 0.07425252 0.110296346 0.07065194 -0.05300092 -0.023251573
-0.03207944 -0.041122753 -0.096355416 0.032309502 0.0401174 0.04939037
