paper/training_results/seed-4/momarl/checkpoints/mlp_(negotiation=False)_(num_agents=12)_(window=False)_(reduced_space=False)_(fixed_savings_rate=False)_(rewards=['inverse_global_temperature', 'global_economic_output'])(wgen=uniform)(num_ensembles=1)(seed=4)_2025-01-16_22:06:48_w=[0.4311 0.5689].pt (torch, 38168 bytes, 9 tensors)

network.MLP.0.weight f4 [64, 18]
000000 e4 2f 4f be f1 23 54 3e 29 b4 e3 3b cb 2f 96 bf
       -0.20233113 0.20716836 0.006948967 -1.1733335
000010 f2 d7 c5 bd af d0 a5 3e 86 ca 0e be 4d b3 a3 3d
       -0.09660329 0.32385775 -0.13944444 0.07993183
000020 c3 23 8c be a7 f0 f4 3e 4e fb 1d 3e 27 8e 01 be
       -0.27371034 0.47839853 0.15427896 -0.12651883
000030 7e 4e a4 bc 31 d6 eb 3d 11 c3 16 3d 0f d8 ea 3c
       -0.02005696 0.11515463 0.036807124 0.028667478
000040 36 8b 33 3e c5 b6 86 3e d6 4a 8c 3b 0c 86 f4 bd
       0.17533574 0.26311317 0.004281382 -0.1193963
000050 09 b8 c0 3d 6e a0 13 be 34 29 1d 3e 6e 09 96 be
       0.09410102 -0.14416668 0.15347749 -0.2930407
000060 6c 8c 78 be c2 8e 2c 3e f3 13 0c bf f2 a4 65 3e
       -0.24272317 0.16851333 -0.5471794 0.22426203
000070 60 82 2e be 80 70 2d 3f a7 a4 37 3d f7 9a cc 3d
       -0.17041922 0.67749786 0.04483476 0.09990495
000080 5b af 36 3e a8 37 a3 bd bd 45 9b bd a9 40 80 be
       0.1784033 -0.079696 -0.07581661 -0.25049332
000090 51 f7 46 bd 9b 11 a0 bd 2f 4a 68 be f1 b2 35 be
       -0.048575703 -0.07815858 -0.22684549 -0.17744042
0000a0 0f a5 20 3e 8a 96 91 bc 17 d4 59 bd 58 35 5b be
       0.15687965 -0.017771978 -0.05318078 -0.21407068
0000b0 9b 15 3d 3e fb c2 33 bb 9e 51 86 3d ff 8a a2 bc
       0.18465273 -0.002742945 0.06558536 -0.01984167
0000c0 4e 7f f9 3b 21 6c 39 3e e7 96 09 3d f4 dc 1f bd
       0.007614053 0.18107654 0.033591177 -0.039029077
0000d0 e5 db b5 bd 72 9a 7b bd e6 7d ee 3c 8d 8c b5 3d
       -0.08879832 -0.061426587 0.029112767 0.088646986
0000e0 40 ff 5a be 92 c6 61 be 86 10 41 bc 1a 98 69 be
       -0.21386433 -0.22048405 -0.011783725 -0.22811928
0000f0 6c 2c 03 3e e6 a8 4e 3e 1f 0f 62 be 45 a1 fd 3d
       0.12809914 0.20181617 -0.2207608 0.12384275
000100 fa a4 27 be 68 be cb bd 6d 02 14 be 40 49 50 3e
       -0.16371527 -0.099484265 -0.1445405 0.20340443
000110 21 3d 40 be e0 b6 ca bd 04 52 3e 3b 35 0b 9e bd
       -0.18773319 -0.09898162 0.0029040584 -0.07716981
000120 a1 af 52 3e fd 27 9b bd 24 3f 9c bc 91 6c 96 be
       0.2057481 -0.075759865 -0.019073077 -0.29379705
000130 41 f5 fd bd a4 2c b0 3d 56 fc 78 3e cb 8f 04 3e
       -0.12400294 0.086022645 0.24315009 0.12945478
000140 b2 34 0b 3e 73 92 68 3e d6 a3 ee bc 18 a4 73 3e
       0.1359432 0.22712116 -0.029130857 0.23793066
000150 4f 58 83 3e 62 65 17 3e 2a a8 94 3d 1e 1a 0c be
       0.25653312 0.14784768 0.07258637 -0.13681838
000160 5c d0 5d 3e bc ed f8 3d d5 a2 ef 3d d5 95 37 bb
       0.21661514 0.12154719 0.117009796 -0.002801289
000170 fa f9 f8 bd a2 28 15 3e 2c fb 27 3e fd d5 77 bd
       -0.12157054 0.14566281 0.16404408 -0.06050681
000180 07 42 6c 3e 0a b2 29 3e d7 07 9d 3c 3a 04 01 3e
       0.23072062 0.16571823 0.019168777 0.12599269
000190 2a 3f c3 3c 46 6a a1 be 32 49 27 be 0f 70 8d 3e
       0.02383383 -0.31526393 -0.16336516 0.27624556
0001a0 e1 25 c1 be ad 9b 49 3e 41 f1 3a be 4e eb 39 3e
       -0.37724212 0.19688292 -0.18256094 0.18156168
0001b0 aa 3e cc 3d 55 4b 6d be 04 2d 02 bf f3 21 b7 3d
       0.0997289 -0.23173268 -0.5084994 0.08942022
0001c0 05 fa 81 c0 e1 c3 59 3f e9 e5 89 bc b7 e6 89 bd
       -4.06177 0.8506451 -0.016833263 -0.067334585
0001d0 bd 84 2f bd c6 26 99 bd ba 62 09 bd 26 fb 6d bd
       -0.0428512 -0.074780986 -0.03354142 -0.058100842
0001e0 8c 31 06 be c4 7f 32 be b7 be 97 3d bd 74 4b bd
       -0.13104838 -0.17431551 0.07409423 -0.049671877
0001f0 9c 37 7d be 9e 75 57 bd 70 79 c3 bd d8 05 be 3e
       -0.24728245 -0.052602403 -0.09544647 0.37113833
000200 61 8d 5b bc 33 9c 6e 3d 3c de 77 bf 30 59 e1 3d
       -0.013400407 0.058254432 -0.9682348 0.11003339
000210 4c 24 c3 3e 3e 60 54 3e f9 5b 2d bf ab 5e 0f bf
       0.3811363 0.20739838 -0.67718464 -0.56003827
000220 74 69 86 3e b6 24 b9 3d b3 5e 64 be fe eb 58 3e
       0.2625233 0.09040205 -0.2230175 0.21183774
000230 64 69 06 bd 70 92 d7 3e 0e 89 03 be c1 72 5b 3e
       -0.032815352 0.4210391 -0.12845251 0.21430494
000240 a4 95 dc 3d 70 90 f2 3b 72 85 19 3d 5c fa aa be
       0.10770729 0.007402472 0.03748078 -0.33394134
000250 4c ca 3d 3e 6e a1 83 bf 21 29 91 bc 94 c3 88 b9
       0.18534201 -1.028364 -0.017719807 -0.00026085658
000260 47 a4 be 3c 7c d6 e0 3b be 30 7e 3c 05 3f 62 3d
       0.023271693 0.006861506 0.015514551 0.05523588
000270 fe 2b 08 bd e0 74 94 3c 92 be b4 bd 34 95 7e bc
       -0.03324508 0.018122137 -0.08825411 -0.0155385025
000280 d8 b6 1d 3c af 66 0f 3d df 57 91 be 1a c3 8b be
       0.009626113 0.035010036 -0.28387353 -0.27297288
000290 ca 7e 97 3d 80 75 42 bf b2 b8 1b 3e 52 7f e4 3c
       0.0739723 -0.7596054 0.15207174 0.027892742
0002a0 d1 a0 f2 be d4 ac 17 be 34 28 5e bf 31 85 6e be
       -0.47388318 -0.14812022 -0.86780095 -0.23292996
0002b0 cd 45 af 3e 6b 55 8c 3d 0c bc 94 3e 45 57 57 bf
       0.3423294 0.0685223 0.29049718 -0.8411754
0002c0 90 92 0f 3f d5 bd a9 be d9 8a 9b 3e f6 90 9a 3c
       0.5608301 -0.33152643 0.3037937 0.01886795
0002d0 d2 ba 1d 3e bb ae e6 3c a7 28 13 3c 04 fc a4 be
       0.15403298 0.02815949 0.00898186 -0.32223523
0002e0 d8 e2 91 3e 09 fd 9b bf 97 91 08 be 12 d7 90 be
       0.2849338 -1.2186595 -0.13336788 -0.28289086
0002f0 16 13 72 bb 3e b2 3a be 63 56 8d 3d 4e 2b f5 3c
       -0.0036937646 -0.18232056 0.069012426 0.029927876
000300 b3 5f 63 bd 1c dd ac 3e b4 91 23 3e d2 5e 29 be
       -0.055511188 0.33762443 0.1597355 -0.16540077
000310 65 90 b5 3c e2 ab ff bd 55 30 43 be b9 94 98 3e
       0.02216358 -0.12483956 -0.19061406 0.29800966
000320 ec bb 9f 3d 52 bc ee be e8 f1 6f bf 36 f5 6c 3e
       0.07799515 -0.46628052 -0.93728495 0.23140416
000330 c0 42 82 3e 56 59 d0 3d 0e 7a f1 bd 19 a9 31 bd
       0.2544155 0.101732895 -0.11790858 -0.043374155
000340 cd 23 3b 3e 4a dc 2a be b7 d2 99 3e 84 94 b9 3e
       0.18275376 -0.16685596 0.30043575 0.3624612
000350 25 32 05 bd 27 db 78 be 0a c9 52 bc e5 1c 8d be
       -0.032518525 -0.2430235 -0.012865314 -0.27561107
000360 7f 34 f1 3d 8e d0 c3 3c b1 1a ff bd dc ae 4a bf
       0.11777591 0.023903158 -0.12456263 -0.79173064
000370 b9 24 07 3f 04 63 1f 3e 66 43 18 bf 44 96 cf bd
       0.5279041 0.15565115 -0.5947784 -0.10136083
000380 cb bf 23 be 64 7b a8 bd 60 bf 8b bd 47 0b cc 3d
       -0.15991132 -0.0822666 -0.06823611 0.099630885
000390 85 f5 0d 3e d1 ba 8f be 6d ef 02 be 6c 25 24 3f
       0.1386319 -0.28072217 -0.12786646 0.641196
0003a0 49 2c bc 3d 79 f1 1b be 0a de 88 3c 5c 2a 0f 3d
       0.09188134 -0.15228833 0.016707439 0.034952506
0003b0 5b 1d 53 3c f6 4c 07 c0 03 dc b7 3d 76 a6 3c bf
       0.012885417 -2.1140723 0.08977511 -0.736915
0003c0 29 43 c7 3d e0 87 54 3d 12 e3 0f bc c8 f3 02 3e
       0.09729607 0.051887393 -0.008782165 0.12788308
0003d0 8e c5 19 3d 5c 63 c9 3d d9 19 26 3d 6b 4f 64 ba
       0.03754192 0.098334044 0.040551994 -0.0008709344
0003e0 c6 0e 95 3d ea 65 d1 bd 86 d3 37 3d 85 38 1a bd
       0.072782084 -0.10224517 0.04487946 -0.037651557
0003f0 8a 8c 8b 3d f4 27 01 bf a5 c6 b6 3d c0 31 15 3d
       0.06813915 -0.5045159 0.08924607 0.0364244

network.MLP.0.bias f4 [64]
000000 fb 9f 9c 3e 77 1e 87 3c 96 cc 25 be 74 82 ef 3e
       0.30590805 0.016494019 -0.16191325 0.46779215
000010 33 b7 13 3e 08 0e 21 be d9 38 d9 be 62 30 db 3d
       0.14425354 -0.15728009 -0.42426184 0.10702588
000020 2c 77 ec 3e fd 2b 98 be 54 37 43 bf 5a 95 a5 be
       0.4618467 -0.2972106 -0.762563 -0.3234051
000030 5c 9a 2a be a7 d8 5c 3f df 6d 0c 3e b5 4c ff be
       -0.16660446 0.86268085 0.13713787 -0.4986321
000040 be 64 b1 bd 9d 92 36 3e 81 43 c6 3d 40 29 6d be
       -0.08661793 0.17829366 0.09680844 -0.23160267
000050 4d 11 5c bf aa f6 a8 3d 6a 3d 29 3c c9 b2 51 bd
       -0.859639 0.082501724 0.010329584 -0.051195893
000060 a3 ac 15 be 2e 27 78 3d 8b 3f 45 be d7 ae 00 3f
       -0.14616637 0.06058424 -0.19262521 0.50266784
000070 11 5d cc bc 52 11 30 3e 69 7a 66 be 54 f2 32 3f
       -0.024946721 0.17194107 -0.22507633 0.69901013
000080 77 45 08 3e 01 6c 2b be 5b e1 b7 3e ea 27 8b be
       0.13307749 -0.16740419 0.3591412 -0.2717889
000090 4c ef ca 3e 53 fb b7 3d 57 f7 dc 3e 4c ef 74 bf
       0.39635694 0.08983483 0.43157455 -0.9567764
0000a0 fb 89 ed bd e9 4c a1 bf 21 f7 59 bd 1d a2 04 be
       -0.11598583 -1.2601596 -0.053214196 -0.12952466
0000b0 c6 d5 cf be 81 9e 65 be 90 6a 8e be d4 b8 f0 ba
       -0.40592784 -0.22423746 -0.27815676 -0.001836563
0000c0 b1 16 ef 3c 63 bd e4 bd 7c f9 19 3e cf 16 8b 3e
       0.029185625 -0.11168935 0.15036577 0.2716584
0000d0 6d ed e7 be 23 6e 67 3f 22 ee cb 3e e7 0d a3 bd
       -0.4529833 0.9040243 0.39830118 -0.07961636
0000e0 97 ba 03 3f 34 b5 31 3f b6 67 09 be ec 8e eb 3d
       0.5145659 0.6941712 -0.13418469 0.115018696
0000f0 57 00 bc be 20 8d 62 bd e3 c7 02 bd b8 8e 46 be
       -0.3671901 -0.05531037 -0.031928908 -0.1939038

network.MLP.2.weight f4 [64, 64]
000000 4b b0 1a be 97 03 2a be a4 4e cd bd 75 f5 24 3e
       -0.15106313 -0.16602932 -0.10024765 0.1610926
000010 f4 e7 ff bc 02 d1 13 be 76 7f 7e 3e 3b 27 9a bd
       -0.031238534 -0.14435199 0.2485331 -0.07527014
000020 c0 8a 0b bf 49 70 58 bd 57 54 17 be af 0e 83 bc
       -0.5450859 -0.05284146 -0.14778267 -0.015998213
000030 13 c7 ce 3c d3 5b 5e be 01 10 52 bd 71 d3 a6 3e
       0.02524141 -0.21714716 -0.051284794 0.32583192
000040 e6 c0 82 bd b6 f6 9a be 90 7e 88 be 71 52 52 3d
       -0.06384449 -0.3026635 -0.2665906 0.051348154
000050 55 a2 54 3e 39 74 db bd 42 73 e8 bc 97 68 0a be
       0.2076505 -0.10715527 -0.028375272 -0.1351646
000060 76 f6 81 3d b6 96 2e be c4 e0 0b 3d 7a ea a1 3e
       0.06345837 -0.17049679 0.0341499 0.31624204
000070 8b 91 17 bd 98 27 08 3e b9 2b 74 bd bd 6d 77 be
       -0.037004035 0.13296354 -0.05961201 -0.24162956
000080 08 3b 5a 3c d0 92 bf bd 41 0f 22 3e 9d fc 15 3c
       0.013319738 -0.09354174 0.15826131 0.009154466
000090 25 52 85 bd d2 df 3b be b1 e4 ae 3e c2 d0 20 bc
       -0.065098085 -0.183471 0.34158853 -0.009815397
0000a0 cb 46 cf bd fd 75 ec 3e 49 36 0b 3e d3 c4 58 bd
       -0.101209246 0.46183768 0.13594927 -0.05292208
0000b0 27 aa 88 bc 0e f3 c3 be 02 47 b7 bd 80 2d b9 bd
       -0.016682697 -0.38271374 -0.089490905 -0.090418816
0000c0 1e 5a 9a bd 08 b2 44 3d 01 2c 39 be 7c b4 22 be
       -0.0753672 0.048021346 -0.18083192 -0.15889162
0000d0 2f 93 0b 3e 75 c9 8d be 42 84 5f be 7a f6 2b be
       0.13630365 -0.27692762 -0.21827796 -0.16793242
0000e0 6a ce 80 3d 10 ca 93 be b4 56 72 bd c1 45 c7 3d
       0.0628937 -0.288651 -0.059164718 0.097301014
0000f0 fe da d7 3e a3 6f 18 be 22 58 8e 3d a2 cf fc 3d
       0.42159265 -0.14886336 0.06950404 0.1234429
000100 ac b1 10 be fa 8f f2 bc 40 19 b6 3c 76 18 05 be
       -0.14130276 -0.029609669 0.022228837 -0.12997612
000110 bf 0f f8 bc 66 6d 2f be fb f9 79 be 60 0d 64 bc
       -0.030280946 -0.17131576 -0.24411766 -0.0139192045
000120 13 65 0a 3e 55 60 5b bf 6b 48 f9 bd eb 8b 33 3c
       0.13515119 -0.85693866 -0.12172016 0.010958652
000130 95 42 c6 3e fa 3e a2 3e 0d 6e 87 bd 04 ff 46 3d
       0.38722673 0.31688672 -0.066127874 0.048583046
000140 eb c6 74 3d a5 1a af be d8 40 2b bf 61 34 10 3c
       0.059760015 -0.34200016 -0.6689582 0.008801551
000150 4f ec 09 bd de a3 95 3e d9 5f e0 be a2 35 81 3d
       -0.033672627 0.29226583 -0.43823126 0.06309058
000160 9a 4a aa 3d d3 16 68 be 70 b2 27 bc c6 77 7a bd
       0.0831501 -0.22664957 -0.010235414 -0.06114938
000170 a7 de bd be 45 0e b1 3e b2 93 23 3e c3 da 9c be
       -0.37083933 0.345812 0.1597431 -0.30635652
000180 ba 58 12 be e0 3e 46 3c 89 d3 34 3d bb e6 f1 be
       -0.14291659 0.0120999515 0.04414705 -0.47246346
000190 d0 e7 1f 3e 3d 5f 01 3f af a2 6b be d2 f4 90 3d
       0.15615773 0.5053595 -0.23011278 0.07077946
0001a0 9c bb ec bd 80 7f 7a be 64 77 cb 3d e5 6f 20 3e
       -0.11559221 -0.244627 0.09934881 0.15667684
0001b0 3a ee 0e 3e 5d 32 c6 be a7 e8 a1 bc 00 73 64 3a
       0.13958064 -0.387103 -0.019764258 0.0008714646
0001c0 de 6c c8 3e fe 26 dd 3c e9 19 8c bd 1c b8 66 be
       0.3914556 0.026996132 -0.068408795 -0.2253117
0001d0 87 36 12 3e 76 dd 38 3e 8c b1 5a 3d fb e9 84 bd
       0.14278613 0.1805323 0.05339198 -0.06489941
0001e0 aa 0a 7a be 6e c9 89 3d 16 c5 ad 3d 47 54 e0 3e
       -0.2441813 0.06727873 0.08484857 0.438143
0001f0 0b 18 48 be 9c d4 7b be 98 a7 d3 bc bc fc 78 3d
       -0.19540422 -0.24592823 -0.02583675 0.0607879
000200 a3 d4 e4 3d b7 71 eb bc d0 81 85 bc ea b8 77 bc
       0.1117337 -0.028740747 -0.016297251 -0.015119771
000210 75 ab 3d 3d 09 b8 27 3b 36 50 9f be 22 32 40 bc
       0.046306092 0.0025591871 -0.31115884 -0.011730703
000220 e6 9d 10 3f a0 a1 c4 bc 28 10 be 3e a7 ad 4e bd
       0.56490934 -0.02400285 0.371217 -0.050458577
000230 6c 04 3d 3d 74 2d 16 3e d6 3c 1d 3d ca a5 ca be
       0.046146795 0.14665776 0.038388096 -0.39579612
000240 ec d0 49 bd ff 40 e5 3d 1e ef 32 3e 51 00 0d be
       -0.04927151 0.11194038 0.17474028 -0.13769652
000250 c5 23 04 bf 1b 6f b1 3c 0b b8 2e bd ba ad 58 bd
       -0.5161708 0.021659425 -0.042655986 -0.052900054
000260 0e 08 de bd 4a ed 08 3e 32 fb f8 3d f8 e3 46 bc
       -0.1084138 0.13371769 0.12157287 -0.012139313
000270 df 13 63 bd 43 17 14 be 63 c3 84 3d 66 56 d9 bc
       -0.055438872 -0.14461999 0.064825796 -0.026530456
000280 55 62 3a bd 00 cb 76 ba 01 ac 8e bc cb 59 87 bd
       -0.045503933 -0.00094144046 -0.017416002 -0.066089235
000290 6a 48 63 bb 65 cf e2 3d 8e 12 75 3b db fe 41 bd
       -0.0034680613 0.110747136 0.0037395093 -0.04736219
0002a0 07 d8 aa 3d 4d c8 cc be be 3e d2 bc b5 ca 6b 3e
       0.08341985 -0.39996567 -0.025664683 0.23026545
0002b0 73 0f 22 3d f8 cf d9 3e c6 4b ba 3d 2e da bc bd
       0.039565515 0.4254148 0.09096484 -0.09221302
0002c0 82 41 97 3d da 1c e0 3d 3c 62 fe bd ae a6 68 3e
       0.073855415 0.10943003 -0.124210805 0.22719833
0002d0 c8 18 3c 3a 44 9d f7 3e 1e 4e 98 bd c5 49 03 3e
       0.00071753236 0.48362172 -0.07436775 0.1282111
0002e0 c6 c0 a1 bd 8a c3 14 3d c6 dd d3 bd da b7 11 3d
       -0.07898097 0.036319293 -0.10345034 0.035575725
0002f0 11 c7 0d be 6d b0 fc 3d 78 02 b1 3d ae e0 6d bd
       -0.13845469 0.12338338 0.08643049 -0.0580756
000300 2f e1 2e be 97 eb d6 bd a0 34 75 bd 47 7a bf bd
       -0.17078088 -0.10494154 -0.05986464 -0.093494944
000310 bb 2a 44 3c cb 73 21 3e 83 b1 a1 3e d6 9b 2b be
       0.011973078 0.15766828 0.31580743 -0.16758665
000320 48 53 10 be d5 7e 66 3e 5b 3f 3e be dc fb 30 bc
       -0.1409427 0.2250932 -0.18578856 -0.010802235
000330 cb 53 d8 be 4c db 15 be cd 0f 47 3e e1 13 19 3e
       -0.4225143 -0.14634436 0.19439621 0.1494899
000340 a5 e0 c1 3c 55 b0 d7 be 8d 8b 1c be 19 54 fe bd
       0.02366669 -0.42126718 -0.1528761 -0.12418384
000350 d9 eb 2d 3e 0c 77 bd 3d 7f a2 22 be 53 0d 68 be
       0.169845 0.09251222 -0.158823 -0.22661333
000360 b0 9d 53 3d 47 47 98 bc 86 ec e6 bd a1 6b 0a be
       0.051664054 -0.018588675 -0.11275582 -0.1351762
000370 c0 cf 9d 3c b2 79 67 3d 9b 49 44 bb 84 c8 a4 3e
       0.019264102 0.056512542 -0.00299511 0.3218423
000380 2f be 74 3d 82 0c aa 3d a8 bd bc bd d3 dd b5 3c
       0.059751686 0.08303167 -0.092158616 0.0222005
000390 9b 93 e1 3c 1f ef 93 bc 2c 38 6d be bb 79 44 3d
       0.027536204 -0.018058358 -0.23165959 0.047967654
0003a0 93 b6 35 3e 03 9e 6b 3e 90 b2 bd be 4f 9e b3 3d
       0.17745428 0.23009495 -0.37050295 0.08770429
0003b0 07 e0 a0 3e c4 2b cc be dc 41 8b be 92 52 b1 3d
       0.3142092 -0.3987714 -0.27198684 0.08658327
0003c0 db 98 5e be a2 db dc bd d4 3d 1f 3f f1 84 0a be
       -0.21737997 -0.10784079 0.6220372 -0.13527276
0003d0 6b 92 01 bd e9 2d 12 be 07 60 4e bc 3a 8c 14 bb
       -0.031633776 -0.14275326 -0.012596137 -0.002266659
0003e0 6a 2d 20 bd 05 3d ba 3d f4 63 d8 3d db 13 16 be
       -0.03910581 0.0909367 0.105659395 -0.14656012
0003f0 d2 c6 1a bd a2 1d aa 3e 6e f0 83 3d bf 51 87 3d
       -0.037787266 0.33225733 0.06442343 0.06607389

network.MLP.2.bias f4 [64]
000000 f1 c9 16 bf c5 57 26 3e de 3d d8 3e e7 e2 94 bc
       -0.5890189 0.16244419 0.422347 -0.018174602
000010 a6 e5 e1 3b d8 5d 12 be 2d e2 32 bd fb 03 41 be
       0.0068938313 -0.14293611 -0.04367273 -0.18849175
000020 54 26 ff bd 8c 60 72 bc a5 40 e9 3e 66 b6 fd 3e
       -0.124584824 -0.014793526 0.45557132 0.4955322
000030 dc 3f bb bc 9a e2 5d 3d fa ae 25 3e ae c8 ae 3d
       -0.022857599 0.054171182 0.1618003 0.0853437
000040 10 5c c4 be da a3 3a 3d 40 43 21 be a1 fa 22 be
       -0.38351488 0.045566417 -0.1574831 -0.1591592
000050 b6 43 59 bd 41 2b 77 bd 07 fe ba 3e 18 b4 68 3d
       -0.05304309 -0.060343985 0.36521932 0.056812376
000060 11 e9 e3 bd 5c 3a 7b be a9 96 37 be ac 7e 3e 3e
       -0.11128438 -0.24533981 -0.17928566 0.18603009
000070 8b 9a f8 be 73 2e a2 3d cc 32 3e be 18 13 7b 3e
       -0.48555407 0.07919016 -0.18574065 0.24519002
000080 f9 e7 30 be 57 e7 24 be fa 41 5b 3f 29 f0 56 bd
       -0.1727599 -0.16103874 0.8564755 -0.05247513
000090 1f f9 07 3e 17 77 c6 3e 29 bb 60 bd bd c1 6f be
       0.13278626 0.38762733 -0.05486599 -0.23413749
0000a0 ca 74 8b 3f 25 b6 96 3e 4e 19 4b bd 88 ab c7 3d
       1.0895016 0.2943584 -0.04958468 0.09749514
0000b0 61 17 13 bf 70 6e 9b 3c 88 12 44 be 6f c4 8a bd
       -0.5745755 0.01897356 -0.19147694 -0.06775748
0000c0 c6 30 06 3e 04 6d 08 3e 38 0b 64 bd 0b c1 b2 bd
       0.13104543 0.13322836 -0.05567476 -0.08728226
0000d0 27 7b 1d be 7a d0 92 3e 29 df b9 3e 2e e3 c8 be
       -0.1537901 0.2867468 0.3630307 -0.39235824
0000e0 d6 7b d7 be 00 5b 1a 3e eb d4 2e be 3a d5 b9 bd
       -0.42086667 0.15073776 -0.1707341 -0.09073873
0000f0 fd 86 a2 be 4f ca c8 3e 5c 6b 92 be 5e 5c 05 3e
       -0.31743613 0.3921685 -0.28597534 0.13023517

network.MLP.3.weight f4 [64]
000000 61 3f 6e 3f ca fd ea 3f 41 ea 49 3f ad 92 a5 3f
       0.9306546 1.83587 0.7887307 1.2935387
000010 fe 92 81 3f 08 b9 cf 3f de f1 a5 3f 7e 87 bc 3f
       1.0122983 1.6228342 1.2964437 1.4728849
000020 a6 29 cf 3f 19 dc 7d 3f 23 75 6b 3f 8f 6f 66 3f
       1.6184585 0.9916397 0.9197561 0.90013975
000030 1f 3f b5 3f 7c 63 cd 3f 7c 8c dc 3f ff ce b0 3f
       1.4159888 1.6045985 1.7230372 1.381317
000040 56 4a e6 3e 3a ef b4 3f f9 11 84 3f 9b 91 c1 3f
       0.4497859 1.4135506 1.0317985 1.512256
000050 22 c7 94 3f 7b 88 a0 3f ab 7c 0a 3f 33 91 ba 3f
       1.162327 1.254165 0.5409648 1.4575561
000060 38 9d af 3f 7a 78 bd 3f c5 d8 a0 3f 3e 48 95 3f
       1.3719854 1.4802392 1.2566153 1.1662672
000070 a2 19 71 3f 1b a8 9f 3f f3 39 b4 3f a3 d4 8a 3f
       0.9417974 1.2473177 1.4080185 1.0846142
000080 1e 17 ce 3f 8f a6 c5 3f ad cc 3e 3f 22 ef a8 3f
       1.6100805 1.5441455 0.7453106 1.3197978
000090 34 80 c5 3f 5f fe 50 3f 13 a2 b8 3f 7f ff 8c 3f
       1.542975 0.8163814 1.4424461 1.1015471
0000a0 a5 0a 48 3f b1 ad a8 3f e2 de 4f 3f 8c ad d3 3f
       0.7814124 1.3178006 0.8119947 1.6537337
0000b0 36 63 3b 3f b6 60 d6 3f dc c4 46 3e 75 07 88 3f
       0.7319826 1.6748264 0.19411033 1.0627276
0000c0 86 b4 96 3f 24 b3 a8 3f 83 91 85 3f 33 a0 8e 3f
       1.1773841 1.3179669 1.0435032 1.1142639
0000d0 b9 ce 94 3f 49 49 8a 3f a6 bb 52 3f bb e0 c9 3f
       1.1625587 1.0803615 0.8231758 1.5771707
0000e0 4e f2 bd 3e 48 5d 8c 3f ff a5 87 3f 42 57 a8 3f
       0.37098926 1.0965967 1.0597533 1.3151629
0000f0 0c 83 44 3f e7 af 89 3f 48 71 4a 3f 2d 75 c5 3f
       0.7676246 1.0756806 0.79079103 1.5426384

network.MLP.3.bias f4 [64]
000000 9f de 36 be e4 2c 01 bc b4 cf 0f 3e fb d0 16 3e
       -0.1785836 -0.007884238 0.14044076 0.14728157
000010 88 df 77 bc ab 28 ed 3d 0a 21 c6 3d 96 27 29 bc
       -0.015128978 0.115800224 0.096742705 -0.010324379
000020 d8 4f 94 3d 3e 17 88 3e a0 d6 08 3e 07 7b e2 3d
       0.072417915 0.26580232 0.13363123 0.11058622
000030 42 ec 23 3e 81 9e 4a 3d 0d 56 73 3d dc 7c 32 3d
       0.16008094 0.049467567 0.059408236 0.043576106
000040 e7 4f 83 3e 3e db 8b 3c a4 23 c0 3e b9 a1 1d 3e
       0.25646898 0.017072316 0.37527192 0.15393724
000050 49 6e a3 3e be b5 05 3e 98 e6 06 be 1c 41 47 3e
       0.31920078 0.1305761 -0.13173902 0.19458431
000060 12 96 15 3e 88 58 14 3e b4 60 33 3e 42 e8 61 3c
       0.14608029 0.14486897 0.17517358 0.013788285
000070 ea 4f 32 3e 3b bc d0 3d 17 b2 88 3d 85 47 01 bd
       0.17413297 0.10192152 0.06674593 -0.031562347
000080 cf 83 b3 3c 08 5b ca bc 67 ac 32 3c 6f bc 2f bd
       0.021913437 -0.02470161 0.010905362 -0.042904314
000090 1c 92 34 bd dc 8c dc bc 4c 72 3c 3e 98 ed 70 3d
       -0.044084653 -0.026922636 0.18402976 0.058820337
0000a0 9b ac 50 bc f5 c7 28 3d c4 a0 5e 3d 7d ab 0e 3e
       -0.012736465 0.04120632 0.054352537 0.13932605
0000b0 4a b4 b4 bd ca 35 ff 3d 44 11 59 3f 50 f3 87 bc
       -0.0882345 0.12461431 0.8479197 -0.016595513
0000c0 f7 cd 10 3c 71 67 6d 3e f6 25 ee 3d f0 bd 65 3e
       0.008838168 0.23183991 0.11628334 0.22435737
0000d0 fe b7 99 3e ef 4c b6 3d a2 34 47 3e ef 42 ad 3d
       0.30023187 0.08901393 0.19453672 0.08460032
0000e0 6f 9e 15 3f 7a 5c 30 bd 2e 5d 11 3d a4 96 1d 3e
       0.58444875 -0.043056943 0.035489254 0.15389496
0000f0 c8 7e b3 3d 0a db 54 3e 07 63 50 3d a2 13 89 bd
       0.08764416 0.20786682 0.05087569 -0.06693198

critic.0.weight f4 [1, 64]
000000 a9 6e c6 be a4 21 6f 3d 58 85 85 3e 9b 24 45 3d
       -0.38756302 0.05838169 0.26078296 0.048130613
000010 1f 7b 7b 3d f1 d3 69 3d 59 f8 24 3d f9 22 a0 bc
       0.061396714 0.05708689 0.040275905 -0.019547926
000020 1b f8 4f 3d 1b 6d b0 3d d6 e7 27 3e f5 dc 3a 3e
       0.05077372 0.0861456 0.16397032 0.18248351
000030 b6 45 59 3d 2b 39 3a 3d 32 4e 96 3c 8d b5 4b 3d
       0.053044997 0.045464676 0.018347833 0.049733687
000040 9f e6 de 3d 00 16 44 3d df 65 b6 3d 5a a3 c2 3c
       0.10883831 0.047872543 0.08906149 0.023759533
000050 99 37 43 3d 2c 94 35 3d 63 a1 d9 3d 45 ae cb 3d
       0.047660444 0.04433076 0.10626485 0.09945349
000060 7c db fe 3c e6 be 4c 3d 71 55 34 3d 85 63 84 3d
       0.031110518 0.049986742 0.044026796 0.06464294
000070 a6 1b b5 3c f5 f0 8e 3d 91 3e bc 3c de 6e a0 3d
       0.02210791 0.06979553 0.022979053 0.07833646
000080 bf 3f 03 3c 07 c8 67 3c 41 2d 49 3e bb 39 67 3d
       0.008010804 0.014146811 0.19646169 0.05645154
000090 4d a9 c0 3c 09 fa ae 3d 5a 7d 1c 3d f9 82 f6 ba
       0.023518229 0.08543784 0.038205482 -0.0018807343
0000a0 62 69 80 3e 37 de 97 3d 80 92 bc 3d 31 1d 32 3d
       0.250804 0.07415431 0.0920763 0.04348487
0000b0 35 1d 1f be 90 50 a6 3d 18 35 f3 3e 67 7d 2c 3d
       -0.15538485 0.08120835 0.47501445 0.04211178
0000c0 03 49 21 3d e2 78 92 3d 10 b3 5c 3d 5c b1 16 3d
       0.03937627 0.07151963 0.053881705 0.036790237
0000d0 d6 e7 00 3e 64 46 96 3d 94 98 54 3e db 0c be 3c
       0.12588438 0.07337645 0.20761329 0.02319949
0000e0 53 5a 4d 3e 1f c7 c5 3d ac 7d 99 3c 40 4f 20 3d
       0.20053987 0.0965712 0.018736683 0.03913808
0000f0 f2 2d ad 3c db 84 1d 3e 25 2f 04 3d 2f 54 1a 3d
       0.021140072 0.15382712 0.032271523 0.03767794

actor.0.weight f4 [22, 64]
000000 53 ce 41 bd ea d3 2d 3f 4a 70 f2 3c 61 78 0a 3f
       -0.047315907 0.6790148 0.02959456 0.54089934
000010 18 9b ae bd 73 3f 0f 3e 22 5d da 3d 83 fa 99 be
       -0.085256755 0.13989048 0.10662295 -0.30073938
000020 24 62 32 3e 98 61 32 be 68 26 81 3d 24 34 f3 3e
       0.1742025 -0.17420042 0.063061535 0.47500718
000030 0c d3 ea 3c b6 66 2d be d1 be 76 3e a4 67 76 bf
       0.028665088 -0.16933712 0.24096228 -0.96251893
000040 9b 93 85 be af 4f 0c 3f 4d 42 9a be ac 89 d7 be
       -0.26089177 0.5480909 -0.30128708 -0.42097223
000050 9b 5d 49 3e ff d7 63 bf 5c f0 99 bd ba 72 90 be
       0.19664614 -0.8900146 -0.07516548 -0.2821253
000060 42 c2 10 be 8d 6e 5a 3f 23 8e d8 be f1 2d 27 be
       -0.14136603 0.8532494 -0.42295942 -0.16326119
000070 e0 63 8d be eb 97 0f 3f 77 21 02 bf 50 a6 5a bd
       -0.2761526 0.56091183 -0.50832313 -0.053381264
000080 f6 d6 e6 3e 1e d3 f5 3d 29 1b 11 bd 09 23 b9 3e
       0.45085877 0.12003158 -0.035426293 0.36159542
000090 a6 a9 f4 3b 03 d6 b0 3c 76 ea b6 be fc b7 80 3e
       0.0074665127 0.021586424 -0.35725754 0.2514037
0000a0 d2 0a ff bd 5d c8 8d be b1 64 6d be 3b 11 51 be
       -0.12453236 -0.27691928 -0.23182942 -0.20416729
0000b0 11 ff ac be 36 62 de 3e 86 b7 71 3e fa 63 03 be
       -0.3378835 0.43434304 0.23605165 -0.12831107
0000c0 cb f9 3f 3e da 1c 7b be 48 c2 b9 bd a7 3f b5 3e
       0.18747632 -0.24522725 -0.09070259 0.35400125
0000d0 f2 db 3e 3e 0b 45 d6 be b5 4b 90 3e 2a a6 b5 3e
       0.1863859 -0.4184955 0.2818276 0.35478336
0000e0 29 68 a5 3e c2 ab aa be 60 1c b4 be d5 d0 8a be
       0.3230603 -0.33334166 -0.35177898 -0.2711245
0000f0 0d d4 af bd 24 aa 42 bf 14 5c ba be 77 a4 86 3d
       -0.08585367 -0.76040864 -0.36398375 0.06574338
000100 9b 6a 20 bd c0 5e 13 3f a5 f5 00 3d df 72 61 be
       -0.039164167 0.5756645 0.031484265 -0.22016476
000110 59 e8 4b be 00 d8 ee 3b c4 8c 6b 3d b8 22 ef 3d
       -0.19912852 0.007288933 0.05750729 0.11676544
000120 69 f4 68 3d 31 a1 c4 bd eb 96 96 bd 4f 91 a3 3d
       0.056873713 -0.09601057 -0.07353004 0.079867
000130 6b 0f 92 be e4 88 3e bd f4 65 72 bf a3 5c 9c be
       -0.28527388 -0.046517268 -0.9468682 -0.30539426
000140 92 05 08 3d f5 43 72 3e 98 6f e5 3d 56 9b 61 bf
       0.033208437 0.23658736 0.112029254 -0.8812765
000150 88 f5 cd be e1 12 84 bd 6d e0 2d 3e 40 b9 fa be
       -0.40226388 -0.06448913 0.16980143 -0.4896946
000160 bd 57 0a 3f 40 0c 13 be 20 60 72 3e 05 45 4a 3e
       0.5404013 -0.14360142 0.23669481 0.19752891
000170 98 96 d0 3d f1 54 e6 bd 8a 2d 0a 3e af 7b 92 be
       0.101849735 -0.1124667 0.13493934 -0.28609988
000180 73 8e 0b be 91 d0 fe 3e fc 36 8d 3d 3d 24 a1 be
       -0.13628559 0.497685 0.06895253 -0.3147296
000190 fc 48 7d be 38 85 63 be 6f 24 c2 3c d2 f2 18 be
       -0.24734873 -0.22218788 0.023699014 -0.14936379
0001a0 0b cd db 3c 17 e9 dd bc 16 81 da 3d cd 80 84 3d
       0.02683117 -0.027088685 0.106691524 0.06469879
0001b0 47 3c 07 bd 2f db 22 3f 79 cd 57 3d 33 e3 4b be
       -0.03301647 0.636157 0.05268619 -0.19910888
0001c0 a5 e4 93 3e c5 15 e1 3d c2 a3 58 3e a3 11 2c 3e
       0.2888538 0.1099048 0.21156219 0.16803603
0001d0 2a be 8d be 84 d0 81 be 92 df de bc dc 19 0f 3e
       -0.27684146 -0.25354397 -0.027206216 0.13974708
0001e0 9b f8 ed bd e5 17 b4 3e 02 02 5b 3e 8b c0 89 be
       -0.11619683 0.3517448 0.21387485 -0.2690471
0001f0 9b c1 16 3e be c7 87 3d d7 5f 10 be 4e 45 4b 3e
       0.14722292 0.06629895 -0.1409906 0.19850656
000200 f4 71 07 bd 88 14 17 bd 3b d6 3f 3d 70 d3 9e 3e
       -0.03306766 -0.036884815 0.046835165 0.3102069
000210 61 07 71 3e 3b 06 90 3d 96 79 bc 3e 50 7e 75 be
       0.23537971 0.07032438 0.36811513 -0.23973966
000220 ac c4 49 bd 87 ae b4 3c ad 08 0d bc e2 11 2d bc
       -0.049259827 0.022055877 -0.0086080255 -0.010563346
000230 01 6c 35 3c 82 c3 3a be 25 9c 4a bc 8a 24 38 bd
       0.011073113 -0.18238643 -0.012366329 -0.04495672
000240 8b ff 6c be fe 31 ab be 31 8d 62 be 78 89 2d 3e
       -0.23144357 -0.3343658 -0.22124173 0.16946971
000250 c0 27 72 be d1 e8 8f 3e c2 4e 17 be cc a9 ec 3e
       -0.23647976 0.28107312 -0.14776137 0.46223295
000260 ab 87 72 bd aa cf c9 3e 74 f3 cd bd 50 50 15 3f
       -0.059211414 0.39416248 -0.100562006 0.5832567
000270 b6 47 17 bd 26 99 77 3d c9 aa 41 3d 17 f7 69 3e
       -0.036933623 0.060448788 0.047282014 0.22848164
000280 c7 14 22 bd 06 33 e4 3c fc 94 12 3d 34 ed d5 bd
       -0.039570596 0.027856361 0.035786614 -0.104456335
000290 5b be 82 be 45 e7 52 3d 87 05 b9 bb 63 51 59 be
       -0.25535855 0.051490087 -0.005646411 -0.21222453
0002a0 45 7d b8 3b b1 4e ef 3d ea 2e 12 3e 70 41 1c bf
       0.0056301677 0.11684931 0.14275709 -0.6103735
0002b0 06 91 10 bd 34 ee 2a 3e f2 7c 50 3d b6 c9 d7 bd
       -0.035294555 0.1669243 0.050900407 -0.1053652
0002c0 14 d9 5e 3e 7d 54 0f be 5c 0d c5 bd 40 eb ef bd
       0.21762496 -0.13997073 -0.09621689 -0.11714792
0002d0 4a 94 26 be b2 99 20 be 17 b5 76 bd c1 14 22 3e
       -0.16267505 -0.1568363 -0.060231294 0.1582823
0002e0 77 2e ba 3d 95 c7 7a bd bb b5 00 3e cf 7e 90 3d
       0.09090894 -0.061225493 0.12569325 0.07055437
0002f0 b6 d2 a5 3d 1a fc 59 be 10 67 62 be 83 d8 32 bf
       0.080968305 -0.21287575 -0.22109628 -0.6986162
000300 14 bd 0e bd 65 ce ef 3c 6b ac 24 3d 1f 9d 93 3e
       -0.034848288 0.029273221 0.040203493 0.2883081
000310 de d9 bc be 03 79 3f 3f 0a 03 93 3d 34 d8 a2 be
       -0.3688497 0.74794024 0.07178314 -0.31805575
000320 a2 60 9b 3e 8f f2 ca bd 85 be 12 be 97 bf 83 be
       0.30347162 -0.09909546 -0.1433049 -0.2573211
000330 fc 46 d9 be a6 d6 de be a2 fe 07 be 8e 9b c4 be
       -0.4243697 -0.4352314 -0.13280728 -0.3839993
000340 f9 7c 57 be ae 8e 01 3e 6c 67 1c be 5d 1f d7 3e
       -0.21043767 0.12652084 -0.15273827 0.42016116
000350 2b 8e 97 bc e9 94 14 3e c0 44 a6 3a ef 85 3b be
       -0.018500408 0.1450993 0.0012685284 -0.1831281
000360 89 80 2f bd 5a 51 7e 3e 83 dd b8 be 78 55 e0 3d
       -0.04284719 0.2483572 -0.361065 0.10953802
000370 44 1f 6c 3e cf dc 78 3e 93 e1 12 bd fa 09 84 3e
       0.23058802 0.24302982 -0.035859656 0.25788862
000380 d1 5e 7e 3e 1f ec 97 3e 91 09 36 3e 24 01 e5 3c
       0.24840857 0.29672334 0.17777087 0.027954645
000390 7b 06 0e be 9c 83 83 3c 4b 89 8d bd 55 ae c0 be
       -0.1386966 0.016053967 -0.06910952 -0.37633005
0003a0 f9 5c 27 3d da c7 a7 3d 65 c3 97 3e 55 79 41 bd
       0.04086015 0.081924155 0.29641262 -0.047234852
0003b0 ae ba e9 3d 02 ce 82 be a1 ca 2c be 62 82 54 bd
       0.114125594 -0.25547796 -0.16874172 -0.051882155
0003c0 9b f7 5d bd 16 41 a5 3e 07 c8 ad 3d 6c d4 e8 3e
       -0.054191213 0.3227622 0.08485418 0.45474565
0003d0 01 7e a3 be e7 7e 9a 3d f1 70 ba 3d 2d 90 a7 3e
       -0.3193207 0.07543736 0.09103573 0.32727185
0003e0 e0 33 c2 be 16 f0 61 be 54 76 6c bd c7 58 78 3d
       -0.37930202 -0.22064242 -0.057730034 0.06063154
0003f0 d5 d5 b4 be 59 ec f1 bd a8 08 bf 3d a0 06 b1 be
       -0.3531939 -0.11812658 0.09327823 -0.34575367

actor.0.bias f4 [22]
000000 6d 8d ce 3c 42 6c 00 3c 6c b5 2e bc 08 63 07 3d
       0.025213921 0.007838311 -0.0106633715 0.033053428
000010 7c bb b4 bd 96 0e 10 bd ce 43 80 3d 19 76 1c 3c
       -0.08824822 -0.03517016 0.06262933 0.009549641
000020 4b 9e b8 3c 9b fb 96 3d 7a 24 40 bd 64 e2 91 bc
       0.022536417 0.07372209 -0.046909787 -0.017808147
000030 87 81 90 3d a5 ff c9 3c 08 3a 79 3c b6 d1 5e 3c
       0.070559554 0.024658034 0.01521159 0.013599804
000040 ab 6c 60 bd cc 49 47 3d ea 7a 0b 3c d3 a2 a5 bd
       -0.054791134 0.048654363 0.008513192 -0.08087697
000050 1c e0 26 3d 35 76 f8 bb
       0.04074107 -0.0075824508
