paper/training_results/seed-10/momarl/checkpoints/mlp_(negotiation=False)_(num_agents=12)_(window=False)_(reduced_space=False)_(fixed_savings_rate=False)_(rewards=['inverse_global_temperature', 'global_economic_output'])(wgen=uniform)(num_ensembles=1)(seed=10)_2025-01-17_09:38:38_w=[0.4608 0.5392].pt (torch, 38182 bytes, 9 tensors)

network.MLP.0.weight f4 [64, 18]
00000000: 6072 21be 0064 48bf f612 e03d 9c7f 7a3f
00000010: a902 ffbe fabc 6f3e d3ca 58be cea2 6dbe
00000020: ee9f 59bd ddde 883a 7b2e 91bd 299f a3bd
00000030: 7bf2 6ebb 2c29 05bd 7246 82be 4eb1 1cbd
00000040: 7748 c53c 65d3 773c 13dd 9dbd aa95 bcbd
00000050: bd51 ecbd 6047 eb3a 82b5 e5bd a879 ecbd
00000060: d9c7 763e 990e 2e3d 3fdf 33be 90fa 933e
00000070: 93e9 f93d 414d 00be 7667 f73b 0eae 983e
00000080: c41f 12bd e092 363e dbcf 2c3e a1b6 7d3d
00000090: d58c bf3d c068 29bf 8515 a1be a85f 7dbe
000000a0: e231 ee3e 9b21 79bf 4a6d 87be c205 003d
000000b0: a34a 153f e229 cf3e 6f9a c7be 845a 333e
000000c0: 7ff3 033e 6205 65bd 267f 373e 2d5d eabe
000000d0: ccef 89be 0bd0 853d 50a3 573d 821f 52be
000000e0: 9839 873d 9845 03be 7ed9 213f e509 0dbf
000000f0: 661d bf3e b39c 023e 279a 003e ac0a ca3d
00000100: 01ea cb3e da44 7cbd a888 c33e 7865 16bd
00000110: bdfa f8bd 2ed6 163d fe99 3bbe 5d17 13be
00000120: 011a d13b 93ac 61bc 3862 c53a bba8 a43e
00000130: 260f a7bd 5af3 cf3e 6b2e a93e d230 913e
00000140: ae82 7fbe 7a63 fd3d f9ca 73bd c7fc f13c
00000150: 2d92 77bc a918 2b3e fd06 81bd c843 7d3d
00000160: 6ee1 25bd ce70 e83d 22e7 08bf 7909 3ebc
00000170: 76a8 d23d e3eb 24be 9563 68bf 0b4c 47bd
00000180: 79dd 4d3e db46 9ebe 64e9 1d3f bb34 01be
00000190: 1fa9 5abe 9e60 c6be 5a34 96be 8eed fdbd
000001a0: c84d 87bd 76e7 a4be 052f 2cbf 0dd9 d3be
000001b0: 3551 79be 10b7 4ebe 4e73 31be 30ba 483d
000001c0: ffb6 233e 530e f5bc 4e13 223d 6073 1e3e
000001d0: 485b 6abe 4eb6 2bbe 7582 01be bdb4 673e
000001e0: 9e47 5a3e 1004 13be 9dda 953d ad1b 2d3e
000001f0: 886b 9cbc 09f3 eebd 3551 253d 497f 3b3e
00000200: 988c 9f3c 01c5 c1be 04eb 9f3e 5074 1dbe
00000210: 3506 8d3e 49b5 23be f682 48bf ae0a 9d3e
00000220: daf3 9fbe a6af dabd 8742 25bf 6124 a6be
00000230: 969a 39bf 498d 7abd e09b 313f af52 8f3e
00000240: 82fe cc3b ed57 c9be ddf2 853d ad52 a5be
00000250: abcb 8cbf 9ac2 013d d399 95be 77d5 26bf
00000260: 6246 8c3d 4f0d aa3e 2ffe 34be b49c e0bd
00000270: 7a7e 823e 5b6a 9ebb 0656 cebe 4345 3dbf
00000280: 7f99 933e c789 12bf da2c 35be 9206 51be
00000290: 52f2 e93c 6b6b aabe ce1c babe b9ef 76be
000002a0: 7924 83bf 029e a1be 390a b83e 825e 06bf
000002b0: 788e 3cbd 10a0 ab3b e2ec 0d3e 1ace 00be
000002c0: a694 c93c 9e1e 07bd 9e69 21bf 50d6 b6be
000002d0: 5f0d f23d 9811 373e bb22 bbbd d842 6f3e
000002e0: 427e 6a3f 9cb3 16be 1713 be3c d883 72be
000002f0: 26bd da3d 6a76 adbd f681 5c3e 5340 7c3d
00000300: b64c ce3d 2cb8 acbd 3eeb 133d e3b9 a5bc
00000310: b7a3 6dbe 9bc7 2b3e 2c6f 1dbe 442f c73d
00000320: 14c4 67be 1ec1 133d 2d4b 4dbe ce10 55be
00000330: 055c 543c 6e68 3c3e fb07 39be 9a20 ca3d
00000340: 7bee 713d 61ea e0bd 6c51 59bd ac0c 0d3d
00000350: 269e 433e 9624 07bd 95df 06bd c996 473e
00000360: 7e18 f73d 50d3 63bd ba29 db3c 447c f2be
00000370: 6b07 603e ee06 5cbf c70a c23d c937 9c3d
00000380: 2788 43bd 66ff 1cbe 7e94 0b3e f2aa 9a3d
00000390: e3b8 9fbd 7dfc 4c3c 2342 b0bb 44bb d13b
000003a0: f721 d23d 2291 023d ef36 23be 1b8e ccbe
000003b0: b000 0fbc c460 4dbe 41cc 67bf 85ca 0b3f
000003c0: af4a 023e c35b 69be daf3 92bd 372e 92be
000003d0: 2ac1 83be e303 223e e2ef 02be c7e2 b4be
000003e0: a688 80be f1d5 aebe 1b3c bf3d 78f0 afbd
000003f0: 3605 1c3e b677 eb39 d513 8fbe 1313 9a3e
-0.15766287 -0.7827759 0.109411165 0.97850966 -0.49806717 0.23411933 -0.21171121 -0.23206636
-0.053131036 0.0010442395 -0.070889436 -0.07989342 -0.0036460448 -0.032509968 -0.2544437 -0.03825503
0.024082405 0.015126084 -0.07708182 -0.09208234 -0.11539028 0.0017950349 -0.112162605 -0.115466416
0.24099673 0.04249439 -0.1756563 0.28902102 0.12202754 -0.1252947 0.0075501753 0.29820293
-0.035674825 0.17829466 0.16876166 0.061941747 0.093530335 -0.6617546 -0.3146173 -0.24743521
0.46522433 -0.973169 -0.26450568 0.03125549 0.5831701 0.40461642 -0.3898501 0.17514998
0.12885855 -0.055913337 0.17919597 -0.45774212 -0.26940763 0.06533822 0.05264598 -0.20519832
0.06602782 -0.12819517 0.6322249 -0.5509322 0.37327117 0.12755089 0.12558804 0.09865317
0.39826968 -0.0615891 0.38190198 -0.036717862 -0.121571995 0.03682535 -0.18320462 -0.14364381
0.0063812737 -0.013774055 0.0015059179 0.3215998 -0.08157186 0.4061535 0.33043227 0.2835756
-0.24952194 0.12372489 -0.05951974 0.029539479 -0.015110535 0.16708626 -0.06300161 0.06183222
-0.04049819 0.11349641 -0.5347768 -0.011598938 0.102860376 -0.16105609 -0.9077695 -0.048656505
0.20104016 -0.30913433 0.6168425 -0.12617771 -0.21353577 -0.38745588 -0.29336816 -0.123988256
-0.066066325 -0.3220784 -0.67259246 -0.41376534 -0.24347384 -0.2018702 -0.17329141 0.049005687
0.15987776 -0.029914057 0.03956919 0.154737 -0.22886384 -0.16768762 -0.12647422 0.2262754
0.21316382 -0.14357018 0.07317088 0.16905089 -0.019094244 -0.11667449 0.04036065 0.18310274
0.01947622 -0.37845615 0.3123399 -0.15376401 0.27543798 -0.15987124 -0.7832483 0.3067221
-0.3124073 -0.106780335 -0.6455464 -0.3244963 -0.72501504 -0.061169896 0.6937847 0.2799277
0.0062559256 -0.39324895 0.06540463 -0.3228964 -1.0999655 0.031679727 -0.2921892 -0.6516947
0.06849362 0.3321328 -0.17675088 -0.10967389 0.2548712 -0.004834456 -0.40300006 -0.7393381
0.28828046 -0.5724148 -0.17692891 -0.20412663 0.02855793 -0.33285078 -0.363501 -0.24114884
-1.0245506 -0.31565863 0.359453 -0.5248796 -0.046034306 0.005237587 0.13859895 -0.12578622
0.024607014 -0.032988183 -0.63051784 -0.35710382 0.118189566 0.17877805 -0.09137484 0.23365343
0.91598904 -0.14716953 0.023202462 -0.23683107 0.106806085 -0.08469851 0.21533951 0.06158478
0.10073225 -0.084335655 0.036113016 -0.02023024 -0.23206984 0.16775362 -0.1537444 0.09725812
-0.22633392 0.036072843 -0.20048209 -0.20807192 0.012961392 0.18399212 -0.1806945 0.098694995
0.059065323 -0.10982204 -0.053056166 0.034435913 0.19103298 -0.032993875 -0.03292807 0.19491114
0.120652184 -0.055621445 0.026753295 -0.47360432 0.2187783 -0.85948074 0.09474712 0.07627828
-0.047737267 -0.15331802 0.13630864 0.075521365 -0.07798936 0.01251137 -0.005378978 0.0064004976
0.102603845 0.03187669 -0.15938924 -0.39952168 -0.008728191 -0.20056444 -0.9054604 0.54605895
0.12723802 -0.2278891 -0.07175417 -0.28550884 -0.2573331 0.15821795 -0.1278682 -0.35329267
-0.25104254 -0.341476 0.09337636 -0.08590788 0.15236363 0.00044911884 -0.27944818 0.30092677

network.MLP.0.bias f4 [64]
00000000: c9b2 3fbf 2fdc 4a3f 81d5 8fbe bc9d 31be
00000010: f9c9 a8be 8515 8dbe 2d8d 103f 0ad7 b2bd
00000020: c50c 963e e024 16be 5bc2 a2bf 98da 6dbe
00000030: f748 903e 2ed5 733e 928f 2abf 5cfe 203f
00000040: 6561 9dbe 581a 1abf 905d c13d 6783 03bf
00000050: 0ddc 91be d80c e53e 296e 063f 162f 00bd
00000060: 4b8d 4dbe 6b2d 1dbe dd76 0dbe 0e7e a8be
00000070: caca 97bd b298 213e 8678 7a3e 9944 20bd
00000080: 7e82 aebe 1330 e33d 3e3a 9fbb 637d 6abd
00000090: 86d9 27be cb53 0c3f 8765 053e fd3b 36bd
000000a0: ff87 073e af74 d43e 080b c43e b765 023f
000000b0: 26a7 463e 37aa 613f 0dff 50be a190 96be
000000c0: 246d a0be b19f b63d f0b1 a83e f97b 16be
000000d0: 8ca6 203e 18eb 7dbf 2955 1bbe 33f1 e4bd
000000e0: 1e2a a3be 861b 31bd 5d98 323f 0da4 36be
000000f0: dc22 a5bf 73a2 b53c 34cb 93be 9f50 ea3c
-0.7488218 0.79242224 -0.28092578 -0.17345327 -0.32966593 -0.2755548 0.5646542 -0.08732422
0.29306617 -0.14662504 -1.2715563 -0.23227918 0.28180668 0.2381179 -0.6662532 0.6288812
-0.3073837 -0.6019645 0.09441674 -0.5137238 -0.28488198 0.44736362 0.5251184 -0.031294905
-0.2007343 -0.15349357 -0.13814874 -0.32908672 -0.07411726 0.15780905 0.24460039 -0.03912792
-0.34083933 0.11093154 -0.004859238 -0.057248484 -0.16391572 0.5481536 0.13027011 -0.044490803
0.13235472 0.41495273 0.38289666 0.50936455 0.193997 0.8815035 -0.20409794 -0.29407218
-0.31333268 0.089171775 0.32948256 -0.1469573 0.15688533 -0.9918685 -0.15169205 -0.111788176
-0.3186807 -0.04323914 0.6976374 -0.17836018 -1.2901263 0.022172188 -0.2886597 0.028602896

network.MLP.2.weight f4 [64, 64]
00000000: 6556 6f3e 242b f4be 43f4 32bf c7bc 2c3e
00000010: a74a 86bd 53e0 92b9 b216 9fbe 482c 44be
00000020: 1818 08be 531b 8dbe 0646 213e 7a09 9dbd
00000030: a820 fcbe 482b 383e 7084 063f 0654 253d
00000040: cbc4 0cbd 23c0 f73e 67d3 b3bd 8f46 06be
00000050: af41 a4bd f85d 99be bafe 11be 8e17 8f3c
00000060: a858 6a3d 7f9e cc3d cd78 08be 2e2b 95bd
00000070: f431 31be e8da 323d e89b 4fbc 7be2 b33c
00000080: 6c34 6cbe e64d 8e3d 71e9 a53d 18a5 44bd
00000090: 1e61 183e f5f1 fdbd 64fc 61bd a001 84bc
000000a0: 3b69 f1bd 4d38 1cbe db98 74bf db2d 693c
000000b0: 0477 fd3e 3337 863e 4625 d7bd 5281 cb3d
000000c0: 71cf bbbe 91ae 2cbe 1114 a23e 8cb0 6ebd
000000d0: a300 f23c e3e6 4ebf 4652 813e da0d 0cbe
000000e0: b99e 993e 3468 b33c ba8c 413e 9a6f bcbd
000000f0: fb8a 713f e129 93bd dad8 3bbe 1472 b23c
00000100: 2b22 afbd 7d4b ecbe a3ec 37be 00f5 1f3d
00000110: 6485 a9bd 154c b03d b6dc a0be 9e92 e43d
00000120: 4dc1 383d 6f9b bebe 9e60 ddbe b04a 493d
00000130: 6ec7 3a3e 5260 63bc db02 1bbe 1f47 203c
00000140: 6296 993c ee90 8e3e bd24 e13c 62be 343e
00000150: 9bd8 ecbb 970e 1d3c 9514 a5bc 8af2 5fbe
00000160: 9b28 203e 6231 30be a67a 19be 9c30 e93d
00000170: 4e57 7c3d bb1c 1ebe bd34 843e 8065 e83d
00000180: 4dcb 34be ea55 a73c 3508 01bd 4040 0a3b
00000190: e2ce 1b3e cc46 51bd d2e5 ec3d 201c 3d3c
000001a0: 6ff5 043f f3fd 333d 41a9 bb3e 7df6 063e
000001b0: 96b8 a6bd 5381 b5be 20ee b73c fb06 623e
000001c0: 5b81 21be e9c8 99bd 409f d5be 809c 14bb
000001d0: b884 0c3f 898b 1c3f 4eaa cdbc 6b00 3ebd
000001e0: 151b 9ebd b33f 363e e2d3 963e 1a78 b53b
000001f0: 6f0a a8be 77b3 0fbd 9bff 9abd 01db 04be
00000200: a10c 9cbe ed9a 41be 1d51 013d 2031 b43d
00000210: 3d49 afbd b161 96bd f559 42be a141 413e
00000220: 9feb b3bd 695b 49be aabe 6abd b4dc 0abd
00000230: 8181 793e 7d61 3b3e 34c6 31be 0621 063e
00000240: 1534 adbd a0c8 24be be47 b73d 5130 48bd
00000250: 770a 083e 2c91 ebbd f31e 243e 3f2e fc3c
00000260: 6005 7ebe b611 47be 4c60 91bd 3ecf 1cbe
00000270: 9bd4 1a3d af41 103e 7760 e8bd 4d36 833e
00000280: 4fc5 643e 14d0 02bc 0e89 2b3d da3d ebbd
00000290: 7bd4 ecbc f491 c9bc 3e50 87bc 24d6 b83d
000002a0: bf61 373e 8d1d 1b3d d65d b23e 6e08 81be
000002b0: 8037 6a3e 3d13 85be 48b1 1f3d f552 2bbe
000002c0: 1e5a f5bd 2c9a 2c3d e98e 98bd 648a 8e3d
000002d0: 5c28 fa3d 3cb0 df3e e0b1 0b3c 6a30 79bc
000002e0: 0f7b aebe 0c64 05be 6cba e0bd 85af 36bd
000002f0: 9ce4 f4be 0600 a63e 24dc 793e 5a9c c13d
00000300: 896a 20be 20c3 33bd 4f36 403d 284f 3b3e
00000310: 2a34 96bd 15ca a4bd 07cf 3fbe d792 c0bb
00000320: 18ff 85bd 8f6a 38bc 27e5 42be a008 fd3b
00000330: 79dd 143e 166f 213e 24ec b2bd 72d8 563e
00000340: 9dae 8abe ee3c 9abe 1351 603e 86c5 efbd
00000350: 0367 8cbd 46d1 bdbd 5da5 653d 8225 74bd
00000360: 798d 0ebe 7047 1c3e e837 cfbd e99e 40bd
00000370: af86 db3c f4a4 6b3e ad23 a7bd 71f7 103e
00000380: 2c97 b53d 892e be3d 38e0 c0bd 801a efba
00000390: 78a4 633d eef7 013e 1c03 cf3c 183c c3bd
000003a0: 4ad2 573e 2af8 f5bd e8a2 963e 9cdd e13b
000003b0: 526f 3bbd 60c0 c83d 0034 1b39 1dd5 abbc
000003c0: 5fa2 ed3c 3d17 55bb d75e f93c 8074 ffbd
000003d0: ad71 e03b e628 693e e659 9ebb c159 0c3c
000003e0: a0a8 6abd 984f 8b3d 9eea 1f3d dd08 ac3d
000003f0: e6ea 05bf 9ad5 5e3e 230f 20be 71f7 a7b7
0.233728 -0.47689164 -0.69903964 0.16868888 -0.065572076 -0.00028014425 -0.31072003 -0.19157517
-0.13290441 -0.2755991 0.15749368 -0.07667823 -0.49243665 0.1798526 0.52545834 0.040363334
-0.034367364 0.48388776 -0.08780556 -0.13112853 -0.08020341 -0.29954505 -0.14257327 0.017467286
0.057213455 0.09991168 -0.13327332 -0.072836265 -0.17304212 0.043665797 -0.012671448 0.02195858
-0.23066872 0.06948452 0.08101166 -0.04800901 0.14880797 -0.12399665 -0.05517234 -0.016114056
-0.11787649 -0.15255852 -0.9554574 0.014232124 0.49504864 0.2621399 -0.10505156 0.09936775
-0.36681703 -0.16863467 0.31655934 -0.058273837 0.02954132 -0.80821055 0.25258082 -0.13677159
0.30003908 0.021900274 0.18901339 -0.09200974 0.9435269 -0.07185722 -0.18344441 0.021782912
-0.08551439 -0.46151343 -0.17961363 0.03905201 -0.08277395 0.086082615 -0.3141839 0.111607775
0.04510622 -0.3722796 -0.43237776 0.049143493 0.18240139 -0.013877945 -0.15137808 0.009782582
0.018748466 0.27844948 0.027483338 0.1765075 -0.00722797 0.009585998 -0.020151416 -0.21869865
0.1564049 -0.17206338 -0.14988193 0.11386225 0.061606698 -0.15440647 0.25821486 0.113474846
-0.17655678 0.02042671 -0.031501967 0.0021095425 0.15215638 -0.051092908 0.11567272 0.01154235
0.51937 0.043943357 0.36652568 0.13179965 -0.08140676 -0.3545023 0.022452414 0.22072975
-0.15772001 -0.07509024 -0.4172306 -0.002267629 0.5489001 0.61150414 -0.025105622 -0.046387117
-0.07720009 0.17797737 0.2945853 0.005537999 -0.3282046 -0.03508326 -0.07568284 -0.12974168
-0.30478385 -0.18906756 0.031571496 0.08798432 -0.08558891 -0.07342852 -0.18979628 0.18872692
-0.087851755 -0.19663776 -0.057310738 -0.033901885 0.24365808 0.18298908 -0.17360765 0.13098535
-0.084571995 -0.16092157 0.089492306 -0.048874203 0.13285242 -0.11502299 0.16027431 0.03078377
-0.24806738 -0.1944035 -0.07098445 -0.15313432 0.037800413 0.14087556 -0.11346524 0.25627366
0.22340892 -0.00798418 0.041878752 -0.114864066 -0.028909912 -0.024605729 -0.016517755 0.09025219
0.17908381 0.03786998 0.34837216 -0.25201744 0.22872734 -0.2599124 0.038987428 -0.16730864
-0.11980079 0.042139217 -0.07449133 0.0695999 0.12214729 0.43689144 0.008526295 -0.015209297
-0.3407826 -0.13026446 -0.10973057 -0.044600982 -0.47830665 0.32421893 0.24400383 0.0945365
-0.1566564 -0.043887258 0.046926793 0.18291914 -0.07334168 -0.080463566 -0.18731318 -0.0058768797
-0.06542796 -0.011255874 -0.19032727 0.0077219754 0.1453761 0.15765032 -0.087364465 0.20981005
-0.27086344 -0.3012461 0.21905927 -0.117075965 -0.068555854 -0.09268431 0.056065906 -0.059606083
-0.13921155 0.15261626 -0.10118085 -0.04702655 0.02679762 0.23012143 -0.081611015 0.14156891
0.08866724 0.092862196 -0.09417766 -0.001824215 0.05557677 0.12692234 0.025270037 -0.09532946
0.21076313 -0.12010224 0.29421163 0.006892873 -0.04576046 0.098023176 0.00014801323 -0.020975644
0.029008089 -0.0032515072 0.030440731 -0.124733925 0.0068494887 0.22769508 -0.004832494 0.008566321
-0.05728972 0.06802291 0.039042108 0.08400128 -0.5231155 0.2176117 -0.15630774 -2.0023175e-05

network.MLP.2.bias f4 [64]
00000000: 9ad3 04bf 212c 9c3e 7222 b33e 2117 183f
00000010: 750e debd d51b 5b3e 8b60 133f 7c81 62bd
00000020: a5d6 47bf 10b3 8fbd 9d6e fc3d 1f06 543e
00000030: 4ee1 12be 6776 c2bd 2300 6cbd 0499 133e
00000040: d49d b0bd 7426 7a3e ae18 fb3d b0de 47be
00000050: 5e61 523d ea25 21bf 3928 093e 6ff8 2ebe
00000060: 59b2 c4be 9760 8c3d 8e63 9dbe 5cca 853e
00000070: 68c0 dbbe 4bf5 5dbe d8af 18bd 9eeb 9cbf
00000080: 733a 503d 02a2 a53e 364c d9be 3492 c5bd
00000090: b667 cdbb 2327 c63b 9682 c83d efd4 78be
000000a0: 8b95 153f fbd7 30bd 6319 1dbd 1cf8 bebe
000000b0: 3137 dabc 4000 81bd 2047 ac3e 0380 34be
000000c0: e216 c23e 80cf f33e 254c 40bf 6874 f7bd
000000d0: 5921 1b3e a745 9a3d a0cd 763e f731 ccbd
000000e0: 95d9 293e 06cd 0c3f 0b7e ca3d 6ef5 133e
000000f0: 53e1 b3bd b092 123e 9033 aa3e e4c7 663e
-0.5188538 0.30502418 0.34987217 0.5941029 -0.10842601 0.21397336 0.5756919 -0.055299267
-0.78061897 -0.07016575 0.12325785 0.2070546 -0.1434376 -0.0949524 -0.057617318 0.1441384
-0.08623853 0.24428731 0.12260567 -0.19518542 0.051362388 -0.6294848 0.1339425 -0.17086957
-0.38417318 0.068543606 -0.30740017 0.2613095 -0.42920232 -0.21675603 -0.037277073 -1.2259405
0.05083699 0.32350165 -0.42440957 -0.09647027 -0.006268467 0.006047146 0.09790532 -0.24299978
0.5843131 -0.043174725 -0.03835429 -0.37298667 -0.026637645 -0.06298876 0.33648014 -0.17626958
0.37908083 0.47619247 -0.7511619 -0.120827496 0.1514944 0.075328164 0.24101877 -0.099704675
0.16586907 0.5500034 0.09887322 0.14449093 -0.087832116 0.1431377 0.33242464 0.2253719

network.MLP.3.weight f4 [64]
00000000: 1b3c 563f b1b9 b23f 57e2 6f3f 5ca8 563f
00000010: 6075 923f b7f5 c53f 59b2 243f d3d4 973f
00000020: 686e 2f3f ed48 bf3f dd9f 923f f318 9b3f
00000030: ff7e ad3f 76a1 a63f 257c 983f 8f31 ae3f
00000040: 3fb7 973f 3611 9a3f 1564 a03f 888c ba3f
00000050: f8f9 d03f 9c01 6b3f b0a8 cf3f b863 8d3f
00000060: 619a 843f d386 b03f 3a94 233f b04f 353f
00000070: a2ac 813f 27aa a03f c6c9 903f 6037 3c3f
00000080: 5ecc df3f 0742 783f 2be3 4c3f 1b43 9b3f
00000090: cd8b c73f 8684 aa3f 2354 a33f 90c9 d13f
000000a0: f16c 9b3e c2b1 af3f c047 d63f ac8f 423f
000000b0: 1d19 e83f 973f c03f c0fe 303f b3fd a33f
000000c0: 5a0d 523e 4fdc d93e bc0d 353f 8d29 963f
000000d0: 9152 af3f 9fad 853f 80ba 023f 5cc9 7c3f
000000e0: 190e aa3f d4c8 c83e b9b6 bb3f 26c5 a43f
000000f0: b06c c13f 32fd b03f 2e92 943f 4913 d13f
0.83685464 1.3962919 0.9370474 0.83850646 1.144207 1.5465611 0.64334637 1.1861824
0.6852784 1.494413 1.1455036 1.2116989 1.3554381 1.3018024 1.1912886 1.3608874
1.1852797 1.2036502 1.2530543 1.4574137 1.6326284 0.9179933 1.6223354 1.1046057
1.0359613 1.3791145 0.6389805 0.7082472 1.0130808 1.2551926 1.1311576 0.73521996
1.7484243 0.9697575 0.8003413 1.2129854 1.5589539 1.3321693 1.2760051 1.6389637
0.30356553 1.3726122 1.6740646 0.76000476 1.8132664 1.5019406 0.6913872 1.2811798
0.20512906 0.42550895 0.7072408 1.173143 1.3697072 1.044361 0.51065826 0.9874475
1.3285552 0.3921572 1.4665138 1.2872665 1.5111294 1.3827269 1.160711 1.633401

network.MLP.3.bias f4 [64]
00000000: e6cc 7fbd 2e4c 563d 9386 8a3d 4c49 813e
00000010: a06a c3bc 17e2 97bd f381 1a3c e686 933d
00000020: c708 db3d 8f45 09bd 69d8 bb3d 35e3 eebd
00000030: 6282 aebd 7ff1 853d 08cf 16be 43b3 6abb
00000040: ec96 9ebc 37c2 14bd ef32 6abc be80 b53d
00000050: cc56 2f3e f86d 5bbe 5dbd 95bd 8748 a33c
00000060: df58 19be 616b 54bb 190f 513d 941e 083e
00000070: 7b2d 6e3b 1020 333d a829 b53d 5e1b 8c3d
00000080: 1a6d 9abd d938 45be 9568 a0bc 30bc 80bc
00000090: 77d0 82bc f0e8 2d3d c7b1 8d3d 324e 28bc
000000a0: 9170 12bf d23f 8cbd 9fdf a1bd d0ca 7d3d
000000b0: d883 53bb 5f5c ccbd 2369 a7bd 6850 303d
000000c0: 8576 34bf 2922 1fbd 13f3 3f3d 547f 1fbe
000000d0: a84d 14be 895b 783d 0e54 033c 3a9e 813e
000000e0: 2e9a 92bc d1d5 9ebe 1e1c 053b 2c70 a5bc
000000f0: aad6 93bd 1871 fd3d a987 f53d 9419 e43c
-0.062451266 0.052318744 0.06763949 0.25251234 -0.023854554 -0.0741617 0.009430396 0.07203464
0.106950335 -0.033513602 0.09172136 -0.1166443 -0.08520962 0.06540202 -0.14727414 -0.0035812415
-0.019359075 -0.03631803 -0.01429437 0.08862446 0.17122954 -0.21428668 -0.07311509 0.019932045
-0.14975308 -0.0032412636 0.05103979 0.13292915 0.0036343026 0.04373175 0.08845836 0.068411574
-0.07540341 -0.19259967 -0.019581119 -0.015714735 -0.015968544 0.042458475 0.06918674 -0.010272549
-0.5720301 -0.0684811 -0.079039805 0.061960995 -0.003227463 -0.09978556 -0.0817435 0.04304543
-0.70493346 -0.038850937 0.046862673 -0.15575916 -0.14482749 0.06063417 0.008015646 0.2531603
-0.017895784 -0.31022504 0.0020310949 -0.02019509 -0.07218678 0.123750865 0.11988766 0.027844228

critic.0.weight f4 [1, 64]
00000000: 494b 41be c9eb 163d 89a6 a53d b805 873e
00000010: bf01 8a3c 4742 a1bc 8037 bc3d 9a27 4bbd
00000020: 5db7 97bd c80d 17bd af45 debc aaac 9cbc
00000030: 2f19 4dbd 5fa7 5dbc eae0 8ebc fdaa 673b
00000040: 9e6c 84bd 5924 c23c 20fa f13a 0c41 a2bc
00000050: 1c14 3a3c 0e6d debe 6138 d93b db20 eabc
00000060: 9c68 99be dde5 fabc 15b0 11bd e75e 233e
00000070: 8a8c 25bd bdba a5bd fa7b f4bc 41a9 70be
00000080: b4a4 5fbc adfb b2bc 512c 6bbd c6a6 61bd
00000090: 382d 0cbb d205 61bc f850 1abd 76b2 9dbd
000000a0: df54 c53d e93e b13b d258 203a 8b4f 5abd
000000b0: fb50 1f3b 1d2a 9abd 401c 85bc d653 bdbc
000000c0: 44ce 97bd dbae 9e3b b3d3 35be 8ca4 f9bc
000000d0: 9850 d6bc 8704 61bd 0371 aa3c c3a6 2dbc
000000e0: c01a 8939 8cb3 39bd ae55 b33c c01a 73bc
000000f0: f9dc d1bc 4acb 4e3d c450 c43d 3294 47bc
-0.18876375 0.036845956 0.08088405 0.2637155 0.016846536 -0.019684924 0.09190273 -0.049598314
-0.07408021 -0.036878377 -0.027132837 -0.019125301 -0.050072845 -0.013528674 -0.017441232 0.003534972
-0.064660296 0.023698973 0.0018461384 -0.019806407 0.0113573335 -0.43442577 0.0066290353 -0.02858012
-0.29962623 -0.030627185 -0.035568316 0.15954171 -0.04041723 -0.08092258 -0.029844273 -0.23502065
-0.013650108 -0.021848524 -0.05741531 -0.05509069 -0.0021389257 -0.013734298 -0.037674874 -0.07700054
0.096353285 0.005409111 0.0006116751 -0.053298514 0.0024309743 -0.07527564 -0.016248822 -0.023111265
-0.07412389 0.0048426217 -0.17756538 -0.03047397 -0.026161477 -0.05493596 0.020805841 -0.010598841
0.00026150607 -0.045337245 0.021891441 -0.014837921 -0.025618063 0.05048684 0.09585717 -0.012181329

actor.0.weight f4 [22, 64]
00000000: 61c5 063d 7167 473f 211c 8b3d 0688 153e
00000010: 2061 6abe 042d 293f 63e8 0a3e 3b77 a73e
00000020: 4e99 ca3c 8c8c 1e3e 62a4 5e3e 239d c9bd
00000030: 5026 a0be 22bb c1be 0fe2 65bd 32bd fdbe
00000040: ed39 2ebe 5e06 963e 400a b43e e0be 9dbe
00000050: de55 613e 7250 6bbd 111d b83e 1189 6bbe
00000060: e489 85be c46b eebd 9b91 5bbe 42e1 123e
00000070: 3eb6 b33e 9ca5 b53c 2610 b63e c995 403c
00000080: d2ec 2ebf 47a0 9dbe 4746 c8be 5e5f 243f
00000090: 9715 173d 4657 06bf 8a72 79be 6a4f 063f
000000a0: 06c0 ab3c 631a 433e c6b7 f8be 0724 d5be
000000b0: 20c8 513f 6a18 293e edc7 9f3e 2c7b 26be
000000c0: d7e4 99bd 4971 5bbd ba0a a4bd c6e2 953d
000000d0: 23a9 713e 8331 ab3d 2dce adbd bb73 9d3c
000000e0: 428a a63d 183b ab3d fab7 70be 121a 1bbe
000000f0: e41d debe 86c1 343e 6f8a ddbd b9f7 fc3d
00000100: f096 3e3d bb74 d3bd 38e9 c13d 34db 203e
00000110: cd1e 15be db66 bf3d 9c26 dabc f0c4 8d3e
00000120: 7cea b4bd 50f3 3a3e 2c87 d43e ca88 063e
00000130: e65c d6bd b07b cc3e 980a 853e 9d7a eebe
00000140: 87b4 a6be ab78 733e 04ba 933e 9740 cabe
00000150: 6730 69bd 667f 323d 025a 1a3e b946 83bc
00000160: b6af 78bd bd1c 27bf 68c0 0cbe c077 803c
00000170: 440a 983e 769a a93d 159a 8bbe dabd cabb
00000180: 58b0 04bf edad 59bd 5f99 993e 2fbe 66be
00000190: cd0f 7bbe d24e 3cbe 0c10 033e ee14 083b
000001a0: 9dbc b63c 7044 0d3f 9cac 21be 0dbd 67be
000001b0: b019 77be e6bf 0fbe 5480 503d e56c 023e
000001c0: 4048 d53c 3d35 97bd 97fe 3cbd dd86 d4be
000001d0: a560 cebe aec0 683e f6c3 3dbd bf36 ad3e
000001e0: 3e8f 173f 7735 333e 7a30 743e 95df 343d
000001f0: f4ad e9be 9846 1abc 20a4 953e 7687 11be
00000200: 1bfb 92bb cb8d 5f3e 31ab 6e3e 4e39 fdbd
00000210: ad6d bfbe 737a 053e 3012 743d 2935 813e
00000220: 3715 e7bd f74c eabe 243a 55bd ce91 4bbe
00000230: dd2d e43e 9213 313e e4bd 8e3e 5ddb 95be
00000240: 3857 553e 27ed 5bbe 2a1c 11bd 775f 1abe
00000250: b89c 53be ee40 e0bc 1b14 f63b 0682 ff3e
00000260: 2759 b4bd d204 2f3e d667 87bd b2a2 283e
00000270: 7e18 963e 87b8 b5bd 359f ddbd 4598 503d
00000280: a94a 623e c938 a9bd c3e5 25be 5d56 26be
00000290: 751f cebc 842f b4be 84ee 413e 157a 2a3f
000002a0: c553 593b 34d7 623e a098 d8be b7cf 39be
000002b0: d680 503d 3ab3 e5bd 87db 27bb 3be6 9abe
000002c0: a0a9 c93d d7f3 653e 2f9c b2bd 56c8 dabd
000002d0: d5db 00bf 7382 3bbd d9c7 1c3e ea1e ddba
000002e0: 229a b0be 7d0c 353e 84fe 83be 2ebe 4bbe
000002f0: 22f9 353e 0f8c 013e aa73 b63e 885c 0f3f
00000300: 2fc7 053d 3272 3e3e 7720 c43d 231b 223e
00000310: 63dd ce3d c1d4 60be 7b9c 10bd b1b5 933e
00000320: a84d 2dbd aa6e 463c 6f18 6d3e b2f6 41be
00000330: d740 10bf ea2e ba3e b0ef 4dbe 9e6f 4dbe
00000340: 403e 3f3c 740e 68be 33a0 10be 2ea3 9e3e
00000350: 4921 95bd 8eca 3b3d 4ed6 a73e 8070 ad3b
00000360: d3ba 89bd 50b4 68be b9b8 22be 8178 23be
00000370: b102 0bbc b9bc cdbd f810 bcbe 27bf 09be
00000380: b09c c1be f705 cdbd fe3f 22bd b9a5 f6bd
00000390: eee7 143e a804 0b3e b3ed b33d f039 023f
000003a0: e6a8 563d cda1 d5bd c69c 80be babd 49be
000003b0: 2af0 22be 74c5 b63e 816a 3f3e 02f0 c53e
000003c0: c1a8 bebd c81a 3dbd dbc7 f63c 4233 f63e
000003d0: 0317 f4bd 8a67 b63e d922 bebd c882 833e
000003e0: 77d8 ca3e 95fc a53d 45cb c7bd 6d58 663e
000003f0: 799a a33e bf10 d73d 4d14 cb3d 3faf 84be
0.03290308 0.77892214 0.067924745 0.1460267 -0.22888613 0.66084313 0.13565211 0.32708153
0.024731304 0.15483302 0.21742395 -0.098444246 -0.3127923 -0.37838084 -0.05612379 -0.49558407
-0.17014284 0.29301733 0.3516407 -0.3080969 0.22005412 -0.057449766 0.35959676 -0.23001505
-0.26081765 -0.116416484 -0.21442263 0.14343742 0.35099977 0.022173695 0.35559195 0.011754462
-0.6833011 -0.30786344 -0.39116117 0.6420802 0.036885824 -0.5247692 -0.243601 0.52464926
0.020965587 0.19053034 -0.48577708 -0.4162905 0.8194599 0.1651322 0.3120722 -0.16257924
-0.07514351 -0.053574834 -0.080098584 0.07318644 0.23599677 0.08359053 -0.084865905 0.019220224
0.08131839 0.083608806 -0.23507681 -0.15146664 -0.4338218 0.17651948 -0.1081742 0.12351937
0.046530664 -0.10324999 0.09468311 0.1570862 -0.14562531 0.0934579 -0.026629739 0.27689314
-0.08833787 0.18256879 0.41509378 0.13138118 -0.10466938 0.39938116 0.25984645 -0.46577922
-0.32559606 0.237765 0.28852856 -0.39502403 -0.056930926 0.043578528 0.15073398 -0.016024934
-0.060714446 -0.65278226 -0.13745272 0.015682101 0.29695332 0.08281414 -0.27265993 -0.006187183
-0.5183158 -0.053144384 0.29999825 -0.22533487 -0.24517746 -0.18389443 0.1279909 0.0020764428
0.022306735 0.5518255 -0.15788502 -0.22630711 -0.24130893 -0.14038047 0.050903633 0.12736852
0.026035428 -0.07383201 -0.046141233 -0.41509143 -0.4030811 0.22729751 -0.04632946 0.3383083
0.59202945 0.17500864 0.23846617 0.044158537 -0.45640528 -0.009416245 0.2922678 -0.1421183
-0.0044855005 0.21831433 0.23307492 -0.123644456 -0.37388363 0.13034992 0.059587657 0.2523587
-0.11283343 -0.45761845 -0.0520574 -0.19879839 0.4456624 0.17292622 0.2787925 -0.29268923
0.20834053 -0.21477185 -0.03542725 -0.1507548 -0.20665252 -0.02737471 0.007509721 0.49903888
-0.08806067 0.17091683 -0.06611602 0.16468313 0.2931556 -0.088730864 -0.10821382 0.050926466
0.22098793 -0.08262784 -0.16200928 -0.16243882 -0.025161484 -0.35192502 0.18938643 0.6659253
0.0033161503 0.22152406 -0.42303944 -0.18145643 0.050904118 -0.112158254 -0.0025613026 -0.30253777
0.098468065 0.22456299 -0.08721196 -0.10682742 -0.5033544 -0.045778703 0.15310611 -0.0016870175
-0.34492594 0.17680545 -0.25780118 -0.19896767 0.17770818 0.12651084 0.3563512 0.56000566
0.03266066 0.1859825 0.09576505 0.15830664 0.1010082 -0.21956159 -0.03530548 0.28849557
-0.042310387 0.012111345 0.23153852 -0.18941763 -0.5634894 0.36363918 -0.20110965 -0.2006211
0.011672556 -0.22661763 -0.14123611 0.3098387 -0.07281739 0.045847468 0.3278069 0.005292952
-0.06725087 -0.22725034 -0.15890779 -0.15963937 -0.008484528 -0.100457616 -0.36731696 -0.13451825
-0.37814856 -0.10010903 -0.03961181 -0.12043328 0.14541599 0.13575995 0.08785572 0.50869656
0.052407168 -0.10431252 -0.2511961 -0.19701281 -0.15911928 0.3569752 0.18692972 0.38659674
-0.09309531 -0.04616812 0.030124595 0.48085982 -0.11918452 0.3562587 -0.092839904 0.25685716
0.39618275 0.08104817 -0.097555675 0.2249467 0.3195379 0.10501241 0.099159814 -0.25914952

actor.0.bias f4 [22]
00000000: 5435 1f3c 01e6 883c 2eeb eabc fe3e 633d
00000010: a726 ea3b d293 003d 749b 7c3d 3483 29bd
00000020: e489 2fbd 9d1a b4bb ee1a 17bc a1f0 87bc
00000030: 4b39 e4bc 7486 1f3d 5cd6 233c 234a 473d
00000040: 0f63 68bd 72c6 a4bc 742e 853d c4d0 b3bc
00000050: 6e75 e63c 60ab a9bc
0.009717304 0.016711237 -0.028676596 0.055479996 0.007145721 0.031390972 0.06167169 -0.04138489
-0.042856112 -0.0054963366 -0.009222729 -0.016594233 -0.02785935 0.038946584 0.009999838 0.048654687
-0.056735095 -0.020114157 0.06503001 -0.021950133 0.028132167 -0.0207116
