paper/training_results/seed-10/momarl/checkpoints/mlp_(negotiation=False)_(num_agents=12)_(window=False)_(reduced_space=False)_(fixed_savings_rate=False)_(rewards=['inverse_global_temperature', 'global_economic_output'])(wgen=uniform)(num_ensembles=1)(seed=10)_2025-01-17_09:37:31_w=[0.2787 0.7213].pt (torch, 38182 bytes, 9 tensors)

network.MLP.0.weight f4 [64, 18]
0.05497685 0.4639755 -0.18851957 -0.534744 0.3358817 -0.010550719 -0.10107039 -0.00353155
0.2820148 0.06455781 0.016683057 0.17514753 0.1018728 0.009940739 0.35785624 0.14480266
-0.09632789 0.19771688 -0.23146406 0.04654791 -0.039906744 -0.14641945 0.017725026 0.17516118
-0.1876816 0.14865214 -0.144352 -0.1487668 0.11685829 0.026523378 0.13954462 -0.049733702
-0.097459726 0.015872896 0.04759826 -0.18031211 -0.076409206 0.097240254 -0.07858187 -0.093188174
-0.079888456 -0.081715375 -0.055349685 0.10326172 0.022941148 0.07438132 -0.21852607 -0.12762664
-0.13297744 -0.20517577 0.13589755 -0.049284082 0.08153718 0.06990255 -0.02063953 0.17588156
-0.21591029 0.0915619 0.17252542 0.12528573 -0.03801847 -0.16924125 -0.2003133 -0.10600997
0.007920625 0.15533054 0.043697607 0.11510088 0.047457878 0.16386907 0.03053691 -0.22347063
0.075499825 0.1826614 -0.043302976 0.37174112 0.89982504 -1.6907861 0.1261303 -0.07198451
0.10487805 0.098695256 -0.06526353 0.16411367 0.5080112 0.17171927 -0.20452873 0.08632199
-0.27899802 0.03186146 -0.22325663 -0.22423503 -0.1880977 0.046835657 0.1432389 -0.024604375
0.11378211 -0.16688235 0.14772111 -0.18278818 -0.056936994 -0.12642793 0.20332834 -0.124681704
0.04790405 0.20882662 0.21537492 0.15641457 -0.034600314 -0.023244774 -0.15312245 0.059562292
0.18949142 0.0937072 0.005054475 -0.15235956 -0.17191525 0.044499654 -0.12923034 -0.15052603
0.22073542 0.18200083 0.13256024 0.2314289 -0.13996808 -0.08736845 0.04726133 -0.066383496
0.108594954 -0.496151 0.5192518 -0.6401669 -0.3956196 -0.22006819 0.30720133 0.08750955
0.25312877 -0.1814825 0.24398696 0.17854911 -0.5125106 -0.34464216 0.16201647 -0.095289186
-0.030308366 -0.071389966 -0.19278353 -0.16445637 0.32824433 -0.36887276 0.33712217 0.5442071
0.2092691 -0.11051363 -0.23533817 0.12588036 0.30157802 0.12363971 0.076410845 0.38847005
-0.86531293 0.36405742 -0.94193745 0.22694458 0.083261214 -2.9777062 -0.31406498 -0.36516804
0.035567794 -0.020853672 0.12871645 -0.038385503 0.09031265 0.006209783 -0.20828384 0.045710735
0.049166102 0.15414812 0.08021141 0.09532096 -0.44526199 -0.30220085 -0.08712043 -0.010642656
0.15679738 0.03354108 0.22265942 -0.31321818 0.03809698 -0.16442038 -0.24035098 0.48862273
0.10425237 0.1191095 0.3150272 0.20418961 -0.21711093 0.046803545 -0.00550437 -0.07121429
-0.52065146 0.5525442 -1.431107 0.8101291 -0.07669825 -0.16985682 -0.87276864 -0.22905679
-0.15492876 0.03491536 -0.25059348 -0.28954622 -0.10868166 0.26502082 0.07128708 -0.15066597
-0.20437689 0.18071793 -0.20296212 0.20517676 0.054456342 0.12186031 -0.0033553387 -0.17661086
0.11959365 -0.21981372 0.026083926 -0.022990713 0.17228565 0.16383114 -0.050925165 -0.17693186
-0.18197517 -0.065938994 -0.15341973 -0.044531517 -0.174485 -0.22240229 -0.096986555 0.21673584
0.010227158 0.08357939 -0.05463895 -0.14222072 -0.057688836 -0.15875773 -0.16233867 0.028355388
0.23150702 -0.22782515 -0.22254713 0.05325912 0.0011811914 0.108394556 0.014087111 -1.878025
00000000: 682f 613d 328e ed3e 460b 41be fce4 08bf
00000010: b0f8 ab3e ecdc 2cbc fefd cebd 9471 67bb
00000020: 3e64 903e e336 843d e8aa 883c e059 333e
00000030: b0a2 d03d 7bde 223c ef38 b73e 2647 143e
00000040: 8f47 c5bd 4b76 4a3e ea04 6dbe 05a9 3e3d
00000050: 4175 23bd fbee 15be 1334 913c 745d 333e
00000060: 9b2f 40be 4438 183e 03d1 13be 5356 18be
00000070: 6653 ef3d 8e47 d93c c9e4 0e3e 91b5 4bbd
00000080: f798 c7bd e007 823c 65f6 423d bda3 38be
00000090: 6e7c 9cbd e625 c73d 88ef a0bd 71d9 bebd
000000a0: 8f9c a3bd 645a a7bd 5ab6 62bd e17a d33d
000000b0: 13ef bb3c 3c55 983d 4cc5 5fbe 8fb0 02be
000000c0: 3d2b 08be 9919 52be ba28 0b3e 1bde 49bd
000000d0: f7fc a63d 1129 8f3d 3b14 a9bc 4c1a 343e
000000e0: 9617 5dbe ce84 bb3d 81aa 303e e74a 003e
000000f0: 41b9 1bbd 944d 2dbe ee1e 4dbe c11b d9bd
00000100: 82c5 013c f80e 1f3e 43fc 323d 03ba eb3d
00000110: 3163 423d 4bcd 273e 8b28 fa3c 7cd5 64be
00000120: a79f 9a3d 970b 3b3e 765e 31bd da54 be3e
00000130: ef5a 663f ae6b d8bf 4d28 013e 9d6c 93bd
00000140: 4eca d63d bd20 ca3d e3a8 85bd 6a0d 283e
00000150: 060d 023f 2dd7 2f3e fb6f 51be 95c9 b03d
00000160: d4d8 8ebe 2a81 023d 639d 64be de9d 65be
00000170: af9c 40be bfd6 3f3d 38ad 123e 1d8f c9bc
00000180: 9806 e93d 35e3 2abe 3444 173e d32c 3bbe
00000190: c436 69bd 5376 01be 4e35 503e 1f59 ffbd
000001a0: 0a37 443d a5d6 553e 3e8b 5c3e 242b 203e
000001b0: 0fb9 0dbd d36b bebc 22cc 1cbe 97f7 733d
000001c0: 0a0a 423e 8fe9 bf3d 02a0 a53b 2504 1cbe
000001d0: 8d0a 30be 4545 363d f554 04be 7f23 1abe
000001e0: 7708 623e 6d5e 3a3e dfbd 073e b3fb 6c3e
000001f0: cb53 0fbe 3bee b2bd 1995 413d 12f4 87bd
00000200: 0867 de3d 8107 febe b0ed 043f fae1 23bf
00000210: a78e cabe 8e59 61be 7e49 9d3e 3538 b33d
00000220: 189a 813e 8cd6 39be b8d7 793e 94d5 363e
00000230: e533 03bf f074 b0be a5e7 253e fa26 c3bd
00000240: 4049 f8bc e734 92bd 0c69 45be 4067 28be
00000250: a40f a83e e4dc bcbe 479b ac3e 2851 0b3f
00000260: a44a 563e f854 e2bd 7dfc 70be c8e6 003e
00000270: 6f68 9a3e d136 fd3d 4a7d 9c3d 8ce5 c63e
00000280: 2685 5dbf bc65 ba3e d022 71bf 2964 683e
00000290: db84 aa3d bd92 3ec0 20cd a0be 4ef7 babe
000002a0: 89af 113d 52d5 aabc 3fce 033e 1e3a 1dbd
000002b0: d7f5 b83d 6f7b cb3b 5c48 55be 2e3b 3b3d
000002c0: 6562 493d 01d9 1d3e e145 a43d a337 c33d
000002d0: 61f9 e3be 12ba 9abe 326c b2bd 895e 2ebc
000002e0: 7e8f 203e 5f62 093d d500 643e 225e a0be
000002f0: 940b 1c3d d15d 28be 911e 76be c22c fa3e
00000300: 4482 d53d aeef f33d 3f4b a13e 1517 513e
00000310: 5452 5ebe 13b5 3f3d 015e b4bb ccd8 91bd
00000320: 6a49 05bf 8973 0d3f 842e b7bf 9f64 4f3f
00000330: f913 9dbd f2ee 2dbe c46d 5fbf dd8d 6abe
00000340: a5a5 1ebe 6903 0f3d ca4d 80be 673f 94be
00000350: 7d94 debd cfb0 873e f6fe 913d 2e48 1abe
00000360: 2d48 51be 1f0e 393e 4dd5 4fbe db19 523e
00000370: 9d0d 5f3d e691 f93d 3ee5 5bbb 7ad9 34be
00000380: 84ed f43d d916 61be f5ad d53c 0557 bcbc
00000390: a66b 303e 5ac3 273e e896 50bd a02d 35be
000003a0: b357 3abe 060b 87bd 101a 1dbe ae66 36bd
000003b0: 32ac 32be 6dbd 63be e3a0 c6bd 00f0 5d3e
000003c0: cf8f 273c ac2b ab3d 17cd 5fbd 4fa2 11be
000003d0: 214b 6cbd 6391 22be 1c3c 26be 8f49 e83c
000003e0: 2d10 6d3e ff4a 69be 65e3 63be 3c26 5a3d
000003f0: 35d2 9a3a f7fd dd3d a0cd 663c 2063 f0bf

network.MLP.0.bias f4 [64]
0.58263576 -0.0017554724 -0.06957619 -0.00488016 -0.62827605 -0.16115797 -0.15643138 -0.21470514
0.12437953 0.3465868 0.5771062 -0.26806444 -0.0028490676 -0.1887423 1.007865 0.017367315
0.5994222 0.6170542 0.33010152 -0.24453723 -0.97887665 0.1420797 -0.14300622 -0.4355099
-0.15890615 -0.1569355 0.68213284 -0.033632874 -0.42818743 -0.38370055 0.24115603 0.3470454
-0.06841616 -0.15026313 -0.6240932 -0.280627 -0.110968955 -0.59458697 0.5576909 -0.21971634
-0.0019830693 0.28675658 -0.00042737933 -0.0013694203 -0.22683878 -1.1317277 0.42486805 -0.0767629
-0.072805166 -0.10325191 -0.30703312 0.43134806 -0.42364463 -0.09447995 -0.14237088 0.20769365
0.026626613 -0.048697498 0.6491738 0.27143803 0.21223587 0.7187601 -0.097560324 -0.14597477
00000000: 9e27 153f e117 e6ba f67d 8ebd c0e9 9fbb
00000010: b3d6 20bf 9806 25be 8c2f 20be aadb 5bbe
00000020: b2ba fe3d d373 b13e 3bbd 133f be3f 89be
00000030: 6cb7 3abb a945 41be b801 813f e645 8e3c
00000040: bc73 193f 44f7 1d3f 1103 a93e f867 7abe
00000050: a997 7abf 577d 113e 3970 12be 27fb debe
00000060: 4bb8 22be b3b3 20be 42a0 2e3f a0c2 09bd
00000070: 623b dbbe 6674 c4be 9bf1 763e efaf b13e
00000080: c61d 8cbd 94de 19be 92c4 1fbf 58ae 8fbe
00000090: b143 e3bd da36 18bf d5c4 0e3f 52fd 60be
000000a0: 62f6 01bb c2d1 923e e211 e0b9 1f7e b3ba
000000b0: 6d48 68be 74dc 90bf 4e88 d93e de35 9dbd
000000c0: e01a 95bd bd75 d3bd 7233 9dbe a7d9 dc3e
000000d0: f3e7 d8be b47e c1bd acc9 11be a5ad 543e
000000e0: 0e20 da3c 0777 47bd 4130 263f edf9 8a3e
000000f0: 5c54 593e a900 383f b5cd c7bd 697a 15be

network.MLP.2.weight f4 [64, 64]
0.11955716 -0.12076524 0.09688789 0.041736607 -0.06618086 -0.09387165 -0.07142888 -0.15180902
-0.11200073 -0.32353768 0.19515531 0.007931367 0.025750106 0.07327992 -0.20126918 -0.33405116
-0.06206122 -0.3470571 0.03566924 -0.06277712 0.009612901 -0.058248367 0.051402014 0.006729394
0.04486558 -0.043271884 -0.17558075 0.04305555 0.13968153 0.031179085 0.7051731 -0.09570616
0.02525261 -0.20556971 -0.27838352 0.015617215 -0.39555517 -0.0213046 0.063767076 0.106917396
-0.06899395 0.0023122851 0.030414797 0.100652665 0.028037518 0.21315394 -0.1288362 -0.013551712
-0.012018353 -0.12479898 0.2661888 0.036804754 -0.0932319 -0.0898993 -0.110089555 0.07776953
0.1691813 -0.13371311 0.18949597 0.0755066 -0.08593901 -0.30770627 -0.032127474 0.1421574
0.021209553 -0.09565066 -0.06875962 -0.037925903 0.09354283 -0.03518346 -0.015005022 -0.09649942
0.091768526 0.3873798 -0.50245434 0.22723946 0.04272259 0.06446539 0.1086842 0.061355304
-0.07941307 0.17315108 -0.1442525 0.1836605 -0.056620162 -0.13023187 -0.06930273 0.2822793
0.041981623 -0.1174003 0.20582488 -0.012306079 -0.18987976 -0.035814412 -0.08575146 -0.043426417
-0.094517216 -0.20878027 0.076443896 -0.142009 -0.111158624 0.27128318 -0.038278073 -0.1877511
-0.054622192 0.1416355 -0.081366606 0.08358786 -0.11166911 0.070457496 -0.13173172 -0.12346192
0.039630756 -0.12155816 -0.3167322 0.22732773 -0.20388885 0.17968456 -0.016047865 0.07591361
0.09317109 0.022781668 0.02804555 -0.030755093 0.03753345 0.004194688 -0.08140527 0.26313508
0.13028891 -0.079493836 0.03524363 -0.062176846 0.03209352 0.03746046 0.10513681 0.10443296
-0.1360006 -0.40807822 -0.4727252 0.12695408 -0.1282128 0.06814754 0.10695204 0.16712537
0.03388452 0.23971157 -0.09022117 0.050390564 -0.00057169265 0.0330804 0.052596215 -0.13435908
-0.019401282 0.08083525 0.2320166 0.031763926 -0.0674993 -0.4407729 -0.37136278 -0.0078782495
-0.02891557 0.11910781 0.14620654 0.07905542 0.038014557 -0.061278738 -0.17180331 0.22354607
0.02415825 0.13412946 3.9749946e-05 -0.12312775 -0.031400576 0.01429731 -0.24013819 -0.121999815
-0.10505363 -0.002510652 0.7226268 -0.038821816 -0.23950726 -0.008295285 -0.022304177 0.05590178
0.4771665 0.0034170991 -0.084890746 -0.19893794 -0.05801276 0.17891648 -0.0065112077 -0.2859206
0.101800114 0.09149109 -0.06023957 -0.054764275 -0.26791283 -0.053121805 -0.0035400093 -0.09510774
-0.24350303 -0.12311614 -0.36347404 0.29337993 0.11609638 -0.11601165 0.55729014 0.08600496
-0.13724236 -0.07849033 0.15928565 -0.15367398 -0.117051415 0.032535724 -0.35156414 -0.13025002
-0.1232371 0.024748147 -0.2098291 0.088435784 0.37197495 -0.14978121 0.15678403 -0.07482038
-0.07034743 -0.18588345 0.09809981 -0.049433403 -0.3481705 0.1403195 0.22526819 0.106513366
-0.043228675 -0.029627617 0.045126952 0.10052667 -0.004733458 0.10635055 0.18957177 0.00850074
0.095195964 -0.054057166 -0.030761665 0.07532478 0.08084448 -0.014928194 0.0399974 0.13596918
-0.046424028 0.072117634 -0.088707246 0.048173904 -0.17219774 -0.16304201 0.105575286 0.1231964
00000000: 62da f43d c453 f7bd 286d c63d 01f4 2a3d
00000010: d589 87bd c83f c0bd 4e49 92bd d373 1bbe
00000020: a460 e5bd bba6 a5be cbd6 473e 90f2 013c
00000030: e3f1 d23c c813 963d 8219 4ebe c108 abbe
00000040: e833 7ebd 78b1 b1be e919 123d 4a91 80bd
00000050: 6e7f 1d3c d795 6ebd eb8a 523d 4082 dc3b
00000060: f8c4 373d dc3d 31bd 71cb 33be 045b 303d
00000070: ad08 0f3e 486b ff3c 3986 343f 9701 c4bd
00000080: 90de ce3c de80 52be 4988 8ebe 59df 7f3c
00000090: 3586 cabe fc86 aebc 5098 823d 82f7 da3d
000000a0: b34c 8dbd b589 173b 7428 f93c fc22 ce3d
000000b0: f0ae e53c 0745 5a3e a3ed 03be 0008 5ebc
000000c0: a0e8 44bc 9c96 ffbd e649 883e 95c0 163d
000000d0: 5ef0 bebd 201d b8bd a276 e1bd a245 9f3d
000000e0: dd3d 2d3e 17ec 08be 3b0b 423e 34a3 9a3d
000000f0: cb00 b0bd ad8b 9dbe 1998 03bd b691 113e
00000100: a8bf ad3c 7ee4 c3bd d8d1 8cbd 3158 1bbd
00000110: 6293 bf3d 881c 10bd a0d7 75bc 7da1 c5bd
00000120: 23f1 bb3d a556 c63e d9a0 00bf 76b1 683e
00000130: e2fd 2e3d 6e06 843d d295 de3d b34f 7b3d
00000140: 52a3 a2bd 844e 313e edb6 13be 8011 3c3e
00000150: 8bea 67bd 815b 05be 97ee 8dbd ea86 903e
00000160: ecf4 2b3d 926f f0bd c2c3 523e 709f 49bc
00000170: d76f 42be 22b2 12bd 769e afbd e6df 31bd
00000180: 3e92 c1bd 7fca 55be 9e8e 9c3d cf6a 11be
00000190: 22a7 e3bd a1e5 8a3e 78c9 1cbd d341 40be
000001a0: 85bb 5fbd e608 113e 89a3 a6bd 1d30 ab3d
000001b0: c6b2 e4bd 054c 903d aee4 06be 9ad9 fcbd
000001c0: dc53 223d 7cf3 f8bd b92a a2be 9ac8 683e
000001d0: 3dc8 50be 3bff 373e d076 83bc 9878 9b3d
000001e0: 7cd0 be3d 9fa0 ba3c c8bf e53c 1bf2 fbbc
000001f0: adbc 193d 9873 893b ceb7 a6bd a4b9 863e
00000200: 756a 053e aacd a2bd a05b 103d 26ad 7ebd
00000210: 7f74 033d 2470 193d f851 d73d f3e0 d53d
00000220: be43 0bbe a1ef d0be 0a09 f2be 4000 023e
00000230: 374a 03be f090 8b3d ac09 db3d ea22 2b3e
00000240: 7fca 0a3d f376 753e e0c5 b8bd 5666 4e3d
00000250: a5dd 15ba 507f 073d 216f 573d 6d95 09be
00000260: 70ef 9ebc f48c a53d c295 6d3e e41a 023d
00000270: 133d 8abd fcac e1be 4323 bebe c613 01bc
00000280: 58e0 ecbc ccee f33d 2bb7 153e cfe7 a13d
00000290: 27b5 1b3d 6aff 7abd 35ed 2fbe 43e9 643e
000002a0: 86e7 c53c 3c59 093e 2eb9 2638 672a fcbd
000002b0: e49d 00bd 443f 6a3c c9e6 75be 0adb f9bd
000002c0: 5c26 d7bd c089 24bb 12fe 383f a003 1fbd
000002d0: 6441 75be f2e8 07bc 40b7 b6bc 44f9 643d
000002e0: 2b4f f43e 69f1 5f3b 33db adbd 63b6 4bbe
000002f0: ca9e 6dbd e235 373e f85b d5bb 2f64 92be
00000300: 947c d03d ae5f bb3d c4bd 76bd 8150 60bd
00000310: df2b 89be 4096 59bd 80ff 67bb d9c7 c2bd
00000320: dc58 79be 5124 fcbd 4519 babe e535 963e
00000330: f0c3 ed3d 8497 edbd 91aa 0e3f 5e23 b03d
00000340: 4389 0cbe 8abf a0bd c71b 233e b65c 1dbe
00000350: a7b8 efbd 2e44 053d 3700 b4be 4360 05be
00000360: bc63 fcbd a0bc ca3c 71dd 56be d21d b53d
00000370: 8073 be3e 3f60 19be fe8b 203e 6d3b 99bd
00000380: 5012 90bd 3b58 3ebe 8ee8 c83d ae7a 4abd
00000390: 6743 b2be eaaf 0f3e b4ac 663e ae23 da3d
000003a0: 8d10 31bd 9eb5 f2bc 0ad7 383d ede0 cd3d
000003b0: 201b 9bbb 51ce d93d 1a1f 423e b046 0b3c
000003c0: 1af6 c23d 0c6b 5dbd e3ff fbbc e143 9a3d
000003d0: ca91 a53d 6295 74bc 50d4 233d 813b 0b3e
000003e0: 1f27 3ebd 69b2 933d 25ac b5bd 0052 453d
000003f0: 9b54 30be 7cf4 26be db37 d83d 654e fc3d

network.MLP.2.bias f4 [64]
-0.1766303 0.09794891 0.10808733 -0.054166213 -0.14307232 0.22618908 0.08867989 0.08539219
0.108265966 0.39957622 -0.25744924 0.09706437 0.25557408 0.41880706 0.6564706 1.2766147
0.050652146 -0.07212854 0.11277256 -0.37651172 -0.084196515 0.017657574 0.29916 -0.2118166
0.056694068 0.15593478 -0.14311425 0.6722004 -0.32711503 -0.09987411 -0.46052802 -0.19462343
-0.030075977 -0.2234475 0.11086473 -0.21968615 0.14757943 0.03101808 -0.15667364 0.2672804
0.011748579 -0.019686308 -0.38862303 0.19046566 -1.8969234 0.18235414 0.011708371 0.6086763
-0.048172884 -0.16946383 0.28219888 -0.27872285 -0.032231167 -0.14700574 -0.24405739 -1.3936502
0.26015407 -0.25121656 -1.8223771 0.46310776 0.27216595 -0.04825769 0.098580725 -0.3768851
00000000: 93de 34be 7099 c83d e45c dd3d 64dd 5dbd
00000010: 8d81 12be 1c9e 673e cd9d b53d 1ae2 ae3d
00000020: 8cba dd3d 4195 cc3e 63d0 83be afc9 c63d
00000030: 9bda 823e e16d d63e 750e 283f 1c68 a33f
00000040: a078 4f3d 21b8 93bd 4df5 e63d 25c6 c0be
00000050: 396f acbd 9ea6 903c 802b 993e 73e6 58be
00000060: 0a38 683d 5ead 1f3e 8b8c 12be 5315 2c3f
00000070: 9f7b a7be cc8a ccbd 54ca ebbe 5d4b 47be
00000080: e561 f6bc 6ccf 64be 0c0d e33d 68f5 60be
00000090: 101f 173e a119 fe3c 0e6f 20be fad8 883e
000000a0: 1d7d 403c 2e45 a1bc 99f9 c6be 6e09 433e
000000b0: 63ce f2bf 0bbb 3a3e 78d4 3f3c 36d2 1b3f
000000c0: ee50 45bd ed87 2dbe 5f7c 903e c3b4 8ebe
000000d0: d404 04bd ac88 16be 2eea 79be 2163 b2bf
000000e0: ea32 853e 759f 80be a743 e9bf 761c ed3e
000000f0: 5659 8b3e dba9 45bd b1e4 c93d 15f7 c0be

network.MLP.3.weight f4 [64]
1.2743981 1.1638455 1.4302114 1.1805881 1.1071275 1.071332 0.9908702 1.1389315
1.4927888 0.814095 0.7741088 1.058013 1.1055272 0.8993105 0.84576845 0.8903409
0.86860406 1.7894305 1.317626 0.97367406 1.248226 0.89023316 0.85279423 1.4432552
1.196683 1.3496376 1.4861432 0.6900639 1.3055379 1.4393183 0.6745065 1.2458917
1.0746304 0.83745056 1.3245372 0.807008 1.2454947 1.304283 0.6883196 0.9705265
1.3060297 1.2916206 0.9465605 1.5055896 0.32514906 0.9491262 1.09354 0.8507816
1.2355021 1.2273824 1.1555197 0.8800158 1.214104 1.0794487 1.0120002 0.30357862
1.2730385 1.3416595 0.21295798 0.83608025 0.7993781 1.3159326 1.1247263 0.6235407
00000000: 7a1f a33f e4f8 943f 2b11 b73f 831d 973f
00000010: 5bb6 8d3f 6821 893f aba9 7d3f 82c8 913f
00000020: b413 bf3f 8868 503f ff2b 463f f86c 873f
00000030: ea81 8d3f 3739 663f 4884 583f 62ed 633f
00000040: d65c 5e3f 0f0c e53f f8a7 a83f b442 793f
00000050: dfc5 9f3f 52e6 633f b950 5a3f 96bc b83f
00000060: e92c 993f edc0 ac3f f139 be3f 07a8 303f
00000070: de1b a73f 953b b83f 75ac 2c3f 6179 9f3f
00000080: 7d8d 893f 2963 563f 6f8a a93f 1498 4e3f
00000090: 5f6c 9f3f bff2 a63f b735 303f 6d74 783f
000000a0: fb2b a73f d353 a53f ca51 723f 29b7 c03f
000000b0: f079 a63e eff9 723f 1ef9 8b3f d3cc 593f
000000c0: ef24 9e3f de1a 9d3f 12e8 933f b748 613f
000000d0: c367 9b3f 602b 8a3f 3989 813f a86e 9b3e
000000e0: edf2 a23f 80bb ab3f a811 5a3e 5b09 563f
000000f0: 0ba4 4c3f 7b70 a83f 08f7 8f3f 5da0 1f3f

network.MLP.3.bias f4 [64]
0.20661129 -0.012620421 -0.0082732905 0.07332492 0.126145 -0.033614535 0.015454847 -0.02553328
0.0049296753 -0.037828017 0.28617185 -0.10577032 -0.09757027 0.01235825 0.06040437 -0.03596455
0.095244095 0.05663213 -0.05177621 0.30057597 0.14506896 0.003738903 -0.06142236 0.1137747
-0.047215644 -0.0146164475 0.15230419 0.013882139 0.16159517 0.048603445 0.19220431 0.20113954
0.09407044 0.22353777 0.013326235 0.29160273 -0.0019231077 -0.029314566 0.104800574 -0.09117624
0.076873586 -0.017289417 0.22302352 0.012244354 0.5865655 -0.004236792 -0.09574943 0.0014999157
0.13604932 0.12047464 -0.116598465 0.28454247 0.032580227 0.17425051 0.30967352 0.58649206
-0.0026999249 0.12464691 0.75781155 0.059350625 -0.041668326 -0.01675018 -0.018041672 0.24141863
00000000: e991 533e e2c5 4ebc b28c 07bc 602b 963d
00000010: 282c 013e 65af 09bd 5436 7d3c 2b2b d1bc
00000020: 1d89 a13b 8df1 1abd 1e85 923e 1c9e d8bd
00000030: ecd2 c7bd 427a 4a3c 936a 773d 904f 13bd
00000040: 560f c33d 18f7 673d 4b13 54bd 18e5 993e
00000050: f58c 143e 6208 753b 0396 7bbd b602 e93d
00000060: 3165 41bd d379 6fbc a1f5 1b3e e971 633c
00000070: 3479 253e 6814 473d 35d1 443e 86f7 4d3e
00000080: 01a8 c03d 16e7 643e 4856 5a3c f44c 953e
00000090: c910 fcba 1a25 f0bc afa1 d63d 9cba babd
000000a0: e66f 9d3d 89a2 8dbc 4760 643e 8b9c 483c
000000b0: 2829 163f cad4 8abb 4718 c4bd d298 c43a
000000c0: 8350 0b3e 68bb f63d 2dcb eebd 8daf 913e
000000d0: d872 053d ba6e 323e 878d 9e3e 5824 163f
000000e0: 39f1 30bb e146 ff3d f0ff 413f a419 733d
000000f0: 68ac 2abd ac37 89bc 21cc 93bc 7236 773e

critic.0.weight f4 [1, 64]
0.029378723 0.102834135 0.08881386 0.09072832 0.020915663 0.083660826 0.097297676 0.11416214
0.07877147 0.14847055 0.11269888 0.085029654 0.071368895 0.16521825 0.23825452 0.29340613
0.25651598 0.039465155 0.06041449 0.05659948 0.07415552 0.106203556 0.14432794 0.020318648
0.08996549 0.07395823 0.09470348 0.16206716 0.11764657 0.071625754 0.089613855 0.05968872
0.0690684 0.084957 0.09317212 0.08017726 0.085125744 0.060683396 0.12943484 0.09351894
0.09520182 0.016737998 0.08341953 0.070760585 -0.09838324 0.0982486 0.0695818 0.1860675
0.06765346 0.12862866 0.029935589 0.053353418 0.09774961 0.09493909 0.12007366 0.11153569
0.0736829 0.061908472 -0.04320668 0.2786115 0.16449673 0.07059358 0.10157332 0.051976424
00000000: a6ab f03c b49a d23d 0be4 b53d c5cf b93d
00000010: 5357 ab3c 5e56 ab3d 0144 c73d d7cd e93d
00000020: f052 a13d aa08 183e acce e63d 0724 ae3d
00000030: db29 923d f92e 293e fef8 733e 5439 963e
00000040: 1056 833e 37a6 213d 2f75 773d dbd4 673d
00000050: d9de 973d 4081 d93d b4ca 133e 4b73 a63c
00000060: d43f b83d 6a77 973d e6f3 c13d eff4 253e
00000070: aff0 f03d 86b0 923d 7887 b73d 297c 743d
00000080: bc73 8d3d f0fd ad3d 06d1 be3d fa33 a43d
00000090: 6856 ae3d 278f 783d 918a 043e dc86 bf3d
000000a0: 2cf9 c23d 201e 893c dcd7 aa3d edea 903d
000000b0: 277d c9bd 9036 c93d e780 8e3d 7b88 3e3e
000000c0: e68d 8a3d 3bb7 033e 7b3b f53c 1d89 5a3d
000000d0: f330 c83d 6d6f c23d 2ee9 f53d d36c e43d
000000e0: 0fe7 963d bd93 7d3d 7df9 30bd 2ba6 8e3e
000000f0: d571 283e 5e93 903d ac05 d03d 3be5 543d

actor.0.weight f4 [22, 64]
0.37452954 -0.09323772 -0.5771063 0.1424875 -0.35645238 0.35851282 -0.1533937 0.032706957
0.3628186 -0.08790399 0.023484202 -0.020720188 -0.37869862 0.35900065 0.052601047 0.030476758
0.050931517 -0.8541497 0.08472504 0.3400768 0.0863278 -3.420735e-05 0.044560466 -0.21626969
0.14710245 -0.57126534 -0.47831887 0.02746406 -0.28779575 -0.34793183 -0.34006798 -0.22027035
0.41867176 0.13940734 -0.14920014 0.37298915 0.2137027 0.18473059 -0.1370041 0.0876411
-0.23083597 0.18628661 0.032739688 0.27676758 0.018344708 -0.0027956727 -0.11775667 0.29572782
-0.016208742 0.32669404 -0.28588292 0.28856823 -0.1485149 0.34982306 0.55617523 0.18137367
0.46728227 -0.24746576 -0.06054728 -0.037701853 -0.04429728 -0.24378493 0.3903288 -0.36038813
-0.36212605 -0.23068248 -0.18509991 0.019129332 -0.50364137 -0.076999106 0.022727028 0.076862164
0.7090601 -0.00800144 -0.06361119 0.5853021 -0.35924876 0.042086497 -0.03320531 0.09593053
-0.030440308 -0.37329108 -0.5214217 0.08932386 0.30405718 0.19994432 -0.11188067 -0.42232743
0.0046792696 0.10608023 -0.04492415 -0.023018248 -0.2784843 -0.5463758 -0.22983588 0.13258798
0.120844364 -0.31576782 -0.20979115 0.027182875 0.04707455 -0.47378522 0.002028629 0.11350972
0.019480472 0.29954514 0.02217116 -0.108055934 0.0051818956 0.117759824 0.18550101 0.21153672
-0.60904706 -0.076673575 0.31960836 -0.25050405 0.47973594 0.17699082 0.02982157 -0.030664073
0.46301845 0.31433955 -0.1126671 -0.11521541 0.0866192 -0.061634433 0.35988277 -0.10485071
-0.20500411 0.30856618 -0.15622897 -0.046873946 -0.22234602 0.4186847 -0.10033704 -0.2269699
0.1403404 -0.0759308 -0.105685905 0.033630587 0.16201328 -0.042190462 0.05415851 0.01562264
0.31762737 -0.15063526 -0.5176832 -0.6013877 -0.543061 0.030550275 0.28075227 -0.5424854
0.17283043 0.014209924 0.09386498 0.06320335 0.056102328 -0.13571902 -0.06220929 -0.7917656
0.043616127 -0.023990603 0.09309302 0.29826468 -0.09977854 -0.07795713 0.069997095 0.6004525
0.17097758 -0.02993097 0.45595238 0.22527243 -0.019432792 0.17421658 0.18849352 -0.23286487
-0.36642012 0.18321739 -0.045864053 0.051790442 -0.1720578 -0.0984793 0.022102343 -0.074404314
-0.34503984 -0.4519114 -0.057782717 -0.034402438 0.016642079 -0.03195518 0.0029036656 0.083491094
-0.24027535 -0.26354554 -0.33471668 -0.31518877 -0.08806391 -0.12236288 0.26227424 0.05616428
0.28514165 0.18719853 0.029727021 -0.1825227 0.037841722 0.09155936 0.11778542 0.022474004
0.124369025 -0.29784188 -0.117355086 0.12059744 -0.15122546 -0.14834684 -0.24935937 -0.39539766
-0.17161004 -0.06616731 0.4840696 0.09807974 0.1529793 -0.00027388215 -0.14880544 -0.09787562
-0.200217 -0.1944628 -0.2976248 0.10060298 -0.13589993 0.12807268 -0.09966081 0.024918519
-0.00065808016 0.2681793 -0.11058235 0.05181043 0.029493762 -0.0030111216 0.024044901 -0.0045760353
-0.2931773 0.111325376 -0.12612036 0.19349957 0.007651561 0.13965237 0.3874622 0.0014634666
-0.061699152 0.23076275 -0.04307646 0.035748493 0.017082063 -0.18384482 0.13256577 -0.061265204
00000000: 56c2 bf3e 6bf3 bebd 3dbd 13bf 3ee8 113e
00000010: ed80 b6be fe8e b73e 3d13 1dbe bbf7 053d
00000020: 5cc3 b93e 0207 b4bd f161 c03c 62bd a9bc
00000030: c9e4 c1be efce b73e 3274 573d 65aa f93c
00000040: 919d 503d 8ea9 5abf 5284 ad3d 8c1e ae3e
00000050: a1cc b03d dd79 0fb8 0985 363d cd75 5dbe
00000060: 06a2 163e 723e 12bf 36e6 f4be 4ffc e03c
00000070: f759 93be 1f24 b2be 641d aebe 8d8e 61be
00000080: 255c d63e ccc0 0e3e ecc7 18be 6ff8 be3e
00000090: e1d4 5a3e 042a 3d3e ce4a 0cbe 2d7d b33d
000000a0: 4460 6cbe ebc1 3e3e 0d1a 063d 7bb4 8d3e
000000b0: a447 963c 9b37 37bb 692a f1bd a369 973e
000000c0: 32c8 84bc 7144 a73e 3f5f 92be 37bf 933e
000000d0: 4a14 18be 021c b33e 8061 0e3f 05ba 393e
000000e0: 9f3f ef3e aa67 7dbe 6d00 78bd 426d 1abd
000000f0: 1171 35bd c2a2 79be 2dd9 c73e cb84 b8be
00000100: 9668 b9be 0738 6cbe d58a 3dbe 1eb5 9c3c
00000110: a4ee 00bf b5b1 9dbd 082e ba3c e969 9d3d
00000120: f684 353f 7918 03bc 9546 82bd 5cd6 153f
00000130: 74ef b7be e462 2c3d 4b02 08bd 3a77 c43d
00000140: f45d f9bc 0220 bfbe e47b 05bf 6eef b63d
00000150: 62ad 9b3e 34be 4c3e b121 e5bd 4d3b d8be
00000160: 8f54 993b 9740 d93d 6302 38bd c490 bcbc
00000170: 7f95 8ebe 49df 0bbf 195a 6bbe 25c5 073e
00000180: 407d f73d 52ac a1be 7ed3 56be 9fae de3c
00000190: 3ed1 403d fa93 f2be bff2 043b c977 e83d
000001a0: 8395 9f3c fb5d 993e 4ba0 b53c 6e4c ddbd
000001b0: e4cc a93b 102c f13d faf3 3d3e 159d 583e
000001c0: 82ea 1bbf 0907 9dbd b5a3 a33e 1142 80be
000001d0: f39f f53e 153d 353e 5d4c f43c 3933 fbbc
000001e0: c110 ed3e 1df1 a03e 02be e6bd 0ff6 ebbd
000001f0: 6865 b13d 6374 7cbd 8e42 b83e f8bb d6bd
00000200: 99ec 51be 63fc 9d3e 7dfa 1fbe e5fe 3fbd
00000210: adae 63be d75d d63e 827d cdbd cc6a 68be
00000220: 65b5 0f3e 9b81 9bbd da71 d8bd 3ac0 093d
00000230: cfe6 253e e8cf 2cbd 50d5 5d3d 1af6 7f3c
00000240: 0ea0 a23e 2140 1abe e386 04bf 8bf4 19bf
00000250: 0c06 0bbf 9244 fa3c c3be 8f3e 53e0 0abf
00000260: 76fa 303e bed0 683c 483c c03d c270 813d
00000270: 8ecb 653d edf9 0abe 2bcf 7ebd 26b1 4abf
00000280: d3a6 323d f187 c4bc 8ea7 be3d 26b6 983e
00000290: b158 ccbd fda7 9fbd a35a 8f3d 41b7 193f
000002a0: bf14 2f3e cb31 f5bc 9772 e93e d1ad 663e
000002b0: 8531 9fbc d565 323e 7204 413e 2174 6ebe
000002c0: 6b9b bbbe 579d 3b3e f2db 3bbd 3722 543d
000002d0: ec2f 30be 84af c9bd f90f b53c 4a61 98bd
000002e0: 10a9 b0be ee60 e7be 92ad 6cbd 92e9 0cbd
000002f0: f854 883c 6fe3 02bd 6d4b 3e3b 61fd aa3d
00000300: be0a 76be 71ef 86be fc5f abbe 6c60 a1be
00000310: da5a b4bd 6499 fabd cf48 863e 840c 663d
00000320: 16fe 913e f9b0 3f3e 1586 f33c 3be7 3abe
00000330: ecff 1a3d 7983 bb3d 7b39 f13d 671b b83c
00000340: 30b5 fe3d bb7e 98be dd57 f0bd cafb f63d
00000350: d9da 1abe 3ce8 17be 1058 7fbe 9071 cabe
00000360: 8bba 2fbe ba82 87bd f8d7 f73e 08de c83d
00000370: 9ba6 1c3e d797 8fb9 7460 18be 0373 c8bd
00000380: af05 4dbe 4221 47be 4762 98be ef08 ce3d
00000390: 5a29 0bbe 7c25 033e f71a ccbd ec21 cc3c
000003a0: 0383 2cba cc4e 893e 0079 e2bd 2c37 543d
000003b0: e79c f13c 3d56 45bb d0f9 c43c 91f2 95bb
000003c0: 561b 96be 8ffe e33d b225 01be c024 463e
000003d0: f2b9 fa3b 0801 0f3e 7261 c63e cad1 bf3a
000003e0: 40b8 7cbd 124d 6c3e f170 30bd 036d 123d
000003f0: afef 8b3c d141 3cbe 52bf 073e 39f1 7abd

actor.0.bias f4 [22]
0.01869649 -0.04527633 -0.039511524 0.008362534 -0.103805766 -0.048765954 0.14522138 0.058238376
0.0329008 0.019412195 0.012428716 0.032296356 -0.10325625 -0.080269836 -0.07953167 0.0893174
0.031399798 0.05750984 -0.01587474 0.08134105 0.0038955633 0.021494282
00000000: 6229 993c ac73 39bd d6d6 21bd 0303 093c
00000010: 1e98 d4bd cfbe 47bd eab4 143e 5d8b 6e3d
00000020: fdc2 063d 5306 9f3c d0a1 4b3c 2f49 043d
00000030: 0378 d3bd 8364 a4bd 80e1 a2bd 0aec b63d
00000040: 139d 003d 708f 6b3d be0b 82bc 2396 a63d
00000050: b54c 7f3b c714 b03c
