paper/training_results/seed-6/momarl/checkpoints/mlp_(negotiation=False)_(num_agents=12)_(window=False)_(reduced_space=False)_(fixed_savings_rate=False)_(rewards=['inverse_global_temperature', 'global_economic_output'])(wgen=uniform)(num_ensembles=1)(seed=6)_2025-01-16_22:29:48_w=[0.1424 0.8576].pt (torch, 38168 bytes, 9 tensors)

network.MLP.0.weight f4 [64, 18]
0	0xbd83b904	-0.06431773
1	0x3f113708	0.56724596
2	0xbd837367	-0.064184956
3	0x3db4cb7a	0.088278726
4	0x3e8042e6	0.2505104
5	0xbf04ca2d	-0.51870996
6	0x3edafac0	0.42769432
7	0xbdc94b2c	-0.09828791
8	0xbf064bd4	-0.52459455
9	0x3f0bea1d	0.54654104
10	0x3f33c3da	0.7022072
11	0x3e901618	0.28141856
12	0x3e81aa80	0.25325394
13	0xbecc3cf8	-0.39890265
14	0x3f6ab074	0.91675496
15	0x3dab7f57	0.083738975
16	0xbe02dd50	-0.12779737
17	0x3e9cbfa1	0.3061495
18	0x3dd30867	0.10304337
19	0x3e3f489d	0.18680044
20	0xbedc24c0	-0.42996788
21	0xbce0fff8	-0.027465805
22	0xbfbf664f	-1.4953097
23	0x3ec214af	0.37906405
24	0x3e34b8a9	0.17648567
25	0x3e8e0839	0.27740648
26	0x3dc0043e	0.09375809
27	0x3e92b6fa	0.28655225
28	0xbe8139e4	-0.2523948
29	0xbd2458f7	-0.040123906
30	0x3e247548	0.16060364
31	0xbce25121	-0.027626576
32	0xbe066350	-0.13123822
33	0xbdca3f54	-0.0987536
34	0x3bc03e1b	0.0058667785
35	0x3eb18a78	0.34675956
36	0xbd863125	-0.06552342
37	0xb9b0b01e	-0.00033700553
38	0xbd820ad0	-0.063497186
39	0xbf4bf53b	-0.79671067
40	0x3f750a68	0.95719004
41	0x3e900b1a	0.2813347
42	0x3d037e5c	0.032102928
43	0x3d91ed90	0.071253896
44	0x3e3469f5	0.17618544
45	0x3dd8c125	0.105837144
46	0xbe6dca66	-0.2322174
47	0x3e82483b	0.25445732
48	0x3d619499	0.055073354
49	0x3eb76879	0.35821894
50	0x3df81356	0.12113063
51	0xbe3277af	-0.17428468
52	0x3d3f90f5	0.0467691
53	0xbe444bb6	-0.19169506
54	0xbdd0d462	-0.10196759
55	0xbd8fa352	-0.07013573
56	0xbe5bedbe	-0.2147741
57	0xbe366d00	-0.17815018
58	0xbe42d1f9	-0.1902541
59	0x3e21e39e	0.15809485
60	0xbe14881c	-0.14505047
61	0x3d922226	0.071354195
62	0x3e653a87	0.22385608
63	0xbdedaadb	-0.11604854
64	0x3e2b4716	0.16726336
65	0xbde2beb8	-0.11071533
66	0x3e2a7f62	0.16650155
67	0x3dc65148	0.09683472
68	0xbd0da0fd	-0.03457736
69	0xbe3679ab	-0.1781985
70	0xbe484323	-0.1955686
71	0x3e0d24af	0.13783525
72	0xbe018650	-0.12648892
73	0x3e559893	0.20858984
74	0x3c92042a	0.017824251
75	0x3f6ec342	0.9326669
76	0xbfffce4f	-1.9984835
77	0x3e1908b8	0.14944732
78	0xbe1d2666	-0.15346679
79	0xbe0885f9	-0.13332357
80	0xbe92d0db	-0.2867497
81	0xbe96f08c	-0.29480398
82	0xbe6aecae	-0.22941849
83	0xbdc87dda	-0.09789629
84	0xbea22ff3	-0.31677207
85	0xbeb61385	-0.35561767
86	0xbdd2c99a	-0.10292359
87	0x3e11fb47	0.14256011
88	0x3e2a1cd3	0.16612558
89	0x3eb55c9e	0.35422224
90	0x3dc91707	0.09818845
91	0xbe87efd2	-0.26550156
92	0xbeb4d1f3	-0.3531643
93	0xbe88f776	-0.26751298
94	0xbfd3f3a0	-1.6558723
95	0x3f15dcaa	0.5853983
96	0x3b161558	0.0022900905
97	0x3d6c0734	0.057624057
98	0x3dbc3698	0.091901004
99	0x3d668656	0.056280456
100	0x3cda3628	0.026637152
101	0xbc9b793d	-0.01897871
102	0x3c22eace	0.009943677
103	0x3dd7e1a6	0.10541086
104	0xbda9c624	-0.082897455
105	0xbb35dbc5	-0.00277494
106	0x3a036f7f	0.00050138676
107	0x3c7a9a5e	0.015295593
108	0x3e1fbae1	0.15598632
109	0xbeae4d96	-0.34043568
110	0xbeb99492	-0.36246163
111	0x3ea7f468	0.32803655
112	0xbeee0bec	-0.4649347
113	0x3ebc1914	0.36737883
114	0xbe993656	-0.29924268
115	0xbdbd3663	-0.09238889
116	0xbe25eb9a	-0.16203156
117	0xbc86981a	-0.01642995
118	0xbee63f1c	-0.44970024
119	0x3a73c322	0.00092987914
120	0xbd235ed7	-0.03988537
121	0x3c2008f2	0.009767758
122	0x3e49554d	0.19661446
123	0xbd5df402	-0.054187782
124	0xbda41cd2	-0.080133095
125	0xbcb2727e	-0.02178311
126	0xbcab7127	-0.020927979
127	0xbed14d60	-0.40879345
128	0xbd81f4f2	-0.06345548
129	0x3ecfc11d	0.4057702
130	0xbe55164e	-0.2080929
131	0x3ea2ab82	0.31771475
132	0x3ecee48a	0.40408736
133	0xbce625c6	-0.028094184
134	0x3c980263	0.018555826
135	0x3da8c4c1	0.08240653
136	0xbd759214	-0.059953764
137	0x3e5f5e0e	0.21813223
138	0xbe15cecf	-0.14629672
139	0xbea34f56	-0.31896466
140	0x3e4e5dc5	0.20152958
141	0x3ef94d78	0.48691916
142	0x3e1b4f2d	0.15166922
143	0x3e7ec73e	0.24880692
144	0xbc4528c2	-0.012033643
145	0xbe91684f	-0.28399894
146	0x3a4ffac2	0.0007933789
147	0xbf306373	-0.6890175
148	0xbec52e44	-0.3851186
149	0xbda2de6d	-0.079525806
150	0x3ee0670f	0.43828627
151	0xbf394d36	-0.7238344
152	0xbe7f386a	-0.24923864
153	0x3e5ebd9d	0.21752019
154	0xbcae2ad1	-0.02126065
155	0xbd029b1f	-0.031886216
156	0xbeb3dd52	-0.35129791
157	0x3df91702	0.121625915
158	0x3c9fb644	0.01949609
159	0x3e91ed1e	0.2850122
160	0x3f521937	0.82069725
161	0xbee82dbf	-0.45347401
162	0xbdd224e8	-0.102609456
163	0xbe6b3ad4	-0.2297166
164	0xbe40ee4a	-0.188409
165	0xbdf9b316	-0.12192361
166	0x3cdc3781	0.026881935
167	0xbb886b4c	-0.0041631814
168	0xbbfbf7b2	-0.0076894397
169	0x3e0de786	0.1385785
170	0x3d0119d9	0.03151879
171	0x3db35dc7	0.08758121
172	0x3cf27411	0.02959636
173	0x3e43d2fa	0.1912345
174	0xbe32cc68	-0.17460787
175	0x3d4482a4	0.04797615
176	0xbe3f4269	-0.18677677
177	0xbd946db9	-0.072474904
178	0xbdc7b010	-0.09750378
179	0x3c90abd6	0.017660063
180	0xbca6f72d	-0.020381534
181	0xbdba2532	-0.09089126
182	0xbde1d861	-0.11027599
183	0xbe7d5f54	-0.24743396
184	0x3f3d5e3d	0.7397192
185	0xbe5d00f9	-0.21582402
186	0x3e0632b2	0.13105276
187	0x3ece7159	0.40320852
188	0x3eee713e	0.46570772
189	0x3ef96592	0.48710304
190	0x3ec6524c	0.38734663
191	0xbddfa996	-0.10921018
192	0x3ed1de0d	0.40989724
193	0x3db25e79	0.087094255
194	0x3ea0fa58	0.31440997
195	0x3efcf7ed	0.49407902
196	0xbe6892cc	-0.22712249
197	0x3f14af5a	0.58080065
198	0xbd88c048	-0.066773
199	0xbd16b9c2	-0.036798246
200	0xbe0eadb4	-0.1393345
201	0x3e05334e	0.13007852
202	0xbe5d773f	-0.2162752
203	0x3c1c8508	0.0095532015
204	0x3d47d093	0.048782896
205	0x3e083863	0.1330276
206	0x3e223b78	0.15842998
207	0xbbb6764c	-0.0055683013
208	0xbdc14f04	-0.09438899
209	0xbe0bc232	-0.13648298
210	0x3e60edca	0.2196571
211	0x3c2effd0	0.010681108
212	0x3de73f28	0.11291343
213	0x3df66161	0.12030292
214	0xbe54e41a	-0.20790139
215	0xbe398ba2	-0.18119672
216	0xbe18b9e7	-0.14914666
217	0xbdd0323c	-0.101658314
218	0xbe0b01bd	-0.13574882
219	0xbc3185a3	-0.010835084
220	0x3e105623	0.14095359
221	0xbdc47338	-0.09592289
222	0xbe54e139	-0.2078904
223	0x3caa18ef	0.020763842
224	0x3cf40a2e	0.02979001
225	0xbe411884	-0.18857008
226	0xbe6b0a3a	-0.2295312
227	0xbe26c5e1	-0.16286422
228	0x3e1e9e29	0.15490021
229	0xbc1a0483	-0.00940049
230	0x3e6cfad6	0.23142561
231	0xbe2c6325	-0.16834696
232	0x3dbbeca1	0.09175993
233	0xbc9ae623	-0.018908566
234	0x3d08ed2d	0.033429313
235	0xbf2267bb	-0.6343953
236	0xbe39f550	-0.18159986
237	0xbf0df006	-0.5544437
238	0xbebae5fd	-0.36503592
239	0x3eba93be	0.36440843
240	0xbdcf3cd5	-0.10119025
241	0x3ce4fdd4	0.027953066
242	0xbea679d4	-0.32514822
243	0xbe6af073	-0.22943287
244	0xbea33c9d	-0.31882182
245	0x3eb2646b	0.34842238
246	0xbe598460	-0.21241903
247	0xbea612e3	-0.32436284
248	0x3d85258f	0.06501304
249	0x3e33305a	0.17498913
250	0xbf86c05f	-1.0527457
251	0xbe2bb63b	-0.16768734
252	0xbe5fe659	-0.21865214
253	0xb9ba7489	-0.0003556351
254	0xbd9d7e58	-0.07690114
255	0x3e4522a7	0.192515

network.MLP.0.bias f4 [64]
0	0x3ecd01bf	0.40040395
1	0xbd925eea	-0.0714701
2	0x3edcf107	0.4315264
3	0x3edfbebf	0.43700215
4	0xbea3a4db	-0.31961712
5	0xbf20d10d	-0.62818986
6	0xbf398b6f	-0.72478384
7	0xbf2872b3	-0.6580002
8	0xbd8c0819	-0.06837482
9	0x3ef44342	0.47707564
10	0x3e937065	0.28796688
11	0xbb11cb4b	-0.0022246416
12	0xbdb971ad	-0.09054885
13	0xbd8c4f08	-0.068510115
14	0xbcafa428	-0.02144058
15	0x3e242501	0.16029741
16	0xbb0d20ca	-0.0021534436
17	0x3c05f39a	0.008175755
18	0x3f0b37b3	0.54381865
19	0x3e8918c0	0.26776695
20	0x3f9dc9f0	1.2327251
21	0xbc14877d	-0.009065506
22	0xbee6cef2	-0.45079762
23	0x3f19ff32	0.6015502
24	0xbc7049e5	-0.014666055
25	0xbed51f45	-0.4162542
26	0x3d37fdc0	0.04491973
27	0x3e82991d	0.2550744
28	0xbf05aae6	-0.52213895
29	0x3eb03ee3	0.3442298
30	0xbce8b574	-0.028406836
31	0xbd410c6e	-0.047130994
32	0x3d2ca6ea	0.04215137
33	0x3f897a3d	1.0740429
34	0xbe36ea52	-0.17862824
35	0xbdfe8695	-0.12428013
36	0x3f7ce8ae	0.9879254
37	0x3eda888e	0.42682308
38	0xbeb43cbf	-0.35202596
39	0x3edc0872	0.42975193
40	0x3eae8c7f	0.34091565
41	0xbe2ff168	-0.17181933
42	0xbeedf468	-0.4647553
43	0x3e31fac0	0.1738081
44	0xbe603951	-0.21896864
45	0xbe32c7df	-0.17459057
46	0xbe9a878f	-0.30181548
47	0x3eabdc5b	0.33566555
48	0x3dc26230	0.09491384
49	0x3e5babbb	0.21452229
50	0x3f376aca	0.7164732
51	0xba8792bd	-0.0010343414
52	0x3cadc315	0.021211186
53	0xbfa67355	-1.3003947
54	0xbe5073b7	-0.20356642
55	0xbc8d425e	-0.01724356
56	0x3f1d64be	0.61481845
57	0xbe5b158c	-0.21394938
58	0x3ed85ff5	0.4226071
59	0xbb393453	-0.0028259947
60	0xbc9d0709	-0.019168394
61	0x3ed1c4b5	0.40970388
62	0xbe960499	-0.29300383
63	0xbf206dae	-0.6266736

network.MLP.2.weight f4 [64, 64]
0	0xbf739b8b	-0.95159215
1	0x3f1a00ff	0.6015777
2	0xbe82fe1d	-0.25584498
3	0xbd8bfaee	-0.068349704
4	0xbd3a6cfe	-0.0455141
5	0x3f95fbe3	1.1717495
6	0x3f1ef5d6	0.62093866
7	0x3dcb56eb	0.09928688
8	0x3e37240d	0.17884846
9	0x3dabc2c1	0.08386756
10	0xbe0ea87b	-0.13931458
11	0x3d51b54b	0.051198285
12	0x3ceeaa50	0.029133946
13	0xbe54b7d0	-0.20773244
14	0x3db650e0	0.089021444
15	0xbe1d5bc3	-0.15367036
16	0xbbd9d89c	-0.0066481363
17	0x3ca1869d	0.019717509
18	0xbf3a7453	-0.72833747
19	0xbdf4b1ae	-0.11947952
20	0xbf7e64d5	-0.9937261
21	0x3b6b1d00	0.003587544
22	0xbf4de6eb	-0.8043048
23	0x3c6974d3	0.0142490445
24	0xbfc03a39	-1.5017768
25	0x3b935335	0.004496003
26	0xbde96825	-0.11396817
27	0xbf4c2ede	-0.79759014
28	0x3dc5ccf9	0.09658236
29	0xbdf857a2	-0.1212609
30	0xbda8e7d6	-0.08247344
31	0xbc981e28	-0.018569067
32	0x3e0c3cd4	0.13695079
33	0xbff15e08	-1.8856821
34	0xbc81b6e7	-0.015834285
35	0x3c68552c	0.014180463
36	0xc009764c	-2.1478453
37	0xbe9305d2	-0.28715378
38	0x3fa5353d	1.2906872
39	0x3c6f5660	0.014607996
40	0xbd405c1c	-0.046962842
41	0x3d291338	0.041278094
42	0xbf1c6d4e	-0.61104286
43	0xbe6f383e	-0.23361298
44	0xbdd1360e	-0.10215388
45	0xbe080ff8	-0.13287342
46	0x3dcdca8a	0.10048397
47	0xbeefe160	-0.46851635
48	0xbebc9329	-0.36831024
49	0xc0084487	-2.1291826
50	0xbf3076de	-0.68931377
51	0xbffc7d96	-1.9725826
52	0xc0086296	-2.1310172
53	0x3fb406ad	1.4064537
54	0xbddc8f3e	-0.10769509
55	0xbe5a792d	-0.21335287
56	0xbda86aeb	-0.08223518
57	0x3d949a84	0.07256034
58	0x3dd1ef4d	0.10250721
59	0xbe04570a	-0.12923828
60	0x3c82fda0	0.015990078
61	0xbee9d400	-0.45669556
62	0x3e797f13	0.24364881
63	0x3ef57645	0.47941795
64	0x3d2acf90	0.041701853
65	0x3dd9b1c2	0.10629608
66	0x3e8bf191	0.27332738
67	0x3df89078	0.1213693
68	0xbe185154	-0.14874774
69	0xbc77452e	-0.015092177
70	0x3da3b97c	0.07994363
71	0x3d292c55	0.041302044
72	0xbe93fcf7	-0.28903934
73	0x3e2bd1b4	0.16779214
74	0xbcccf51f	-0.025019227
75	0xbd8a72b6	-0.067601606
76	0x3c26ca80	0.010180116
77	0x3e0cca7e	0.1374912
78	0x3db75c12	0.08953108
79	0xbe879c68	-0.26486516
80	0xbdbd1c2c	-0.09233889
81	0x3d72d4cd	0.059284974
82	0x3e5c068a	0.2148687
83	0xbd88d79e	-0.06681751
84	0x3ce4151e	0.0278421
85	0xbd158f1c	-0.036513433
86	0x3e74ae8b	0.23894708
87	0x3bdd806d	0.0067596943
88	0xbe34de42	-0.1766291
89	0xbe2a6298	-0.16639173
90	0xbe893b92	-0.2680326
91	0x3e650efb	0.22368996
92	0x3cd6ec47	0.026235713
93	0x3de7fffe	0.113281235
94	0xbd92bbcc	-0.07164726
95	0xbd249858	-0.04018435
96	0xbe0df17f	-0.13861655
97	0xbc8674cf	-0.01641312
98	0x3dc07bfa	0.09398647
99	0xbe66e893	-0.22549658
100	0xbdf5bcce	-0.11998902
101	0xbd814937	-0.06312793
102	0x3bd6f420	0.0065598637
103	0xbcbfb4f9	-0.023401724
104	0x3db2f37a	0.08737846
105	0x3dcfa1ee	0.101383075
106	0x3a87ddbe	0.0010365767
107	0xbe357129	-0.17718948
108	0xbd8fa886	-0.07014565
109	0x3eba5add	0.36397448
110	0x3df33c8e	0.11876784
111	0x3ceab87b	0.02865242
112	0xbe66164e	-0.22469446
113	0xbe82f5d9	-0.25578192
114	0x3d77ec14	0.060527876
115	0x3e94ec75	0.29086652
116	0x3d5e85de	0.054326884
117	0xbf10f6e8	-0.5662675
118	0xbd4dfd9d	-0.050290693
119	0xbe7206dd	-0.2363543
120	0xbc0c9278	-0.008579843
121	0x3e1f030a	0.15528503
122	0x3e410bc3	0.18852143
123	0xbdebe520	-0.115183115
124	0xbe09a2c0	-0.1344099
125	0x3d8d45f9	0.06898112
126	0xbde69c3b	-0.11260267
127	0xbdb79dfa	-0.089656785
128	0x3e45f7cd	0.1933281
129	0xbe23aa88	-0.15983021
130	0x3e67fb33	0.22654419
131	0x3db62b33	0.08894958
132	0xbdbc18a5	-0.09184388
133	0xbe3f5d3b	-0.18687908
134	0xbe66bde9	-0.22533382
135	0x3d82a839	0.06379742
136	0x3dd132f2	0.10214795
137	0x3dc812ee	0.097692356
138	0xbdc3a7a3	-0.095534585
139	0x3c81dfb1	0.015853735
140	0x3de786ec	0.11305031
141	0x3f07d306	0.5305637
142	0xbd5a6d88	-0.053327113
143	0xbe8bd904	-0.27314007
144	0xba4c7937	-0.0007800045
145	0x3e02f021	0.12786914
146	0x3e030a1c	0.12796825
147	0x3c97392c	0.018459879
148	0x3d80843d	0.062752225
149	0x3d894acc	0.067037195
150	0xbf1aa855	-0.60413104
151	0x3eaaea38	0.3338182
152	0x3e821c9e	0.25412458
153	0x3d1f29b1	0.03885812
154	0xbe18a1c1	-0.14905454
155	0xbe138892	-0.14407566
156	0x3d4814e9	0.048848066
157	0xbe2ef3ce	-0.17085192
158	0xba2b2a00	-0.0006529391
159	0xbdbe1452	-0.092812195
160	0x3dce9c05	0.10088352
161	0xbdfee5a9	-0.12446148
162	0xbd4acd73	-0.049512338
163	0xbd392aed	-0.045206953
164	0x3e5e6539	0.21718301
165	0x3d86f1ee	0.06589113
166	0xbe3a29a7	-0.18179952
167	0x3eabd91b	0.33564076
168	0x3e35ba79	0.17746915
169	0xbb5f7b40	-0.0034100562
170	0x3f1ffe0c	0.6249702
171	0xbdcae6f5	-0.09907333
172	0xbab45e80	-0.0013761073
173	0xbe6d4b37	-0.23173223
174	0x3a8a3559	0.0010544463
175	0xbe7e52be	-0.24836251
176	0xbe64429d	-0.22291036
177	0x3db1f757	0.086897545
178	0xbd44c2af	-0.048037227
179	0x3e2d4239	0.16919793
180	0x3eb23f03	0.348137
181	0xbf334c46	-0.7003826
182	0x3d92fe5d	0.07177422
183	0x3e575c09	0.21031202
184	0xbe39128f	-0.18073486
185	0x3ea4c073	0.32178077
186	0x3ea176b4	0.31535876
187	0x3de22484	0.11042121
188	0xbdbc5dc5	-0.091975726
189	0xba8477de	-0.0010106524
190	0xbe39afa1	-0.18133403
191	0x3e8166a6	0.25273627
192	0x3ea6b757	0.32561752
193	0x3d32ca75	0.04365011
194	0xbda884fc	-0.0822849
195	0xbc6d6ca4	-0.014491234
196	0x3e3d1711	0.1846583
197	0xbea13fff	-0.31494138
198	0xbe16be12	-0.14720944
199	0xbe2ca424	-0.1685949
200	0xbd56300b	-0.05229191
201	0xbc805755	-0.015666643
202	0xbe865582	-0.26237112
203	0xbdd4be4a	-0.10387857
204	0xb9f68600	-0.00047020614
205	0xbd902dea	-0.070400074
206	0xbb660dc0	-0.003510341
207	0x3ba3dbbd	0.00500056
208	0x3d29c9d4	0.041452244
209	0x3ca1bff0	0.019744843
210	0x3d258180	0.040406704
211	0x3d1e77e2	0.038688548
212	0x3da389bf	0.07985257
213	0x3d3ef84c	0.046623513
214	0xbe6f71af	-0.2338321
215	0x3d02b9ec	0.03191559
216	0x3e30f33c	0.17280287
217	0x3d1c34a4	0.03813614
218	0xbe24536c	-0.16047448
219	0xbda24553	-0.07923379
220	0xbe66dbb2	-0.22544745
221	0x3db1ca6d	0.08681188
222	0x3d83362c	0.06406817
223	0xbbec8100	-0.0072175264
224	0xbecb933a	-0.39760762
225	0x3e7b4ab4	0.24540216
226	0xbe8360b4	-0.25659716
227	0x3e740d0c	0.23833102
228	0x3ec83376	0.39101762
229	0xbdb7c535	-0.08973161
230	0x3e0557c2	0.13021758
231	0x3e7b87e2	0.24563554
232	0x3e40ea54	0.18839389
233	0x3cb51bf8	0.022108063
234	0x3e0b9ab5	0.13633235
235	0xbd0a63a4	-0.03378643
236	0x3dc9e700	0.09858513
237	0x3ed2d211	0.41175893
238	0x3dc0587d	0.09391878
239	0xbd04a0a7	-0.032379773
240	0xbe2cfca3	-0.16893248
241	0x3ec42d11	0.38315633
242	0xbde2db7b	-0.11077019
243	0x3ea71eff	0.32640836
244	0x3dc0f082	0.09420873
245	0x3f122ccb	0.570996
246	0x3de84c10	0.11342633
247	0x3e5cf335	0.21577151
248	0xbd8e47e9	-0.069473095
249	0x3d923ec7	0.0714088
250	0xbd0c9e27	-0.034330513
251	0x3d730aa9	0.05933634
252	0x3c07f839	0.008298927
253	0x3da29d4b	0.079401575
254	0xbe089115	-0.13336594
255	0x3e6e77a2	0.23287824

network.MLP.2.bias f4 [64]
0	0xbfb3d2bc	-1.4048686
1	0x3e51f5de	0.20503947
2	0x3eff9a25	0.4992229
3	0xbebf930d	-0.37416878
4	0x3e171341	0.14753439
5	0x3e9a5e1e	0.3014993
6	0x3a774c3c	0.0009433662
7	0xbdffcfb5	-0.12490789
8	0x3d338dd8	0.043836445
9	0xbd8d4491	-0.06897844
10	0x3b440c71	0.0029914642
11	0x3d969f4d	0.07354603
12	0xbe71b50e	-0.23604223
13	0x3dfa367a	0.12217422
14	0x3e006c7a	0.1254138
15	0xbe9eb1cc	-0.30995023
16	0x3e868d1a	0.26279527
17	0xbe2f6c26	-0.17131099
18	0x3cdaadbe	0.026694175
19	0x3e34056b	0.17580192
20	0xbd8d9db0	-0.06914842
21	0xbe28def8	-0.16491306
22	0xbe1695cd	-0.14705582
23	0xbe19c6fc	-0.15017313
24	0xbba95ab6	-0.0051682843
25	0xbe66ccf2	-0.22539118
26	0xbf695ea0	-0.9116001
27	0x3e963fe5	0.29345623
28	0xbd6d815f	-0.057984706
29	0xbc1c4086	-0.009536868
30	0x3d35de9c	0.04440175
31	0x3d9e07d1	0.077163346
32	0x3e550fa3	0.20806746
33	0xbd71fba7	-0.059077885
34	0x3e047287	0.12934314
35	0x3e26892d	0.16263266
36	0xbec35f3d	-0.381586
37	0x3dda7eb5	0.10668699
38	0xbd24d26e	-0.040239744
39	0x3c127f84	0.008941535
40	0xbd85f6bf	-0.06541204
41	0x3e48b864	0.1960159
42	0xbe71101e	-0.23541304
43	0x3d86f3e2	0.06589486
44	0x3dfc72ea	0.123266056
45	0xbf83751d	-1.0270115
46	0xbd1d95ef	-0.038473066
47	0xbe832aea	-0.25618678
48	0x3e2e161a	0.17000619
49	0x3d060c7b	0.032726746
50	0xbe7450b9	-0.23858918
51	0xbdc3a2ff	-0.095525734
52	0x3d2e3667	0.04253235
53	0xbe2c8481	-0.16847421
54	0x3ebd01eb	0.36915526
55	0xbe35b1bd	-0.17743583
56	0x3e589b53	0.21153001
57	0x3ff015fe	1.8756711
58	0x3c81c2c2	0.015839938
59	0xbe19cae0	-0.15018797
60	0x3ec6d071	0.38830903
61	0xbe015f79	-0.12634076
62	0xbe86dc8f	-0.26340148
63	0x3f66de45	0.90182906

network.MLP.3.weight f4 [64]
0	0x3efda4e6	0.4953987
1	0x3f759e88	0.95945024
2	0x3f4092a7	0.75223774
3	0x3f71b649	0.9441877
4	0x3f962f2c	1.1733146
5	0x3f227c55	0.63470966
6	0x3fa84344	1.3145528
7	0x3f8d69fd	1.104797
8	0x3f88bc97	1.0682553
9	0x3fc6afbf	1.5522383
10	0x3fb58222	1.4180338
11	0x3fcb25dc	1.5870929
12	0x3f80ae28	1.0053148
13	0x3f906f97	1.1284055
14	0x3f98bcd0	1.1932621
15	0x3f756198	0.9585204
16	0x3f503052	0.8132373
17	0x3f4e6b23	0.8063223
18	0x3f97e710	1.186739
19	0x3f871e08	1.055604
20	0x3fb37a05	1.4021612
21	0x3f7d8273	0.99027175
22	0x3fa53a39	1.2908393
23	0x3fcf2ff6	1.6186512
24	0x3fa5d3a3	1.2955211
25	0x3fdc1e45	1.7196738
26	0x3edeb251	0.4349542
27	0x3f7cb63e	0.9871558
28	0x3fa44397	1.2833127
29	0x3f509a67	0.814856
30	0x3fa021f2	1.2510359
31	0x3f91c845	1.1389242
32	0x3f29f49d	0.66388875
33	0x3f886282	1.0655062
34	0x3f66fd01	0.90229803
35	0x3f9fbd31	1.2479612
36	0x3f1a274e	0.60216224
37	0x3f96dd7f	1.1786345
38	0x3fa9e6b6	1.3273532
39	0x3f8fa3cd	1.1221863
40	0x3f725e75	0.9467538
41	0x3f21269c	0.6294954
42	0x3f41c19f	0.7568607
43	0x3f937a20	1.1521645
44	0x3f82949f	1.0201606
45	0x3ea72f8c	0.32653463
46	0x3f547167	0.8298554
47	0x3f2f4dfa	0.6847836
48	0x3fcb4ee0	1.5883446
49	0x3f4a7e87	0.79099315
50	0x3e87080a	0.2637332
51	0x3f8a5411	1.0806905
52	0x3f879f2c	1.059545
53	0x3fd4ebfa	1.6634514
54	0x3f48da70	0.7845831
55	0x3fcbfde6	1.5936859
56	0x3eee70a8	0.46570325
57	0x3f5b7cf7	0.85737556
58	0x3f99914b	1.1997465
59	0x3f44c6cf	0.7686586
60	0x3f3ff1eb	0.7497851
61	0x3fb01d20	1.3758888
62	0x3fb077dd	1.3786579
63	0x3f1b960e	0.6077584

network.MLP.3.bias f4 [64]
0	0x3ef3b50a	0.4759906
1	0x3bfc304b	0.0076961867
2	0xbd838fd9	-0.06423921
3	0x3dfeefb4	0.124480635
4	0x3d43dff1	0.04782099
5	0xbc2a1d2f	-0.0103829345
6	0x3db6b2d6	0.08920829
7	0x3d4fcab1	0.05073041
8	0x3e57161a	0.21004525
9	0x3d41c46e	0.04730647
10	0x3d972187	0.07379442
11	0xbcb173eb	-0.02166172
12	0x3ea11b5e	0.31466192
13	0xbd25a3e2	-0.040439494
14	0xbbe607fa	-0.007019994
15	0x3e56ff72	0.20995882
16	0x3d874ce9	0.06606466
17	0x3e9b22a8	0.30299878
18	0x3d955a30	0.072925925
19	0xbd8e6f7d	-0.069548585
20	0x3dfec0d0	0.1243912
21	0x3e819bda	0.25314218
22	0x3e8946c6	0.26811808
23	0x3ca18de1	0.019720973
24	0x3db20887	0.08693033
25	0xbc145431	-0.009053276
26	0x3ef21f89	0.47289684
27	0xbd4b89cc	-0.04969196
28	0x3d18ff6d	0.037352968
29	0x3dee9924	0.11650303
30	0xbcf58f4d	-0.029975558
31	0x3d0c6939	0.034280036
32	0xbdc0bdf5	-0.094112314
33	0x3e13dc37	0.14439474
34	0xbda9c864	-0.082901746
35	0x3ad74f9e	0.0016426926
36	0x3ea65419	0.32486036
37	0x3e07d8f0	0.13266349
38	0xbd85da55	-0.06535784
39	0x3e1d3f69	0.1535622
40	0x3e12fd74	0.14354497
41	0xbc5b18a6	-0.013372576
42	0x3e18ce44	0.14922434
43	0x3e2c4237	0.16822134
44	0xbcdb459c	-0.02676659
45	0x3efc443c	0.4927081
46	0x3e005ccf	0.12535404
47	0x3e231cf7	0.15929018
48	0xbd2163b9	-0.039401744
49	0xbd8414d8	-0.06449288
50	0x3e59f545	0.21284969
51	0x3e5d692d	0.21622153
52	0x3d5bb67a	0.05364082
53	0x3d37615e	0.04477059
54	0xbc54ea29	-0.012995281
55	0x3dce00b1	0.100587256
56	0x3cceec34	0.025259115
57	0xbdc57b06	-0.096426055
58	0x3cfd1737	0.030894859
59	0x3e89e766	0.26934355
60	0xbc51879e	-0.012788681
61	0x3c27e078	0.010246389
62	0x3d80427c	0.06262681
63	0x3d16ced3	0.036818337

critic.0.weight f4 [1, 64]
0	0xbe4a7740	-0.19772053
1	0x3db7384f	0.08946287
2	0x3dd4581a	0.103683665
3	0x3c879ca8	0.016554192
4	0x3d9329d3	0.07185712
5	0x3e121210	0.14264703
6	0x3c590eb3	0.0132481335
7	0x3c489b7b	0.012244101
8	0x3daebef9	0.08532519
9	0x3cb14193	0.021637714
10	0x3cad598d	0.021160865
11	0x3d521533	0.05128975
12	0x3d4f4cc4	0.05061032
13	0x3dcfe657	0.10151356
14	0x3dd1cf62	0.10244633
15	0x3d4dd8bb	0.05025552
16	0x3e928844	0.28619587
17	0x3d53507b	0.051590424
18	0x3dc07d7c	0.09398934
19	0x3ce339fb	0.027737608
20	0x3d5e45cf	0.054265793
21	0x3c40b71c	0.011762407
22	0x3d238a64	0.0399269
23	0x3c1917d7	0.009344063
24	0x3cfceeeb	0.030875644
25	0x3bb28937	0.005448486
26	0x3d697a09	0.057001147
27	0x3da322ae	0.07965599
28	0x3db420d9	0.08795328
29	0x3d38b0ee	0.04509061
30	0x3d65b28a	0.05607847
31	0x3d7381f8	0.05945012
32	0x3dd2a3b0	0.10285127
33	0x3cd2b2f4	0.025720097
34	0x3d68e74b	0.056861203
35	0x3ddc939b	0.10770341
36	0x3cd1806c	0.025573932
37	0x3da0b7cd	0.07847557
38	0xbbd623cb	-0.0065350286
39	0x3dbd7b8a	0.09252079
40	0x3c3db10e	0.011577858
41	0x3d9fedca	0.078090265
42	0x3cde0a76	0.027104598
43	0x3ce5f11c	0.028069071
44	0x3d748a59	0.05970225
45	0xbc895aa0	-0.016766846
46	0x3dd48a4f	0.10377943
47	0x3bb676e5	0.0055683726
48	0x3d4ee875	0.050514657
49	0x3dce64bf	0.100778095
50	0x3db12490	0.08649552
51	0x3d011a6c	0.03151934
52	0x3d945a74	0.07243815
53	0x3d4b7fad	0.049682308
54	0x3d836530	0.06415784
55	0x3d58be00	0.052915573
56	0x3daec997	0.08534544
57	0x3e900498	0.28128505
58	0x3cd175bb	0.025568834
59	0x3d2f1401	0.042743687
60	0x3e2c23ee	0.16810581
61	0x3bc0bc41	0.0058818166
62	0x3d0a5323	0.03377069
63	0x3e093e6d	0.1340272

actor.0.weight f4 [22, 64]
0	0x3cc35c35	0.023847679
1	0xbda2da1c	-0.07951757
2	0xbe879f97	-0.26488945
3	0xbeb73853	-0.3578516
4	0x3ea5f908	0.32416558
5	0x3de9c5c7	0.11414676
6	0xbe20cd10	-0.15703225
7	0x3eb71174	0.35755503
8	0xbdfc1d77	-0.123103075
9	0x3e4fc172	0.20288637
10	0x3e73c5ca	0.2380592
11	0x3e645aa0	0.22300196
12	0xbe58aa12	-0.21158627
13	0x3cb7d725	0.022441456
14	0x3e7579ab	0.23972194
15	0x3cae02a5	0.021241495
16	0xbd5ba1ad	-0.053620983
17	0x3e807088	0.25085855
18	0x3d055535	0.032551963
19	0x3e71b2d2	0.23603371
20	0xbc7c979f	-0.015417009
21	0x3e917f46	0.28417414
22	0xbe99e8bf	-0.30060384
23	0x3ef12480	0.4709816
24	0xbebc73ce	-0.36807102
25	0xbea88e8d	-0.32921258
26	0x3df29571	0.1184491
27	0xbdde02fc	-0.10840413
28	0xbdd3a7a9	-0.10334713
29	0xbe232592	-0.159323
30	0xbe3a0563	-0.18166117
31	0x3db62a9a	0.08894844
32	0xbcd50298	-0.026002213
33	0xbe5a426b	-0.21314399
34	0x3ddfacaf	0.10921609
35	0xbedfb666	-0.43693846
36	0x3e9fc0b8	0.3120172
37	0x3e207e28	0.15673125
38	0xbcc73e0b	-0.024321577
39	0x3dfbe825	0.123001374
40	0xbf0c2698	-0.5474639
41	0xbb93417a	-0.0044938894
42	0x3de438f9	0.11143679
43	0x3ebf48f2	0.3736034
44	0xbe40aecb	-0.18816678
45	0xbd829403	-0.06375887
46	0xbd9e0478	-0.07715696
47	0xbc478148	-0.012176819
48	0x3ec1b796	0.37835377
49	0x3e8aae99	0.27086332
50	0x3ea956e1	0.33074096
51	0x3e8f0670	0.279346
52	0xb89791f6	-7.2274284e-05
53	0x3ccb211c	0.024796061
54	0x3b080647	0.0020755695
55	0xbf418a55	-0.756017
56	0x3e023404	0.12715155
57	0xbd311577	-0.04323336
58	0x39d4f2b2	0.00040616613
59	0x3e7087ff	0.23489378
60	0xbd68881d	-0.056770433
61	0xbf1822d5	-0.5942815
62	0xbf01384e	-0.5047654
63	0xbe0f9051	-0.14019896
64	0x3db2f0bd	0.087373234
65	0x3e7880ad	0.24267836
66	0x3dd975c9	0.10618169
67	0x3de35c6e	0.11101614
68	0x3d7e8a10	0.062143385
69	0x3d6ca063	0.057770144
70	0x3e595aab	0.21225993
71	0x3e878a7f	0.26472852
72	0xbe19009a	-0.14941636
73	0xbe520558	-0.20509851
74	0x3dacd7b5	0.0843958
75	0xbdef00d7	-0.11670082
76	0x3dbc7751	0.09202445
77	0xbe85f9c5	-0.26167122
78	0xbeddd0ab	-0.43323264
79	0xbe2f2cd9	-0.17106952
80	0xbdbb8444	-0.09156087
81	0xbdb028b4	-0.086015135
82	0x3ef3d096	0.47620076
83	0xbd437cd6	-0.047726475
84	0x3ce6635c	0.02812355
85	0xbe38280d	-0.17984028
86	0xbd89ea07	-0.0673409
87	0xbce4819c	-0.027893834
88	0xbecda448	-0.401644
89	0xbe5efe40	-0.21776676
90	0xbc682584	-0.014169101
91	0x3efafb58	0.49019885
92	0x3f0ca8ca	0.5494505
93	0xbf00aa81	-0.5026017
94	0x3eb1dc1c	0.34738243
95	0xbdcc41fc	-0.09973523
96	0x3e11e5ad	0.1424777
97	0x3e03a009	0.12854017
98	0x3effed90	0.49985933
99	0x3a501d3b	0.0007938926
100	0x3ecbf531	0.39835504
101	0x3e92c37d	0.2866477
102	0x3e052d31	0.1300552
103	0xbe24da52	-0.16098908
104	0xbd600cd0	-0.05469972
105	0xbda0d802	-0.078537
106	0xbe980977	-0.2969472
107	0xbdb517d1	-0.08842433
108	0x3f0f1936	0.55897844
109	0xbd0cd555	-0.034383137
110	0xbddf4e5a	-0.10903616
111	0x3d6b3471	0.05742306
112	0x3dd6651d	0.104685046
113	0x3d8034ee	0.062600955
114	0xbdce8c5c	-0.10085365
115	0x3ea03105	0.312874
116	0xbeec9040	-0.46203804
117	0xbed407e7	-0.4141228
118	0xbccb16df	-0.02479118
119	0x3db4646a	0.08808215
120	0xbd2e6cbb	-0.042584162
121	0xbd66e455	-0.0563701
122	0x3d707e32	0.0587141
123	0xbd0d57bf	-0.03450751
124	0xbc7d4842	-0.015459122
125	0xbe6e2114	-0.23254806
126	0x3cf207fe	0.029544827
127	0xbe2f9ffd	-0.17150874
128	0x3d236767	0.039893534
129	0xbd90afe4	-0.070647985
130	0x3e93a4b9	0.2883661
131	0x3e121d93	0.14269094
132	0x3ed3b7d0	0.41351175
133	0x3c07d28a	0.0082899425
134	0x3f154fa2	0.58324635
135	0xbe70d4ff	-0.23518752
136	0xbd5e83ce	-0.054324917
137	0xbe7ba8d0	-0.24576116
138	0x3db0e1d3	0.086368226
139	0x3f23ee2f	0.64035314
140	0x3da803ba	0.08203836
141	0xbe99359f	-0.29923722
142	0xbc57fb02	-0.0131824035
143	0xbe212fd2	-0.15740898
144	0xbcdf6db1	-0.027273985
145	0x3da85c5e	0.08220743
146	0x3ef4cd8c	0.4781307
147	0x3c9f02a9	0.019410448
148	0x3e9d6cd5	0.30747095
149	0xbe99f39c	-0.30068672
150	0xbdbc46e4	-0.09193209
151	0x3e8cf4ab	0.27530417
152	0xbe6b1335	-0.22956546
153	0xbc6543b4	-0.013993192
154	0xbda58148	-0.08081299
155	0x3d952fee	0.072845325
156	0x3ec88398	0.39162898
157	0xbe8c79ce	-0.2743668
158	0xbc9bbf00	-0.019011974
159	0xbe38c4de	-0.18043849
160	0x3e58e46b	0.21180885
161	0xbe8e7075	-0.27820173
162	0xbc100d95	-0.008792301
163	0xbeccb14e	-0.39979023
164	0x3bc0d970	0.0058852956
165	0x3e0fa77e	0.14028737
166	0xbdc3319b	-0.09530946
167	0xbe4db892	-0.20089939
168	0x3e8806d2	0.26567703
169	0x3d7ffef0	0.062498987
170	0xbec82abc	-0.39095104
171	0x3e33f5be	0.17574212
172	0x3e4edc94	0.20201331
173	0xbe2e2c97	-0.17009197
174	0xbe0876bf	-0.13326548
175	0xbe8b88b6	-0.2725274
176	0xbe8427a7	-0.25811502
177	0xbe442588	-0.19154942
178	0xbdc780e3	-0.0974138
179	0x3da1a585	0.078928985
180	0xbe626a27	-0.22110806
181	0x3e91539b	0.28384098
182	0x3d3a32e6	0.045458697
183	0xbeb34ceb	-0.3501962
184	0xbd127230	-0.03575343
185	0xbd337c9e	-0.043820016
186	0x3f03aecf	0.5143861
187	0xbe9655e3	-0.293624
188	0x3a0a5d68	0.0005278201
189	0xbe005cb5	-0.12535365
190	0xbc64d520	-0.013966829
191	0xbddca266	-0.107731625
192	0xbc7e0eca	-0.015506456
193	0x3e468d18	0.1938976
194	0x3e864675	0.2622563
195	0x3ae0e40b	0.0017157806
196	0xbecfd51a	-0.4059227
197	0x3d8fdb09	0.070241995
198	0xbeba30f1	-0.36365464
199	0x3dc8329d	0.09775279
200	0xbd1aa7e4	-0.03775777
201	0xbe751392	-0.23933247
202	0x3e42cb87	0.19022952
203	0xbe25ce91	-0.1619208
204	0x3ec5bff6	0.38623017
205	0x3e74394b	0.2384998
206	0xbd7b3f8c	-0.0613399
207	0xbe01bb5e	-0.12669131
208	0x3cd72b65	0.02626581
209	0xbe62cede	-0.22149226
210	0x3e6ecaa2	0.23319486
211	0x3f26cfaa	0.6516062
212	0x3c1ba38b	0.009499441
213	0x3dc25b85	0.09490112
214	0xbeb9172b	-0.36150488
215	0xbf160a67	-0.5860962
216	0xb9caf4d2	-0.00038710848
217	0xbccd94c4	-0.025095351
218	0xbe32b942	-0.17453483
219	0xbd8c72a2	-0.06857802
220	0xbf22a562	-0.63533604
221	0x3d91577a	0.07096763
222	0xbf1838fc	-0.5946195
223	0x3e31b166	0.17352828
224	0x3db9b873	0.09068384
225	0xbdf168e1	-0.11787582
226	0xbe41db9e	-0.18931434
227	0x3e196c53	0.14982729
228	0xbc8ad816	-0.01694874
229	0x3f0a1ad8	0.5394721
230	0x3eab10e7	0.33411333
231	0xbd8c2617	-0.068432026
232	0x3d06c141	0.032899145
233	0x3e402273	0.18763141
234	0xbe885c51	-0.26632932
235	0x3f199b26	0.6000236
236	0xbd6b34fb	-0.057423573
237	0x3defa4d9	0.11701364
238	0xbe56bfd7	-0.20971619
239	0xbf02b369	-0.5105501
240	0x3f3945d0	0.7237215
241	0x3c56aab0	0.0131022185
242	0x3e14382b	0.14474551
243	0x3d2e0cea	0.042492785
244	0x3e3c6294	0.1839698
245	0xbcaee797	-0.021350665
246	0x3d932c9c	0.07186243
247	0xbe7ec766	-0.24880752
248	0xbc770567	-0.015076972
249	0xbd077e7e	-0.033079617
250	0xbcdf2365	-0.027238557
251	0x3dabcc76	0.08388607
252	0x3d7c1a02	0.06154824
253	0xbcfcd2b7	-0.030862195
254	0x3e88abca	0.26693565
255	0x3dcac62b	0.09901079

actor.0.bias f4 [22]
0	0xbc5d601b	-0.013511683
1	0x3b9d8b47	0.004807863
2	0xbd8d9f6e	-0.069151744
3	0xbc5d1ce7	-0.01349566
4	0x3c96cebc	0.018409126
5	0x3c92bef1	0.017913314
6	0x3c963505	0.018335829
7	0xbd059737	-0.032614913
8	0x3da03e3b	0.078243695
9	0xbca57f82	-0.020202402
10	0x3d386de8	0.04502669
11	0x3d19d2e0	0.03755462
12	0x3cec2052	0.028824005
13	0xbd0225b5	-0.03177424
14	0xbcf60517	-0.030031724
15	0xbc48def2	-0.012260186
16	0x3d93eca8	0.07222873
17	0x3d119dbd	0.03555082
18	0x3c4a11d9	0.012333357
19	0xbd52eb84	-0.051494136
20	0xbc499d24	-0.012305532
21	0x3c753523	0.014966282
