paper/training_results/seed-7/momarl/checkpoints/mlp_(negotiation=False)_(num_agents=12)_(window=False)_(reduced_space=False)_(fixed_savings_rate=False)_(rewards=['inverse_global_temperature', 'global_economic_output'])(wgen=uniform)(num_ensembles=1)(seed=7)_2025-01-16_22:46:27_w=[0.4627 0.5373].pt (torch, 38168 bytes, 9 tensors)

network.MLP.0.weight f4 [64, 18]
00000000: 162b a0bd 581f 29bf 65a0 9fbd aa90 adbe
00000010: 286e f13e fc86 a93e eeaf 033e 8605 803e
00000020: ec48 21be 5071 a83e c961 c53e f224 153c
00000030: d9a5 5a3e 7dd9 233d 639c 443e 9658 993e
00000040: efdf b03c 3de9 0a3e a28c 32bd 661c 0ebd
00000050: e015 043d 1dd6 3fbf a90d 16be b042 0ebe
00000060: f19f 89bd 46cf 463e fff9 46bf a721 0b3e
00000070: 391d f63d b248 913e ddad 53be 9bba a63e
00000080: 8880 1a3f 5ae8 2dbf 1045 aa3e 0910 2ebe
00000090: 9b06 653d 11dc a4be 326c 803d 170e 78be
000000a0: b81d 88be a91c eebe 4579 05bf 2f4c b7be
000000b0: fcbd 863e 78b8 b3bd 9a88 a2bc 2672 08bf
000000c0: cac5 fcbe 8134 ad3e d03b 86bf a710 59be
000000d0: 651d a13e 8222 8ebd 07be 3fbd 7dae 583e
000000e0: 8377 33be f6b7 8f3d 7e74 f2bd a728 f83d
000000f0: f24a 5a3e 51a2 193e 0298 3abe aa4a 1c3e
00000100: 7e3d 0dbe 6361 1fbd 211c ccbd bc47 24be
00000110: b677 6fbe 3b93 073e 30bb 6bbe 7663 a43b
00000120: 3496 99bc 572f 773d 4b2a 45be 51f6 2dbe
00000130: dab3 063e 2e84 47be 1f6c 203e bd7f a8bd
00000140: 47f4 bd3d 0288 273e a030 2dbe 8c70 e53d
00000150: c99d 17be 5190 b93c a8e0 d23d 6ea6 62be
00000160: 542f 03be 1a0f 28be c9da 13be deb3 d03c
00000170: 59dd 7abd d00e 1f3e b1fe abbc 75ca 2b3e
00000180: a838 b43d f9ff 3a3e 18f4 273e a514 d8bd
00000190: f446 8a3c 2d11 3fbd 2de3 3cbe 0e0b 2e3d
000001a0: ffc3 6c3d 3686 1dbe de3c c63b 599e d4bd
000001b0: 0842 413d 8800 1dbe a81b f93b 507e e9bd
000001c0: 4f31 74be 4db1 123f 773e 7f3e 302f 5bbe
000001d0: b712 9bbd 40a0 e8bc 8c63 c5bd dd80 1a3e
000001e0: c2b8 14bd 4bad 4c3c 4e57 ebbe 150e 973d
000001f0: 5cc1 053e 5c02 37be 3d22 7ebd 136b a53e
00000200: 152f 53bd a562 72bf cd34 323f 1fe3 fcbb
00000210: 924f 0ebe 6dfa 603e ff39 dabe 9512 2e3d
00000220: 9e2e 983e c6ed b03e d546 4cbe 1016 6d3e
00000230: b13b 643e 5597 c53d 2a1a 913e ab25 a13e
00000240: 8020 a5be f93b 88be 0a90 3d3c 19ad 39bf
00000250: 21ab 663e 6fa8 3dbf 8b66 da3e be50 eb3e
00000260: 5769 d53d fded 9bbd 808a 3f3e d54e 353e
00000270: ab61 db3c cb0e c1bc 2c88 253e d588 093f
00000280: dd97 343e c671 873d 2c2e 56bf f462 073e
00000290: 666a d23d fc06 67c0 a0db ccbe 78aa edbe
000002a0: 8157 4a3e 0157 19bd 7be6 323e c59e 8dbd
000002b0: e8d2 723d dc80 b33d 2629 52bd 9788 bdbd
000002c0: 2d28 08bd 5998 55bd 6510 ac3d 355c a1bd
000002d0: f180 85bc b9d0 06be ef29 8a3c d31d febe
000002e0: 4a38 e7be 7f81 2c3e 0053 26be 268f 0e3f
000002f0: 77ab 15bf b547 eb3e cd8e 5bbf dae0 a13e
00000300: 951a 5abe ac1d 8dbf c704 e5be 1bd7 82be
00000310: 1659 2d3d f25c da3d b4ed ff3d 053d 113d
00000320: eb2e 25be c171 6c3d e6e0 e6be d414 e13e
00000330: 306b 9fbd b992 9f3e e499 d8bd f3a4 073e
00000340: 3f98 cbbc c2ff a23d ac96 9fbe 3304 933d
00000350: 41c3 1b3e 22f3 1bbe dd3b 79bd 315d f53d
00000360: 4376 9ebe ae8a e03c 429c 9b3d 6e29 8cbf
00000370: 06d4 a23c 0719 c13e 25fb 9a3c f1e7 513d
00000380: 0f23 8c3e 214f ec3d 4e0f f1bd 448c 143e
00000390: 3036 8abd da18 40be fb63 0e3d afff df3c
000003a0: e7b6 333d c1a0 d5bd bb1b 92bd d124 b83e
000003b0: d282 923d 2457 fabe 5365 183f 02ca 32be
000003c0: 9d93 4fbf aa97 07bf 3862 abbe cca5 83bf
000003d0: b1fc 0dbe 2225 13bc 0a68 a33d 502b 803e
000003e0: e5db b83d 374a 323d 6408 1a3f 379c 9fbe
000003f0: b071 443d 73a9 ccbe c19e 8abd 4467 f73c
-0.07820718 -0.6606345 -0.07794265 -0.33899432 0.47154355 0.33110797 0.1286008 0.25004214
-0.15750474 0.3289895 0.38551167 0.009103047 0.21352328 0.040002335 0.19200282 0.29950398
0.021591155 0.13565536 -0.04359115 -0.03469505 0.032247424 -0.74936086 -0.14653648 -0.13892627
-0.067199595 0.19415006 -0.77725214 0.13587056 0.120172925 0.28375775 -0.20671792 0.32564244
0.60352373 -0.67932665 0.33255816 -0.16998304 0.055914503 -0.32199147 0.062706366 -0.24224125
-0.26585174 -0.4650624 -0.5213817 -0.3580031 0.26316822 -0.08775419 -0.019840527 -0.53299177
-0.4936965 0.3382912 -1.0487003 -0.21197759 0.3146774 -0.069401756 -0.046812084 0.21160312
-0.17526059 0.0701751 -0.11838625 0.12117129 0.21317652 0.15003325 -0.18222049 0.15262857
-0.13792989 -0.038911235 -0.09966303 -0.1604299 -0.2338551 0.13239758 -0.23020625 0.0050167395
-0.01874838 0.06034788 -0.19254415 -0.16988494 0.13154545 -0.19484016 0.15666245 -0.08227489
0.09275108 0.16360477 -0.1691308 0.11203107 -0.14806284 0.022651823 0.10296756 -0.221338
-0.12811023 -0.16412011 -0.14438929 0.025476392 -0.06124625 0.15532994 -0.02099547 0.1677645
0.08799869 0.18261708 0.16401708 -0.10550813 0.016879536 -0.04664724 -0.18446036 0.04249101
0.057804104 -0.15383229 0.0060497364 -0.10381765 0.047182113 -0.15332234 0.007602174 -0.11401045
-0.23846935 0.5730179 0.24926172 -0.2140472 -0.07571929 -0.028396726 -0.09638128 0.1508822
-0.03630901 0.012492488 -0.45965046 0.07375733 0.13062042 -0.17871994 -0.06204437 0.32308254
-0.051558573 -0.9468177 0.6961182 -0.0077175046 -0.13897541 0.2197053 -0.42622373 0.04249819
0.29723066 0.34556407 -0.19948895 0.23152947 0.22288395 0.09648005 0.28340274 0.3147405
-0.32251358 -0.26608256 0.011569986 -0.7252975 0.22526218 -0.74085134 0.4265636 0.4596004
0.104204826 -0.07613752 0.18705177 0.17705853 0.02677997 -0.023566624 0.16165227 0.53724414
0.17636056 0.066134974 -0.836642 0.13221341 0.102742 -3.6098013 -0.4001131 -0.4641912
0.19759943 -0.03743649 0.17470734 -0.069150485 0.059283167 0.08764812 -0.051308773 -0.09254568
-0.03324144 -0.052147243 0.084015645 -0.07878915 -0.016296836 -0.13165559 0.016865699 -0.4963213
-0.45160133 0.16846274 -0.162426 0.5568718 -0.5846476 0.45953146 -0.8576477 0.3161686
-0.21299203 -1.102468 -0.44730207 -0.25554737 0.042321287 0.10662259 0.1249651 0.035458583
-0.16131179 0.05772567 -0.4509346 0.43961203 -0.07784116 0.31166628 -0.10576227 0.13246517
-0.02485287 0.07958938 -0.3116964 0.07178535 0.15211202 -0.15229467 -0.060848106 0.119806655
-0.30949602 0.027409878 0.07598163 -1.0950143 0.019876491 0.37714407 0.018918583 0.051246587
0.27370498 0.1153853 -0.11770497 0.14506632 -0.06748617 -0.1875948 0.034763318 0.0273436
0.0438756 -0.10431052 -0.071341954 0.3596559 0.07153858 -0.48894608 0.5952961 -0.17459872
-0.81084615 -0.52965796 -0.33473372 -1.0284972 -0.13865925 -0.008981021 0.07978828 0.25033045
0.090263166 0.043527808 0.60169053 -0.3117387 0.047959983 -0.3997303 -0.06768561 0.030200608

network.MLP.0.bias f4 [64]
00000000: b3c0 043e 8db0 6d3d 3b12 c23d 9e6e 07be
00000010: 8213 0cbe 4863 73bd 847a a3be dc71 083d
00000020: cc6f 873e 71e0 633e a301 7fbe 727e 5dbe
00000030: 0745 25bc 3614 b0be 2407 fbbd 63f1 073e
00000040: 821a 0a3e b468 903e 87bd 013f 8185 36bb
00000050: f99e 9a3e d45d cb3e d6c5 54be 0a90 9ebd
00000060: 34c4 8b3e 70be 50bf 475e 193e 1cb0 d1be
00000070: c595 15bf 9240 94bf f368 833d 4c7a a13d
00000080: 7e9d f83e 8ee1 6c3e 5b58 f43e d20b 0e3e
00000090: b841 b3be ebf3 273e e884 7abf 54dc 80bd
000000a0: df2d 843e 7e18 893d 5fd3 9d3e a88c b3ba
000000b0: 93c0 65be 439d ad3d d129 db3c a0ff 81be
000000c0: d976 f0bd 2eeb 64bf 7369 bab9 f1d0 1f3f
000000d0: 5150 95bc 627c ddbe 2469 10bf 6de8 38be
000000e0: 524c 8bbf b54e a03b 4977 fdbe afeb 9f3e
000000f0: 9309 8a3f 7fb2 afbe 15c3 10be d140 443e
0.12964134 0.0580297 0.094761334 -0.13225791 -0.13679317 -0.059420854 -0.3192941 0.03331171
0.26452482 0.22253586 -0.24902968 -0.21630266 -0.010087258 -0.3439042 -0.12257221 0.13275675
0.13486674 0.28204882 0.5067982 -0.002785057 0.30199412 0.39720023 -0.20778593 -0.07742317
0.2729813 -0.81540585 0.1497737 -0.40954673 -0.58431655 -1.1582205 0.06416502 0.078846544
0.48557657 0.23132917 0.4772366 0.13871697 -0.35011077 0.16401641 -0.9785905 -0.06292024
0.25816247 0.06694125 0.30825326 -0.0013698535 -0.22436742 0.08477261 0.026753338 -0.2539034
-0.117414184 -0.89421356 -0.0003555525 0.62428194 -0.018226774 -0.4325896 -0.5641043 -0.18057413
-1.0882666 0.004892195 -0.4950507 0.312345 1.0784172 -0.3431587 -0.14136918 0.1916535

network.MLP.2.weight f4 [64, 64]
00000000: 59a1 e63d 4547 823d 278a 923e b6d7 ff3d
00000010: 6010 493d 6bc9 54bd 70ac 4cbe 0160 98bc
00000020: f8ba 1dbe 4e32 6ebd 8c6e 043f f269 5bbc
00000030: fdec 48be a836 15be 9d2d 1bbe e9c3 c23d
00000040: 6336 a33e f1a4 5fbe 9f80 8bbc 5221 b9bd
00000050: 81ba 933d fe90 ab3e 542e 0b3e 085c 65bd
00000060: 8c6a b3bd 6297 a33d 970e 903d 3658 d2bc
00000070: 2761 00bf 8c60 ce3e b3a3 c63d dbb0 94be
00000080: fb9f 82bd 7d2c 3abe d0dd 13be 4278 84b9
00000090: 5cfb b4bd ee52 a23e c24e 37bd 63d8 66be
000000a0: 8086 8fbd 9671 90bd 7d9b 3f3e 6caa c6bd
000000b0: 6e6c b03d c976 f0bd 29a9 2dbe 892c e1bb
000000c0: 60c5 f6bd 52cc 103e 0701 50bc 2a65 33bc
000000d0: 6e01 1dbf feba 943f f07f b63e 3e82 05be
000000e0: 959d c73e 68c4 473d c7f8 2bbd 2e45 a43d
000000f0: 6adf 0dbf 0ca5 5abc 54c3 26bd 5d93 e5bc
00000100: 2324 28bd 4d04 233d bae9 f73d e890 20bd
00000110: 0c29 5dbd 11a6 debd 57f8 9e3d 08f9 153d
00000120: d7ad 08be 5d94 163e 4ab6 a83e 6ffb 05bd
00000130: b4a8 bc3d 81f6 543c 6254 0a3d a529 d33b
00000140: 76c3 d7bc e6c6 e73d 049d c03e dca0 933d
00000150: 6fbc c4bd 685c b7be fdec a73d 4ecf f13d
00000160: bef6 0cbe 5f65 e13d 054c 833c c32c f1bc
00000170: a47d 05bf a829 a6be 7be2 a53c 9255 fe3d
00000180: d9a7 34bb 7cb7 febd 01c8 a53d 878b 67bd
00000190: 74a2 c63d 2139 ffbd 03ca 3fbd 8895 4cbd
000001a0: 8162 d7bd 0e96 3c3a f465 193c 988e 25bd
000001b0: ead1 9fbd 2ad4 8cbd a45d ce3c 0233 ad3d
000001c0: a8a1 b23c 3dba 19be a6f4 c63d 0a59 e3bd
000001d0: df95 acbd ddf5 4bbf a63b f0bd 2d37 dcbb
000001e0: 0d93 06be 7485 18be 067b 193e 3562 22bc
000001f0: 4452 8bbd 6439 34bd ae90 9ebd 2039 bc3e
00000200: ae78 303e fa17 a23e 95d5 a73e 3207 f0bd
00000210: 6af6 e13d d068 8c3c 4757 3ebe cbc6 1d3d
00000220: 48a8 883d c64e dcbe bf06 30bd a0a8 883e
00000230: 4e71 13be 0159 833e c52a 2a3e 4e8e ff3d
00000240: 6ed7 a33e 47da a7be ae8a 83bd 7db7 bebd
00000250: ff0c 67ba 31e4 6d3e 3d6b 933e 00d4 87bd
00000260: e126 8a3d 1505 f93d 996a d33c a9ff d7bd
00000270: 149f 64bd f0d2 e23d 8d3c 0abe ab47 0cbd
00000280: 8549 d03d 785e b5be 3be6 b8bd 7e47 35bd
00000290: 2ac4 01bd 4890 203d 623e 8a3e 3e38 9a3e
000002a0: 7430 2abd 033c 7c3d 8db3 203e 992c ae3c
000002b0: 1063 353c 7d58 d2bd c9d3 0abe 9fd1 dd3c
000002c0: 40b5 e0bc 08de 90bd 8ac3 773c adef a03e
000002d0: 924e 06be 67a4 263e 63d4 293d 862d aebd
000002e0: bd6a 943e 8cb5 663d db6f 43be 00a3 1e3c
000002f0: 863f 0fbe 2942 e7bd 1896 273d 00aa 55bc
00000300: 64eb 213e 6df5 e23c 079e b3be 58f0 ebbc
00000310: 5c7e 1b3d e64a 413d 4edf 54bd 8dc1 003e
00000320: 0b34 7c3e b80d d93e 6bd0 85be 9699 45bd
00000330: 8582 f5bd c6ea 863e 488c aabd ffd9 c83d
00000340: 0f12 10bd e154 8cbd 0d4a 043e 9284 99bd
00000350: 9639 b63d b30e 9c3c b1d2 93be 8096 f23a
00000360: cf62 333e 7ffc 18be f328 b53d b6ef 6a3e
00000370: 1392 ae3e 844d 1a3e 3478 47be 8c45 d4bd
00000380: 5591 f3bd fc5d 8f3c 3aa2 1ebd 7bb8 843d
00000390: dc1c 9abd aeed 263c 6123 9fbd 4204 873e
000003a0: d4d4 f33d 7d91 18bd 0610 9f3d c0ee 56bd
000003b0: 3c85 a03d afad 7cbe e01a e6bd e5f7 c0bd
000003c0: 9ae7 f43d eab6 283e a9e8 db3d 182e a43e
000003d0: 4537 163f 894e 3dbf 94e3 18be 8942 0d3e
000003e0: 276d 963e b17f 39be 57c9 513e 5411 303e
000003f0: dc51 02be 09fc ae3d aa82 9c3d d0c0 0dbe
0.112612434 0.0636125 0.28621027 0.124923155 0.049087882 -0.0519499 -0.19987655 -0.018600466
-0.15403354 -0.058153443 0.5173118 -0.013391959 -0.19621654 -0.14571631 -0.15154119 0.09510023
0.3187743 -0.21840264 -0.017029105 -0.090395585 0.07213307 0.33509058 0.13591892 -0.05599597
-0.087605566 0.07987858 0.07034033 -0.025676828 -0.5014824 0.40308034 0.09699192 -0.2904118
-0.0637817 -0.18181033 -0.14440084 -0.000252666 -0.088370055 0.31703895 -0.044752844 -0.22543482
-0.07008076 -0.07052915 0.18711658 -0.09700474 0.08614431 -0.117414065 -0.1695906 -0.006871764
-0.12049365 0.14140442 -0.012695557 -0.010949412 -0.61330307 1.1619565 0.35644484 -0.13037965
0.38987413 0.048771292 -0.0419853 0.080210075 -0.5541903 -0.013345014 -0.040713623 -0.02802437
-0.041050088 0.039799023 0.12105127 -0.039200693 -0.053994223 -0.108715184 0.07762211 0.036614448
-0.13347565 0.14705034 0.32951576 -0.03271049 0.09211865 0.012998224 0.03377188 0.0064441734
-0.02633832 0.11317234 0.37619793 0.07208416 -0.09606253 -0.35812688 0.08199499 0.11807118
-0.13766 0.11005663 0.01602746 -0.02944029 -0.5214484 -0.32453656 0.020249596 0.12418665
-0.0027565865 -0.124373406 0.08094788 -0.056529548 0.09698954 -0.12462068 -0.046823513 -0.04994729
-0.10516835 0.0007193991 0.009362686 -0.04041919 -0.0780371 -0.068764046 0.025191136 0.084569946
0.0218056 -0.1501245 0.09714632 -0.11100967 -0.08427023 -0.7967203 -0.11730127 -0.0067204447
-0.13142033 -0.14894658 0.14988336 -0.00991111 -0.068028 -0.044000044 -0.07742439 0.36762333
0.17233536 0.31658918 0.32780138 -0.117201224 0.11033328 0.017139822 -0.18587981 0.038519662
0.06672722 -0.4302885 -0.042975184 0.2669115 -0.14398691 0.25653842 0.16617878 0.12478314
0.32000297 -0.3278372 -0.064229354 -0.09312341 -0.0008813887 0.2323158 0.28792754 -0.06632233
0.06745697 0.121591724 0.025807666 -0.1054681 -0.05581577 0.110753894 -0.13499661 -0.034248035
0.10170273 -0.35423636 -0.09028288 -0.044257633 -0.031681217 0.039200097 0.2700072 0.30121034
-0.041550115 0.06158067 0.15693493 0.0212615 0.011070982 -0.10270784 -0.13557352 0.027077494
-0.027430177 -0.07073599 0.015122304 0.31432858 -0.1311591 0.16273652 0.041462313 -0.08504777
0.28987685 0.05632548 -0.19085638 0.009682417 -0.13989076 -0.11291916 0.040914625 -0.013041019
0.1581245 0.027704919 -0.35081503 -0.028801128 0.037962303 0.04719057 -0.051970772 0.12573834
0.24629228 0.4239328 -0.26135573 -0.048242174 -0.11987785 0.26350993 -0.08327538 0.098072045
-0.035173472 -0.06852127 0.12918873 -0.07495989 0.088977024 0.019049978 -0.28871682 0.0018507987
0.17518161 -0.1494007 0.08845701 0.22943005 0.3409582 0.15068632 -0.19479448 -0.103648275
-0.11892954 0.01750087 -0.03872893 0.06480499 -0.07525036 0.010188503 -0.0777042 0.26370436
0.11905828 -0.037248123 0.07766728 -0.052473783 0.078379124 -0.2467563 -0.11235595 -0.09422282
0.11958237 0.16476026 0.10737736 0.32066417 0.58678085 -0.7394796 -0.14930564 0.13794912
0.29380152 -0.18115117 0.20486961 0.1719411 -0.1272654 0.08544166 0.0764211 -0.13843083

network.MLP.2.bias f4 [64]
00000000: a13e 063e 634b 2f3d 248e 363e 4bf0 0abe
00000010: f734 d5bc 140f f739 4eb4 83bd 5135 193f
00000020: 9b93 5a3e 3efa 94be 4ada b0be 14cb 63bd
00000030: 04a8 b139 e0a1 37be 2d0b d1bd 1dcc 393e
00000040: 5960 8dbd 8f19 df3c a838 473e 31d0 a8bc
00000050: dc8a 8f3e f6dc 8dbf 2271 b13e c923 8a3e
00000060: b7e1 4abe 47ef bcbe 862e c53e a8ec a83a
00000070: 6ffb 0dbe fa84 f8bd 13a3 99be 6811 d9be
00000080: 19c4 a6bc b7cb 39be 9ae0 053e 82cf d33d
00000090: 52dc a4bd a25b 733d 4057 923c f1ed c1bc
000000a0: ebfd 623e 08a1 973e a4fd a2be 72eb d9be
000000b0: fb2f 6a3c 5a03 d13e 501b 1abf 74c2 86be
000000c0: b7d7 773d 4fe1 83be c556 b1bd f0f8 153e
000000d0: 9554 fcbd 33fb 36be 3ecc 10bf f881 0d3f
000000e0: 89ec ea3d 7ab9 8a3d bc94 303d 4c3e 9cbe
000000f0: 3b25 253f 352b 3fbe c7bd 63be be71 953e
0.13109829 0.042796504 0.1782766 -0.13568227 -0.026026232 0.00047122745 -0.06430875 0.5984698
0.2134537 -0.2909717 -0.3454154 -0.055613592 0.00033885252 -0.17932844 -0.1020721 0.1814427
-0.069031425 0.027233867 0.19455206 -0.020607086 0.2803563 -1.1083057 0.34656626 0.26980427
-0.19812666 -0.36901304 0.38512057 0.0012887912 -0.13865446 -0.12134738 -0.30007228 -0.42396092
-0.020357179 -0.18144117 0.1307396 0.10342313 -0.08049835 0.05941356 0.01786387 -0.02367303
0.22167175 0.29615045 -0.31834137 -0.42562443 0.014293666 0.4082287 -0.60197926 -0.2632023
0.060508456 -0.25757834 -0.08659128 0.14645743 -0.1232082 -0.17869262 -0.5656165 0.5527644
0.11470897 0.06773658 0.043110594 -0.3051628 0.64509934 -0.18668826 -0.22240363 0.2918834

network.MLP.3.weight f4 [64]
00000000: cc5c 8a3f b944 673f 0277 dc3f 0c67 a43f
00000010: 9c8d e13f 92ab b33f 0c33 3d3f b322 4b3f
00000020: 4b97 403f 3f84 d23f 003c 803f 3f74 a03f
00000030: 9483 c83f d7d2 aa3f 8253 d93f 020f dc3f
00000040: 71d3 9f3f 228d b13f 0ef0 9f3f 786e c63f
00000050: 7d4c c33f 8a45 363f 8d2a d93f 884a 173f
00000060: c24b 9a3f 0536 ea3e a5b4 943f f9d8 d33f
00000070: dcc5 b13f 950c 953f cd33 cf3f da17 1a3f
00000080: d617 9b3f e6bf dc3f 6975 ba3f 081f a43f
00000090: 65ce a33f 3133 ab3f d93a f83f c0b0 c93f
000000a0: ef03 a93f 2864 763f 88a4 713f 5743 373f
000000b0: d0d3 cf3f 3fe9 303f bd41 733f fa24 983f
000000c0: d7be 973f d71b c03f 24be db3f a5ae cd3f
000000d0: 0aa0 9a3f bd55 d23f 5b34 693f 5455 003f
000000e0: 49db b33f ebf9 c73f 41b6 d63f 4199 583f
000000f0: f031 833f 6da0 af3f f66e 4b3f aec1 9d3f
1.0809569 0.9033924 1.7223818 1.2843947 1.7621341 1.4036734 0.73906016 0.7934982
0.75230855 1.6446608 1.001831 1.2535475 1.5665154 1.3345593 1.697861 1.719208
1.2486402 1.3871195 1.2495134 1.5502462 1.5257717 0.7119986 1.696611 0.590981
1.205437 0.4574434 1.1617628 1.655059 1.3888507 1.1644465 1.6187683 0.60192645
1.2116649 1.7246063 1.4567081 1.282197 1.2797362 1.3374997 1.9392959 1.5757065
1.3204325 0.96246576 0.9439168 0.7158713 1.6236515 0.69105905 0.95022184 1.1886284
1.1855115 1.5008496 1.7167401 1.6068922 1.208009 1.6432415 0.91095513 0.501302
1.4051296 1.5623144 1.677437 0.84608847 1.0249615 1.3720833 0.7946619 1.2324731

network.MLP.3.bias f4 [64]
00000000: 366e 323e d222 06be 99a8 43bd 128e a33d
00000010: 81ca 0cbd 437d afbc 44af 003e 7ebe 9e3d
00000020: 67f9 c4bd 04cb 813c 0939 3e3e ff1d 343e
00000030: 4f4a bcbc d42c a43d abc8 82bd acd5 b13c
00000040: 3fb5 6f3c b79d 683c 4067 79bd 429b 903c
00000050: 3888 1c3e fb79 d73d 2493 68bc 3b54 7dbe
00000060: 2875 3ebc 804c babe 55ad 79bc e628 c43c
00000070: c16d ce3d 77f5 bf3d 147d 0e3c 3b87 063d
00000080: 2f17 6e3c 1d1f 3b3d 4434 a0bd 7a6c 353d
00000090: 15fa 94bd c697 04bd 3122 3abd a949 bb3d
000000a0: 2f86 b43d fd79 ef3d 2668 8a3d 734c cc3d
000000b0: 7b70 e83c 87e3 273e 77ae 18be e1e6 d03d
000000c0: 9999 c93b 3d81 f5bd 4e24 bebd 2aa6 a53d
000000d0: 3aff c93d 6088 6dbb 1079 88bd f460 b1bd
000000e0: d580 6f3d 10c9 70bc 8b4e 263d 6d1d 003e
000000f0: 7cd9 4c3e 1d5f b5bd 7c5e 413e 9973 71bc
0.17424855 -0.1309922 -0.04776821 0.07986082 -0.03437281 -0.021422034 0.12566859 0.07751177
-0.09617882 0.015843876 0.18576445 0.17589568 -0.022984652 0.08016363 -0.06385931 0.021708332
0.014630615 0.014197758 -0.060889482 0.017652158 0.15286338 0.10521313 -0.014195237 -0.24739163
-0.011624612 -0.3638649 -0.0152390795 0.023945283 0.10079528 0.093729906 0.008696813 0.03284381
0.014531895 0.04568397 -0.07822469 0.044292904 -0.07274262 -0.032371305 -0.045442764 0.09144909
0.08814656 0.11693189 0.06758146 0.09975519 0.028373947 0.16395389 -0.14910303 0.10200287
0.0061523435 -0.11987541 -0.09284268 0.08088334 0.09863134 -0.0036244616 -0.06663716 -0.086610705
0.058472473 -0.014696375 0.04060225 0.12511225 0.20004839 -0.08856032 0.18883699 -0.014737033

critic.0.weight f4 [1, 64]
00000000: 58a4 6c3d 0339 02bc 497c c63c 8897 c83c
00000010: 8925 6bbc ad9a 723d 4b6f 563d ea12 773e
00000020: 167d 013d 86c9 d33c f0fb 3fba 7c3f 8e3c
00000030: 8719 653c 5d5d aa3c 7140 9a3c 5712 823d
00000040: cae5 02bd 5b8a 113d 7522 4b3d 7cb9 8f3c
00000050: 0642 853d 9d69 37be 2541 853d 80c6 1c3e
00000060: a66d 093d a183 573d ad96 183d e42c 8d3c
00000070: 40b2 823c 9728 5e3c 7786 ee3b e4d8 2bbd
00000080: 86b4 153c 3bd3 39bc 0bef 403c ed27 713c
00000090: 975a 383d 9473 853c 7bf2 4fbb db50 bbbb
000000a0: ddb5 473d a7fa b63d 6548 073c 5434 3fbe
000000b0: b4c7 aa3c 1f48 4e3e 2576 d2be eca0 00b9
000000c0: 7903 0b3d 0790 5cbd 9e14 02bd 692b 723d
000000d0: 171b f43c 84f9 35bd f83e 09be d99b bc3d
000000e0: 4cc3 3e3d fc65 433c 8ffc 233d 1fcc 72bc
000000f0: d283 c43e 413c d73a ceec 253b 63f7 f23c
0.057773918 -0.007948163 0.024229186 0.024486318 -0.014352211 0.05922954 0.05235223 0.24128309
0.031613432 0.02585293 -0.00073236134 0.017364256 0.013983137 0.020796472 0.018829556 0.06351154
-0.031957425 0.035532337 0.049593408 0.0175445 0.065067336 -0.17911382 0.06506566 0.15310097
0.033551835 0.052615765 0.03725307 0.01723332 0.015954137 0.013559482 0.007279213 -0.04195489
0.009137278 -0.011341865 0.011775742 0.014718992 0.04500827 0.016290464 -0.0031730223 -0.005716426
0.048757423 0.08934527 0.008257006 -0.18672305 0.020847179 0.201447 -0.41105762 -0.0001226698
0.03393886 -0.053848293 -0.031757943 0.05912343 0.029798074 -0.04442741 -0.13402927 0.09209413
0.04657297 0.01192617 0.04003578 -0.014819174 0.3838182 0.0016421155 0.0025318149 0.029658979

actor.0.weight f4 [22, 64]
00000000: d57e 0cbf 90e1 5bbd 9bec 3dbf 12e5 863e
00000010: c988 bcbe e394 a7bd bf4b 663e 2a88 ea3d
00000020: 6592 243e 296a e6bc e102 c53e e617 c7be
00000030: 396e cfbd fc1d 0cbf 29d1 3bbe 9221 14be
00000040: 2bff 993e 0eb5 693c eb11 efbc eb68 d1be
00000050: 85ad 4ebe ecd7 bfbd 7df4 a9bc 2a68 163d
00000060: 63e5 0e3e 0f7f 703d 9bd4 563e e51b f53e
00000070: 53c0 99be 75aa 0e3e 5bc8 98be eaf6 233e
00000080: e114 cb3d 7dea 8a3e 5575 2abf e1fc 983e
00000090: 2fad b6be 5596 ff3e bbf3 133f f770 843d
000000a0: 8082 7c3e 89c7 243e 8dc8 38be ff22 bdbd
000000b0: 06f3 1a3f 6cb6 99bd 6180 1fbb ea12 7fbb
000000c0: f462 bdbe bc68 103f d9ce 2cbe e0f0 033f
000000d0: 1f9d f4bd 2e4f 803e 9ffd a0bd 4b81 6a3d
000000e0: 7afd aa3d 8d03 1e3e 0b1f d23d 4476 b2be
000000f0: 1d15 853e d0a3 9ebe 3850 60be a919 313e
00000100: 8208 983e 6420 01be 9277 69be 46bf 28bd
00000110: c7dd 66be 38b2 5e3e 60f0 b1be 5219 923d
00000120: 286f 153e fdbf 07bf 7dbf acbe 7121 62be
00000130: a9d3 9b3d 43ba db3d fc48 22bf 1b4c 8e3e
00000140: f271 aa3e bc33 e8be 19de aabd 555d 073f
00000150: 27c2 64be b49b 64bc a5e1 ca3d f242 a6bc
00000160: e17f d33d da28 1fbd 415f 373d 9294 e53e
00000170: e383 1ebd 99c1 3e3e 52d3 cebe ba0d 89be
00000180: 659a 11be b58a 33be 7138 663e d131 fc3d
00000190: 0125 03bf b942 713e 1891 7c3f 0c0d 38bc
000001a0: f75a 9bbe 6917 b63e ec74 0dbf 6093 373d
000001b0: 433f dbbb 6239 303e 20c0 edbd 32b7 b2bd
000001c0: f8c5 793d fc82 c63e 1831 b6bb 2bc2 bd3e
000001d0: 0418 0abd a2f4 a5be 540f b4be 4c33 3a3e
000001e0: c53d 823d fbc1 393e f5f4 28bd 0e50 abbe
000001f0: d876 873e 9a85 a43e 39ff 90be 8f33 7d3e
00000200: 8ddd 82be 7b71 8e3d 9b4e d03d e49b 3c3c
00000210: ee8d bcbe a2c3 eabe 5354 0a3d 60f4 ab3c
00000220: bd12 0bbe 1a55 f63e 9aa4 393e b1b6 00bd
00000230: f159 0d3e c6d1 17be 320e fbbd f2e5 f5bd
00000240: 16d7 7c3e 9acb 033f 8c31 7e3e 1739 82bc
00000250: 15ee 3b3d 5528 3c3c f911 8e3e 9832 743c
00000260: 1f22 92be c30a 373d 21be 903e fbd4 8c3d
00000270: c087 c5be b7a4 c33e 3ea1 9dbe ded8 ec3c
00000280: e7fd 183e f089 0e3f cc74 99be 9116 9c3e
00000290: 2a4b 983e 9497 483e 8f72 363e 4ee0 febe
000002a0: 60ab 6b3e b997 c6be 26e9 de3d 8809 8bbd
000002b0: a543 fcbd 9eaf c03d 3bed 0ebd 1ce7 e43c
000002c0: f048 afbe 9a22 323e 7dc2 ee3c a513 873e
000002d0: d656 b6be 22f2 e4bd 88df 003e 4cec 16bb
000002e0: 6c38 d73d 436c 263e cc69 36be dfff bbbd
000002f0: 0859 3b3e 6b11 99bd d71e c73d 5a96 a53e
00000300: d709 ffbd 375d a23e 2578 88be 14d4 ccbe
00000310: eb29 fcbe 8b4a 053e 8052 7f3d b5e1 a1bc
00000320: 84d4 a5bd b933 c83d b925 babe 124b 483e
00000330: 2a38 be3e 8b27 b13d 1354 fb3d 8f0a 973d
00000340: 43f2 8a3c f85e 99bc 941a 1b3e 7db4 af3e
00000350: 7deb eabe 3fcd 353d 301d a2bd e8a1 9cbd
00000360: f098 d5be b40d 12be cd89 d33e 4be6 af3e
00000370: a842 1dbc 3969 783e c2aa cebd 2596 803d
00000380: dcdc b1bd 0d71 f93d 605f 873d db71 83bb
00000390: 4bdf 1dbe 1205 903e 5d4a 6abe 712c ae3e
000003a0: 73db 7abe a8bb 93be 6abe e4bd a34f 653c
000003b0: f719 263e 0581 47bd 3ad8 cb3c d1fc d8bd
000003c0: 5e0b 8c3d 3179 aabe 3bdb ee3d c916 893e
000003d0: ed81 a93e 96fb 733e e169 2a3e d8d2 923d
000003e0: 42b6 8ebd 1a9b ad3e cf22 843e f1b2 0ebd
000003f0: 7dd4 f03d 52e7 8b3e 9036 9dbd c55e fdbd
-0.5488103 -0.05368191 -0.74189156 0.26346642 -0.3682311 -0.08182695 0.22489832 0.114517525
0.1607147 -0.028126793 0.3847876 -0.3888542 -0.10128445 -0.5473325 -0.18341507 -0.14465931
0.3007749 0.014264358 -0.029183349 -0.4090036 -0.2018338 -0.09367356 -0.020746464 0.036720432
0.13954692 0.058714923 0.2097954 0.47872844 -0.30029544 0.13932212 -0.2984036 0.16012159
0.09916092 0.27132025 -0.66585284 0.2988043 -0.35679004 0.49919382 0.5779378 0.06466859
0.24659157 0.16091742 -0.18045254 -0.092351906 0.60527074 -0.07505497 -0.0024337994 -0.0038921186
-0.36989558 0.5640981 -0.16875781 0.5153942 -0.11944031 0.2506041 -0.078608744 0.05725221
0.08349128 0.15431042 0.10259827 -0.34855855 0.2599267 -0.30984354 -0.21905601 0.17294945
0.2969399 -0.12610012 -0.22799519 -0.041198038 -0.22545539 0.21747673 -0.34753704 0.07133736
0.14593184 -0.53027326 -0.33739844 -0.2208307 0.0760873 0.10728886 -0.63392615 0.2779244
0.33290058 -0.4535197 -0.08343143 0.5287679 -0.22339688 -0.013953138 0.099063195 -0.020295594
0.10327125 -0.03885732 0.044768576 0.44839913 -0.038699996 0.18628539 -0.403956 -0.26768285
-0.14219053 -0.17533381 0.22482468 0.12314189 -0.5122834 0.23560609 0.98658895 -0.011233579
-0.30342838 0.35564736 -0.55256534 0.044818282 -0.006690891 0.1720939 -0.116089106 -0.08726348
0.060979813 0.38771808 -0.0055600516 0.370622 -0.03371431 -0.32413203 -0.35167944 0.1818363
0.06359438 0.18140404 -0.041249234 -0.33459514 0.26457858 0.3213318 -0.2831972 0.247267
-0.25559655 0.069552384 0.10171243 0.011511777 -0.36827034 -0.4585238 0.033771824 0.02099055
-0.13581367 0.48111802 0.18129197 -0.031424228 0.13803841 -0.14826116 -0.12258567 -0.12006749
0.24691424 0.51482546 0.24823588 -0.015896363 0.04588135 0.011484225 0.27748087 0.014904641
-0.28541657 0.044687998 0.28270057 0.0687656 -0.38580132 0.38211605 -0.3078708 0.028912004
0.14940606 0.55679226 -0.2997192 0.30485967 0.29744846 0.19589072 0.17817138 -0.49780506
0.23014593 -0.3878763 0.10884313 -0.06788927 -0.1231759 0.09408496 -0.03489421 0.027942233
-0.34235334 0.17396012 0.029145474 0.26382175 -0.35613126 -0.11178996 0.1258527 -0.0023029028
0.105088085 0.16252236 -0.17813796 -0.09179663 0.18295681 -0.07474025 0.09722679 0.32341272
-0.12453049 0.31711742 -0.26654163 -0.40005553 -0.4925073 0.13016717 0.062334538 -0.019760946
-0.08097175 0.0977549 -0.36356905 0.19559887 0.37152225 0.0865012 0.12271895 0.07375061
0.016961223 -0.018722042 0.15146858 0.3431739 -0.45882788 0.04438519 -0.07915723 -0.07648069
-0.41718245 -0.1426304 0.4131607 0.34355387 -0.009598412 0.2425889 -0.10091163 0.06278638
-0.08684704 0.12179766 0.06609988 -0.0040113754 -0.15417211 0.28128868 -0.2287993 0.3401828
-0.24497776 -0.28854108 -0.11169131 0.013996038 0.16220842 -0.048707027 0.024883378 -0.10595096
0.068381056 -0.33295587 0.11662909 0.26775196 0.33106938 0.23826441 0.16641952 0.071691215
-0.06968357 0.33907396 0.25807807 -0.03483862 0.11759279 0.2732492 -0.076764226 -0.123715915

actor.0.bias f4 [22]
00000000: 3807 293d 756c 683c 8110 f13c d79f 37bd
00000010: 082a 923d 2310 9a3d 053a e43c 5ff2 47bd
00000020: b16a babc f26d b4bd 23ad e1bc d24c 9b3c
00000030: cca1 2abc 795d 4d3c 115e d0bc 9ad4 a5bc
00000040: 1bd0 9d3c f397 c2bc 9698 993b 885f f8bb
00000050: 9cb8 893d 25ff 0b3d
0.04126665 0.014186014 0.029426815 -0.04483017 0.07136923 0.07522609 0.027859697 -0.048815127
-0.022755953 -0.08810033 -0.027548378 0.01895753 -0.010414552 0.012534493 -0.02543548 -0.020242978
0.019264271 -0.023754096 0.004687379 -0.0075797476 0.067246646 0.03417887
