paper/training_results/seed-7/momarl/checkpoints/mlp_(negotiation=False)_(num_agents=12)_(window=False)_(reduced_space=False)_(fixed_savings_rate=False)_(rewards=['inverse_global_temperature', 'global_economic_output'])(wgen=uniform)(num_ensembles=1)(seed=7)_2025-01-16_22:46:27_w=[0.5851 0.4149].pt (torch, 38168 bytes, 9 tensors)

network.MLP.0.weight f4 [64, 18]
-0.17972192 -1.456215 -0.020594336 1.3875962 -1.6627266 0.49070004 0.05728453 0.18787849
-0.02391618 0.10636647 0.022628851 0.042876557 -0.0657762 -0.09629337 0.046460714 -0.0033825648
0.019218054 -0.10777093 -0.20434621 -0.043821655 -0.04784298 0.16063587 -0.12664932 0.04764802
-0.19659226 -0.16805953 -0.21444236 0.00076128833 0.06950409 -0.076307535 -0.17946622 0.09224299
-0.21949404 0.16232495 -0.17815822 -0.01780079 -0.102929294 0.048443645 -0.1424714 0.054598544
0.18055837 -0.06349597 0.18662813 0.01715888 0.07503934 0.05254428 0.10716564 -0.11010311
-0.043538257 -0.20844904 -0.21965724 0.027745636 -0.13891138 -0.040215313 -0.07710668 0.4175908
-0.094536014 0.009961441 -0.37000063 0.043001637 0.32538804 -0.3325028 0.3289695 0.4202376
0.26610693 0.2795971 0.026958223 0.45442966 -0.29001415 0.37232572 -0.05514464 -0.18024045
-0.07795253 -0.4110159 0.1180178 -1.4145272 0.21400847 -0.051519796 -0.02763801 0.28064054
0.05508341 -0.25422543 -0.1748935 -0.20366815 -0.2950801 -0.03122203 -0.12983868 -0.11742094
-0.052050337 -0.010990258 0.02149863 -0.26195976 -0.0011526394 -0.08955886 0.61803555 -0.08836962
-0.87864864 0.070275955 0.10529373 -0.0033811103 0.77100545 -0.33635688 -0.8373848 -0.32177958
-0.26795062 0.045004252 0.37764508 0.15561087 0.0833767 0.1808889 0.03341569 -0.34476465
1.0062114 -0.6345312 -0.3908719 -0.3671981 -0.351456 -0.32680523 -0.25665677 -0.05559122
-0.025882058 0.08391354 -0.40679994 -0.09625259 0.6157237 0.046587992 0.08212261 0.0840964
-0.10641597 -0.33232546 -0.7547974 0.15235178 0.0020908786 -0.19581963 -0.14631547 0.13531713
0.15755565 0.21804088 -0.5135718 0.6607553 0.064970486 -0.025801813 -0.20644574 -0.25031176
0.053501714 0.2655176 0.006635423 0.018501835 -0.11125957 -0.04699908 -0.2053456 -0.12854263
0.22105837 -0.3587834 -0.6423968 -0.097560234 0.021952154 0.42357072 0.16976333 -0.079540685
0.33386704 -0.24468529 -0.47544813 0.811303 0.045092173 -2.0653024 -0.9657652 -0.36088714
-0.24593736 0.15607215 0.33232057 -0.05209796 0.04617501 -0.06597913 -0.19588275 -0.049551517
0.193213 -0.42126903 -0.05156221 -0.12504937 0.0026234542 0.015893292 -0.20430978 0.036157962
0.060766727 0.0944814 -0.021095501 -0.08462466 -0.0556203 -0.12972763 -0.07893381 -0.16073087
-0.21776357 -0.18748216 -0.01619754 -0.06757967 -0.008741321 -0.08893583 0.06477033 0.07397861
-0.13742268 0.29679474 -0.98920393 0.29810092 -0.17830603 0.001070269 0.42154333 0.11695828
-0.10115115 0.37611163 0.20990168 0.32570043 -0.14155403 -0.08625801 0.18881877 0.08395811
0.026236014 -0.031716175 0.01290419 -2.1173353 -0.023990616 -0.67170274 -0.045301363 -0.039021138
0.01969404 0.011848719 0.0030801748 -0.00069532584 -0.067322396 -0.022002596 0.027331863 0.019545844
0.0092116585 0.022055766 -0.045023818 0.06177838 0.09014397 0.36695188 -0.8128335 -0.20523539
-0.5311761 0.4821781 -0.29413047 -0.18225053 -0.04591528 0.0961149 0.21339299 -0.55518353
-0.9786894 -0.4637888 -0.7048724 0.47271645 0.028142344 -0.16467465 -0.1869456 -0.58152103
00000000: 0609 38be 4165 babf 74b5 a8bc c19c b13f
00000010: 3ad4 d4bf 093d fb3e 2fa3 6a3d 3863 403e
00000020: ddeb c3bc aad6 d93d 2460 b93c 549f 2f3d
00000030: acb5 86bd 7535 c5bd 974d 3e3d 05ae 5dbb
00000040: 2e6f 9d3c 01b7 dcbd 2240 51be 567e 33bd
00000050: 00f7 43bd bb7d 243e 5cb0 01be 922a 433d
00000060: 7b4f 49be cc17 2cbe c796 5bbe 3291 473a
00000070: 2958 8e3d 2047 9cbd fec5 37be e5e9 bc3d
00000080: 0cc3 60be 8338 263e 1c6f 36be f6d2 91bc
00000090: 98cc d2bd d86c 463d 06e4 11be b9a2 5f3d
000000a0: 4be4 383e 2d0a 82bd 721b 3f3e c890 8c3c
000000b0: 3aae 993d ac38 573d a979 db3d bd7d e1bd
000000c0: 2c55 32bd aa73 55be d4ed 60be d14a e33c
000000d0: c93e 0ebe d0b8 24bd 1bea 9dbd 76ce d53e
000000e0: 199c c1bd 5035 233c b970 bdbe 7c22 303d
000000f0: 4399 a63e cf3d aabe b16e a83e 6229 d73e
00000100: 2b3f 883e 5a27 8f3e 7ed7 dc3c 01ab e83e
00000110: bc7c 94be 7aa1 be3e 59df 61bd f490 38be
00000120: 93a5 9fbd ad70 d2be 51b3 f13d 3a0f b5bf
00000130: 0925 5b3e 6c06 53bd 1c69 e2bc 1eb0 8f3e
00000140: 249f 613d d629 82be 4817 33be 628e 50be
00000150: bd14 97be 58c5 ffbc 6ef4 04be 647a f0bd
00000160: bc32 55bd 7c10 34bc e51d b03c 971f 86be
00000170: 2914 97ba a36a b7bd 9437 1e3f 22fb b4bd
00000180: 1eef 60bf d7ec 8f3d 3da4 d73d 9e95 5dbb
00000190: 9d60 453f f836 acbe da5e 56bf 4bc0 a4be
000001a0: d330 89be 6156 383d b25a c13e 7558 1f3e
000001b0: 67c1 aa3d f13a 393e e4de 083d fe84 b0be
000001c0: 89cb 803f a370 22bf 5d20 c8be 6401 bcbe
000001d0: 0af2 b3be 0453 a7be 8468 83be 9eb3 63bd
000001e0: 9c06 d4bc ddda ab3d 1548 d0be 1420 c5bd
000001f0: 12a0 1d3f 0dd3 3e3d e62f a83d bc3a ac3d
00000200: 9ef0 d9bd 9026 aabe 673a 41bf 1b02 1c3e
00000210: 1f07 093b f184 48be b9d3 15be 9390 0a3e
00000220: 4556 213e 1c46 5f3e 7179 03bf 4227 293f
00000230: 3f0f 853d 535e d3bc 8366 53be dd28 80be
00000240: 9d24 5b3d ecf1 873e f66d d93b 2991 973c
00000250: 0fdc e3bd 1b82 40bd 1e46 52be aea0 03be
00000260: 205d 623e 75b2 b7be 1e74 24bf a9cd c7bd
00000270: 01d5 b33c 43de d83e 70d6 2d3e 3ae6 a2bd
00000280: 9ff0 aa3e c88e 7abe f06d f3be 8eb1 4f3f
00000290: 92b2 383d ea2d 04c0 633c 77bf 33c6 b8be
000002a0: 01d7 7bbe 61d1 1f3e ec25 aa3e ac64 55bd
000002b0: 0222 3d3d 1120 87bd 7d95 48be 88f6 4abd
000002c0: a1d9 453e 93b0 d7be e532 53bd f10c 00be
000002d0: 42ee 2b3b a632 823c 9536 51be 5f1a 143d
000002e0: 88e6 783d 777f c13d 79d0 acbc b24f adbd
000002f0: 1dd2 63bd 52d7 04be 0da8 a1bd a296 24be
00000300: 6afd 5ebe 53fb 3fbe b4b0 84bc 3667 8abd
00000310: c237 0fbc fd23 b6bd 4fa6 843d 1982 973d
00000320: 88b8 0cbe 7bf5 973e 783c 7dbf afa0 983e
00000330: db95 36be 4548 8c3a 87d4 d73e d387 ef3d
00000340: 5628 cfbd b491 c03e 77f0 563e 35c2 a63e
00000350: 8af3 10be 0aa8 b0bd b559 413e 3bf2 ab3d
00000360: e9ec d63c d2e8 01bd 196c 533c 6c82 07c0
00000370: f887 c4bc b6f4 2bbf ec8d 39bd a1d4 1fbd
00000380: 6555 a13c 2121 423c c2dc 493b 8746 36ba
00000390: 53e0 89bd ca3e b4bc 12e7 df3c 9b1e a03c
000003a0: 7fec 163c 4bae b43c e56a 38bd 540b 7d3d
000003b0: 679d b83d 1ee1 bb3e db15 50bf 3a29 52be
000003c0: 28fb 07bf 0ce0 f63e 4598 96be e29f 3abe
000003d0: a911 3cbd e4d7 c43d b183 5a3e 8220 0ebf
000003e0: 638b 7abf ba75 edbe 8572 34bf e407 f23e
000003f0: c68a e63c 79a0 28be ab6e 3fbe 90de 14bf

network.MLP.0.bias f4 [64]
-0.30517918 0.44122937 0.26664305 0.3248482 0.3319218 -0.1596087 -0.028209515 -0.33693895
0.15615363 0.07627195 0.37834874 -0.28324783 1.0014815 -0.06428643 -0.019923102 -0.668842
-1.2327574 -0.27648932 -0.00019979285 0.51360154 -0.14548679 -0.40695655 -0.71469426 0.6412034
-0.20384082 -0.048520364 -0.31290463 0.54272103 -0.037181396 0.041676387 0.5145017 0.30521166
-0.23180372 0.33167514 -0.5227889 0.27185386 0.11132551 0.041132186 0.21264297 -0.35618362
0.25920543 -0.1212081 -0.23465466 -1.1482543 0.69376016 -0.12974523 -0.10868295 -0.062034868
-0.45134205 -0.13114484 -0.016079422 -0.0059857303 0.40277132 0.118310794 -0.05705465 0.23062466
0.0930599 0.42229196 -0.055286366 -0.53914195 0.33717233 -0.43732882 -0.2282952 -1.0620025
00000000: 7240 9cbe d1e8 e13e 7085 883e 8152 a63e
00000010: a7f1 a93e 7770 23be a417 e7bc 4383 acbe
00000020: bde6 1f3e 7834 9c3d edb6 c13e dc05 91be
00000030: 8c30 803f 9ba8 83bd c635 a3bc 3b39 2bbf
00000040: ffca 9dbf 0290 8dbe 7c7f 51b9 647b 033f
00000050: 7dfa 14be 9c5c d0be 34f6 36bf e825 243f
00000060: a6bb 50be 4abd 46bd 0935 a0be c4ef 0a3f
00000070: 854b 18bd dcb4 2a3d 62b6 033f b444 9c3e
00000080: f45d 6dbe 53d1 a93e 7ed5 05bf 6e30 8b3e
00000090: a1fe e33d 397a 283d 14bf 593e b35d b6be
000000a0: 93b6 843e f43b f8bd 5049 70be fff9 92bf
000000b0: 449a 313f efdb 04be 2b95 debd 4618 7ebd
000000c0: 4e16 e7be d54a 06be feb8 83bc f223 c4bb
000000d0: 0b38 ce3e ee4c f23d 23b2 69bd df28 6c3e
000000e0: 3096 be3d a736 d83e f573 62bd 3505 0abf
000000f0: daa1 ac3e 90e9 dfbe 38c6 69be b3ef 87bf

network.MLP.2.weight f4 [64, 64]
-0.04779747 -0.1592625 -0.18214452 -0.50522023 -0.22516344 0.17875876 0.20059407 -0.09646466
0.10735299 -0.5343367 -0.10402971 0.005377347 -0.31693995 0.32919446 0.33951446 0.040824886
-0.026597248 -0.20535213 -0.074455716 0.005662018 -0.37834695 0.020493641 -0.080312096 -0.12511612
0.45779735 -0.054011483 0.011335194 -0.41076475 0.26006192 -0.005606912 -0.060497984 0.35785878
0.24952497 -0.1655026 -0.09631386 0.3473971 -0.14565538 0.0894346 -0.16806889 -0.1429879
0.4155819 -0.023931146 -0.12035318 -0.12317856 0.26444107 -0.08911045 -0.24840875 -0.42934203
0.14620599 0.49068832 0.0343653 0.022862 0.06761551 -0.0066103693 0.080375165 0.1847381
0.030370766 0.415665 0.39664006 -0.0034471597 -0.15001523 0.30394205 0.04084471 -0.17907508
1.153607 -0.15092182 -0.2849118 0.22264576 -0.10492572 -0.17666233 -0.1529294 0.035544954
-0.22152217 0.0970503 -0.16215041 -0.3480153 0.9795847 -0.03271959 -0.317429 -0.014066692
0.8644176 0.70812654 0.05319872 -0.2654363 0.0058648456 -0.33284372 0.9951627 0.054183092
-0.779473 -0.16279374 -0.00045059723 0.114679344 -0.08040297 -0.17332982 -0.4082675 -0.25139955
-0.03972601 -0.33403894 -0.60382414 -0.27455768 -0.3459996 0.2824856 -0.44603533 -0.4052274
-0.69027567 -0.054766923 0.10118264 0.9300897 -0.35902417 0.10033715 0.08838719 0.023377532
-0.09237574 0.017956214 -0.39586875 -0.036211435 -0.3016934 -0.15732087 -0.10293765 0.0871565
0.21238214 -0.0639358 -0.3243614 0.07601281 0.22156923 0.01762881 0.056193963 -0.48685068
-1.1652738 -0.13238521 0.0030444735 0.0725694 -0.06745823 -0.3079213 0.37590772 -0.13209845
0.23607697 -0.19547127 -0.13767679 0.21662846 -0.3009773 0.07967484 0.056805562 -0.0068304893
0.38428447 -0.12661068 -0.08465629 0.18633974 0.27343863 -0.020151038 -0.70408034 -0.022500452
0.07153341 0.15302564 0.130639 -0.019084577 0.0032176417 -0.07765914 -0.21112624 0.086415954
0.08571922 -0.01600926 0.07911789 0.16800708 0.074959554 0.1891362 -0.04117589 -0.16566764
0.36044705 0.0023621172 0.0013325065 -0.28657523 0.0032874024 0.004692942 -0.19208032 -0.10124446
0.090576895 0.47904912 0.17588612 0.24221088 -0.06683077 -0.048839673 0.14422001 -0.26615247
-0.25797522 -0.028207274 0.2539647 0.025297206 -0.050833043 0.0053371587 -0.014170483 -0.15765795
0.54956484 0.09044889 0.13461892 0.11825566 -0.036845118 0.17833099 -0.26254913 -0.29751614
0.022140112 -0.10008634 0.1091009 -0.046236347 0.2840322 0.071167275 0.35032767 -0.0949979
0.36748305 0.15642376 -0.029801043 -0.10477572 -0.16473058 0.37285054 0.1706965 0.033615597
-0.17871442 -0.25985587 -0.3630989 -0.41505113 0.02856074 -0.28558934 0.028708732 0.09452811
0.6023391 0.28288752 -0.09109884 0.04067053 0.045810387 -0.25647438 0.09349537 0.13191974
-0.21081153 -0.037813127 -0.024708092 0.18126348 0.1837624 0.0016672015 -0.05720876 -0.16027176
-0.27117884 -0.291984 0.019118207 -0.20043913 -0.0931318 -0.15732406 -0.17313537 -0.010572474
0.11373685 0.22862409 -0.18209183 0.17146514 0.30545145 -0.055617083 0.090445116 0.06774086
00000000: 48c7 43bd b515 23be 1884 3abe 1d56 01bf
00000010: 3f91 66be 890c 373e 8868 4d3e 438f c5bd
00000020: e2db db3d 4aca 08bf 870d d5bd 7534 b03b
00000030: f445 a2be 2d8c a83e d7d4 ad3e ff37 273d
00000040: 79e2 d9bc d447 52be 3d7c 98bd 7388 b93b
00000050: b1b6 c1be 48e2 a73c ab7a a4bd 711e 00be
00000060: 6a64 ea3e 253b 5dbd 40b7 393c c24f d2be
00000070: d626 853e 30ba b7bb bccc 77bd 4439 b73e
00000080: 7983 7f3e 8379 29be 3340 c5bd 08de b13e
00000090: af26 15be 7d29 b73d 401a 2cbe 6c6b 12be
000000a0: 27c7 d43e 400b c4bc ba7b f6bd 0a45 fcbd
000000b0: d264 873e 8a7f b6bd dd5e 7ebe b8d2 dbbe
000000c0: 06b7 153e 803b fb3e a1c2 0c3d 1749 bb3c
000000d0: 007a 8a3d cc9b d8bb bc9b a43d fc2b 3d3e
000000e0: 1dcc f83c 0bd2 d43e 6814 cb3e bee9 61bb
000000f0: 989d 19be 4b9e 9b3e c84c 273d 755f 37be
00000100: 65a9 933f 408b 1abe f6df 91be 40fd 633e
00000110: 4ce3 d6bd f8e6 34be 8699 1cbe 9697 113d
00000120: b5d6 62be 4fc2 c63d c20a 26be 102f b2be
00000130: 10c6 7a3f fa04 06bd 0e86 a2be fc77 66bc
00000140: 794a 5d3f c847 353f e7e6 593d 44e7 87be
00000150: e42d c03b 7e6a aabe fcc2 7e3f 17ef 5d3d
00000160: 8b8b 47bf 67b3 26be 233e ecb9 01dd ea3d
00000170: 50aa a4bd 5f7d 31be 7008 d1be 71b7 80be
00000180: beb7 22bd 2707 abbe 3894 1abf d392 8cbe
00000190: dc26 b1be f4a1 903e be5e e4be f779 cfbe
000001a0: e8b5 30bf 4853 60bd d838 cf3d 5c1a 6e3f
000001b0: 04d2 b7be 907d cd3d 5804 b53d 3d82 bf3c
000001c0: 7e2f bdbd e918 933c 4faf cabe 7152 14bd
000001d0: 8f77 9abe b918 21be fad0 d2bd 1b7f b23d
000001e0: b47a 593e c6f0 82bd b312 a6be 9bac 9b3d
000001f0: 0be3 623e 4b6a 903c a42b 663d 7e44 f9be
00000200: b127 95bf fd8f 07be ca85 473b 449f 943d
00000210: 8a27 8abd dca7 9dbe fa76 c03e d144 07be
00000220: 29be 713e 9f29 48be 25fb 0cbe dad3 5d3e
00000230: b219 9abe 902c a33d f3ac 683d 4cd2 dfbb
00000240: efc0 c43e 3ba6 01be 4760 adbd d8cf 3e3e
00000250: 2600 8c3e ca13 a5bc 9c3e 34bf de52 b8bc
00000260: 1c80 923d c1b2 1c3e 3bc6 053e 4257 9cbc
00000270: 12df 523b c10b 9fbd 7a31 58be d9fa b03d
00000280: 8f8d af3d da25 83bc 8f08 a23d 0c0a 2c3e
00000290: 6584 993d ecac 413e 0da8 28bd c7a4 29be
000002a0: 848c b83e c0cd 1a3b 80a7 ae3a fdb9 92be
000002b0: 7671 573b 40c7 993b b4b0 44be 4159 cfbd
000002c0: 6180 b93d ed45 f53e 7e1b 343e 2106 783e
000002d0: 92de 88bd 1c0c 48bd 69ae 133e 2345 88be
000002e0: 5415 84be f112 e7bc a907 823e 163c cf3c
000002f0: 4f36 50bd 55e3 ae3b 502b 68bc 1671 21be
00000300: 48b0 0c3f 453d b93d 8bd9 093e 0630 f23d
00000310: e8ea 16bd 669c 363e d76c 86be 0954 98be
00000320: 2e5f b53c 11fa ccbd 4b70 df3d 5362 3dbd
00000330: ab6c 913e 26c0 913d 265e b33e 428e c2bd
00000340: bd26 bc3e 8d2d 203e 5121 f4bc a794 d6bd
00000350: 22af 28be 44e6 be3e 10cb 2e3e 82b0 093d
00000360: ea00 37be d40b 85be 19e8 b9be 9581 d4be
00000370: 37f8 e93c c438 92be 932e eb3c f497 c13d
00000380: e532 1a3f a2d6 903e 0792 babd 2496 263d
00000390: aca3 3b3d 9c50 83be 807a bf3d f815 073e
000003a0: fade 57be f0e1 1abd a068 cabc 229d 393e
000003b0: 362c 3c3e 0086 da3a bc53 6abd 481e 24be
000003c0: f4d7 8abe ed7e 95be c99d 9c3c ea3f 4dbe
000003d0: e3bb bebd 8f19 21be 664a 31be 2c38 2dbc
000003e0: deee e83d 6f1c 6a3e 4876 3abe 8f94 2f3e
000003f0: 2264 9c3e bdce 63bd 4a3b b93d b8bb 8a3d

network.MLP.2.bias f4 [64]
-0.0077367835 0.073677294 0.05370623 0.023392549 -0.5524677 -0.047496296 0.47591203 0.106723204
0.04189055 0.4111765 0.1250879 -0.010403566 0.077497005 0.17013115 -0.016398737 -0.6159767
0.044226374 -1.1860453 -0.15713513 0.1625323 -0.17136389 0.18517657 0.18380077 0.8812627
-0.18966132 -0.37556744 -0.007126664 -0.08512311 0.03569485 -0.64324707 0.25358993 -0.29343346
-0.36979747 0.11361426 0.27194682 0.081337504 0.17614013 0.15605313 0.19503635 0.07471173
-0.11697599 -0.04131428 0.074005574 -0.027812505 -0.22787794 -0.25690398 0.09192989 -0.20633459
-0.25371942 0.060797535 0.5318188 -0.2513114 -0.03499205 0.110304035 0.12589797 0.3282364
-0.018119527 -0.6907061 -0.30567354 0.598698 -0.0924552 0.50161535 0.13486996 0.00906857
00000000: d884 fdbb 1fe4 963d 10fb 5b3d bba1 bf3c
00000010: 866e 0dbf 7a8b 42bd beaa f33e b291 da3d
00000020: 6d95 2b3d ba85 d23e 0b17 003e b873 2abc
00000030: c0b6 9e3d dc36 2e3e a556 86bc a6b0 1dbf
00000040: b726 353d 55d0 97bf 08e8 20be de6e 263e
00000050: 047a 2fbe ed9e 3d3e 4536 3c3e 6f9a 613f
00000060: 9436 42be 604a c0be ca86 e9bb 0655 aebd
00000070: c334 123d d7ab 24bf 8ad6 813e e93c 96be
00000080: 1856 bdbe 98ae e83d 9d3c 8b3e 4794 a63d
00000090: 145e 343e 64cc 1f3e 9cb7 473e 7702 993d
000000a0: 1c91 efbd 2a39 29bd 3c90 973d 0dd7 e3bc
000000b0: d658 69be eb88 83be bd45 bc3d 6049 53be
000000c0: 83e7 81be d606 793d 4725 083f e3ab 80be
000000d0: d353 0fbd 15e7 e13d 66eb 003e 9a0e a83e
000000e0: 676f 94bc 1dd2 30bf 3e81 9cbe 4644 193f
000000f0: 2759 bdbd dd69 003f 5a1b 0a3e 5794 143c

network.MLP.3.weight f4 [64]
1.5900034 0.21770258 1.3040056 1.2165174 0.82465076 1.3888507 0.69081163 1.2890874
1.7539543 1.1815342 1.4028238 1.7470815 1.2708832 1.4690118 1.3799419 0.7916277
1.3546387 0.66300964 1.6414915 1.7063389 1.2962447 1.4463668 1.1629797 0.8022349
1.1761597 1.4076427 1.4649245 1.4333047 1.0475366 0.88007826 1.1633369 1.0809118
0.68594635 1.5965748 1.4460328 1.256176 1.3038869 1.2751352 1.3180712 1.2546372
1.6699387 1.0458901 1.5955309 1.0505191 1.2598244 1.2305019 1.3952626 1.63366
0.39203572 0.9627545 0.9972112 1.4238821 1.2703894 0.987465 1.384337 1.6541482
1.2208295 0.7051808 1.4536964 0.86314344 1.0092927 1.0183358 1.2153505 1.3731805
00000000: 3b85 cb3f 6ded 5e3e a8e9 a63f d8b6 9b3f
00000010: 501c 533f dcc5 b13f 08d9 303f d100 a53f
00000020: 9381 e03f 833c 973f bb8f b33f 5ea0 df3f
00000030: 4dac a23f 9408 bc3f f0a1 b03f 1da8 4a3f
00000040: cd64 ad3f 00bb 293f 651c d23f 5069 da3f
00000050: 59eb a53f 8c22 b93f 85dc 943f 445f 4d3f
00000060: 678c 963f a32d b43f a582 bb3f 8776 b73f
00000070: ae15 863f cf4c 613f 39e8 943f 515b 8a3f
00000080: 2e9a 2f3f 905c cc3f 9a17 b93f 60ca a03f
00000090: c4e5 a63f a137 a33f 8fb6 a83f f497 a03f
000000a0: 8dc0 d53f badf 853f 5b3a cc3f 6977 863f
000000b0: ed41 a13f 1681 9d3f f797 b23f c51b d13f
000000c0: e8b8 c83e 1477 763f 3c49 7f3f c541 b63f
000000d0: 1f9c a23f 82ca 7c3f f431 b13f 21bb d33f
000000e0: 2444 9c3f bb86 343f b912 ba3f f8f6 5c3f
000000f0: 8130 813f d458 823f 9b90 9b3f 61c4 af3f

network.MLP.3.bias f4 [64]
0.12614797 0.8229715 -0.005944098 0.1778939 -0.13782887 -0.03781952 0.13485298 -0.10311584
0.09944354 0.026679324 -0.04674471 -0.05595316 -0.16497995 0.07572355 0.03853584 -0.116420224
-0.01563201 0.124898255 0.094774194 0.053195506 -0.0937699 0.014900133 0.040018823 -0.008487435
0.08354806 0.05477071 0.08888849 -0.028145744 -0.010054911 -0.12501639 0.14461443 0.16060098
-0.11686098 -0.027472284 -0.017964192 0.040753685 -0.06988735 0.09124868 -0.05475054 -0.15852064
-0.058236137 -0.079544164 0.026644299 0.16542631 -0.009752808 -0.025322525 0.14709243 0.13226497
-0.7257021 -0.11753177 0.21084985 0.01675057 -0.10699922 0.18309088 0.10278898 0.0534118
-0.13919882 -0.035327177 0.0033109854 0.2021386 0.23027875 0.14447175 0.11819679 0.08083755
00000000: ef2c 013e 43ae 523f b5c6 c2bb d229 363e
00000010: 0323 0dbe a4e8 1abd e616 0a3e 662e d3bd
00000020: 0ea9 cb3d 998e da3c 6277 3fbd 242f 65bd
00000030: 81f0 28be f314 9b3d c2d7 1d3d ba6d eebd
00000040: b30e 80bc a8ca ff3d f918 c23d 88e3 593d
00000050: 6f0a c0bd b01f 743c c7ea 233d e20e 0bbc
00000060: 3f1b ab3d 4157 603d 2b0b b63d e791 e6bc
00000070: 5abd 24bc 4c04 00be ce15 143e 9574 243e
00000080: cf54 efbd 8e0d e1bc a429 93bc 56ed 263d
00000090: 1921 8fbd 97e0 ba3d 1a42 60bd 3c53 22be
000000a0: 0489 6ebd 0de8 a2bd 2545 da3c 8465 293e
000000b0: 3eca 1fbc 2f71 cfbc 669f 163e 7870 073e
000000c0: 9dc7 39bf 7fb4 f0bd 06e9 573e 7e38 893c
000000d0: 6822 dbbd 2d7c 3b3e 0783 d23d 55c6 5a3d
000000e0: 238a 0ebe 3bb3 10bd 1efd 583b 6cfd 4e3e
000000f0: 31ce 6b3e 67f0 133e 2911 f23d 288e a53d

critic.0.weight f4 [1, 64]
0.027901338 0.38304353 0.008637493 0.023166614 -0.14635639 0.032188497 0.11999372 -0.009204873
0.075932264 0.06243121 0.016973434 -0.011641456 -0.068210006 0.01458671 0.034335542 -0.07489837
0.026342168 -0.16401722 0.026924297 0.037614197 -0.0604037 0.040221274 0.022810886 0.22747676
0.048658513 -0.018774537 0.040835243 0.01770515 0.030596247 -0.24576314 0.022233035 0.070498295
-0.012596677 0.01117415 0.037783213 0.005327907 0.051144384 0.03230027 0.018347805 0.0031258503
0.024478067 -0.018540913 0.05835002 -0.003581737 0.0060502775 0.015657082 0.08804372 0.010799126
-0.40948993 0.0077839894 0.49469742 -0.008331924 -0.0026318321 0.04572579 0.021242766 0.046428062
-0.024069982 -0.12566173 0.022290686 0.28343758 0.085281126 0.113771506 0.049766734 0.05496707
00000000: 5991 e43c 481e c43e 4584 0d3c e9c7 bd3c
00000010: 73de 15be 16d8 033d 44bf f53d 09d0 16bc
00000020: 6082 9b3d deb7 7f3d df0b 8b3c cebb 3ebc
00000030: b0b1 8bbd 19fd 6e3c 6da3 0c3d 5164 99bd
00000040: 88cb d73c 21f4 27be 5890 dc3c 5811 1a3d
00000050: df69 77bd 10bf 243d e5dd ba3c abef 683e
00000060: 264e 473d 0fcd 99bc db42 273d 640a 913c
00000070: fba4 fa3c 55a9 7bbe 0e22 b63c 6961 903d
00000080: 4b62 4ebc c813 373c 92c2 1a3d b995 ae3b
00000090: c67c 513d 4a4d 043d 234e 963c 11db 4c3b
000000a0: 3a86 c83c 1de3 97bc 6e00 6f3d 93bb 6abb
000000b0: 6841 c63b 4843 803c 4450 b43d d1ee 303c
000000c0: aaa8 d1be d610 ff3b fb48 fd3e 9f82 08bc
000000d0: d17a 2cbb f74a 3b3d 4f05 ae3c 5a2b 3e3d
000000e0: 692e c5bc 78ad 00be f59a b63c bb1e 913e
000000f0: dfa7 ae3d 0901 e93d 34d8 4b3d 2725 613d

actor.0.weight f4 [22, 64]
0.4304154 -0.0006857856 0.0795534 -0.059885196 -0.17507014 -0.5135602 0.2500312 0.4452222
-0.5923798 0.27411067 0.2581441 -0.4362627 -0.23441952 0.06074111 0.12457258 -0.1488604
-0.17960823 -0.11301556 0.5308139 0.92218935 -0.1716543 -0.015963929 0.37464893 0.15396152
0.5137374 0.28095192 -0.0036213829 -0.09835063 -0.47853276 -0.1701401 0.21518768 -0.19699994
0.102697745 0.1469813 0.518601 0.24912383 -0.24390078 -0.24134302 0.37725663 0.0073916367
-0.10882661 -0.14728798 -0.43995973 0.053318877 0.20694858 0.06227852 -0.0936938 0.7485559
-0.48752242 -0.32003966 0.076180704 -0.6644584 -0.11819124 0.07494548 0.047327586 -0.55841166
-0.23222592 -0.15349734 -0.27971655 0.08013056 0.36558047 0.26441035 -0.28274113 -0.11426805
0.21298978 0.24723609 0.2810609 -0.04109133 -0.06948804 0.23014157 0.23941387 0.55978984
-0.3130085 -0.051568236 -0.14612369 -0.5261756 -0.4611612 0.3912653 0.25507504 -0.2995176
0.28365725 -0.040112965 0.3151918 -0.00085036445 0.40833104 -0.12549746 0.28492525 0.024727156
-0.3325459 0.077129506 0.3037606 0.05106797 -0.10630533 -0.14646503 -0.40136606 0.17271268
-0.2557234 -0.55385125 -0.13615738 0.09711813 -0.6420259 -0.18898793 0.2723403 -0.05882098
-0.32463616 0.18951093 -0.216011 -0.0036144604 -0.24828856 0.20201324 -0.61576563 -0.07887864
-0.2370541 0.14551832 0.13047285 0.16993532 0.09864582 -0.018346896 0.15949537 -0.2749655
-0.047556832 -0.09065497 -0.21238974 0.26697296 0.03383347 0.3412679 0.082885005 -0.26294053
0.114770055 0.016493306 0.59176415 -0.13911891 0.021555379 -0.32600394 0.10518413 -0.42530775
0.05560468 -0.01935259 0.07558301 0.18002969 0.13539979 -0.24138862 -0.15907483 0.024290532
-0.13584515 -0.12672505 0.21616282 -0.21934977 -0.23474227 0.15611026 0.030608406 0.11558711
0.115747035 -0.18605548 0.21200272 0.11096938 -0.05793122 -0.1357977 -0.2509866 -0.03770414
0.033965487 -0.31906486 -0.10219869 0.16351712 0.35779783 0.2874087 0.054839727 0.16187938
-0.4291576 0.13805306 -0.29491013 0.18630959 0.06846686 0.26768205 0.25391668 -0.17842373
0.3712578 0.31243485 -0.13328277 0.27901432 -0.3271477 -0.00024710258 -0.19490612 -0.13814965
0.01378489 -0.059362777 0.4329713 0.11259215 -0.44504198 0.025612619 0.24953397 0.15502484
0.15579782 -0.004192633 0.06227816 0.28504834 -0.12635936 0.17382756 0.09430514 0.02770529
-0.14563419 0.06409854 -0.35554272 -0.38697088 -0.072539076 -0.07057656 -0.020212471 -0.057508312
-0.090655446 -0.037879296 -0.062333476 0.15362829 -0.10011397 0.4970832 0.12895624 0.037826374
-0.06545982 -0.06714659 0.083995186 -0.12216671 -0.033924427 -0.07720198 0.38612416 -0.10013005
-0.2561129 0.20425111 -0.09561826 -0.21601793 -0.38522413 -0.13074441 -0.03942031 -0.09336399
0.48355314 -0.046915747 0.42199802 -0.048410926 -0.39730605 -0.35516924 -0.168601 0.18437877
0.15218851 -0.069347724 0.1737717 -0.07463361 0.1258718 -0.14739847 0.4551196 -0.1751805
0.28170282 -0.08550674 -0.6257415 0.033277415 0.13497525 0.28831485 -0.05072486 0.13975781
00000000: 685f dc3e 4bc6 33ba e5ec a23d 2e4a 75bd
00000010: 9645 33be ae78 03bf 1704 803e 2af4 e33e
00000020: 34a6 17bf 3c58 8c3e 772b 843e d35d dfbe
00000030: ac0b 70be accb 783d e91f ff3d dc6e 18be
00000040: 38eb 37be b474 e7bd 6be3 073f 9a14 6c3f
00000050: 25c6 2fbe c9c6 82bc fcd1 bf3e 17a8 1d3e
00000060: 4b84 033f eed8 8f3e b954 6dbb 0e6c c9bd
00000070: 3f02 f5be 3539 2ebe 295a 5c3e 5aba 49be
00000080: 3253 d23d 4482 163e 09c3 043f 511a 7f3e
00000090: 20c1 79be a022 77be c827 c13e 8b35 f23b
000000a0: 7ce0 debd a9d2 16be 6742 e1be e564 5a3d
000000b0: 54ea 533e c317 7f3d 89e2 bfbd 5ca1 3f3f
000000c0: 8a9c f9be 3ddc a3be a104 9c3d f219 2abf
000000d0: 400e f2bd 047d 993d 92da 413d 11f4 0ebf
000000e0: a2cc 6dbe 682e 1dbe 0237 8fbe 7e1b a43d
000000f0: 5d2d bb3e cb60 873e 72c3 90be 5e05 eabd
00000100: fe19 5a3e 752b 7d3e 37e7 8f3e 624f 28bd
00000110: bf4f 8ebd 3baa 6b3e e928 753e 634e 0f3f
00000120: a642 a0be 3739 53bd 73a1 15be 72b3 06bf
00000130: 521d ecbe ed53 c83e 3299 823e 5f5a 99be
00000140: 863b 913e 7e4d 24bd d260 a13e feea 5eba
00000150: c410 d13e 6882 00be b9e1 913e 9b90 ca3c
00000160: 7543 aabe 13f6 9d3d 8286 9b3e a62c 513d
00000170: 9cb6 d9bd eefa 15be da7f cdbe 98db 303e
00000180: 2dee 82be 32c9 0dbf d76c 0bbe dfe5 c63d
00000190: cf5b 24bf 0d86 41be 3070 8b3e 45ee 70bd
000001a0: b636 a6be 270f 423e fd31 5dbe 95e0 6cbb
000001b0: 5b3f 7ebe 8fdc 4e3e d1a2 1dbf 208b a1bd
000001c0: 4fbe 72be c102 153e ad9a 053e 8603 2e3e
000001d0: d206 ca3d 3b4c 96bc c152 233e 47c8 8cbe
000001e0: f4ca 42bd 50a9 b9bd b27c 59be aeb0 883e
000001f0: f794 0a3d abba ae3e 9dbf a93d 24a0 86be
00000200: 900c eb3d f81c 873c db7d 173f 3075 0ebe
00000210: e894 b03c fde9 a6be c76a d73d f0c1 d9be
00000220: bcc1 633d 5389 9ebc 44cb 9a3d b459 383e
00000230: 3ea6 0a3e 942e 77be 83e4 22be f0fc c63c
00000240: fe1a 0bbe 36c4 01be c959 5d3e 3a9d 60be
00000250: 4760 70be 5edb 1f3e 7bbe fa3c efb8 ec3d
00000260: c80c ed3d 5485 3ebe 3e17 593e ea43 e33d
00000270: 4949 6dbd 8d0e 0bbe 5181 80be a86f 1abd
00000280: 651f 0b3d 785c a3be 8c4d d1bd 0871 273e
00000290: 4731 b73e 3c27 933e 9f9f 603d b5c3 253e
000002a0: 8cba dbbe c85d 0d3e 76fe 96be f1c7 3e3e
000002b0: 5a38 8c3d 9f0d 893e 5e01 823e b6b4 36be
000002c0: 8115 be3e 76f7 9f3e 477b 08be f7da 8e3e
000002d0: e77f a7be 8c8d 81b9 7895 47be 1a77 0dbe
000002e0: 05da 613c 6226 73bd 6aae dd3e b796 e63d
000002f0: 8bdc e3be 8ed1 d13c d585 7f3e d5be 1e3e
00000300: 7789 1f3e 5b62 89bb 6217 7f3d dbf1 913e
00000310: 5964 01be daff 313e 0e23 c13d 34f6 e23c
00000320: 2121 15be 1846 833d b209 b6be 0c21 c6be
00000330: 5e8f 94bd 728a 90bd a094 a5bc d68d 6bbd
00000340: 90a9 b9bd 5227 1bbd 6351 7fbd bc50 1d3e
00000350: 8e08 cdbd b081 fe3e 1b0d 043e d4ef 1a3d
00000360: cc0f 86bd 2784 89bd ab05 ac3d 8a32 fabd
00000370: 57f4 0abd 121c 9ebd 11b2 c53e fc10 cdbd
00000380: 3b21 83be 3427 513e 82d3 c3bd ce33 5dbe
00000390: 193c c5be dde1 05be 3177 21bd 9f35 bfbd
000003a0: 4794 f73e ba2a 40bd 2010 d83e 894a 46bd
000003b0: b36b cbbe bed8 b5be bea5 2cbe cacd 3c3e
000003c0: 4ed7 1b3e 2e06 8ebd 35f1 313e 82d9 98bd
000003d0: 8ae4 003e a0ef 16be 7005 e93e 8462 33be
000003e0: 5a3b 903e 281e afbd 9830 20bf e64d 083d
000003f0: f436 0a3e 019e 933e dfc4 4fbd ac1c 0f3e

actor.0.bias f4 [22]
0.14060293 0.011901925 0.09304418 0.0005430328 -0.022278592 -0.04890674 -0.001830977 -0.06285261
-0.03407247 0.008303058 -0.08730556 0.05816319 0.011213934 -0.021034539 -0.00037117902 0.017366387
-0.08996133 0.059635658 0.004388591 0.011860807 -0.0012939575 0.066062465
00000000: 37fa 0f3e 4b00 433c f28d be3d 505a 0e3a
00000010: 9881 b6bc 6f52 48bd 65fd efba dfb8 80bd
00000020: 938f 0bbd 8d09 083c 42cd b2bd 863c 6e3d
00000030: a6ba 373c a050 acbc ce9a c2b9 f443 8e3c
00000040: a53d b8bd 8544 743d 2bce 8f3b d553 423c
00000050: 029a a9ba c24b 873d
