paper/training_results/seed-7/momarl/checkpoints/mlp_(negotiation=False)_(num_agents=12)_(window=False)_(reduced_space=False)_(fixed_savings_rate=False)_(rewards=['inverse_global_temperature', 'global_economic_output'])(wgen=uniform)(num_ensembles=1)(seed=7)_2025-01-16_22:46:27_w=[0.2589 0.7411].pt (torch, 38168 bytes, 9 tensors)

network.MLP.0.weight f4 [64, 18]
0	0xbe46a974	-0.19400579
1	0xbd5340f5	-0.05157562
2	0xbd56a4f2	-0.052403398
3	0xbf769f62	-0.9633695
4	0xbf94a529	-1.1612903
5	0x3f04b3b9	0.51836735
6	0xbd93fa50	-0.07225478
7	0xbdc0b28f	-0.09409057
8	0x3ad08d15	0.0015911186
9	0x3d58c661	0.052923564
10	0xbda9b5bd	-0.08286617
11	0xbb430773	-0.0029759079
12	0xbe02e1e4	-0.12781483
13	0x3a9cdd29	0.0011967766
14	0x3d04a068	0.032379538
15	0xb9fc0d6a	-0.0004807518
16	0xbc7e98c2	-0.01553935
17	0x3d978326	0.073980615
18	0xbe1590ee	-0.14606068
19	0xbbc42f15	-0.005987058
20	0x3d144e02	0.036207207
21	0xbf104137	-0.5634951
22	0xbf0b1521	-0.54329115
23	0xbd85577d	-0.06510828
24	0xbcb92201	-0.022599222
25	0x3f35174f	0.7073869
26	0xbeb4b1a6	-0.35291785
27	0xbef6c477	-0.48196766
28	0xbef0e0ec	-0.47046602
29	0x3deb103b	0.11477705
30	0xbeb1c99d	-0.3472413
31	0xbf3fb24c	-0.74881434
32	0x3ef2eb41	0.4744511
33	0xbf49450f	-0.78621
34	0xbdbb1283	-0.0913439
35	0x3e80f293	0.2518507
36	0xbd2ae3fe	-0.041721337
37	0xbe533273	-0.20624714
38	0x3c6ae161	0.014335961
39	0xbed0b69d	-0.40764323
40	0xbec2d189	-0.38050488
41	0x3cf4a6e2	0.029864732
42	0x3d56d05b	0.052444797
43	0xbea87830	-0.32904196
44	0x3e441624	0.19149071
45	0x3e846698	0.25859523
46	0xbf153f64	-0.5829985
47	0xbfa9f5bd	-1.3278118
48	0xbf49fdf3	-0.7890312
49	0xbda71308	-0.08157927
50	0xbe4d1467	-0.20027314
51	0xbe947e8e	-0.29002804
52	0xbebac099	-0.36475065
53	0xbe51b935	-0.20480807
54	0xbd3fbe07	-0.046812084
55	0x3e58ae7d	0.21160312
56	0xbe337783	-0.17526059
57	0x3d8fb7f6	0.0701751
58	0xbdf2747e	-0.11838625
59	0x3df828a7	0.12117129
60	0x3e5a4af2	0.21317652
61	0x3e19a251	0.15003325
62	0xbe3a9802	-0.18222049
63	0x3e1c4aaa	0.15262857
64	0xbe0d3d7e	-0.13792989
65	0xbd1f6163	-0.038911235
66	0xbdcc1c21	-0.09966303
67	0xbe2447bc	-0.1604299
68	0xbe6f77b6	-0.2338551
69	0x3e07933b	0.13239758
70	0xbe6bbb30	-0.23020625
71	0x3ba46376	0.0050167395
72	0xbc999634	-0.01874838
73	0x3d772f57	0.06034788
74	0xbe452a4b	-0.19254415
75	0xbe2df651	-0.16988494
76	0x3e06b3da	0.13154545
77	0xbe47842e	-0.19484016
78	0x3e206c1f	0.15666245
79	0xbda87fbd	-0.08227489
80	0x3dbdf447	0.09275108
81	0x3e278802	0.16360477
82	0xbe2d30a0	-0.1691308
83	0x3de5708c	0.11203107
84	0xbe179dc9	-0.14806284
85	0x3cb99051	0.022651823
86	0x3dd2e0a8	0.10296756
87	0xbe62a66e	-0.221338
88	0xbe032f54	-0.12811023
89	0xbe280f1a	-0.16412011
90	0xbe141288	-0.14460194
91	0x3cd09cde	0.025465425
92	0xbd7b143d	-0.061298598
93	0x3e1ee59b	0.15517275
94	0xbcabfef3	-0.020995593
95	0x3e2baadb	0.16764395
96	0x3db3b1a2	0.08774115
97	0x3e3abc72	0.18235949
98	0x3e27af28	0.1637541
99	0xbdd81435	-0.10550729
100	0x3c881f41	0.016616466
101	0xbd4017bd	-0.04689764
102	0xbe3d26ef	-0.18471883
103	0x3d2cf6df	0.042227622
104	0x3d6bb58e	0.05754619
105	0xbe1db902	-0.15402606
106	0x3bbda9da	0.00578807
107	0xbdd511ce	-0.104037866
108	0xbd323a47	-0.04351261
109	0x3ebd0c08	0.36923242
110	0xbc06f98c	-0.008238208
111	0xbecd237b	-0.40066132
112	0xbe639b88	-0.22227299
113	0xbe0d20b3	-0.13782005
114	0x3f0a90f1	0.54127413
115	0xbf9fbecb	-1.24801
116	0xbe922171	-0.2854114
117	0x3ee89cbc	0.4543208
118	0xbf07cf4a	-0.53050673
119	0x3e8a6ef6	0.2703778
120	0x3eb95c3e	0.36203188
121	0x3ecf613c	0.4050387
122	0xbe404da6	-0.1877962
123	0x3aad0e71	0.0013203156
124	0x3dd09348	0.10184342
125	0xbab8fdcd	-0.0014113724
126	0xbb2c3afd	-0.0026280277
127	0x3e5b825a	0.21436444
128	0xbe30f618	-0.17281377
129	0xbe808da3	-0.2510806
130	0x3f3728fd	0.7154692
131	0xbef727df	-0.48272607
132	0x3e694d6b	0.22783439
133	0xbe46c4e6	-0.19411048
134	0xbe80f805	-0.25189224
135	0xbe21e7cb	-0.15811078
136	0x3e05aca2	0.13054135
137	0xbe9a9b81	-0.30196765
138	0x3ed9f21e	0.42567533
139	0x3e5f5863	0.2181106
140	0x3d41dbe7	0.047328856
141	0x3f28d252	0.65945923
142	0x3e35f750	0.17770123
143	0x3f1515a1	0.5823613
144	0x3d1ea13a	0.038727976
145	0xbfaa3a94	-1.3299127
146	0xbd31148b	-0.043232482
147	0x3cb24d9d	0.021765525
148	0xbe92f41d	-0.2870187
149	0xbeb4c6d7	-0.35307953
150	0x3ed02538	0.40653396
151	0x3e3b3730	0.18282771
152	0x3f4069ff	0.7516174
153	0xbed496f2	-0.41521412
154	0xbe412ae0	-0.18864012
155	0xbed32725	-0.41240802
156	0xbe04c0a6	-0.12964115
157	0x3e684e94	0.22686225
158	0x3f092dd7	0.5358557
159	0x3e928d20	0.28623295
160	0xbe66ee94	-0.22551948
161	0xbf307259	-0.6892448
162	0xbf79155a	-0.97298205
163	0xbaec1103	-0.0018010441
164	0x3df1c145	0.11804441
165	0xc022aeb2	-2.5419126
166	0xbf33a977	-0.7018046
167	0xbec34a4d	-0.38142624
168	0xbdc3ad74	-0.09554568
169	0x3bd72193	0.0065652817
170	0x3d0c3c70	0.034237325
171	0xbe0175b9	-0.12642564
172	0x3baa8cd5	0.005204777
173	0xbdc1a0f7	-0.0945453
174	0xbdf8785d	-0.121323325
175	0x3e5ef602	0.21773532
176	0xbdf6eb18	-0.12056559
177	0xbce97bc2	-0.028501395
178	0x3a8aa3a3	0.0010577332
179	0x3beec0ac	0.007286152
180	0xbd8187bf	-0.0632472
181	0x3e7d60d7	0.24743973
182	0x3de1efca	0.11032064
183	0xbf4ff17a	-0.8122784
184	0xbf33b9c7	-0.7020535
185	0xbe822a80	-0.2542305
186	0xbf27271c	-0.6529405
187	0xbe22d5b1	-0.1590183
188	0xbed1c19a	-0.4096802
189	0x3e6721c9	0.22571482
190	0xbe38a564	-0.18031842
191	0xbe26a1cc	-0.16272658
192	0x3e2f7996	0.17136225
193	0xbe2fd10a	-0.17169586
194	0x3deecd7a	0.11660285
195	0xbe48a171	-0.19592835
196	0x3c88b514	0.016687907
197	0x3f46acd3	0.7760746
198	0x3e3063ff	0.17225645
199	0xbebc9372	-0.36831242
200	0xbedc93f4	-0.4308163
201	0xbcd6876e	-0.026187625
202	0xbff760f3	-1.9326462
203	0x3f2c661a	0.67343295
204	0x3d60229c	0.054720506
205	0x3d612465	0.05496635
206	0x3d075b45	0.033046026
207	0xbd08a85a	-0.033363678
208	0x3db0655d	0.086130835
209	0xbb8dcfa8	-0.004327733
210	0x3d561d5a	0.052274086
211	0xbcaa01db	-0.020752838
212	0xbe286e6a	-0.1644837
213	0x3c81c511	0.015841039
214	0x3a1b73f6	0.000593006
215	0x3d3ba241	0.045809034
216	0xbeb45656	-0.3522212
217	0xbed62be4	-0.4183036
218	0x3b87e3eb	0.004147043
219	0xbf17d560	-0.5930996
220	0xbea10265	-0.3144714
221	0x3e423b8d	0.1896803
222	0x3f070757	0.52745575
223	0x3d5fffba	0.05468724
224	0x3dcc7837	0.09983867
225	0xbd998eb1	-0.07497919
226	0xbebf3462	-0.37344652
227	0xbdfb3ccd	-0.12267456
228	0x3e5118ed	0.20419665
229	0xbdb9ff15	-0.09081856
230	0x3e859421	0.26089576
231	0x3f0cb60a	0.5496527
232	0x3d692bae	0.05692642
233	0xbf1cf446	-0.6131023
234	0xbd8c5af0	-0.068532825
235	0x3f0a9a0d	0.5414131
236	0xbe88a1ff	-0.26686093
237	0xbeaaf7cd	-0.33392182
238	0xbec318de	-0.3810491
239	0x3e845980	0.25849533
240	0xbf16fba2	-0.5897771
241	0x3d86cc5e	0.06581949
242	0xbe550109	-0.20801176
243	0x3da2ad8c	0.07943258
244	0xbcd3d9ed	-0.025860751
245	0x3e078029	0.13232483
246	0x3ea2376d	0.31682912
247	0x3e9ffcd9	0.31247595
248	0xbe02f6ab	-0.12789409
249	0x3eadb9a3	0.33930692
250	0xbe5ef9c7	-0.2177497
251	0xbf2dc20e	-0.6787423
252	0x3d24bbb9	0.04021809
253	0xbecfc01a	-0.4057625
254	0x3d1f4967	0.03888836
255	0xbe0b22ca	-0.1358749

network.MLP.0.bias f4 [64]
0	0x3ea04abe	0.31307024
1	0x3bfba803	0.0076799407
2	0x3e8ffe5d	0.2812375
3	0xbe076e9e	-0.13225791
4	0xbe0c1382	-0.13679317
5	0xbd74773d	-0.059684027
6	0xbdf041a1	-0.11731268
7	0x3dcdaef9	0.10043139
8	0x3e22356d	0.15840693
9	0x3e5b44c2	0.21412948
10	0xbe913d0a	-0.28366882
11	0xbf235ee6	-0.6381668
12	0x3e0e954e	0.13924143
13	0xbbd985f1	-0.0066382815
14	0x3db80a04	0.08986285
15	0x3f0ec02b	0.55761975
16	0x3f6cea22	0.9254476
17	0x3ed67f41	0.41893962
18	0x3e89d883	0.26922998
19	0xbb311a1d	-0.0027023621
20	0xb9b80131	-0.00035096103
21	0x3f226011	0.63427836
22	0xbdecc783	-0.11561491
23	0xbd9e900a	-0.07742317
24	0x3ec13558	0.3773601
25	0xbeffcb8f	-0.4995999
26	0x3f165cd3	0.5873539
27	0xbf5a6cf6	-0.8532251
28	0xbf3e129a	-0.74247134
29	0xbf951d64	-1.1649594
30	0x3e0d949d	0.13826223
31	0x3ece1d62	0.40256792
32	0xbad4dc68	-0.0016240003
33	0xbef01632	-0.46891934
34	0x3ef273f1	0.4735408
35	0x3e3633f0	0.1779325
36	0xbe71ac6b	-0.23600928
37	0xbd34b5c8	-0.044118673
38	0xbec4dc96	-0.38449544
39	0xbee0794e	-0.43842548
40	0x3e0611f1	0.13092782
41	0x3ea61566	0.324382
42	0x3e661f95	0.22472985
43	0xbba635b8	-0.0050723217
44	0xbe65c093	-0.22436742
45	0x3dbde57b	0.092722856
46	0xbd833ff8	-0.064086854
47	0xbd1cf8ef	-0.03832334
48	0xbdf076d9	-0.117414184
49	0xbee73b35	-0.4516236
50	0xb903c702	-0.0001256727
51	0x3ebbc482	0.3667336
52	0x3ea69880	0.32538223
53	0xbea858fe	-0.32880396
54	0xbf46eb7d	-0.77703077
55	0x3ee3177f	0.44353864
56	0xbf603ea9	-0.8759561
57	0x3f1700d9	0.5898567
58	0xbe95d861	-0.29266647
59	0xbb362cb3	-0.002779764
60	0x3a70844f	0.0009174989
61	0xbf0ffa9f	-0.5624179
62	0xbe10c315	-0.14136918
63	0x3ccde080	0.025131464

network.MLP.2.weight f4 [64, 64]
0	0xbf01c9ea	-0.5069872
1	0xbd6439df	-0.055719253
2	0xbdaa22e5	-0.08307437
3	0x3dffd7b6	0.124923155
4	0x3d491060	0.049087882
5	0xbd54ffe9	-0.052001867
6	0xbd590b24	-0.05298914
7	0x3e4710b3	0.19439964
8	0xbe8b02e1	-0.27150634
9	0x3dd776d2	0.1052071
10	0xbe56030f	-0.20899604
11	0x3dceba1f	0.100940935
12	0x3e1610f7	0.14654909
13	0xbe357ec9	-0.17724146
14	0xbc4c71f5	-0.012478341
15	0x3de9ba54	0.114124924
16	0xbc9f2020	-0.019424498
17	0xbd2463c1	-0.040134195
18	0xbd8a8ad2	-0.06764759
19	0xbdb90c28	-0.09035522
20	0x3d157343	0.036486875
21	0x3e1b98b6	0.15194973
22	0xbe7ea146	-0.24866208
23	0xbd655c08	-0.05599597
24	0xbd4dfa38	-0.050287455
25	0x3ca17176	0.019707423
26	0x3d887448	0.06662804
27	0x3e13e819	0.14444007
28	0x3ddff619	0.10935611
29	0x3dc58b69	0.09645731
30	0xbd85c7e9	-0.065322705
31	0xbdcd7d9f	-0.10033726
32	0xbd812d37	-0.06307452
33	0xbda47777	-0.080305986
34	0xbec1e306	-0.37868518
35	0xbc3b9ac3	-0.011450472
36	0xbd9d7eb6	-0.07690184
37	0xbd9f869a	-0.07789345
38	0x3ceb1937	0.028698547
39	0x3d8de216	0.06927888
40	0xbe800dc1	-0.25010493
41	0xbd8131b6	-0.0630831
42	0x3cfc1aa9	0.030774431
43	0xbdc6e366	-0.097113416
44	0x3db06c6e	0.08614431
45	0x3e343a56	0.17600378
46	0xbeb74770	-0.3579669
47	0x3dc1f32c	0.094702095
48	0xbdf6c560	-0.12049365
49	0x3e8b9231	0.27259973
50	0x3bd2860c	0.006424671
51	0x3dbd79a8	0.0925172
52	0xbd092e2c	-0.0334913
53	0x3e8e41d6	0.27784604
54	0x3d48d2c6	0.049029134
55	0xbc6e53be	-0.014546333
56	0x3d8b16bc	0.067914456
57	0xbc75e244	-0.015007559
58	0x3e6e507a	0.23272887
59	0x3d518bce	0.05115872
60	0x3db1fd5c	0.086909026
61	0xbe249ed5	-0.16076215
62	0xbd26c354	-0.040713623
63	0xbdf4e74a	-0.119581774
64	0x3d888ec1	0.06667853
65	0x3a8b2261	0.0010615104
66	0xbdf20582	-0.11817457
67	0xbd2090e8	-0.039200693
68	0xbd5d290c	-0.053994223
69	0xbdde93d5	-0.108680405
70	0x3d8dffc2	0.069335476
71	0x3ddbeac9	0.10738141
72	0x3e49b301	0.19697191
73	0x3e2c6d11	0.1683848
74	0x3eaed8eb	0.3414987
75	0xbed69ea3	-0.41917905
76	0x3e1e1d72	0.1544092
77	0x3e66a0b8	0.22522247
78	0x3db8d167	0.09024315
79	0x3d071dac	0.03298728
80	0xbe21496b	-0.15750663
81	0xbd994261	-0.07483364
82	0x3f4f0d22	0.80879414
83	0x3d93bef2	0.07214154
84	0xbd82d231	-0.06387747
85	0xbe24192c	-0.16025227
86	0x3df39d11	0.118951924
87	0x3df1cf4e	0.11807118
88	0x3e245713	0.16048841
89	0x3da7ca45	0.08192877
90	0x3bcffdd3	0.006347397
91	0x3eb2bd77	0.34910175
92	0xbf230a93	-0.6368801
93	0xbed18f41	-0.40929607
94	0xbd818785	-0.063246764
95	0x3da1dd67	0.07903557
96	0xb83147d4	-4.2266984e-05
97	0x3d4c4896	0.04987391
98	0x3d9b1bd3	0.075736664
99	0xbded02b0	-0.11572778
100	0x3e6f1b07	0.23350154
101	0x3ee3b103	0.44470987
102	0x3bc5ec42	0.006040127
103	0x3f2dab9a	0.6783997
104	0x3f25ee3a	0.6481663
105	0xbd6146f3	-0.054999303
106	0x3e195a34	0.14975816
107	0xbd25ebde	-0.040508144
108	0xbd9fd1ea	-0.0780371
109	0x3ed0bf42	0.40770918
110	0x3e30437a	0.1721324
111	0x3e4814c0	0.19539165
112	0x3cb2a1a8	0.0218056
113	0x3d89b3e7	0.06723767
114	0x3d99a6a0	0.07502484
115	0xbea666fb	-0.32500443
116	0x3d96d1d0	0.07364237
117	0x3d3bcfa3	0.045852315
118	0xbc3d0d1a	-0.011538768
119	0xbcb9e4eb	-0.022692164
120	0xbcec2765	-0.028827379
121	0x3b771006	0.003769876
122	0xbda06ec0	-0.07833624
123	0x3d83ca40	0.064350605
124	0x3ecc7051	0.3992944
125	0x3d737f31	0.05944747
126	0xbd9e90ae	-0.07742439
127	0x3dd767d4	0.105178505
128	0xbdaacef5	-0.08340255
129	0x3e606520	0.21913576
130	0x3e7427bc	0.23843282
131	0xbdf00732	-0.117201224
132	0x3de1f66a	0.11033328
133	0x3c8c8341	0.01715243
134	0xbf0ff6b0	-0.5623579
135	0xbbc4fef0	-0.006011836
136	0x3ec9dfd0	0.39428568
137	0xbd800bcf	-0.06252252
138	0xbd547826	-0.051872395
139	0x3d0a8367	0.03381672
140	0x3da08238	0.07837337
141	0x3e8a8e4a	0.27061683
142	0x3d990228	0.074711144
143	0xbd405213	-0.046953272
144	0xbd284ff3	-0.04109187
145	0xbdaa63f9	-0.083198495
146	0xbd9abb35	-0.07555238
147	0xbdbea56c	-0.093088955
148	0xbd8886e0	-0.0666635
149	0xbe3ad8fd	-0.18246837
150	0x3e87d91a	0.26532823
151	0xbd87d400	-0.06632233
152	0xbe4c0516	-0.19923815
153	0x3e56c739	0.20974435
154	0xbe02e9b7	-0.12784468
155	0xbe10eab1	-0.14152028
156	0xbddaee66	-0.10690002
157	0x3df5a03a	0.119934514
158	0x3e00ba9f	0.1257119
159	0x3e51387e	0.20431706
160	0xbc523311	-0.012829558
161	0xbde9e2e0	-0.11420226
162	0xbe859f3b	-0.26098046
163	0x3ec51514	0.38492644
164	0x3c057ec8	0.008147903
165	0xbdc1b343	-0.094580196
166	0xbe4b7796	-0.19869837
167	0xbcb519b1	-0.022106977
168	0x3da46dce	0.08028756
169	0x3db97531	0.090555556
170	0xbd320408	-0.043460876
171	0x3cad42e1	0.021150054
172	0x3c356310	0.011070982
173	0x3dde532a	0.10855706
174	0x3e70f529	0.23531021
175	0xbde7fe5a	-0.113278106
176	0xbce0b540	-0.027430177
177	0xbe9f7cb1	-0.3114982
178	0xbcdbaf42	-0.026816968
179	0x3e6e93da	0.23298588
180	0x3cc120c7	0.0235752
181	0xbf4ed415	-0.8079236
182	0x3d22d8c4	0.039757505
183	0xbde03eed	-0.10949502
184	0x3eafc13e	0.3432712
185	0xbd0561c0	-0.032563925
186	0xbdc52811	-0.09626783
187	0xbc486468	-0.01223097
188	0x3e4f4c66	0.20243987
189	0xbe393427	-0.18086301
190	0x3d279618	0.040914625
191	0x3e121465	0.14265592
192	0x3d6cf98d	0.057855178
193	0xbd0217c0	-0.03176093
194	0x3de0ba74	0.10973063
195	0xbcebf058	-0.028801128
196	0x3d1b7e5c	0.037962303
197	0x3d414b4b	0.047190946
198	0xbd781e55	-0.060575802
199	0xbba72561	-0.0051008915
200	0xbe87a00e	-0.264893
201	0xbe164acc	-0.1467697
202	0xbe9058e0	-0.28192806
203	0xbca05300	-0.019570827
204	0xbe82b177	-0.2552602
205	0xbcaa314f	-0.020775465
206	0xbe2bec58	-0.16789377
207	0xbe04ab43	-0.12955956
208	0x3c12f835	0.00897031
209	0xbdc78b31	-0.097433455
210	0xbe40651c	-0.1878857
211	0xbd999963	-0.07499959
212	0xba733444	-0.00092775025
213	0xbe420bdc	-0.18949836
214	0xbecd5df7	-0.40110752
215	0x3af29680	0.0018507987
216	0xbbdd714a	-0.00675789
217	0xbd8ebe90	-0.06969941
218	0xbe045d8f	-0.12926315
219	0xbd55842e	-0.05212801
220	0xbc19534b	-0.0093582375
221	0xbe057f1d	-0.13036771
222	0x3e689fa7	0.22717153
223	0xbdd195ed	-0.10233674
224	0xbbc933a5	-0.0061401897
225	0x3e2363aa	0.15955988
226	0x3ec0e0db	0.3767155
227	0x3be51b83	0.006991805
228	0x3d9af798	0.07566756
229	0xbd31514c	-0.04329042
230	0x3e075d59	0.13219203
231	0xbd9256c5	-0.07145456
232	0x3e5b9470	0.21443343
233	0x3d4f9989	0.050683532
234	0x3e99ff6c	0.30077684
235	0xbd576afa	-0.052592255
236	0x3da0853c	0.078379124
237	0xbe1781af	-0.14795564
238	0xbd416ce1	-0.047222976
239	0xbd476e93	-0.048689436
240	0x3df4e79a	0.11958237
241	0x3e518f82	0.204649
242	0x3dce9fba	0.10089059
243	0x3df1c584	0.11805251
244	0x3e094813	0.134064
245	0x3e5e21aa	0.2169253
246	0x3ea79a07	0.327347
247	0xbd341e69	-0.043974314
248	0x3e1f79ea	0.1557385
249	0xbd1b3b87	-0.037898567
250	0x3e535e1d	0.2064137
251	0x3d760a9d	0.060068715
252	0xbd3b8cff	-0.04578876
253	0x3ecfde8c	0.40599477
254	0x3d9c82aa	0.0764211
255	0x3e4592de	0.19294307

network.MLP.2.bias f4 [64]
0	0xbd83b3cb	-0.06430777
1	0x3e39c516	0.18141589
2	0x3d60e9a9	0.054910336
3	0xbd56a377	-0.052401986
4	0xbc959832	-0.018261049
5	0x3cd1db6a	0.02561732
6	0xbd2a5b47	-0.041590955
7	0x3e563ce7	0.2092167
8	0x3e995caf	0.29953524
9	0xbb4aefe0	-0.003096573
10	0xbe86eb80	-0.26351547
11	0xbdc18f37	-0.09451144
12	0xbe0be7c4	-0.1366263
13	0xbdad2894	-0.08455005
14	0xbe234636	-0.15944752
15	0x3c20371c	0.009778764
16	0xbde58e30	-0.11208761
17	0x3e23c7e9	0.15994228
18	0x3e5751f8	0.21027362
19	0x3dd5de81	0.1044283
20	0xbd66019d	-0.056153882
21	0xbfd6dc22	-1.6785929
22	0x3e521a6a	0.20517889
23	0x3f997125	1.1987654
24	0x3c6c7bc6	0.014433807
25	0x3f6a5cb3	0.915477
26	0x3e327bf7	0.17430101
27	0xbd93d706	-0.07218747
28	0xbd9a8fd7	-0.075469665
29	0x3c0794cb	0.008275221
30	0xbd8f2404	-0.06989291
31	0xbe240a13	-0.16019468
32	0x3e2ccd36	0.16875157
33	0xbc22fc4c	-0.009947848
34	0xbd86ae74	-0.06576243
35	0xbb2a8eb4	-0.0026025
36	0xbe17226b	-0.14759223
37	0x3c8b6ac2	0.01701868
38	0x3e128527	0.14308606
39	0xbdd45a46	-0.10368781
40	0x3e2e5f84	0.17028624
41	0x3bcaec34	0.0061927084
42	0xbe58a42b	-0.21156375
43	0xbfce84d6	-1.6134288
44	0x3eafa21d	0.3430337
45	0x3cff763d	0.03118431
46	0xbe69cb3c	-0.22831434
47	0xbdc4a37d	-0.096014954
48	0xbdcefbeb	-0.10106643
49	0xbe162a64	-0.14664608
50	0xbe21fc97	-0.15819012
51	0x3f0cc33f	0.5498542
52	0x3cd65295	0.026162425
53	0xbdb9525c	-0.09048912
54	0xbe310230	-0.1728599
55	0x3f166897	0.5875334
56	0x3de426b4	0.111401945
57	0xbdfa20a8	-0.1221326
58	0xbe33e458	-0.17567575
59	0xbf51a4e4	-0.8189223
60	0x3ea4869a	0.32133943
61	0x3df6c37c	0.120490044
62	0xbe856dad	-0.26060238
63	0x3e0d19a6	0.13779315

network.MLP.3.weight f4 [64]
0	0x3f7e7672	0.99399483
1	0x3f2fc1ec	0.68655276
2	0x3fb7f49f	1.4371527
3	0x3fb18ac3	1.3870472
4	0x3fb38ed0	1.4027958
5	0x3fae7e09	1.3632213
6	0x3fa0c850	1.256113
7	0x3f4413f7	0.76592964
8	0x3f8f62b9	1.1202003
9	0x3f8c9171	1.0981885
10	0x3f989cac	1.1922812
11	0x3fc3e142	1.5303118
12	0x3fa39e93	1.2782768
13	0x3f8a8ba7	1.0823869
14	0x3fa1c202	1.2637331
15	0x3fa95b6c	1.3231025
16	0x3f9bc557	1.2169598
17	0x3ff3545c	1.901012
18	0x3fade48b	1.3585371
19	0x3fbd975f	1.481182
20	0x3f973e8e	1.1815965
21	0x3f42abd6	0.7604345
22	0x3fa8adcb	1.3178037
23	0x3f1c8a90	0.6114893
24	0x3fa03fed	1.2519509
25	0x3f0ee5f0	0.55819607
26	0x3f98a865	1.192639
27	0x3fd03b4b	1.6268095
28	0x3f8d8db2	1.1058867
29	0x3fd93ee9	1.6972324
30	0x3fa904d1	1.3204595
31	0x3f717551	0.94319636
32	0x3f980c0f	1.187868
33	0x3fa66057	1.299815
34	0x3fb43d98	1.4081297
35	0x3fa7fa3e	1.3123243
36	0x3f877373	1.0582107
37	0x3fbf52fc	1.49472
38	0x3f98d88d	1.1941086
39	0x3f901d77	1.1258992
40	0x3fb40c4d	1.4066254
41	0x3f88537f	1.0650481
42	0x3fb7996e	1.4343698
43	0x3f358a8e	0.7091454
44	0x3f1a7223	0.6033041
45	0x3ed430f9	0.41443613
46	0x3f532100	0.8247223
47	0x3f6022a8	0.8755288
48	0x3f86ed05	1.0541083
49	0x3fd4553f	1.6588515
50	0x3fbd3e8b	1.4784712
51	0x3f266865	0.65003043
52	0x3fa5b1ff	1.2944945
53	0x3fafbb91	1.3729116
54	0x3f95c844	1.1701741
55	0x3f0d93dc	0.5530374
56	0x3f535750	0.82555103
57	0x3f79d144	0.9758494
58	0x3fce3bba	1.6111977
59	0x3ec1f6c4	0.3788358
60	0x3f4dfa94	0.80460477
61	0x3f91862b	1.136907
62	0x3f81acba	1.0130837
63	0x3fb20515	1.3907801

network.MLP.3.bias f4 [64]
0	0x3d6c0f07	0.05763152
1	0xbe1f006f	-0.15527509
2	0xbe235b3c	-0.15952772
3	0xbd742e5d	-0.059614528
4	0x3e0d549a	0.13801804
5	0x3c678474	0.0141307
6	0x3d125549	0.035725866
7	0x3d973d9e	0.073847994
8	0xbdf6ccd8	-0.120507896
9	0xbcd4cda9	-0.025976973
10	0x3dde17ee	0.10844408
11	0x3e247be0	0.1606288
12	0x3d338eab	0.04383723
13	0x3e090330	0.13380122
14	0x3cbe515e	0.023232158
15	0x3d50907d	0.050919045
16	0x3d4bb46d	0.049732614
17	0x3cb68f5b	0.022285154
18	0xbd38b418	-0.045093626
19	0x3d5899ca	0.05288104
20	0x3e15cd57	0.14629112
21	0x3d9e8ac5	0.07741312
22	0xbd3dc78f	-0.046332892
23	0xbe58e7f6	-0.21182236
24	0xbd887714	-0.06663337
25	0xbe96a0d7	-0.29419586
26	0xbdacfe99	-0.08446998
27	0x3cd57e26	0.026061129
28	0x3d81f85d	0.063462
29	0x3d2cfb55	0.042231876
30	0x3c754127	0.014969147
31	0x3e1109a6	0.14163837
32	0xbe02d46e	-0.12776348
33	0x3d5a5c66	0.053310774
34	0x3db542d2	0.088506356
35	0x3ddf8223	0.109134935
36	0xbbd2f689	-0.0064380807
37	0xbd23e4c9	-0.04001311
38	0xbe7a97c0	-0.2447195
39	0x3cafcb0d	0.021459127
40	0x3b8eefa0	0.0043620616
41	0xbca959b5	-0.020672658
42	0x3ded6948	0.115923464
43	0x3dcc1662	0.09965207
44	0xbe2841f6	-0.16431412
45	0x3d3c6ad2	0.04600031
46	0xbe141b71	-0.14463593
47	0x3dbe1899	0.092820354
48	0x3b4770a1	0.0030432122
49	0xbc3dd466	-0.011586284
50	0xbda4b1d9	-0.08041734
51	0xbd32b463	-0.04362906
52	0x3c856c1c	0.016286902
53	0x3da50c21	0.08058954
54	0x3bb4673e	0.0055054715
55	0xbe0d8e27	-0.13823758
56	0xbce91a26	-0.028454851
57	0xbcb5bb26	-0.022183966
58	0x3c699f5a	0.014259184
59	0x3eb80dac	0.3594793
60	0xbd82d8ac	-0.06388983
61	0xbc6de631	-0.014520214
62	0x3e1effc1	0.1552725
63	0xbd598857	-0.05310854

critic.0.weight f4 [1, 64]
0	0x3cffed7e	0.031241175
1	0x3d6669cc	0.05625324
2	0xbb987d3a	-0.0046536
3	0xbc5f0261	-0.013611407
4	0x3ba22dc8	0.004949305
5	0x3cd76766	0.026294421
6	0x3c767412	0.015042322
7	0x3e6d68c1	0.23184492
8	0xbbe92b3f	-0.007115751
9	0x3c004d6c	0.007830959
10	0x3cc3fc12	0.023923907
11	0x3d1fd764	0.039023772
12	0xba5be701	-0.0008388609
13	0x3c7a29d0	0.015268758
14	0x3c8feb5a	0.017568279
15	0x3c87b677	0.016566498
16	0x3c24dd42	0.010062518
17	0x3d086c41	0.033306364
18	0x3c769219	0.015049481
19	0x3cf63553	0.030054724
20	0x3b1a54bd	0.0023549043
21	0xbe690300	-0.2275505
22	0x3c5b3d43	0.013381305
23	0x3e38124b	0.17975728
24	0x3c3ea830	0.011636779
25	0x3e10d302	0.14142993
26	0x3cd1044d	0.025514746
27	0xbc94a8cb	-0.018146893
28	0x3d5b2ec5	0.0535114
29	0xbb561bb3	-0.0032670319
30	0x3cc65862	0.024212066
31	0x3cba8dec	0.022772752
32	0x3d4bcaa4	0.0497538
33	0x3c48be47	0.012252397
34	0x3d21aff5	0.039474446
35	0x3d3c522c	0.045976803
36	0x3d01895c	0.031625137
37	0x3d010fdc	0.031509265
38	0xbb1dca5f	-0.0024076921
39	0x3c7f6d74	0.0155900605
40	0x3cfc3790	0.030788213
41	0x3ccae526	0.02476747
42	0xbc33b4fb	-0.010968442
43	0xbe5f3cc5	-0.21800525
44	0x3d1c4a2b	0.03815667
45	0x3d800e7c	0.06252763
46	0xbea36fed	-0.3192133
47	0x3cf55240	0.029946446
48	0x3d4239b7	0.047418322
49	0x3ce99646	0.028514039
50	0x38ceae68	9.855331e-05
51	0x3d7697ff	0.06020355
52	0x3d2c8cbe	0.04212641
53	0xba8e3049	-0.001084813
54	0xbcf907d5	-0.030399242
55	0x3d3c5ec9	0.04598883
56	0x3c1dc45e	0.009629337
57	0x3cd46d11	0.025930913
58	0x3b17a3a9	0.002313832
59	0x3d762481	0.060093407
60	0x3da5e53a	0.08100362
61	0x3d025a22	0.03182424
62	0xbc425d09	-0.011863002
63	0x3d4af9db	0.049554687

actor.0.weight f4 [22, 64]
0	0x3c63bca8	0.01389996
1	0x3cb342e1	0.021882476
2	0xbf2c296c	-0.67250705
3	0xbd790caa	-0.060803093
4	0xbe695ae7	-0.22788583
5	0xbe117b41	-0.14207174
6	0x3ef7895e	0.4834699
7	0x3d489651	0.048971478
8	0x3d6bc9cd	0.0575655
9	0xbe578473	-0.21046619
10	0xbedaa479	-0.42703608
11	0x3d6782c0	0.056521177
12	0x3e3adbbc	0.18247885
13	0xbea87476	-0.32901353
14	0xbded70ef	-0.11593806
15	0xbe85d487	-0.26138708
16	0xbe82a635	-0.2551743
17	0xbf11a94c	-0.5689895
18	0x3d15ee88	0.036604434
19	0x3e874be4	0.26425087
20	0xbe78147a	-0.24226561
21	0xbbbf673e	-0.005841165
22	0xbe2f3482	-0.17109874
23	0xbcc68de0	-0.024237573
24	0xbdc5f48b	-0.096657835
25	0xbe567a49	-0.20945086
26	0xbe61e672	-0.22060564
27	0x3c30ad22	0.010783466
28	0x3e301f64	0.17199475
29	0xbeb1641c	-0.3464669
30	0xbeef0db9	-0.46690157
31	0x3e7b5d4e	0.24547312
32	0xbe7288c6	-0.23684987
33	0xbeaacf0f	-0.33361098
34	0xbe08838f	-0.13331436
35	0x3d9b7a32	0.07591666
36	0x3e95b726	0.29241294
37	0x3e41b295	0.1891578
38	0xbec46b9f	-0.38363358
39	0x3d0f2695	0.034948904
40	0xbd3c93d6	-0.046039425
41	0xbe914174	-0.2837025
42	0x3ddda939	0.10823292
43	0x3d2c8cc4	0.042126432
44	0x3e15bd07	0.1462289
45	0xbded416a	-0.11584742
46	0x3d0dcdb5	0.034620006
47	0x3d068d63	0.03284968
48	0x3eed80f6	0.46387452
49	0x3ea79d28	0.32737088
50	0x3ec7a479	0.3899267
51	0x3d1a84a6	0.03772416
52	0x3f47f913	0.7811443
53	0xbea4aaca	-0.32161552
54	0x3e4c2fe9	0.19940151
55	0x3d992f9d	0.07479785
56	0xbe0e9694	-0.13924628
57	0x3e7b6647	0.24550734
58	0x3e5026bd	0.20327277
59	0x3b854128	0.004066605
60	0x3d2ebacc	0.042658612
61	0x3df381e4	0.11890009
62	0xbe9e6918	-0.30939555
63	0x3e666886	0.2250081
64	0xbf00237c	-0.50054145
65	0xbcc2af08	-0.023765102
66	0x3da1657e	0.07880686
67	0x3c94ba1f	0.018155156
68	0x3d45a56a	0.048253454
69	0x3e881f1f	0.26586244
70	0x3e2c719b	0.16840212
71	0xbba12f04	-0.004918935
72	0x3e850130	0.25977468
73	0xbe7ca1c6	-0.24671087
74	0xbe070c61	-0.13188316
75	0x3d9065ad	0.07050643
76	0x3e28cddb	0.16484778
77	0x3db59972	0.08867158
78	0xbe8f4a2c	-0.27986276
79	0x3eeb0309	0.45900753
80	0xbd3f35fb	-0.04668234
81	0xbecc0dcc	-0.39854276
82	0x3e2eef75	0.17083533
83	0x3e3b15ff	0.1827011
84	0xbe154f61	-0.14581062
85	0xbcafdbe2	-0.021467153
86	0xbe05e00c	-0.13073748
87	0xbcb31fc4	-0.021865733
88	0x3e70b45a	0.23506299
89	0xbddae953	-0.10689034
90	0xbf00da11	-0.5033274
91	0xbe9cdaee	-0.3063578
92	0x3e50c6fe	0.2038841
93	0x3e9dcb45	0.30819145
94	0x3d646978	0.055764645
95	0xbe551d7c	-0.20812029
96	0x3de53054	0.111908585
97	0xbe05a0fc	-0.13049692
98	0xbe15aa7a	-0.14615813
99	0x3f1db37a	0.61601985
100	0xbdee1d6b	-0.11626705
101	0x3f0942d6	0.5361761
102	0xbcbc178b	-0.022960445
103	0xbf1cec7c	-0.61298347
104	0xbee7699d	-0.45197764
105	0x3ef61a70	0.48067045
106	0xbeb6c082	-0.35693747
107	0x3d20bfea	0.039245524
108	0xbe9199e9	-0.28437737
109	0x3d040640	0.032232523
110	0xbd232d92	-0.03983838
111	0xbe963879	-0.2933996
112	0xbe9d63c3	-0.30740175
113	0x3f17aaac	0.592448
114	0x3e2db1a8	0.16962302
115	0x3db76335	0.08954469
116	0x3c989dff	0.018630026
117	0xbe140555	-0.14455159
118	0xbd48ba2b	-0.04900567
119	0x3e3e5f80	0.18591118
120	0x3db10c1d	0.086448886
121	0xbe941cd4	-0.28928244
122	0xbeae54dd	-0.3404912
123	0x3deaaae2	0.114583746
124	0x3eab6fff	0.33483884
125	0x3e17b4db	0.14815085
126	0xbeb90b8e	-0.36141628
127	0xbe77f465	-0.24214323
128	0x3cbb4e5a	0.02286451
129	0xbd9d846b	-0.07691272
130	0x3f0f68fe	0.5601958
131	0xbdefa732	-0.11701812
132	0x3f012ff1	0.5046378
133	0x3d6f9466	0.058491133
134	0x3c914f5c	0.017738037
135	0x3d3da324	0.04629816
136	0x3e1602bb	0.14649479
137	0x3e21a254	0.1578458
138	0x3e8b6980	0.27228928
139	0xbeb41534	-0.35172427
140	0xbe0dd191	-0.13849474
141	0x3e3adcc6	0.18248281
142	0x3e4a769e	0.19771811
143	0xbe7ac773	-0.24490146
144	0xbd3e7913	-0.046502184
145	0xbe2705d3	-0.16310816
146	0xbec0c5e7	-0.37650988
147	0x3d6d45a1	0.05792773
148	0xbf1d0be6	-0.6134628
149	0xbd8cf720	-0.06883073
150	0x3dc0d7b4	0.09416142
151	0xbc843a34	-0.016141035
152	0x3ef902c7	0.4863493
153	0xbcfb3bc1	-0.030668141
154	0xbed118d6	-0.4083926
155	0xbe16ab8a	-0.14713874
156	0x3d08d703	0.033408176
157	0x3e8b5e69	0.27220467
158	0x3e161ebc	0.14660162
159	0xbeb67389	-0.3563502
160	0xbe12c578	-0.14333141
161	0xbe5a5b6d	-0.21323939
162	0x3dfa168a	0.1221133
163	0x3dd2782e	0.10276829
164	0x3e2bb2e6	0.16767463
165	0x3e826253	0.2546564
166	0xbe56768e	-0.20943663
167	0x3e95f5ee	0.29289192
168	0xbdd92b19	-0.10603923
169	0x3e937de5	0.28806987
170	0xbee27149	-0.44227055
171	0xbcd2fda5	-0.025755713
172	0xbeb45910	-0.352242
173	0x3d819f1a	0.06329174
174	0xbcc82643	-0.024432307
175	0xbdd08d6e	-0.101832256
176	0x3dc09879	0.09404082
177	0xbce9316f	-0.028465955
178	0x3e4b3482	0.19844249
179	0xbda4868c	-0.08033475
180	0x3befd8cb	0.007319545
181	0xbe0b2d71	-0.13591553
182	0x3e90ed53	0.28306064
183	0xbadab877	-0.0016687055
184	0x3ddbff7f	0.107420914
185	0x3d99d11a	0.07510586
186	0x3e0c15d5	0.13680203
187	0x3eb3e141	0.35132793
188	0xbe3e787f	-0.18600653
189	0xbe62d1d2	-0.22150353
190	0xbce00c6c	-0.027349673
191	0xbe7e6349	-0.24842562
192	0x3f10391d	0.5633715
193	0xbd2a4941	-0.041573767
194	0xbea77d03	-0.32712564
195	0xbe989fa1	-0.29809287
196	0x3d4998c9	0.049217973
197	0xbdee8238	-0.11645931
198	0x3d8d2bb4	0.06893101
199	0x3e06207a	0.13098326
200	0xbe9f7cf8	-0.3115003
201	0xbe7aed9e	-0.24504706
202	0xbeb09c6f	-0.3449435
203	0xbe4d09f7	-0.20023333
204	0x3ed48896	0.41510457
205	0xbd724d74	-0.059155896
206	0x3ec4c6fa	0.38433057
207	0x3e65b895	0.22433694
208	0x3c56601d	0.013084439
209	0xbe32c221	-0.17456867
210	0xbd7cd40a	-0.061725654
211	0x3ebf03a0	0.37307453
212	0x3e319634	0.17342454
213	0x3d728e87	0.059217956
214	0x3e39a18b	0.1812803
215	0xbb4ea9d5	-0.0031534333
216	0xbb1c660b	-0.0023864533
217	0x3d62188c	0.05519919
218	0x3eea0a05	0.4571077
219	0x3e65ea61	0.2245269
220	0x3db4d7d1	0.08830226
221	0xbc770add	-0.015078274
222	0xbe7deb0e	-0.24796697
223	0x3e4d66cc	0.20058745
224	0xbe9edcb7	-0.31027767
225	0x3e6b45aa	0.22975793
226	0x3e33b950	0.1755116
227	0x3d076d40	0.033063173
228	0x3d207f6a	0.03918401
229	0x3e87a0ec	0.2648996
230	0xbe7ab171	-0.24481751
231	0x3e4571b8	0.19281662
232	0xbdfbd60c	-0.122966856
233	0x3e0f8832	0.14016798
234	0xbe6c1088	-0.23053181
235	0xbc6c51bf	-0.014423787
236	0x3d9eecf7	0.07760041
237	0x3e10a108	0.14123929
238	0xbdf591a2	-0.11990668
239	0xbeac1dfe	-0.33616632
240	0xbcec017c	-0.028809302
241	0xbd530fbd	-0.05152868
242	0xbe51b8a7	-0.20480596
243	0xbd896fd5	-0.067107834
244	0x3ddaee80	0.106900215
245	0xbdb6875e	-0.08912538
246	0xbe945556	-0.28971356
247	0xbe5f2a86	-0.21793565
248	0xbe8fbb97	-0.28072807
249	0x3e0d47f0	0.13796973
250	0x3d95da2f	0.07317006
251	0xbe504249	-0.20337786
252	0x3d820b80	0.0634985
253	0xbe3ea4aa	-0.18617502
254	0xbd21c343	-0.039492857
255	0xbdccee08	-0.10006338

actor.0.bias f4 [22]
0	0xbdbd541f	-0.092445605
1	0xbca849d2	-0.020543013
2	0xbd1185e4	-0.03552808
3	0xbb969b2e	-0.0045961356
4	0xbb659853	-0.003503342
5	0xbd6184d6	-0.055058323
6	0xbc774ee0	-0.015094489
7	0xbd30d959	-0.04317603
8	0x3deea2fa	0.11652179
9	0x3d915057	0.07095402
10	0xbc8d53bf	-0.017251847
11	0x3c0e21b6	0.0086750295
12	0x3a81fa97	0.00099166
13	0x3d7a2444	0.06106974
14	0xbbfb2675	-0.0076644965
15	0xbd9ee08f	-0.07757675
16	0xbc7b49db	-0.015337433
17	0x3c36b638	0.011151843
18	0x3d12ee78	0.035871953
19	0xbdacf73a	-0.08445592
20	0x3ceb7a43	0.028744822
21	0xbd2016f7	-0.0390844
