paper/training_results/seed-7/momarl/checkpoints/mlp_(negotiation=False)_(num_agents=12)_(window=False)_(reduced_space=False)_(fixed_savings_rate=False)_(rewards=['inverse_global_temperature', 'global_economic_output'])(wgen=uniform)(num_ensembles=1)(seed=7)_2025-01-16_22:46:27_w=[0.164 0.836].pt (torch, 38076 bytes, 9 tensors)

network.MLP.0.weight f4 [64, 18]
-0.1516101 0.14035305 -0.028919496 -1.2402331 -0.0790084 0.40944627 -0.0756815 -0.09055495
-0.08882201 -0.03695129 -0.0037867962 -0.008362208 0.03330045 0.16318385 -0.0839548 0.025556399
-0.14747071 0.11451545 -0.20588362 0.12310789 0.10362893 -0.659597 0.13368626 -0.05879947
-0.62627935 0.46978173 -0.089725934 -0.16035385 -0.5460495 0.06678006 0.09404508 -0.33968684
0.33957818 -0.29343754 0.23395963 -0.52016044 -0.3372957 -0.40333855 0.043705095 -0.36978108
-0.2689549 0.017291104 -0.49969542 -0.12953788 0.5978976 -0.100405246 -0.028560232 -0.6986928
-0.20891443 -0.20149785 0.40369323 -0.14236024 0.041624345 0.10098947 -0.051157467 0.20799352
-0.17855874 0.0698003 -0.11838625 0.120543934 0.21261568 0.14979431 -0.18240173 0.15217048
-0.13822533 -0.038911235 -0.099844225 -0.1604299 -0.23397726 0.13199258 -0.23020625 0.0050167395
-0.01874838 0.06034788 -0.19254415 -0.16988494 0.13154545 -0.19484016 0.15666245 -0.08227489
0.09275108 0.16360477 -0.1691308 0.11203107 -0.14806284 0.022651823 0.10296756 -0.221338
-0.12811023 -0.16412011 -0.14143151 0.02551866 -0.06183815 0.15644744 -0.020994607 0.17004323
0.09047853 0.18486817 0.16690534 -0.10578234 0.02020453 -0.043767698 -0.18122654 0.046356335
0.060705103 -0.15202233 0.008427341 -0.10157904 0.058003433 -0.13028046 -0.058082383 -0.19579951
0.0586008 0.17492278 0.292044 -0.72537 -0.16715072 0.26059794 -0.2044765 -0.05607772
-0.2585049 0.1983911 -1.4811203 -0.28761643 0.055786513 -0.31346402 -0.0050521083 0.17528403
-0.030176738 0.062437832 -0.23505929 0.11027337 -0.61844534 0.33856443 -0.13807335 -0.1923202
0.24563928 0.08969017 -0.0776055 0.2580525 -0.3136654 0.041213095 0.05448141 0.13675262
0.009035143 0.2878409 -0.026951058 -0.39745617 0.16027765 -0.84939814 0.45028803 -0.18503664
0.7691829 -0.38322788 -0.21250004 0.19933537 -0.11655686 0.15759796 0.105046175 0.48200697
-0.0917737 -0.20423977 -0.49431637 0.17446864 0.18440166 -0.61768824 -0.37657768 -0.53185254
-0.15825967 -0.18536615 -0.23700625 0.08781295 0.53038126 -0.10802019 0.02283016 0.14234395
0.41079336 0.04100358 -0.16444752 -0.084111385 0.013435051 -0.14513288 0.036344595 -0.24311349
-0.5429972 0.015469623 -0.48865667 0.24963951 -0.4535315 -0.040547866 -0.16817403 0.025339866
-1.4591721 -0.5761064 -0.32147568 0.4065697 -0.09582285 1.0195827 0.08604969 -0.23764233
-0.16343766 0.01902807 0.13916627 0.4054864 -0.050740723 0.0066838427 -0.18661578 -0.010239994
-0.013865451 -0.23920046 -0.09188856 0.019269543 -0.10499197 0.03739797 0.032459777 0.1872259
-0.34774855 -0.18597655 0.06692792 -0.623112 -1.5589836 0.24234937 0.20282629 -0.26528156
0.3057155 -0.608278 -0.07825606 -0.2695743 -0.42579073 -0.8812718 0.12786324 -0.013578865
-0.25932485 0.10380927 0.037131846 -0.2734891 -0.0037056764 -0.64300746 0.3778047 0.29979742
-0.87278813 0.16637006 -0.11353251 -0.30020308 -0.32061005 0.47973686 0.08291415 -0.008969196
-0.53332996 -0.14165461 -0.22929831 -0.6953111 0.08163239 -1.484048 -0.033366244 -0.08274217
00000000: ae3f 1bbe b6b8 0f3e 94e8 ecbc f5bf 9ebf
00000010: 28cf a1bd f1a2 d13e e7fe 9abd e074 b9bd
00000020: 50e8 b5bd 3c5a 17bd e62b 78bb a401 09bc
00000030: 0d66 083d ab19 273e 7ff0 abbd a75b d13c
00000040: 9002 17be 1487 ea3d 28d3 52be fd1f fc3d
00000050: 683b d43d 59db 28bf 0de5 083e b7d7 70bd
00000060: d853 20bf 3b87 f03e 3bc2 b7bd cd33 24be
00000070: e6c9 0bbf fcc3 883d b59a c03d 6feb adbe
00000080: 31dd ad3e 723d 96be 1d93 6f3e 3c29 05bf
00000090: 06b2 acbe 6482 cebe 1d04 333d f253 bdbe
000000a0: 75b4 89be 13a6 8d3c 14d8 ffbe 94a5 04be
000000b0: d10f 193f 44a1 cdbd 26f7 e9bc 88dd 32bf
000000c0: aaed 55be 7455 4ebe e1b0 ce3e e2c6 11be
000000d0: 4a7e 2a3d 91d3 ce3d 7e8a 51bd 41fc 543e
000000e0: 1ad8 36be 76f3 8e3d 7e74 f2bd bddf f63d
000000f0: edb7 593e ae63 193e 85c7 3abe 94d2 1b3e
00000100: f18a 0dbe 6361 1fbd 217b ccbd bc47 24be
00000110: bc97 6fbe 1029 073e 30bb 6bbe 7663 a43b
00000120: 3496 99bc 572f 773d 4b2a 45be 51f6 2dbe
00000130: dab3 063e 2e84 47be 1f6c 203e bd7f a8bd
00000140: 47f4 bd3d 0288 273e a030 2dbe 8c70 e53d
00000150: c99d 17be 5190 b93c a8e0 d23d 6ea6 62be
00000160: 542f 03be 1a0f 28be 6cd3 10be 820c d13c
00000170: 004a 7dbd c233 203e e2fc abbc d01f 2e3e
00000180: cf4c b93d 154e 3d3e 3ce9 2a3e 69a4 d8bd
00000190: f883 a53c c245 33bd 7393 39be 24e0 3d3d
000001a0: eaa5 783d beab 1bbe d412 0a3c ac08 d0bd
000001b0: 0295 6d3d 3e68 05be cbe7 6dbd ab7f 48be
000001c0: 6407 703d f51e 333e cb86 953e d9b1 39bf
000001d0: 8f29 2bbe 186d 853e 4a62 51be c0b1 65bd
000001e0: c15a 84be 0927 4b3e 5a95 bdbf 7642 93be
000001f0: 6680 643d 5b7e a0be 288c a5bb a87d 333e
00000200: 3535 f7bc d0be 7f3d 62b3 70be 01d7 e13d
00000210: 6f52 1ebf 5158 ad3e 1a63 0dbe 96ef 44be
00000220: dd88 7b3e 7baf b73d a2ef 9ebd 751f 843e
00000230: c098 a0be 10cf 283d e627 5f3d e108 0c3e
00000240: 2308 143c e25f 933e 77c8 dcbc 607f cbbe
00000250: d31f 243e 2872 59bf 278c e63e 3f7a 3dbe
00000260: 2ce9 443f 7236 c4be 9c99 59be 921e 4c3e
00000270: 5db5 eebd 5c61 213e 7322 d73d 9ec9 f63e
00000280: daf3 bbbd 3b24 51be 0917 fdbe e8a7 323e
00000290: cad3 3c3e d120 1ebf cace c0be 7d27 08bf
000002a0: d30e 22be a0d0 3dbe c4b1 72be 47d7 b33d
000002b0: 11c7 073f b039 ddbd 5106 bb3c 9dc2 113e
000002c0: 8253 d23e 5ff3 273d ee64 28be 9742 acbd
000002d0: b01e 5c3c b79d 14be 12de 143d bef2 78be
000002e0: dd01 0bbf 4d74 7d3c 3531 fabe 80a1 7f3e
000002f0: 4835 e8be 8515 26bd d035 2cbe 8d95 cf3c
00000300: 27c6 babf b67b 13bf 7698 a4be e729 d03e
00000310: c53e c4bd b081 823f d23a b03d 8358 73be
00000320: 345c 27be c1e0 9b3c 9a81 0e3e ea9b cf3e
00000330: 81d5 4fbd 2304 db3b 3518 3fbe a6c5 27bc
00000340: eb2b 63bc f7f0 74be 1230 bcbd 29db 9d3c
00000350: 0806 d7bd 9d2e 193d 8bf4 043d 25b8 3f3e
00000360: 190c b2be a370 3ebe 8111 893d 4584 1fbf
00000370: c68c c7bf 6f2a 783e b2b1 4f3e fcd2 87be
00000380: be86 9c3e 1bb8 1bbf b744 a0bd a505 8abe
00000390: 3e01 dabe 079b 61bf 95ee 023e e379 5ebc
000003a0: 3ac6 84be f499 d43d 9017 183d c306 8cbe
000003b0: efda 72bb 239c 24bf 9e6f c13e 0c7f 993e
000003c0: 0b6f 5fbf ea5c 2a3e bc83 e8bd 38b4 99be
000003d0: 0027 a4be 12a0 f53e e5ce a93d 89f3 12bc
000003e0: 5088 08bf e80d 11be 2dcd 6abe e9ff 31bf
000003f0: e22e a73d 49f5 bdbf 0bab 08bd ba74 a9bd

network.MLP.0.bias f4 [64]
0.6433562 -0.1439846 0.0022110068 -0.13281874 -0.13679317 -0.05660525 -0.41392606 -0.10496352
0.10615321 0.28640726 -0.18384543 0.29957062 0.0357427 -0.14644116 -0.34718016 0.5135095
0.0044213757 0.22874825 0.5515819 -0.0016813372 -0.0023850347 0.60840774 0.10890613 -0.07742317
0.47407788 -0.18568403 -0.0038317929 -1.0903687 -0.3065983 -1.180908 0.09331011 0.4197543
0.36444578 -0.28630817 0.40936968 0.31907052 -0.5840121 0.017046265 -0.33919582 0.2585132
0.5430856 0.26356307 -0.005936538 -0.001490899 -0.22436742 -0.13010733 -0.028283045 -0.17519087
-0.117414184 -0.2466024 -0.0013800667 0.057379812 0.22271149 -0.31027853 -0.7466659 0.21818946
-0.83818746 0.12213864 -0.815196 0.509356 0.20818205 -0.31593007 -0.14136918 0.24207939
00000000: feb2 243f b370 13be 8ae6 103b a301 08be
00000010: 8213 0cbe e8da 67bd 1eee d3be 1df7 d6bd
00000020: db66 d93d f9a3 923e fa41 3cbe 5261 993e
00000030: f066 123d acf4 15be 99c1 b1be 5c75 033f
00000040: 30e1 903b fb3c 6a3e 7934 0d3f 5160 dcba
00000050: 3e4e 1cbb 9cc0 1b3f 2d0a df3d 0a90 9ebd
00000060: 56ba f23e f423 3ebe d11e 7bbb 3491 8bbf
00000070: 74fa 9cbe fe27 97bf 5f19 bf3d 09ea d63e
00000080: a398 ba3e fc96 92be e798 d13e 365d a33e
00000090: d181 15bf 9ca4 8b3c 13ab adbe d85b 843e
000000a0: a807 0b3f bdf1 863e 4a87 c2bb 456a c3ba
000000b0: 93c0 65be db3a 05be d8b1 e7bc 3c65 33be
000000c0: d976 f0bd 5785 7cbe 5be3 b4ba 1807 6b3d
000000d0: 7b0e 643e d4dc 9ebe 7f25 3fbf 0f6d 5f3e
000000e0: 7493 56bf d323 fa3d afb0 50bf 2865 023f
000000f0: ad2d 553e 96c1 a1be 15c3 10be a9e3 773e

network.MLP.2.weight f4 [64, 64]
-0.06724168 -0.042742394 0.15273993 0.12494483 0.049087882 -0.052066848 0.016132576 0.041193735
-0.33884382 -0.5653073 -0.020499716 -0.09101478 0.025481313 -0.01777653 0.4548058 0.0052440907
-0.17895165 -0.41002336 -0.257645 -0.09036834 0.029369188 -0.26494658 -0.040414643 -0.05599597
-0.085888766 -0.8111342 -0.021228848 0.4643866 0.8106732 0.1888575 0.09723066 -0.42785224
-0.066946596 -0.2541865 -0.23900783 -0.5452862 -0.12331061 0.17319232 0.114419505 -0.017675376
-0.64111245 -0.29028916 0.052517362 -0.097467944 0.08614431 0.25023493 -0.08511568 -0.06699137
-0.12049365 -0.73928934 0.0057510855 0.19424997 -0.14503713 0.028071355 0.49466065 0.019926997
0.34575295 -0.28638312 -0.61670417 -0.15402794 -0.99010116 -0.056369454 -0.040713623 0.03898013
0.29739624 -0.04293023 0.10713448 -0.039336212 -0.053994223 -0.10882473 -0.01909449 -0.15339239
-0.2000741 -0.048423387 -0.10174608 0.023906644 -0.035977475 -0.13846724 0.20070034 -0.054003455
-0.069553964 0.050680675 0.12698294 0.07205734 -0.066233724 0.093582936 0.00315701 0.11807118
-0.21307878 0.16832913 0.04854022 0.21993639 -0.58327466 -0.62535673 0.055806007 -0.10054702
0.117403805 0.5246682 -0.009744737 -0.29372987 0.08546217 -0.15092036 0.10169664 0.13886607
0.051650006 0.13790412 -0.008651184 -0.04031348 -0.0780371 0.18024357 0.19102804 0.3100795
0.0218056 0.17946364 0.07208452 0.002988923 -0.089957036 -0.30801743 -0.04045206 0.012277779
-0.03270967 0.11999269 0.52485734 0.19375707 0.34272718 -0.14207356 -0.07742439 -0.04367417
0.07270629 -0.413162 -0.21431005 -0.117082365 0.11033328 0.017026162 -0.33118322 0.027195103
-0.16739863 0.008666261 0.2574965 0.13648644 -0.6120918 -0.027483346 0.20447849 0.20763083
0.20806535 -0.09571518 -0.013321275 -0.09317696 -0.09259884 -0.10893267 0.068323866 -0.06632233
-0.013017025 0.20021011 -0.18490759 -0.1592559 -0.14716029 0.52842516 0.28201884 0.03551423
0.39014804 -0.10594892 -0.44482827 -0.13290891 0.21788797 0.043404844 0.019229883 0.30976048
0.2533384 -0.10653819 0.06856074 0.021223359 0.011070982 -0.07186935 -0.112396434 -0.024105018
-0.027430177 -0.08998738 -0.02776692 -0.11807373 -0.025169736 0.209227 0.14559406 -0.1434092
0.15469223 0.12672476 -0.0926606 -0.18366498 -0.24443023 0.011336021 0.040914625 0.2680666
0.25421348 -0.053558856 0.59067684 -0.028879577 0.037962303 0.04739817 0.04843153 0.22842294
0.03716808 0.24435122 0.08331774 -0.124318406 -0.14333001 -0.2348495 0.27600646 -0.074421205
0.14923693 -0.0032472003 -0.08512172 -0.07493554 -0.0139364265 0.009677886 0.012124466 0.0018507987
0.0050758016 0.17246147 -0.03882953 -0.14126584 -0.33509058 0.32288304 -0.23340666 0.04819182
-0.37115675 -0.19756329 -0.13738555 -0.21138053 -0.17528094 0.08078256 -0.08001478 -0.19517635
0.08816967 -0.005304268 0.09932445 -0.05256356 0.078379124 0.25027874 -0.34211308 0.022704799
0.11958237 0.1023061 0.10177372 -0.615621 0.11153065 -0.1370931 -0.2603228 0.04450085
0.23217818 -0.29174933 0.073420025 -0.092476115 0.22523928 -0.13420556 0.0764211 0.087626055
00000000: 02b6 89bd a612 2fbd db67 1c3e 13e3 ff3d
00000010: 6010 493d 0c44 55bd 7728 843c c3ba 283d
00000020: f07c adbe fbb7 10bf 05ef a7bc f565 babd
00000030: 30be d03c 16a0 91bc 4edc e83e 9fd6 ab3b
00000040: 1a3f 37be 95ee d1be 0cea 83be 0913 b9bd
00000050: a797 f03c 14a7 87be d389 25bd 085c 65bd
00000060: 73e6 afbd 7ea6 4fbf 1fe8 adbc 15c4 ed3e
00000070: 4788 4f3f dc63 413e de20 c73d 730f dbbe
00000080: 4c1b 89bd bc24 82be 78be 74be e097 0bbf
00000090: 468a fcbd 5459 313e c654 ea3d f3cb 90bc
000000a0: f21f 24bf c8a0 94be 721c 573d 469d c7bd
000000b0: 6e6c b03d cb1e 803e 2151 aebd c532 89bd
000000c0: 60c5 f6bd 1142 3dbf 9a73 bc3b 77e9 463e
000000d0: 9d84 14be e6f5 e53c 2944 fd3e f13d a33c
000000e0: 8806 b13e cfa0 92be 53e0 1dbf 80b9 1dbe
000000f0: 4577 7dbf a8e3 66bd 54c3 26bd a1a9 1f3d
00000100: 5244 983e 9cd7 2fbd 5269 db3d 021f 21bd
00000110: 0c29 5dbd 80df debd 0c6c 9cbc e512 1dbe
00000120: 3ae0 4cbe 9a57 46bd 4060 d0bd ded7 c33c
00000130: 1e5d 13bd 5bca 0dbe 6484 4d3e ba32 5dbd
00000140: 4f72 8ebd 8a96 4f3d d107 023e cc92 933d
00000150: 8ca5 87bd 69a8 bf3d d7e5 4e3b 4ecf f13d
00000160: 5331 5abe 795e 2c3e 1cd2 463d 0137 613e
00000170: 7d51 15bf 6117 20bf d794 643d 99eb cdbd
00000180: 6871 f03d a850 063f 64a8 1fbc c363 96be
00000190: ca06 af3d de8a 1abe 5446 d03d e832 0e3e
000001a0: f58e 533d bd36 0d3e b2bd 0dbc bf1f 25bd
000001b0: ead1 9fbd c591 383e db9c 433e bdc2 9e3e
000001c0: a8a1 b23c 51c5 373e 0ca1 933d cfe1 433b
000001d0: 653b b8bd 76b4 9dbe 0fb1 25bd bd28 493c
000001e0: 93fa 05bd babe f53d 0d5d 063f 4168 463e
000001f0: f079 af3e bb7b 11be ae90 9ebd b0e3 32bd
00000200: 09e7 943d f889 d3be 1874 5bbe e1c8 efbd
00000210: 6af6 e13d 737a 8b3c d990 a9be 44c8 de3c
00000220: 8c6a 2bbe effc 0d3c 95d6 833e 1ac3 0b3e
00000230: 0cb2 1cbf c124 e1bc cf62 513e 2d9d 543e
00000240: 150f 553e 5206 c4bd 7a41 5abc 90d3 bebd
00000250: 76a4 bdbd 1718 dfbd 62ed 8b3d 00d4 87bd
00000260: 5c45 55bc e103 4d3e 6a58 3dbe fb13 23be
00000270: 30b1 16be df46 073f c664 903e 5f77 113d
00000280: 7cc1 c73e bffb d8bd 88c0 e3be 4619 08be
00000290: 061e 5f3e 47c9 313d fd87 9d3c ed98 9e3e
000002a0: 92b5 813e b230 dabd 9369 8c3d 9cdc ad3c
000002b0: 1063 353c 3d30 93bd 1a30 e6bd e377 c5bc
000002c0: 40b5 e0bc 4e4b b8bd 7477 e3bc a4d0 f1bd
000002d0: c330 cebc 9a3f 563e 9c16 153e dcd9 12be
000002e0: a467 1e3e 23c4 013e d7c4 bdbd ac12 3cbe
000002f0: eb4b 7abe b8ba 393c 1896 273d 0740 893e
00000300: 4528 823e 8860 5bbd 9936 173f dd94 ecbc
00000310: 5c7e 1b3d 9524 423d 2460 463d b4e7 693e
00000320: 8f3d 183d 3537 7a3e 7ea2 aa3d a69a febd
00000330: 1ac5 12be 637c 70be b850 8d3e 256a 98bd
00000340: 91d1 183e fbce 54bb 4c54 aebd ce77 99bd
00000350: 9c55 64bc ff8f 1e3c b2a5 463c 8096 f23a
00000360: e952 a63b bd99 303e b70b 1fbd fea7 10be
00000370: fe90 abbe ed50 a53e 2802 6fbe c964 453d
00000380: 4208 bebe 084e 4abe ccae 0cbe 2374 58be
00000390: d97c 33be 5471 a53d cade a3bd 4fdc 47be
000003a0: 4d92 b43d 6dcf adbb 9e6a cb3d e34c 57bd
000003b0: 3c85 a03d 8924 803e 7229 afbe 6aff b93c
000003c0: 9ae7 f43d dc85 d13d bd6e d03d 5699 1dbf
000003d0: 2e6a e43d 2262 0cbe 0849 85be 8646 363d
000003e0: 1ec0 6d3e 2b60 95be 3d5d 963d 1e64 bdbd
000003f0: 20a5 663e 2f6d 09be aa82 9c3d 4a75 b33d

network.MLP.2.bias f4 [64]
-1.2714248 0.16043918 0.06220501 0.19101864 -0.08373385 0.17570588 -0.30239856 -0.014242653
0.116497874 -0.067658566 -0.4203845 -0.16996759 0.0073467763 -0.1948563 0.118017234 -0.12910692
-0.32544765 0.21419339 0.18307303 0.12724926 -0.121846735 -2.1013749 0.14808977 1.5023837
-0.03311707 1.4066377 1.1233784 0.118197404 -0.02254464 0.017652439 -0.14335272 -0.4317188
-0.05653216 0.016626569 -0.012061851 0.051286764 -0.13544694 0.117533356 0.16377991 0.020185694
0.10239544 -0.08866858 -0.2369887 0.03490909 0.4280494 -0.22772299 -0.21472801 -0.62717795
-0.29915354 -0.24669108 -0.20110463 0.5845342 0.12391715 -0.2607323 0.029655356 0.8281754
-0.013143968 -0.30548438 -0.14420775 -0.25696218 0.12946032 0.13298254 -0.7924984 0.16316153
00000000: 0cbe a2bf 2b4a 243e aeca 7e3d 649a 433e
00000010: a77c abbd 3eec 333e fcd3 9abe 045a 69bc
00000020: 7096 ee3d 9390 8abd a33c d7be fc0b 2ebe
00000030: 3abd f03b 6988 47be 05b3 f13d 9b34 04be
00000040: 13a1 a6be 8355 5b3e 7f77 3b3e a14d 023e
00000050: c88a f9bd ed7c 06c0 d8a4 173e 1c4e c03f
00000060: c4a5 07bd b40c b43f ddca 8f3f 7b11 f23d
00000070: 89af b8bc d99b 903c 0ecb 12be 3f0a ddbe
00000080: 448e 67bd 7134 883c 129f 45bc 1212 523d
00000090: 9ab2 0abe 54b5 f03d ecb5 273e 785c a53c
000000a0: b3b4 d13d df97 b5bd 2aad 72be d5fc 0e3d
000000b0: 4a29 db3e 3730 69be a9e1 5bbe bc8e 20bf
000000c0: a72a 99be 969c 7cbe 5fee 4dbe 09a4 153f
000000d0: 46c8 fd3d b47e 85be caef f23c 4e03 543f
000000e0: cc59 57bc 7368 9cbe 32ab 13be 8c90 83be
000000f0: 3f91 043e 932c 083e 2de1 4abf d113 273e

network.MLP.3.weight f4 [64]
0.46039894 0.8421032 1.427587 1.3676983 1.0777693 1.3337533 0.47791648 0.6049848
1.1127108 1.234193 0.89539886 1.4089719 1.131133 0.787656 0.9848244 1.0258392
0.8866781 1.2088863 1.0470694 1.6756856 1.3690314 0.7846655 1.3018179 0.66451263
1.1725148 0.5967029 0.56349033 1.4878551 1.1531034 1.6179422 1.4007783 0.59314936
1.2212523 1.6936308 1.6991134 1.5376526 1.172055 1.3049701 1.3161181 1.2744422
1.459931 1.3981525 1.0709777 0.8581646 0.7308463 0.46430582 0.7849357 0.40102723
1.341762 1.0915866 1.1457957 0.73303187 1.1604631 1.2353768 0.91718376 0.5112503
1.2322541 0.5721039 1.4194387 0.73046046 0.59535885 1.2050065 0.5512785 1.310951
00000000: 69b9 eb3e 1394 573f 2cbb b63f bd10 af3f
00000010: 58f4 893f 6eb8 aa3f 78b1 f43e 49e0 1a3f
00000020: 4f6d 8e3f 09fa 9d3f dc38 653f 3159 b43f
00000030: f7c8 903f d3a3 493f 741d 7c3f b34e 833f
00000040: 56fd 623f c9bc 9a3f 5f06 863f de7c d63f
00000050: 6c3c af3f d7df 483f f8a1 a63f 801d 2a3f
00000060: f714 963f 85c1 183f e740 103f 0972 be3f
00000070: e498 933f bb18 cf3f b44c b33f a3d8 173f
00000080: ff51 9c3f e5c8 d83f 8c7c d93f cdd1 c43f
00000090: e605 963f 4309 a73f 8f76 a83f ec20 a33f
000000a0: 05df ba3f a9f6 b23f cc15 893f adb0 5b3f
000000b0: be18 3b3f 7eb9 ed3e 8cf1 483f 7153 cd3e
000000c0: dbbe ab3f 1cb9 8b3f 6fa9 923f faa7 3b3f
000000d0: 0e8a 943f d420 9e3f 8ecc 6a3f 4de1 023f
000000e0: 81ba 9d3f 6775 123f 2bb0 b53f 75ff 3a3f
000000f0: 7069 183f a73d 9a3f 9620 0d3f 3ecd a73f

network.MLP.3.bias f4 [64]
0.253534 -0.21027637 -0.10322787 -0.07698703 0.18330574 -0.08072473 -0.13551679 -0.064440854
-0.10293849 0.066879205 0.22342578 0.15977287 0.12102326 0.3080793 0.027680377 0.055312052
0.12200514 -0.14617132 -0.034452766 -0.03476151 0.0732478 0.13921458 -0.078332685 -0.2652143
0.04223022 -0.3064184 -0.112358235 -0.023568334 0.11456339 0.07113417 -0.023871927 0.18422428
0.031951707 0.05907388 0.05054106 -0.033731677 -0.03286703 -0.057150204 -0.05415594 0.014686681
0.041374225 -0.0068413275 0.108083196 0.22530848 -0.15526406 -0.06435681 -0.061585836 0.011802772
-0.019040871 -0.052881274 -0.025236027 -0.12808658 0.028318338 0.098757856 -0.009492738 -0.31582776
-0.043612324 -0.064386524 -0.06402336 0.35114807 -0.11241835 -0.12700747 0.2523708 -0.11090402
00000000: 35cf 813e b052 57be 2269 d3bd 60ab 9dbd
00000010: 80b4 3b3e 0253 a5bd eac4 0abe 91f9 83bd
00000020: 6ad1 d2bd f7f7 883d bac9 643e 809b 233e
00000030: 0bdb f73d 92bc 9d3e f5c1 e23c e48e 623d
00000040: d5dd f93d efad 15be 581e 0dbd 1662 0ebd
00000050: f102 963d 448e 0e3e e36c a0bd 2bca 87be
00000060: 98f9 2c3d dfe2 9cbe 131c e6bd 6112 c1bc
00000070: 36a0 ea3d cbae 913d 0f8f c3bc 4aa5 3c3e
00000080: cbdf 023d 74f7 713d 2404 4f3d 3a2a 0abd
00000090: 949f 06bd 5516 6abd 9ed2 5dbd 68a0 703c
000000a0: 0578 293d 372d e0bb b95a dd3d 44b7 663e
000000b0: 8bfd 1ebe 81cd 83bd 6e41 7cbd 6a60 413c
000000c0: 9afb 9bbc 099a 58bd c9bb cebc 2129 03be
000000d0: dcfb e73c 8f41 ca3d 6e87 1bbc 2db4 a1be
000000e0: d6a2 32bd 15dd 83bd ae1e 83bd aec9 b33e
000000f0: 983b e6bd 3f0e 02be bf36 813e a621 e3bd

critic.0.weight f4 [1, 64]
-0.07243946 0.0067740222 -0.020513812 0.022064451 -0.014626685 0.024680043 0.05944201 0.10053581
-0.004353484 0.014927553 -0.019067315 0.04692868 0.021012075 0.018171312 0.00068599597 0.039345063
-0.014649977 0.016940722 0.015878724 0.018125784 -0.016775614 -0.23310868 -0.00045030678 0.21379872
-0.0015436353 0.17154987 0.11291759 0.027338415 0.004462252 -0.010866237 0.022927387 -0.16300884
0.034929596 0.004850733 0.0011599273 0.03241161 0.024116782 -0.0022127414 0.017661527 0.0017413017
-0.008550033 0.07045109 -0.037399776 0.007631774 0.026308173 0.08763176 -0.28035983 -0.031740785
0.0317471 0.049646437 0.0120275365 0.022911793 -0.022977712 -0.020184465 0.029601803 0.083968595
0.04861515 0.021324046 0.014961957 -8.046453e-05 0.008589802 0.04656384 -0.14581543 0.017237889
00000000: 245b 94bd 9ef8 dd3b 950c a8bc 82c0 b43c
00000010: c3a4 6fbc cd2d ca3c 7779 733d b8e5 cd3d
00000020: aca7 8ebb b292 743c 0f33 9cbc 4a38 403d
00000030: 8421 ac3c 01dc 943c 69d4 333a 4a28 213d
00000040: 7506 70bc 45c7 8a3c 1914 823c 867c 943c
00000050: 036d 89bc 0bb4 6ebe 2717 ecb9 0dee 5a3e
00000060: ce53 caba c5aa 2f3e 5641 e73d d0f4 df3c
00000070: 1538 923b 4d08 32bc 37d2 bb3c caeb 26be
00000080: 5612 0f3d e6f2 9e3b b408 983a 09c2 043d
00000090: 8f90 c53c a403 11bb e8ae 903c 643c e43a
000000a0: 7015 0cbc a948 903d 8230 19bd f613 fa3b
000000b0: 3d84 d73c 4878 b33d 538b 8fbe a002 02bd
000000c0: 3f09 023d 105a 4b3d 250f 453c 83b1 bb3c
000000d0: c13b bcbc e459 a5bc 7b7f f23c baf7 ab3d
000000e0: ae20 473d c4af ae3c ff22 753c 11bf a8b8
000000f0: 3ebc 0c3c bab9 3e3d a450 15be 7936 8d3c

actor.0.weight f4 [22, 64]
0.043750506 0.112463735 0.4294117 -0.2995723 -0.039432902 0.06550067 0.20022379 -0.008400408
-0.3629733 -0.12331379 -0.3876579 -0.22847225 -0.023785468 0.051211003 -0.3013331 -0.09430764
0.35293406 -0.010351094 0.25897732 0.045063313 0.4686251 -0.0110067045 0.27375427 -0.08877647
0.16796538 -0.08232685 -0.07253784 0.08589986 0.2917459 0.25972816 0.12074651 0.08308898
0.3147466 -0.12502345 -0.10675609 -0.36809048 -0.41803482 0.26384908 0.29343054 -0.5451727
-0.4463122 0.535059 -0.20407069 -0.20610087 0.020959059 -0.17389157 0.06802736 -0.11671108
0.37465337 0.37074512 -0.053598706 -0.08224996 0.14119026 -0.3097434 -0.35494938 -0.07827145
0.19562444 0.03219311 0.049046278 -0.20152389 0.024786413 -0.04535176 -0.06453426 0.3898742
0.141685 -0.4431285 0.2994349 -0.13589048 -0.12561007 -0.47237226 0.15667433 -0.06608072
-0.012429972 -0.37913406 0.011763936 -0.49247244 -0.67079467 0.4162473 0.3430294 0.1972399
-0.24135281 -0.23309852 0.26276976 0.35292137 0.37487486 -0.06395925 0.1163129 -0.070721745
0.18128167 -0.13118878 -0.11392596 -0.04605444 -0.07302195 0.19351754 -0.11071333 0.19410573
0.24210238 0.07871211 -0.08693823 -0.03964313 -0.1786198 -0.04402216 0.42853862 -0.30602905
0.18356809 0.08687266 -0.23284559 -0.026035678 0.10641103 -0.14950217 0.12494131 -0.13146068
-0.276529 0.28314343 0.049523365 0.18751405 0.26064926 0.17883198 0.007421855 0.3214989
-0.05873623 -0.27109385 0.15626575 0.21152276 -0.4209875 -0.27070716 -0.12172793 0.02817571
0.14960222 -0.008536667 0.5430792 -0.012039619 -0.11073284 -0.15997702 0.06417456 -0.054343224
0.14938763 0.26897117 0.23578264 -0.7649401 0.18157229 -0.41398507 -0.06326991 -0.3532159
0.11860643 0.017835291 -0.49537292 0.5342668 0.095502764 0.018017132 0.38512045 -0.062193736
0.28613785 -0.092596516 -0.07077261 0.32358482 -0.020420138 0.25052455 0.13405222 0.07428434
-0.06590234 0.109387375 -0.52513885 -0.248235 0.00096151 0.07292338 -0.039757065 0.17849949
-0.08233974 0.30737758 -0.39652887 0.24837509 -0.24566476 -0.13474615 0.061687022 0.048579298
0.08459885 -0.38722184 0.33527654 0.3565557 -0.13879977 -0.114210136 0.045602866 -0.02839489
0.5148073 -0.21142617 0.05322141 -0.011953993 0.15685786 0.005340341 -0.03534824 0.09874498
0.0035448917 -0.051784605 -0.4551824 -0.37023228 -0.20206282 -0.0020358993 0.08809034 0.0979669
0.15579401 -0.3338473 -0.029191786 -0.021498859 0.21978441 -0.28915277 -0.3941594 0.09652402
-0.09843093 0.40259993 -0.15633069 0.18681966 0.058900643 0.05043284 -0.4114627 -0.012569827
-0.35169244 -0.0025443076 -0.032279722 -0.11032904 -0.26514593 -0.17039704 -0.04190488 -0.0075904066
0.16584651 0.61684704 0.19805561 -0.13642678 0.087365985 -0.016172415 0.13835844 0.1531732
-0.086917445 0.22674827 -0.14650789 0.025739515 0.18965101 0.20961316 -0.05548983 -0.06685128
0.099993445 -0.02574883 -0.15993482 0.18307552 0.08221399 0.045470763 0.068257265 0.14244977
0.1739211 -0.14220545 -0.45253196 0.042206753 0.16383497 0.2591514 0.029167518 0.21454816
00000000: bb33 333d 6353 e63d dadb db3e 8a61 99be
00000010: 6584 21bd 3725 863d 7707 4d3e dda1 09bc
00000020: a3d7 b9be f18b fcbd 197b c6be a1f4 69be
00000030: bed9 c2bc a1c2 513d 5548 9abe 5d24 c1bd
00000040: c6b3 b43e a397 29bc ad98 843e 4f94 383d
00000050: a1ef ef3e 7755 34bc 8529 8c3e 70d0 b5bd
00000060: 1eff 2b3e fb9a a8bd b88e 94bd 44ec af3d
00000070: b85f 953e 17fb 843e f249 f73d 8e2a aa3d
00000080: 7726 a13e 2606 00be f0a2 dabd 5b76 bcbe
00000090: a908 d6be 3a17 873e 873c 963e 7090 0bbf
000000a0: 0883 e4be a0f9 083f e8f7 50be 1b0c 53be
000000b0: 55b2 ab3c a210 32be ee51 8b3d 3806 efbd
000000c0: 91d2 bf3e 4ed2 bd3e 518a 5bbd ab72 a8bd
000000d0: 2e94 103e b096 9ebe edbb b5be c84c a0bd
000000e0: c651 483e ecdc 033d c0e4 483d 475c 4ebe
000000f0: e00c cb3c c4c2 39bd 8a2a 84bd 979d c73e
00000100: df15 113e bde1 e2be 884f 993e e026 0bbe
00000110: ed9f 00be c7da f1be 3c6f 203e 5455 87bd
00000120: 15a7 4bbc dc1d c2be 86bd 403c 5925 fcbe
00000130: 33b9 2bbf 5e1e d53e 8da1 af3e 42f9 493e
00000140: 3125 77be 61b1 6ebe c289 863e 1cb2 b43e
00000150: 99ef bf3e 11fd 82bd 7535 ee3d 90d6 90bd
00000160: e7a1 393e 5a56 06be 0452 e9bd 95a3 3cbd
00000170: 888c 95bd 7629 463e acbd e2bd a7c3 463e
00000180: b0e9 773e d133 a13d ac0c b2bd d660 22bd
00000190: 1ce8 36be 9550 34bd 6a69 db3e d7af 9cbe
000001a0: 46f9 3b3e 4bea b13d 136f 6ebe c648 d5bc
000001b0: 07ee d93d 1917 19be 3be1 ff3d a19d 06be
000001c0: 3695 8dbe 2df8 903e 03d9 4a3d af03 403e
000001d0: d273 853e bb1f 373e 0833 f33b 819b a43e
000001e0: 6795 70bd d0cc 8abe 2104 203e 6c99 583e
000001f0: ac8b d7be 219a 8abe 7e4c f9bd bfd0 e63c
00000200: 5331 193e 60dd 0bbc 3d07 0b3f d241 45bc
00000210: e6c7 e2bd 04d1 23be f46d 833d 0097 5ebd
00000220: 12f9 183e 97b6 893e 0171 713e 1dd3 43bf
00000230: 16ee 393e daf5 d3be a893 81bd b7d8 b4be
00000240: eee7 f23d 511b 923c 85a1 fdbe b6c5 083f
00000250: f496 c33d aa98 933c 822e c53e dcbe 7ebd
00000260: a980 923e 3ea3 bdbd 3bf1 90bd e9ac a53e
00000270: 2248 a7bc c144 803e fc44 093e 6322 983d
00000280: cef7 86bd 7d06 e03d 806f 06bf 5131 7ebe
00000290: d80d 7c3a da58 953d 4ed8 22bd 92c8 363e
000002a0: bda1 a8bd 9860 9d3e d505 cbbe 0a56 7e3e
000002b0: 8b8f 7bbe e5fa 09be 88ab 7c3d 16fb 463d
000002c0: 2942 ad3d f141 c6be 5ea9 ab3e 788e b63e
000002d0: 8721 0ebe 01e7 e9bd 12ca 3a3d 669c e8bc
000002e0: 69ca 033f 1a80 58be b1fe 593d aeda 43bc
000002f0: 599f 203e 07fe ae3b 51c9 10bd cf3a ca3d
00000300: 6a51 683b 181c 54bd ab0d e9be 168f bdbe
00000310: 8ee9 4ebe b96c 05bb b568 b43d dfa2 c83d
00000320: 7788 1f3e 09ee aabe 9d23 efbc 601e b0bc
00000330: 2a0f 613e d50b 94be 43cf c9be 63ae c53d
00000340: 2896 c9bd 9421 ce3e 2715 20be a74d 3f3e
00000350: cd41 713d aa92 4e3d 3dab d2be adf1 4dbc
00000360: 0811 b4be 66be 26bb be37 04bd 31f4 e1bd
00000370: 35c1 87be 907c 2ebe 74a4 2bbd f2b8 f8bb
00000380: abd3 293e b0e9 1d3f 17cf 4a3e 76b3 0bbe
00000390: f0ec b23d 037c 84bc d6ad 0d3e 6fd9 1c3e
000003a0: c601 b2bd b330 683e 2a06 16be addb d23c
000003b0: e033 423e d5a4 563e 4e49 63bd 53e9 88bd
000003c0: 5dc9 cc3d 36ef d2bc f4c5 23be 2678 3b3e
000003d0: cf5f a83d 8d3f 3a3d 77ca 8b3d 5ade 113e
000003e0: 5f18 323e 4e9e 11be 45b2 e7be fde0 2c3d
000003f0: 5bc4 273e 7eaf 843e b8f0 ee3c 83b2 5b3e

actor.0.bias f4 [22]
-0.0753497 -0.061800014 -0.08007079 0.034883607 -0.0010380772 0.038578235 -0.020248264 0.030351935
0.11600265 0.015834354 0.009293455 -0.0046570865 -0.0017292148 0.12477436 -0.06674099 0.001719091
-0.03169017 0.04830206 0.040155713 -0.054617774 0.04769295 -0.058827378
00000000: f250 9abd 0322 7dbd 28fc a3bd 1de2 0e3d
00000010: 1710 88ba 3604 1e3d b0df a5bc 9fa4 f83c
00000020: cc92 ed3d 0cb7 813c 9343 183c 799a 98bb
00000030: d2a6 e2ba b389 ff3d 80af 88bd 1f53 e13a
00000040: 8dcd 01bd 62d8 453d 517a 243d e3b6 5fbd
00000050: af59 433d faf4 70bd
