paper/training_results/seed-7/momarl/checkpoints/mlp_(negotiation=False)_(num_agents=12)_(window=False)_(reduced_space=False)_(fixed_savings_rate=False)_(rewards=['inverse_global_temperature', 'global_economic_output'])(wgen=uniform)(num_ensembles=1)(seed=7)_2025-01-16_22:46:48_w=[0.7704 0.2296].pt (torch, 38168 bytes, 9 tensors)

network.MLP.0.weight f4 [64, 18]
-0.70483583 -0.6342451 0.05939948 -0.8734561 -1.0957341 0.38538617 -0.019980244 0.02247875
0.07744538 0.030336367 0.032184005 -0.047305603 0.029428642 -0.08806541 -0.05058106 0.1038212
-0.23066325 -0.16402362 0.052079618 -0.08930303 -0.100045756 -0.2941074 -1.4615602 0.1571242
0.24031158 0.45512447 0.024544844 0.21714579 -0.21109086 -0.23445669 -0.114561655 0.0014203452
0.33223388 -0.33968014 0.54261285 0.43311718 0.088869594 -0.42081162 0.0557531 -0.16379555
-0.1316011 -0.71479666 0.12094962 -0.027712973 0.037807174 -0.039254937 -0.1704551 -0.16135809
0.016002707 -0.23122823 -0.3687471 -0.08850591 0.043751 -0.07246225 -0.046812084 0.21160312
-0.17526059 0.0701751 -0.11838625 0.12117129 0.21317652 0.15003325 -0.18222049 0.15262857
-0.13792989 -0.038911235 -0.09966303 -0.1604299 -0.2338551 0.13239758 -0.23020625 0.0050167395
-0.01874838 0.06034788 -0.19254415 -0.16988494 0.13154545 -0.19484016 0.15666245 -0.08227489
0.09275108 0.16360477 -0.1691308 0.11203107 -0.14806284 0.022651823 0.10296756 -0.221338
-0.12811023 -0.16412011 -0.14436093 0.025477584 -0.061236013 0.15532069 -0.020995602 0.16778442
0.08802749 0.182648 0.16404931 -0.105539545 0.01691278 -0.046615962 -0.18439639 0.042534783
0.05784553 -0.15378585 0.006085791 -0.103799656 0.038166273 -0.28497377 0.0052414862 0.40978453
-0.15324043 0.71418315 0.11028383 -0.08405615 -0.07645593 0.086495794 -0.1952279 0.107315116
0.028237473 0.06829338 -0.37574288 0.09171234 -0.054118164 -0.11039306 0.0594727 0.5705378
-0.020354362 -1.2934982 -0.8433533 0.351149 0.053537995 0.0076524494 -0.2733714 -0.075765096
0.2526386 -0.061111026 -0.33444783 -0.041456807 -0.31991708 -0.08570892 -0.017099937 -0.2577075
0.08230243 -0.62796104 0.13204145 -0.040687446 -0.16994849 -0.6537236 -0.04339239 0.056191802
-0.08551335 -0.086852536 -0.27001756 -0.24223119 -0.105788305 -0.1989575 0.070171654 -0.018097274
-0.2627793 -0.17667867 -0.026651897 0.4072569 0.09650461 -4.704334 0.55907536 -1.2102636
-0.01915826 0.009995925 -0.061029725 -0.07121853 -0.07395533 -0.10845576 -0.032201745 -0.17676653
-0.14724801 0.22351012 -0.14640577 0.17124823 0.06228242 0.24055654 0.0334138 -0.5084027
0.1536865 0.017614342 -1.3197521 -0.024352582 -0.81295323 -0.059229225 -0.41530418 -0.22558971
-0.25735366 -0.14894517 -0.4993059 -0.41134098 -0.049481995 0.48760957 0.07338303 0.37884706
-0.10744484 0.26946774 -1.5435829 0.5332283 -0.12074086 0.03452962 0.42829582 -0.33254734
-0.3879508 -0.0048083602 0.25664482 0.19189367 -0.13090567 -0.04233482 -0.16113305 -0.009742977
-0.038098868 0.22165716 0.030956784 0.86734897 -1.403005 0.39617828 0.27598152 0.058502063
-0.007906657 -0.15494329 -0.04718783 -0.27955598 0.10649712 -0.34293634 0.33673066 0.13310224
-0.3550653 -0.10726087 -0.008252656 0.73602146 0.096936785 -0.50014657 -0.011139232 0.022581192
-0.43007928 0.08700008 -0.36024132 -0.54242903 0.34404626 -0.0050762487 -0.061583187 0.041887898
0.14273489 -0.19598891 -0.17446248 0.066166595 0.061329335 -0.36252323 -0.0027134249 0.506712
00000000: 1f70 34bf e35d 22bf de4c 733d d29a 5fbf
00000010: 0441 8cbf 5651 c53e 9cad a3bc 5b25 b83c
00000020: af9b 9e3d f983 f83c 60d3 033d 85c3 41bd
00000030: 5614 f13c a35b b4bd 162e 4fbd 36a0 d43d
00000040: fd32 6cbe cff5 27be 7051 553d 82e4 b6bd
00000050: cae4 ccbd 3f95 96be 6814 bbbf 2be5 203e
00000060: 3d14 763e 1306 e93e 4512 c93c 775b 5e3e
00000070: 3428 58be 6a15 70be 4d9f eabd e02a ba3a
00000080: 8f1a aa3e 8eea adbe ade8 0a3f 89c1 dd3e
00000090: 4301 b63d 9f74 d7be 5d5d 643d 05ba 27be
000000a0: 70c2 06be eafc 36bf 6fb4 f73d 5106 e3bc
000000b0: b2db 1a3d c9c9 20bd c88b 2ebe 0e3b 25be
000000c0: 1c18 833c 18c7 6cbe 6bcc bcbe 9642 b5bd
000000d0: 4034 333d 1767 94bd 07be 3fbd 7dae 583e
000000e0: 8377 33be f6b7 8f3d 7e74 f2bd a728 f83d
000000f0: f24a 5a3e 51a2 193e 0298 3abe aa4a 1c3e
00000100: 7e3d 0dbe 6361 1fbd 211c ccbd bc47 24be
00000110: b677 6fbe 3b93 073e 30bb 6bbe 7663 a43b
00000120: 3496 99bc 572f 773d 4b2a 45be 51f6 2dbe
00000130: dab3 063e 2e84 47be 1f6c 203e bd7f a8bd
00000140: 47f4 bd3d 0288 273e a030 2dbe 8c70 e53d
00000150: c99d 17be 5190 b93c a8e0 d23d 6ea6 62be
00000160: 542f 03be 1a0f 28be 5ad3 13be 5eb6 d03c
00000170: 9dd2 7abd 630c 1f3e f8fe abbc aecf 2b3e
00000180: c247 b43d 1408 3b3e 8bfc 273e 1e25 d8bd
00000190: ac8c 8a3c 61f0 3ebd 68d2 3cbe f438 2e3d
000001a0: 6fef 6c3d 0a7a 1dbe 516b c73b ea94 d4bd
000001b0: 3d54 1c3d 15e8 91be c6c0 ab3b 47cf d13e
000001c0: 0feb 1cbe b5d4 363f 7ddc e13d a125 acbd
000001d0: ed94 9cbd b524 b13d d3e9 47be 07c8 db3d
000001e0: 4652 e73c 66dd 8b3d 5f61 c0be aed3 bb3d
000001f0: 02ab 5dbd c215 e2bd a599 733d c40e 123f
00000200: 31be a6bc 5991 a5bf 00e6 57bf cdc9 b33e
00000210: a84a 5b3d 66c1 fa3b 56f7 8bbe bb2a 9bbd
00000220: d959 813e 8e4f 7abd bf3c abbe 9dce 29bd
00000230: 2ccc a3be 2988 afbd 2b15 8cbc 3df2 83be
00000240: 2d8e a83d 0ec2 20bf e035 073e e1a7 26bd
00000250: fa06 2ebe 6e5a 27bf 38bc 31bd 6029 663d
00000260: a021 afbd bedf b1bd be3f 8abe 740b 78be
00000270: 8aa7 d8bd 84bb 4bbe 28b6 8f3d bc40 94bc
00000280: 028b 86be 41eb 34be 1455 dabc fa83 d03e
00000290: 35a4 c53d e789 96c0 901f 0f3f ebe9 9abf
000002a0: c9f1 9cbc f3c5 233c 4efa 79bd 05db 91bd
000002b0: e475 97bd 0e1e debd fae5 03bd 4902 35be
000002c0: 2fc8 16be d6df 643e 65eb 15be b25b 2f3e
000002d0: da1b 7f3d 7454 763e e9dc 083d ae26 02bf
000002e0: fe5f 1d3e f44b 903c a3ed a8bf 117f c7bc
000002f0: b41d 50bf 589a 72bd c0a2 d4be fd00 67be
00000300: dcc3 83be 1585 18be 06a5 ffbe 499b d2be
00000310: a2ad 4abd f6a7 f93e d849 963d 3ef8 c13e
00000320: 0a0c dcbd adf7 893e 2094 c5bf a681 083f
00000330: fc46 f7bd ee6e 0d3d 9749 db3e a543 aabe
00000340: 7da1 c6be 738f 9dbb f366 833e c67f 443e
00000350: 230c 06be 4767 2dbd 1000 25be 02a1 1fbc
00000360: 8f0d 1cbd 18fa 623e 1599 fd3c 950a 5e3f
00000370: ab95 b3bf e1d7 ca3e 734d 8d3e dc9f 6f3d
00000380: ec8a 01bc 74a9 1ebe 0748 41bd f621 8fbe
00000390: 291b da3d 5a95 afbe f667 ac3e f44b 083e
000003a0: 1ecb b5be 96ab dbbd 2636 07bc e76b 3c3f
000003b0: cb86 c63d 9b09 00bf 5381 36bc 31fc b83c
000003c0: 5a33 dcbe 192d b23d 8d71 b8be a1dc 0abf
000003d0: d526 b03e a956 a6bb a73e 7cbd a592 2b3d
000003e0: 1829 123e 51b1 48be 4ba6 32be 5a82 873d
000003f0: 7834 7b3d a59c b9be b7d3 31bb e1b7 013f

network.MLP.0.bias f4 [64]
0.14264138 0.07919388 0.19912402 -0.13225791 -0.13679317 -0.059383806 -0.35665062 -0.030557854
-0.008096669 -0.0162011 -0.29560408 -0.35878426 -0.305533 -0.42626122 -0.3043092 -0.0034892305
0.28553534 0.2844729 0.030608002 -0.0028140387 -0.0024425793 0.3530364 -0.56641346 -0.07742317
0.41927943 -0.5638299 0.30831832 -0.24609171 -0.19981407 -1.1219103 -0.07727495 0.059236676
-0.0021431325 0.22499034 0.13739657 0.13108683 -0.4267119 -0.0015436208 -1.0928617 0.11221027
0.40664658 0.12383641 -0.026634581 -0.0014658967 -0.22436742 -0.20234963 -0.20770815 -0.37913385
-0.117414184 -0.28498837 -0.00033101666 0.15509038 0.003495625 -0.9496615 -0.76730525 0.050048467
-0.68897814 -0.2052338 -0.90528166 0.32384005 1.3200026 -0.47183338 -0.14136918 0.25079098
00000000: 9510 123e 6730 a23d 2be7 4b3e 9e6e 07be
00000010: 8213 0cbe 6f3c 73bd e99a b6be 7754 fabc
00000020: e4a7 04bc 2bb8 84bc 6b59 97be 92b2 b7be
00000030: d26e 9cbe e93e dabe 6ace 9bbe 93ab 64bb
00000040: b031 923e 6fa6 913e a2bd fa3c bc6b 38bb
00000050: ae13 20bb 30c1 b43e 7900 11bf 0a90 9ebd
00000060: cbab d63e 2857 10bf e6db 9d3e 77ff 7bbe
00000070: 0f9c 4cbe c29a 8fbf 5442 9ebd 28a2 723d
00000080: cc73 0cbb de63 663e b0b1 0c3e a03b 063e
00000090: fb79 dabe 5253 caba e4e2 8bbf 7fce e53d
000000a0: fb33 d03e f29d fd3d c430 dabc 5523 c0ba
000000b0: 93c0 65be be34 4fbe 72b1 54be d51d c2be
000000c0: d976 f0bd ffe9 91be 4e8c adb9 03d0 1e3e
000000d0: db16 653b 041d 73bf 1e6e 44bf 9fff 4c3d
000000e0: df60 30bf cf28 52be 8ac0 67bf 5dce a53e
000000f0: d8f5 a83f 2594 f1be 15c3 10be ad67 803e

network.MLP.2.weight f4 [64, 64]
0.0625535 -0.09996022 -0.40035886 0.124923155 0.049087882 -0.05191244 -0.13034917 -0.18247363
-0.31514618 0.3366413 0.12870525 -0.09473815 -0.14702009 -0.16830353 -0.08119591 0.2789342
-0.04577138 -0.24401003 0.37341025 -0.09048093 0.062287636 0.39765704 -0.23916093 -0.05599597
0.038316414 0.22275358 0.20270036 0.13369319 0.44464502 0.46273917 0.11363126 -0.47430107
0.10499458 0.046422593 -0.20715562 -0.01924081 -0.70703614 0.49032885 -0.112526454 0.18381992
-0.050539564 0.049069174 0.2523672 -0.09789745 0.08614431 0.14390165 0.027277477 -0.009573805
-0.12049365 0.11183668 0.16842994 -0.26411742 -0.24352649 0.25136918 0.47605768 -0.21619155
0.0015631737 0.43700665 -0.08946071 0.2179923 -0.1248727 0.07733748 -0.040713623 -0.30710354
-0.206995 0.16053295 0.2658114 -0.039200693 -0.053994223 -0.10873503 -0.036536418 0.32998717
-0.00718274 0.18396649 0.047613036 -0.0063647823 0.16455702 -0.016159639 0.08804416 0.05152303
0.03664148 0.07720507 0.13125081 0.07213189 -0.10504473 -0.32646278 0.020669607 0.11807118
-0.210145 0.17333882 -0.31112728 -0.261693 -0.57571155 -0.5993518 -0.15967512 -0.3784717
-0.048609838 0.010094267 0.33409485 0.064637214 0.3320175 0.06695434 0.09170153 0.008819653
-0.08270404 0.069144495 0.06811848 -0.040777266 -0.0780371 -0.08324247 -0.22305366 0.048945256
0.0218056 0.31213278 0.07304139 -0.074102476 0.08198722 -0.37297806 -0.2751217 -0.0953274
0.23476805 -0.43292376 -0.105294675 -0.28879693 0.25566304 -0.15830827 -0.07742439 -0.039612815
-0.4258103 -0.06760234 -0.18366633 -0.117201224 0.11033328 0.017141398 -0.04221296 -0.2463095
-0.25859514 0.30411485 0.2040966 0.2586825 -0.096200794 0.022363214 0.056237426 0.064394176
-0.017654443 -0.31140321 -0.15801243 -0.09305624 -0.06266006 0.17927662 -0.28607106 -0.06632233
0.17839801 0.36174053 0.0013902612 -0.024511611 -0.14227223 -0.32220638 -0.0059258156 -0.11265748
-0.0344734 -0.1671819 -0.2938865 -0.12239391 -0.1731413 0.009488858 0.029402805 0.042436626
-0.036169752 0.017708562 0.23859635 0.021233154 0.011070982 0.09862746 0.2593699 0.08019669
-0.027430177 0.13294216 0.023526875 0.07535527 0.18670158 -0.5842962 0.060103215 -0.28060758
0.66513896 0.14798643 -0.7521655 -0.009102101 0.34015155 -0.15062298 0.040914625 -0.26901677
0.050420422 -0.28790662 0.23365125 -0.028801128 0.037962303 0.047181055 0.0064217765 0.09573134
0.038080417 -0.6482023 -0.02202379 0.42875358 -0.27639568 0.23799661 0.06268935 -0.07352814
-0.014509577 0.25181472 0.21225971 -0.07497644 -0.053461485 -0.12295969 -0.008344488 0.0018507987
0.04369993 -0.23771457 0.022669911 0.05907048 0.19302379 0.024390923 -0.12268761 -0.26791346
-0.04630979 -0.67385006 0.053733658 0.17857578 -0.72842944 -0.24968147 0.101137735 0.30213633
0.152748 -0.10589083 -0.17032847 -0.052285902 0.078379124 -0.046913423 -0.021584006 -0.1291487
0.11958237 -0.031821296 0.0723587 0.321405 0.023983443 0.16519433 -0.28659382 0.324747
-0.13330953 -0.12353128 -0.23643996 0.082267314 -0.34611544 0.047210775 0.0764211 -0.0043970263
00000000: 0d1c 803d f2b7 ccbd d6fb ccbe b6d7 ff3d
00000010: 6010 493d 24a2 54bd 417a 05be 5eda 3abe
00000020: d75a a1be 405c ac3e 4fcb 033e 1306 c2bd
00000030: 6f8c 16be c357 2cbe 0b4a a6bd 77d0 8e3e
00000040: c57a 3bbd c4dd 79be a12f bf3e 114e b9bd
00000050: 5221 7f3d b499 cb3e 9ae6 74be 085c 65bd
00000060: acf1 1c3d 8419 643e af90 4f3e dee6 083e
00000070: 83a8 e33e 26ec ec3e 82b7 e83d 97d7 f2be
00000080: 6607 d73d 9e25 3e3d 9a20 54be e79e 9dbc
00000090: 5200 35bf 620c fb3e 4574 e6bd 4a3b 3c3e
000000a0: 9302 4fbd c2fc 483d 4636 813e 757e c8bd
000000b0: 6e6c b03d f45a 133e 0475 df3c 73db 1cbc
000000c0: 60c5 f6bd a10a e53d e678 2c3e 663a 87be
000000d0: 025f 79be 76b3 803e d5bd f33e 5161 5dbe
000000e0: 68e3 cc3a 56bf df3e 2d37 b7bd 6039 5f3e
000000f0: 42bd ffbd 1d63 9e3d 54c3 26bd ad3c 9dbe
00000100: 7ff6 53be c062 243e 6f18 883e e890 20bd
00000110: 0c29 5dbd 79b0 debd 36a7 15bd 14f4 a83e
00000120: 315d ebbb b661 3c3e e305 433d aa8f d0bb
00000130: a381 283e 3861 84bc 7f50 b43d d009 533d
00000140: 6015 163d b11d 9e3d 9d66 063e e2b9 933d
00000150: b121 d7bd 2126 a7be 4f53 a93c 4ecf f13d
00000160: 4030 57be bb7f 313e 134c 9fbe a0fc 85be
00000170: d561 13bf 1f6f 19bf e081 23be 0bc7 c1be
00000180: 1c1b 47bd 6d62 253c 7b0e ab3e 8460 843d
00000190: 33fe a93e 5b1f 893d 03ce bb3d 4e80 103c
000001a0: bc60 a9bd a19b 8d3d b481 8b3d 1006 27bd
000001b0: ead1 9fbd 077b aabd 2e68 64be d27a 483d
000001c0: a8a1 b23c decf 9f3e b996 953d 0ac3 97bd
000001d0: eae8 a73d fbf6 bebe c0dc 8cbe 033b c3bd
000001e0: 0967 703e 2fa8 ddbe bca4 d7bd 31dd 93be
000001f0: 44e6 823e 901b 22be ae90 9ebd 0c41 22bd
00000200: cf03 dabe 1873 8abd 0713 3cbe 3207 f0bd
00000210: 6af6 e13d 1e6c 8c3c 7fe7 2cbd 8f38 7cbe
00000220: 9566 84be f1b4 9b3e b3fe 503e 0872 843e
00000230: ec04 c5bd 0f33 b73c 3759 663d 18e1 833d
00000240: 0da0 90bc 3e70 9fbe 03ce 21be 4594 bebd
00000250: eb53 80bd 4a94 373e e877 92be 00d4 87bd
00000260: f8ad 363e 0e36 b93e 6d39 b63a 93cc c8bc
00000270: d0af 11be 3cf8 a4be 582d c2bb f7b8 e6bd
00000280: fb33 0dbd bb31 2bbe 4b78 96be a9a9 fabd
00000290: f44b 31be 2877 1b3c 27de f03c 07d2 2d3d
000002a0: bc26 14bd 8c11 913c 9a52 743e 27f1 ad3c
000002b0: 1063 353c 32fd c93d 22cc 843e 2a3e a43d
000002c0: 40b5 e0bc fd21 083e 6fbb c03c dd53 9a3d
000002d0: b32e 3f3e 7094 15bf ca2e 763d ccab 8fbe
000002e0: 8c46 2a3f c189 173e eb8d 40bf fb20 15bc
000002f0: 5828 ae3e e93c 1abe 1896 273d 91bc 89be
00000300: a585 4e3d 7f68 93be 4642 6f3e 58f0 ebbc
00000310: 5c7e 1b3d ec40 413d c46d d23b cb0e c43d
00000320: 36fa 1b3d 96f0 25bf 3c6b b4bc 9785 db3e
00000330: bc83 8dbe 62b5 733e 4663 803d ec95 96bd
00000340: 94b9 6dbc dced 803e 9c5a 593e 3f8d 99bd
00000350: 6efa 5abd 4ad2 fbbd 52b7 08bc 8096 f23a
00000360: b3fe 323d 736b 73be 40b6 b93c e3f3 713d
00000370: 07a8 453e 79cf c73c a443 fbbd f42b 89be
00000380: 56af 3dbd 7081 2cbf d317 5c3d 92dc 363e
00000390: 5a7a 3abf 80ac 7fbe 4d21 cf3d 9db1 9a3e
000003a0: f969 1c3e 4bdd d8bd 966a 2ebe be29 56bd
000003b0: 3c85 a03d 4a28 40bd f1d0 b0bc 8f3f 04be
000003c0: 9ae7 f43d 0c57 02bd cc30 943d 328f a43e
000003d0: ed78 c43c b428 293e 6dbc 92be 3d45 a63e
000003e0: 4b82 08be f8fd fcbd 511d 72be c47b a83d
000003f0: 0b36 b1be 1660 413d aa82 9c3d ee14 90bb

network.MLP.2.bias f4 [64]
-0.19244948 0.23872903 0.19878334 0.036417726 -0.22826569 0.2710323 -0.07167362 0.8247871
0.16558178 -0.22927277 -0.526298 -0.1763891 -0.2004058 -0.4881593 -0.15198368 0.1656652
0.15918377 0.26884314 -0.0011120569 0.13718496 0.07017929 -0.72269124 0.4168334 0.033745367
-0.27497327 -0.43990672 0.42517677 0.056766517 -0.1197196 -0.19973598 -0.11045036 -0.6470554
0.12515126 -0.0056312806 -0.31714496 0.11874457 -0.123995535 0.38583517 0.37702355 0.10527015
0.1678524 0.32760912 -0.5853814 -0.49374744 0.1960521 0.5439292 -0.7254131 -0.20760477
-0.2520162 -0.2725073 -0.1275753 0.49106982 0.39513612 -0.34767815 -0.62725496 0.04750744
0.17062911 0.07619224 0.03584126 -0.54987293 0.7247147 -0.025493832 -0.2530165 0.2772997
00000000: 7a11 45be 6275 743e dc8d 4b3e c12a 153d
00000010: 7bbe 69be bfc4 8a3e 9ec9 92bd 3f25 533f
00000020: 458e 293e 7bc6 6abe 77bb 06bf 589f 34be
00000030: 2e37 4dbe 04f0 f9be 9ca1 1bbe 23a4 293e
00000040: 1201 233e cfa5 893e 70c2 91ba 377a 0c3e
00000050: 29ba 8f3d 4b02 39bf 306b d53e 9538 0a3d
00000060: 4cc9 8cbe 743b e1be c5b0 d93e 0284 683d
00000070: 8d2f f5bd 9787 4cbe cc33 e2bd 6ca5 25bf
00000080: a727 003e 9b86 b8bb d360 a2be 5a30 f33d
00000090: 5ff1 fdbd 308c c53e 3b09 c13e e097 d73d
000000a0: 80e1 2b3e 62bc a73e 8edb 15bf 77cc fcbe
000000b0: e2c1 483e f23e 0b3f acb4 39bf 5896 54be
000000c0: 4408 81be 1486 8bbe 19a3 02be 816d fb3e
000000d0: 484f ca3e df02 b2be c893 20bf 2997 423d
000000e0: 66b9 2e3e ad0a 9c3d 49ce 123d 79c4 0cbf
000000f0: e786 393f 71d8 d0bc 618b 81be 3afa 8d3e

network.MLP.3.weight f4 [64]
1.6480621 1.2550915 1.5377816 1.5891128 1.5877059 1.3836796 1.4521487 0.8279691
1.7277368 1.5746549 1.0588058 1.3959317 1.484442 1.1567152 1.8349481 1.3932521
1.4235361 1.3654149 1.2965473 1.4926002 1.5387262 0.7412634 1.0725515 0.5990844
1.3304701 0.4796913 1.04683 1.700002 1.7250044 1.0981274 1.6070925 1.0084949
1.1333241 1.5458541 1.4635276 1.4490986 1.5612068 1.317071 0.9576117 1.3837677
1.4891188 1.0715399 1.0523934 0.68223417 1.4681436 0.6797133 0.93694955 1.1593803
1.278652 1.3691171 1.5289521 1.1726531 0.3169528 1.5278904 0.90499926 1.5484284
1.4106598 1.2805231 1.3105315 0.89207387 1.1773086 1.3660532 1.570831 1.0831666
00000000: b3f3 d23f d7a6 a03f 07d6 c43f 0c68 cb3f
00000010: f239 cb3f 6a1c b13f 02e0 b93f c8f5 533f
00000020: 7b26 dd3f 4b8e c93f f386 873f e4ad b23f
00000030: 3202 be3f 3e0f 943f 94df ea3f 1656 b23f
00000040: 6e36 b63f eac5 ae3f 43f5 a53f 860d bf3f
00000050: fbf4 c43f 70c3 3d3f 5e49 893f 985d 193f
00000060: d84c aa3f 199a f53e 87fe 853f aa99 d93f
00000070: f2cc dc3f 708f 8c3f 35b5 cd3f 5c16 813f
00000080: c410 913f 8cde c53f df54 bb3f 107c b93f
00000090: a0d5 c73f c895 a83f 0a26 753f 4d1f b13f
000000a0: 729b be3f 3828 893f d4b4 863f e6a6 2e3f
000000b0: 21ec bb3f b101 2e3f eddb 6f3f 9366 943f
000000c0: deaa a33f 3b3f af3f b4b4 c33f 7f19 963f
000000d0: a347 a23e ea91 c33f 08ae 673f e732 c63f
000000e0: 8090 b43f 2ee8 a33f 7fbf a73f f45e 643f
000000f0: 0cb2 963f d5da ae3f fd10 c93f 34a5 8a3f

network.MLP.3.bias f4 [64]
0.041538805 0.027384903 -0.08916238 0.050437964 -0.073342316 -0.08989162 0.04034078 0.06693367
-0.007332513 0.083650656 0.15962096 0.2367441 0.057688102 -0.10292303 0.077817984 0.046198547
0.0774314 0.12017758 0.047462523 0.002507963 0.1472935 0.11623565 0.03398099 -0.2801005
0.07587905 -0.41420215 0.007655443 0.1069977 0.075960256 0.15234208 0.06734551 -0.025295757
0.1346231 0.08302513 -0.06219155 -0.041712433 -0.04205009 0.12441558 0.016790943 0.15868492
-0.019104855 0.14465553 0.045040574 0.1747927 0.10073926 0.15694807 -0.13265117 0.12571546
0.00048095328 0.0313012 0.03095673 0.08698221 0.121667646 0.08365653 -0.111287124 -0.043834493
0.110305145 0.07075307 0.16428582 -0.011865199 0.22099963 0.018003218 0.15894993 -0.13825543
00000000: 9824 2a3d 4e56 e03c c49a b6bd 0a98 4e3d
00000010: 7f34 96bd 1919 b8bd 603c 253d 8514 893d
00000020: 9445 f0bb 0951 ab3d ad73 233e 0c6d 723e
00000030: 5c4a 6c3d 4fc9 d2bd 095f 9f3d b03a 3d3d
00000040: 5b94 9e3d aa1f f63d 1068 423d a35c 243b
00000050: 1bd4 163e f50c ee3d a72f 0b3d 5569 8fbe
00000060: 7a66 9b3d 4e12 d4be 83da fa3b 9c21 db3d
00000070: 0d91 9b3d 90ff 1b3e 71ec 893d 0c39 cfbc
00000080: a3da 093e 1409 aa3d 91bc 7ebd a8da 2abd
00000090: b73c 2cbd 98cd fe3d 298d 893c 4d7e 223e
000000a0: c981 9cbc 9420 143e 777c 383d dcfc 323e
000000b0: 6350 ce3d ffb6 203e b5d5 07be 8ebb 003e
000000c0: 7528 fc39 b035 003d f898 fd3c bb23 b23d
000000d0: e32c f93d 1d54 ab3d 81ea e3bd cc8b 33bd
000000e0: aae7 e13d fce6 903d 8b3a 283e 4066 42bc
000000f0: ba4d 623e 7c7b 933c c5c3 223e d592 0dbe

critic.0.weight f4 [1, 64]
0.051806595 0.011645628 0.0060635353 -0.013883626 -0.07352234 0.0021087637 -0.002707337 0.26826078
-6.5099855e-05 0.023951558 0.0019749207 0.017293539 0.03257334 -0.03482281 0.035592865 -0.036201797
-0.0039529363 0.059283793 -0.026421374 0.027165946 0.05343268 -0.19837372 -0.023892058 0.174365
-0.09052505 0.11845851 0.0909449 0.019483821 0.0047148042 0.08177353 0.012928326 -0.012405688
0.0411717 0.03919245 0.018040484 -0.028826043 0.051389344 0.03725249 0.049784884 0.048580445
0.0035614027 0.038938113 -0.040974155 -0.18610898 0.0082486905 0.16185343 -0.3989769 0.027581163
-0.013096713 -0.026483957 -0.0061832382 0.0429155 0.021874897 -0.038322214 -0.23094289 0.032358944
0.045268193 0.017544832 0.04834369 -0.039059106 0.5225693 -0.03850783 0.006578112 0.035503745
00000000: 2733 543d 4ecd 3e3c 9fb0 c63b 2678 63bc
00000010: e192 96bd 2f33 0a3b 946d 31bb 7a59 893e
00000020: 3886 88b8 0f36 c43c ac6d 013b 2eab 8d3c
00000030: 9f6b 053d 5da2 0ebd d3c9 113d 5648 14bd
00000040: a287 81bb 90d3 723d a371 d8bc 1e8b de3c
00000050: 3adc 5a3d 7b22 4bbe 47b9 c3bc bd8c 323e
00000060: 3365 b9bd 609a f23d 5241 ba3d 899c 9f3c
00000070: a57e 9a3b e178 a73d 54d1 533c 3a41 4bbc
00000080: a8a3 283d 4388 203d a3c9 933c 9824 ecbc
00000090: a27d 523d 1196 183d 3ceb 4b3d 4afc 463d
000000a0: 6c66 693b 927d 1f3d 84d4 27bd 5a93 3ebe
000000b0: 8425 073c e8bc 253e b346 ccbe e4f1 e13c
000000c0: 9993 56bc e2f4 d8bc c39c cabb 2ac8 2f3d
000000d0: fc32 b33c c1f7 1cbd 4b7c 6cbe d08a 043d
000000e0: 246b 393d 2eba 8f3c 0804 463d 71fc 1fbd
000000f0: 1ac7 053f 63ba 1dbd 348d d73b 606c 113d

actor.0.weight f4 [22, 64]
-0.897688 0.69159275 -0.7407048 0.29467714 -0.019921945 -0.014803255 0.59506434 0.07478783
0.6294479 0.29783797 0.13596416 0.3764753 -0.5327255 -0.13650467 0.30530772 -0.70698005
-0.3155059 0.36921716 -0.033493444 -0.5190752 -0.7805508 -0.07014193 0.23732533 0.052784752
0.13026232 0.07193089 -0.009779627 0.20437394 -0.14384535 0.14177525 -0.42551023 -0.14957492
0.56619245 -0.20177203 -0.30988175 -0.13987406 -0.1830274 0.4516169 0.078808255 -0.21420786
-0.12665467 0.27892375 -0.029396025 -0.080440424 0.64179677 0.009184504 -0.07770747 -0.6171068
0.65507215 0.33933604 0.43748984 0.08444704 -0.1403238 0.080316655 -0.3719824 0.3243961
0.60382056 -0.17194563 -0.40026614 -0.3779824 0.33202228 0.0458606 0.4178975 -0.41268924
-0.25682265 -0.19703177 -0.17170785 0.40814298 -0.648105 0.40233552 0.31826788 0.059184752
0.44213447 -0.20950599 -0.18933964 0.1929889 0.2295269 -0.269727 -0.12766601 0.2717332
-0.29610926 -0.19895458 0.38434026 0.16564365 0.079056494 -0.08570774 -0.07818153 -0.049690682
0.7521049 -0.09692358 -0.36432758 0.21162328 0.35463515 0.12616648 -0.018945392 0.13080744
0.21177655 -0.4428263 -0.384062 -0.19364299 0.5118091 0.41842043 0.312154 -0.04329549
0.04841971 0.4085117 -0.3627139 0.03601402 0.40972614 0.1576086 -0.08622856 -0.18480593
0.05475918 0.19592798 0.111999474 0.20280373 0.08952166 0.30807313 -0.13042791 0.5259841
-0.35953093 -0.23670705 -0.072606005 -0.24996175 0.18707146 0.35815036 -0.5235643 -0.2673774
-0.3134615 0.46276683 0.10026078 -0.25131065 0.11070478 0.060615867 0.20818713 0.057338037
-0.3511201 0.70920926 0.03398314 -0.23519644 0.8719259 -0.048660994 -0.14351867 0.10640908
-0.03996984 0.081048 0.2862164 -0.23843761 0.24032865 -0.010755849 0.12371853 -0.033629853
0.37640852 -0.09138153 -0.44298804 0.53647536 -0.040108692 0.14842199 -0.43006614 0.2047065
0.053842545 -0.25669527 0.14310071 0.19808781 0.29541236 0.06071891 0.23534471 -0.4370997
0.33514062 0.27055854 -0.008480836 -0.047708787 -0.24841154 -0.103213325 0.0191609 -0.2524102
0.19559948 -0.21562336 -0.39672604 -0.01362137 -0.022643702 0.34194127 -0.07475981 0.37583414
-0.47377828 0.17562182 0.026393179 -0.23793723 0.1907438 -0.34149578 -0.19629177 0.017366929
0.12683073 -0.55038244 -0.29796866 0.22457841 -0.1596184 0.107986644 -0.035696927 0.054293524
0.18779953 -0.08729485 0.17396903 0.43350744 0.4251209 0.25780278 0.44589433 0.016334
-0.2003865 0.0013209011 -0.13925527 0.008730473 -0.31655106 -0.058562472 -0.27815783 0.07192185
-0.4972608 0.086734965 0.27515838 -0.11880907 0.14925523 0.07690545 0.1225816 0.50164264
0.0018268224 -0.052609984 0.12801325 0.061702352 0.18610975 0.2173688 0.07333073 0.44719073
0.35826457 -0.67199254 -0.12848286 -0.0993473 -0.09364217 -0.044395115 -0.028817771 0.29643515
-0.16341662 -0.3306551 -0.01877341 0.115457654 -0.025257513 -0.21912074 0.3976495 0.13119754
-0.12480011 0.027334027 0.024581747 0.19995472 -0.2884248 -0.4713705 0.1264887 -0.1192858
00000000: e1ce 65bf 390c 313f d49e 3dbf ecdf 963e
00000010: 5933 a3bc 5a89 72bc 2356 183f 5d2a 993d
00000020: 7f23 213f 387e 983e 303a 0b3e 5fc1 c03e
00000030: b360 08bf e1c7 0bbe 4b51 9c3e a5fc 34bf
00000040: fd89 a1be 080a bd3e 6c30 09bd 1de2 04bf
00000050: 2dd2 47bf 92a6 8fbd 6905 733e d334 583d
00000060: 7c63 053e 8150 933d bb3a 20bc 6747 513e
00000070: 324c 13be 882d 113e 7adc d9be 2b2a 19be
00000080: fdf1 103f 549d 4ebe d2a8 9ebe 253b 0fbe
00000090: 896b 3bbe 553a e73e 3966 a13d 4e59 5bbe
000000a0: c3b1 01be 18cf 8e3e efcf f0bc f3bd a4bd
000000b0: cb4c 243f 9a7a 163c 1825 9fbd b6fa 1dbf
000000c0: cfb2 273f 74bd ad3e abfe df3e 92f2 ac3d
000000d0: 0bb1 0fbe 0f7d a43d 7a74 bebe 3f17 a63e
000000e0: fc93 1a3f 8412 30be afef ccbe e986 c1be
000000f0: d3fe a93e 53d8 3b3d a9f6 d53e 014c d3be
00000100: 427e 83be b2c2 49be 2fd4 2fbe 1ef8 d03e
00000110: 36ea 25bf ecfe cd3e 02f4 a23e b66b 723d
00000120: 735f e23e bd88 56be 40e2 41be e29e 453e
00000130: 1a09 6b3e a819 8abe e1ba 02be 9d20 8b3e
00000140: a29b 97be c0ba 4bbe 3fc8 c43e 7d9e 293e
00000150: 5fe8 a13d 8a87 afbd a31d a0bd 7588 4bbd
00000160: f289 403f df7f c6bd 2589 babe c6b3 583e
00000170: bd92 b53e c931 013e 5e33 9bbc 63f2 053e
00000180: f4db 583e 21ba e2be c6a3 c4be 594a 46be
00000190: ec05 033f 343b d63e a6d2 9f3e 9d56 31bd
000001a0: bf53 463d 7228 d13e a3b5 b9be 7083 133d
000001b0: a0c7 d13e 2664 213e 9998 b0bd c43d 3dbe
000001c0: 294b 603d 58a1 483e fb5f e53d c8ab 4f3e
000001d0: 2257 b73d c3bb 9d3e e58e 05be e5a6 063f
000001e0: 7014 b8be 5563 72be 75b2 94bd f9f5 7fbe
000001f0: a98f 3f3e 7c5f b73e 4f08 06bf b1e5 88be
00000200: 077e a0be c6ef ec3e 8655 cd3d caab 80be
00000210: 30b9 e23d 5848 783d 022f 553e 4adb 6a3d
00000220: 04c6 b3be bd8e 353f e831 0b3d 56d7 70be
00000230: 8936 5f3f c050 47bd 8ff6 12be 01ed d93d
00000240: 6ab7 23bd 7efc a53d f58a 923e fd28 74be
00000250: b718 763e 4d39 30bc 2460 fd3d 75bf 09bd
00000260: 9eb8 c03e 3d26 bbbd 54cf e2be 7356 093f
00000270: 0349 24bd effb 173e a131 dcbe 959e 513e
00000280: 008a 5c3d 906d 83be fe88 123e 88d7 4a3e
00000290: 4a40 973e 64b4 783d 34fe 703e 88cb dfbe
000002a0: 8d97 ab3e a686 8a3e 34f3 0abc 4a6a 43bd
000002b0: 985f 7ebe 8261 d3bd 52f7 9c3c e93b 81be
000002c0: 3b4b 483e 5fcc 5cbe ad1f cbbe 2b2c 5fbc
000002d0: 497f b9bc ed12 af3e ac1b 99bd 556d c03e
000002e0: 1193 f2be 35d6 333e 8236 d83c d1a5 73be
000002f0: 5852 433e 89d8 aebe b600 49be 1745 8e3c
00000300: eadf 013e dde5 0cbf 598f 98be e2f7 653e
00000310: 0173 23be 1a28 dd3d f136 12bd e362 5e3d
00000320: 854e 403e a4c7 b2bd f024 323e b0f4 dd3e
00000330: 72a9 d93e bafe 833e 434c e43e e1ce 853c
00000340: 1e32 4dbe 1622 ad3a ef98 0ebe 420a 0f3c
00000350: fb12 a2be 34df 6fbd b46a 8ebe c34b 933d
00000360: f898 febe 1aa2 b13d 8fe1 8c3e 2b52 f3bd
00000370: 5dd6 183e 9b80 9d3d 100c fb3d a76b 003f
00000380: fd71 ef3a 917d 57bd e815 033e 9bbb 7c3d
00000390: 8e93 3e3e ed95 5e3e 6c2e 963d 2ff6 e43e
000003a0: 746e b73e b407 2cbf 0391 03be 9976 cbbd
000003b0: 77c7 bfbd a7d7 35bd 3f13 ecbc 59c6 973e
000003c0: b056 27be a04b a9be b2ca 99bc 1075 ec3d
000003d0: d8e8 cebc 3061 60be b798 cb3e a658 063e
000003e0: 3397 ffbd 9ceb df3c a95f c93c eec0 4c3e
000003f0: 6aac 93be 7957 f1be 4186 013e 1d4c f4bd

actor.0.bias f4 [22]
0.015526684 -0.047991507 -0.028865479 0.10224143 0.00051949994 0.025903141 -0.09774868 -0.0134447
0.033351913 -0.041314546 -0.044361327 0.027495941 0.041516926 0.025405847 -0.013844044 0.04835982
-0.091810904 0.05485851 -0.0384085 -0.114662394 0.039328944 0.058773696
00000000: a263 7e3c be92 44bd 4c77 ecbc f463 d13d
00000010: 0d2f 083a d332 d43c 7630 c8bd 2947 5cbc
00000020: 049c 083d 7139 29bd 39b4 35bd 2b3f e13c
00000030: a70d 2a3d ec1f d03c 21d2 62bc f214 463d
00000040: 5b07 bcbd 51b3 603d 3b52 1dbd 1ed4 eabd
00000050: 6317 213d b0bc 703d
