paper/training_results/seed-7/momarl/checkpoints/mlp_(negotiation=False)_(num_agents=12)_(window=False)_(reduced_space=False)_(fixed_savings_rate=False)_(rewards=['inverse_global_temperature', 'global_economic_output'])(wgen=uniform)(num_ensembles=1)(seed=7)_2025-01-16_22:46:48_w=[0.8004 0.1996].pt (torch, 38168 bytes, 9 tensors)

network.MLP.0.weight f4 [64, 18]
0.026833212 -0.09169512 0.03990012 -0.18740043 0.14563748 0.07166027 -0.12713963 -0.22375534
-0.7944534 -0.39973652 0.017524064 0.14060296 -0.24164584 0.50004405 -0.7419649 -0.064647816
-0.9515231 0.5411662 0.019388484 -0.22462381 0.11901736 -0.22848347 1.0502946 -0.5266775
-0.031102482 0.00759094 -0.03813033 0.044069447 -0.070002645 0.013701496 0.0022154364 -0.021303121
-0.24583595 -0.007654919 0.017606394 0.03309001 0.037073396 -0.15425362 0.0055121756 -0.33616227
0.5581917 0.11762169 0.354744 -0.7702356 0.09309898 0.101945885 -0.16651137 0.27979416
0.105988316 -0.3811708 -0.066947185 0.16927403 -0.43834898 -0.45499328 -0.068374634 -0.054845892
-0.22443517 -0.043878186 -0.22241445 -0.015268286 0.14573178 -0.19661972 0.010629857 -0.1819409
-0.016590461 -0.21104357 0.10223921 0.05461369 0.086525455 0.14672035 0.14846349 -0.13080145
-0.15034682 0.06645717 0.0629941 -0.7957033 0.37297955 0.34361356 0.35370836 -0.2795698
-0.09641036 -0.16317043 -0.9220971 0.058376938 -0.25728106 0.025096174 -0.23534188 0.17564148
0.38732475 -0.32289803 -0.16760682 -0.18797551 -0.052151322 -0.20354824 0.22487342 0.050817467
0.050764397 0.06765784 -0.24645728 -0.23900318 -0.1536592 0.051678997 0.060483586 0.015549617
-0.16687234 -0.019263355 -0.121465296 -0.14780116 0.010154569 0.11333182 0.031293403 -1.1019485
0.11435282 -0.7348991 -0.18711244 0.07867617 0.046939176 0.47987032 -0.23710448 -0.020202676
0.4662288 0.017785795 -0.19128096 0.29807588 -0.043528024 0.38410434 0.15477376 -0.1573201
-0.028246323 0.13391358 -0.5583823 -0.47224867 0.1382099 0.17694396 0.0067224517 0.020895932
0.12904878 -0.09163927 0.16695996 0.04644159 0.0338408 0.07076927 0.17004703 -0.008723071
-0.2399176 -0.061372153 0.014073931 0.2240321 -0.18040164 -0.20319067 0.20321047 -0.16710877
0.16844903 -0.087721065 -0.23006546 -0.011641205 0.1019253 -0.18828988 0.19384125 -0.22161688
-0.2324776 -0.06536167 -0.52384514 0.82089823 0.051334985 -5.6359406 0.03607903 -0.4898694
0.08349225 0.010542306 -0.026952099 -0.07553032 -0.025854932 0.032430224 -0.17161445 0.030506521
-0.022026476 -0.1032046 0.05991706 -0.0028338772 -0.00088444084 -0.0807897 -0.34628552 0.28810304
-0.27524614 0.16852982 0.059781507 0.35936013 0.076055445 0.10478829 0.019527102 -0.23905046
0.4171299 0.5741282 0.6785725 0.5897102 -0.30697575 0.20444386 0.10179063 0.30652747
-0.15241438 0.56555146 0.7876388 -1.3158044 0.15882987 -0.015190062 0.09705083 -0.09243468
-0.1622883 -0.089978956 0.72220653 -0.27396265 -0.06433854 -0.012505269 -0.12806743 0.0029736536
-0.5301314 -0.6771804 0.01880078 0.8010074 -0.8204899 0.4992284 -0.06908325 0.017840384
-0.03679654 -0.02028913 0.08774878 -0.023249239 0.23603708 -0.045026425 0.028911294 0.08308371
-0.05343147 -0.00368875 0.031084534 0.26667705 0.05446366 -0.010185012 0.32103983 -0.05626526
-0.2443765 -0.68239844 0.23670784 -0.32184136 0.06647911 -0.20030907 -0.8656288 -0.46967798
-0.21324621 -0.15045169 0.49558383 0.33937094 0.008403327 -0.83282346 0.0054076677 0.14372534
00000000: 53d1 db3c a7ca bbbd 4f6e 233d e6e5 3fbe
00000010: fe21 153e 9fc2 923d e430 02be 1f20 65be
00000020: 4c61 4bbf 44aa ccbe a08e 8f3c 39fa 0f3e
00000030: 0272 77be e302 003f 69f1 3dbf 1366 84bd
00000040: 0597 73bf de89 0a3f 99d4 9e3c c903 66be
00000050: 60bf f33d 92f7 69be 0e70 863f 56d4 06bf
00000060: a2ca febc 6cbd f83b 8d2e 1cbd 2a82 343d
00000070: 8c5d 8fbd 3d7c 603c db30 113b e283 aebc
00000080: 6bbc 7bbe 1dd6 fabb 493b 903c 6489 073d
00000090: 46da 173d a9f4 1dbe 7b9f b43b 761d acbe
000000a0: a7e5 0e3f a4e3 f03d 01a1 b53e 292e 45bf
000000b0: aeaa be3d 01c9 d03d f581 2abe 2e41 8f3e
000000c0: 6710 d93d d228 c3be 9b1b 89bd 2c56 2d3e
000000d0: 476f e0be e1f4 e8be 0008 8cbd 16a6 60bd
000000e0: 55d2 65be 9db9 33bd 9dc0 63be d527 7abc
000000f0: b63a 153e ae56 49be da28 2e3c b74e 3abe
00000100: b8e8 87bc ce1b 58be ca62 d13d 9bb2 5f3d
00000110: 4234 b13d dc3d 163e d006 183e d1f0 05be
00000120: 84f4 19be b21a 883d 0d03 813d 36b3 4bbf
00000130: 2df7 be3e 1eee af3e 4319 b53e c623 8fbe
00000140: cb72 c5bd 2616 27be 8e0e 6cbf a81c 6f3d
00000150: 58ba 83be 7e96 cd3c 76fd 70be 5cdb 333e
00000160: 6e4f c63e e452 a5be 1fa1 2bbe a77c 40be
00000170: a09c 55bd f36e 50be 3845 663e fa25 503d
00000180: 54ee 4f3d 3290 8a3d 4c5f 7cbe 40bd 74be
00000190: d658 1dbe 5bad 533d a3bd 773d d2c3 7e3c
000001a0: 95e0 2abe 2fce 9dbc ccc2 f8bd 3059 17be
000001b0: 595f 263c 831a e83d 832d 003d a60c 8dbf
000001c0: d031 ea3d 5922 3cbf 679a 3fbe f920 a13d
000001d0: 4b43 403d 90b1 f53e 84cb 72be 1580 a5bc
000001e0: 8bb5 ee3e 84b3 913c 28df 43be 679d 983e
000001f0: 714a 32bd 53a9 c43e 037d 1e3e 8518 21be
00000200: d564 e7bc a420 093e 24f2 0ebf 94ca f1be
00000210: e586 0d3e cc30 353e 0348 dc3b f22d ab3c
00000220: 5d25 043e 5fad bbbd 8df7 2a3e 8939 3e3d
00000230: a79c 0a3d 7bef 903d cf20 2e3e 36eb 0ebc
00000240: f6ac 75be 5e61 7bbd 5896 663c ac68 653e
00000250: 35bb 38be 3711 50be 6816 503e 901e 2bbe
00000260: e77d 2c3e 1aa7 b3bd 4896 6bbe c1ba 3ebc
00000270: 36be d03d 10cf 40be 527e 463e 89ef 62be
00000280: 9c0e 6ebe 57dc 85bd b71a 06bf 6326 523f
00000290: a244 523d a059 b4c0 9bc7 133d 29d0 fabe
000002a0: fcfd aa3d a3b9 2c3c a6ca dcbc a4af 9abd
000002b0: b9cd d3bc 8ed5 043d b3bb 2fbe d0e8 f93c
000002c0: de70 b4bc ef5c d3bd 976b 753d 92b8 39bb
000002d0: d2d9 67ba 1275 a5bd 564c b1be 3e82 933e
000002e0: 10ed 8cbe 1593 2c3e 74dd 743d 0dfe b73e
000002f0: f5c2 9b3d 3e9b d63d 4df7 9f3c a5c9 74be
00000300: 0d92 d53e 11fa 123f edb6 2d3f 3ff7 163f
00000310: ed2b 9dbe bb59 513e 9b77 d03d 2bf1 9c3e
00000320: 8412 1cbe fbc7 103f b2a2 493f 476c a8bf
00000330: 4ca4 223e bddf 78bc 96c2 c63d 654e bdbd
00000340: e72e 26be e346 b8bd 87e2 383f d544 8cbe
00000350: edc3 83bd e6e2 4cbc 1c24 03be a1e1 423b
00000360: b1b6 07bf b25b 2dbf 1804 9a3c d20e 4d3f
00000370: a00b 52bf dd9a ff3e 857b 8dbd ff25 923c
00000380: f8b7 16bd 6435 a6bc a2b5 b33d 3075 bebc
00000390: b4b3 713e a16d 38bd 61d7 ec3c cb27 aa3d
000003a0: f5da 5abd f5be 71bb fea4 fe3c e589 883e
000003b0: 4915 5f3d 09df 26bc 555f a43e 6776 66bd
000003c0: d53d 7abe aab1 2ebf 8a63 723e 64c8 a4be
000003d0: 3326 883d d21d 4dbe d999 5dbf a279 f0be
000003e0: 375d 5abe 0210 1abe 2abd fd3e 07c2 ad3e
000003f0: 1cae 093c eb33 55bf ce32 b13b bc2c 133e

network.MLP.0.bias f4 [64]
-0.34559408 0.59461576 0.17168665 -0.0028581289 -0.2536459 0.25984657 0.1504947 0.26629695
-0.22943547 0.39050388 0.028650865 -0.1694794 -0.04049141 -0.13698564 -1.4092686 0.23184974
0.34846935 0.03240082 -0.2732363 0.3224649 -0.2133635 -0.17036551 -0.13127173 -0.082961455
-0.08915756 -0.015276583 0.06352255 0.15588783 0.23407838 -0.5118093 0.121534705 0.12221639
0.11187669 -0.11378151 0.028117824 -1.3897333 -0.008687 0.5073814 0.27673408 -0.08731119
0.013612053 -0.59209806 0.04514545 -0.3736246 0.57053596 0.86055803 -0.3662206 -0.63931996
-0.2595492 0.08779202 0.23359452 0.09062807 -0.10770689 -0.45648193 -0.9860521 -1.076402
0.2562269 -0.015335725 -0.494627 0.10735808 -0.2593015 0.14530034 -0.056537095 -0.50628823
00000000: b5f1 b0be bd38 183f a0ce 2f3e 724f 3bbb
00000010: e0dd 81be 9c0a 853e 481b 1a3e 1358 883e
00000020: 22f1 6abe 20f0 c73e 38b5 ea3c 028c 2dbe
00000030: 52da 25bd f745 0cbe ea62 b4bf 056a 6d3e
00000040: 936a b23e b9b6 043d a1e5 8bbe 1f1a a53e
00000050: f67b 5abe 4c74 2ebe 196c 06be b2e7 a9bd
00000060: 3d98 b6bd a24a 7abc 1c18 823d 0fa1 1f3e
00000070: 3eb2 6f3e ef05 03bf 30e7 f83d 964c fa3d
00000080: 9b1f e53d 4806 e9bd 5a57 e63c c8e2 b1bf
00000090: eb53 0ebc bfe3 013f 17b0 8d3e 36d0 b2bd
000000a0: 1705 5f3c bd93 17bf 6fea 383d b94b bfbe
000000b0: a50e 123f 884d 5c3f 4481 bbbe 79aa 23bf
000000c0: a2e3 84be 4dcc b33d 6733 6f3e 369b b93d
000000d0: 6e95 dcbd 00b8 e9be e96d 7cbf 8ac7 89bf
000000e0: 2c30 833e b142 7bbc c03f fdbe 8ede db3d
000000f0: 2bc3 84be 9dc9 143e 7193 67bd 1b9c 01bf

network.MLP.2.weight f4 [64, 64]
-0.02701405 0.04468698 -0.0072001913 -0.11940289 -0.18324488 -0.23032023 -0.14820689 0.055218536
-0.049314603 0.4622837 -0.23937036 -0.043713294 -0.123353474 -0.013602048 -0.344141 -0.043443482
-0.21032028 0.11995325 -0.12194125 0.23768605 0.008902548 -0.044672668 0.032490086 0.25595605
0.15744421 -0.23038684 0.31562325 -0.18008758 0.12250682 -0.11995162 0.05874407 0.12527862
0.07179474 -0.07655871 0.36402875 0.043158624 0.09715365 -0.029272106 0.055619087 0.024503818
0.048817627 0.12859029 -0.18039893 0.23037067 0.06301049 0.15669443 -0.24860601 0.18075459
-0.23287374 -0.055358227 0.030429646 0.0075479415 0.05023454 -0.19998348 -0.23424152 0.007884357
-0.08363565 -0.11033801 -0.10128105 -0.009085838 -0.44660103 -0.087809704 0.041409325 -0.124477945
-0.112685636 0.20738615 -0.06827068 -0.05330855 0.11516241 -0.14545813 -0.10210036 0.17693761
-0.07685469 0.0144775985 0.06672032 -0.14824592 0.26393715 0.031459723 -0.22769088 0.184263
-0.10512587 0.2633141 0.16627944 -0.12885803 0.18037714 -0.05780773 -0.08728153 0.028742425
0.15189272 -0.3815851 -0.0101139555 -0.05926974 0.030690629 -0.14242044 0.058752485 0.21266924
0.2135452 -0.012749568 0.2743664 0.025973082 -0.05859177 -0.10855269 0.27118182 -0.09848357
0.40356627 -0.24538185 0.054519974 0.42052594 -0.13379222 0.1562417 -1.0221703 0.17362455
-0.36108056 -0.39254826 -0.10251782 -0.26264676 -0.05519004 -0.12945832 0.05158072 0.3778191
-0.17738478 0.09809863 0.0024802296 -0.36120802 -0.084608585 -0.11101889 -0.031093325 -0.14575516
-0.054311663 0.13937214 -0.084131695 -0.073603414 -0.20104684 0.116893776 -0.35484156 0.017277876
0.062373433 0.004370048 0.039176483 -0.038695447 -0.0673244 -0.30342776 0.55834085 -0.036363307
0.12829164 0.34979835 0.019686908 0.019177746 -0.0025314318 0.01560238 0.21921816 -0.34111992
0.1014225 -0.045663394 0.35556558 -0.36167082 -0.14173326 -0.178416 -0.12573248 0.16723785
-0.045847926 -0.07330574 0.11163712 0.16272652 0.07150875 0.28898346 0.19785875 0.17896108
-0.19249386 0.013530604 0.1837819 -0.4296241 -0.20205136 0.17982398 0.23977897 -0.41346186
0.1382626 -0.08034785 0.01736474 -0.04256569 0.102024496 0.1132735 0.36832908 -0.05627261
0.1504691 0.12535554 -0.0775444 0.108538024 0.020223975 0.07092487 0.07814458 0.07512355
-0.41841683 0.037900742 -0.24423644 -0.019886067 -0.28007895 0.0043314197 -0.3264723 0.077751875
0.09340422 0.18335716 0.18437113 0.25946003 0.26893318 -0.28335777 -0.077355646 0.18666905
0.0066768713 0.113533095 -0.5528088 -0.11437866 0.13890013 0.12308177 -0.046144202 0.6364498
0.24520208 -0.06273269 0.22151178 -0.24173503 -0.09757183 -0.11630822 -0.0484119 0.16145223
-0.17724037 -0.047264427 -0.06173455 0.06941805 0.0610947 0.04948349 -0.031588264 0.11007514
0.3877894 -0.3027669 0.060470555 0.24214514 -0.21141382 0.15557516 -0.5397051 0.36742997
-0.20076254 0.013976673 -0.06405534 -0.09528855 0.04195817 -0.3663044 0.051256653 -0.16084017
-0.0027692313 0.38566396 0.06306001 0.47307822 -0.17727564 0.08346534 -0.54794073 -0.13419408
00000000: 924c ddbc b209 373d 95ef ebbb 8189 f4bd
00000010: 8ca4 3bbe 11d9 6bbe 8cc3 17be d52c 623d
00000020: 1cfe 49bd 73b0 ec3e 811d 75be b60c 33bd
00000030: bfa0 fcbd 20db 5ebc 4033 b0be cbf1 31bd
00000040: 335e 57be 0daa f53d 56bc f9bd f963 733e
00000050: fedb 113c b0fa 36bd 5314 053d ac0c 833e
00000060: 0e39 213e 87ea 6bbe 5f99 a13e e168 38be
00000070: dbe4 fa3d 32a9 f5bd 9f9d 703d 0a49 003e
00000080: 1f09 933d d0ca 9cbd fa61 ba3e 19c7 303d
00000090: 7ef8 c63d 0ecc efbc d7d0 633d 3bbc c83c
000000a0: fef4 473d 2cad 033e 7fba 38be 4ae6 6b3e
000000b0: a50b 813d 8174 203e 9392 7ebe bb17 393e
000000c0: 7476 6ebe 4fbf 62bd 9847 f93c b954 f73b
000000d0: bcc2 4d3d 78c8 4cbe 02dd 6fbe 642d 013c
000000e0: 2b49 abbd e5f8 e1bd 706c cfbd c4dc 14bc
000000f0: e4a8 e4be 93d5 b3bd d39c 293d 4bee febd
00000100: bac7 e6bd 095d 543e 80d1 8bbd 115a 5abd
00000110: 45da eb3d faf2 14be fe19 d1bd 222f 353e
00000120: fe65 9dbd 7333 6d3c aaa4 883d c7cd 17be
00000130: c522 873e e9db 003d cc27 69be 71af 3c3e
00000140: 3b4c d7bd 1bd1 863e 2845 2a3e 5cf3 03be
00000150: c9b4 383e ccc7 6cbd a9c0 b2bd 3c75 eb3c
00000160: c489 1b3e 1f5f c3be 01b5 25bc d4c4 72bd
00000170: ea6a fb3c aad6 11be 72a6 703d f7c5 593e
00000180: 98ab 5a3e 90e3 50bc c179 8c3e 80c5 d43c
00000190: ecfd 6fbd df50 debd 58d8 8a3e c1b1 c9bd
000001a0: 3da0 ce3e 6145 7bbe 5650 5f3d 2d4f d73e
000001b0: d400 09be d3fd 1f3e 7ad6 82bf a2ca 313e
000001c0: 8ddf b8be 16fc c8be ddf4 d1bd a379 86be
000001d0: f40e 62bd b990 04be 4e46 533d 8171 c13e
000001e0: 5ba4 35be efe7 c83d 598b 223b 42f0 b8be
000001f0: 4447 adbd df5d e3bd 6eb7 febc d740 15be
00000200: e875 5ebd 92b7 0e3e 3d4d acbd 63bd 96bd
00000210: 39df 4dbe 0166 ef3d cbad b5be 558a 8d3c
00000220: 497b 7f3d 9f32 8f3b 8577 203d 1e7f 1ebd
00000230: 60e1 89bd e25a 9bbe 6def 0e3f b1f1 14bd
00000240: e25e 033e c518 b33e 7046 a13c a61a 9d3c
00000250: 61e6 25bb 20a1 7f3c ba7a 603e 45a7 aebe
00000260: 9ab6 cf3d 8a09 3bbd b10c b63e eb2c b9be
00000270: 8622 11be afb2 36be 04c0 00be 6640 2b3e
00000280: 09cb 3bbd 5221 96bd 01a2 e43d c8a1 263e
00000290: 2e73 923d a4f5 933e 7c9b 4a3e 9341 373e
000002a0: 1c1d 45be 77af 5d3c 5331 3c3e b1f7 dbbe
000002b0: 8de6 4ebe c723 383e 9e88 753e 46b1 d3be
000002c0: b694 0d3e 6a8d a4bd 8040 8e3c 5c59 2ebd
000002d0: 38f2 d03d f0fb e73d a195 bc3e 1c7e 66bd
000002e0: 9214 1a3e 345d 003e 99cf 9ebd 2f49 de3d
000002f0: c0ac a53c 0f41 913d 440a a03d 60da 993d
00000300: bb3a d6be cf3d 1b3d 1e19 7abe 1be8 a2bc
00000310: 8266 8fbe 95ee 8d3b 6127 a7be 603c 9f3d
00000320: b64a bf3d fbc1 3b3e c9cb 3c3e f2d7 843e
00000330: 9cb1 893e 4514 91be a36c 9ebd 2c26 3f3e
00000340: a8c9 da3b 0a84 e83d e184 0dbf 5c3f eabd
00000350: d63b 0e3e 4c12 fc3d b401 3dbd 60ee 223f
00000360: 4116 7b3e ff79 80bd fcd3 623e 6389 77be
00000370: bdd3 c7bd 0133 eebd 8e4b 46bd bc53 253e
00000380: 807e 35be 5898 41bd 5edd 7cbd 0d2b 8e3d
00000390: 703e 7a3d 33af 4a3d b262 01bd 136f e13d
000003a0: 558c c63e 4304 9bbe f9af 773d e5f4 773e
000003b0: dd7c 58be 184f 1f3e 1d2a 0abf c81f bc3e
000003c0: b294 4dbe 6afe 643c 722f 83bd a526 c3bd
000003d0: 54dc 2b3d 408c bbbe 7ff2 513d 49b3 24be
000003e0: fe7b 35bb bf75 c53e 9b25 813d 4f37 f23e
000003f0: bf87 35be e0ef aa3d d845 0cbf 2c6a 09be

network.MLP.2.bias f4 [64]
0.6293997 0.16416398 0.15794912 0.47599423 0.53877985 0.031044543 0.16584453 0.6238667
-0.24814607 -0.30777147 -0.7161499 -0.34779143 -0.41800746 -0.0954944 -0.37413472 -0.635594
-0.111948624 0.35670426 -0.08770439 -0.24009667 0.3797034 -0.5189145 0.35266018 -0.4528353
0.22820358 0.20923062 0.51343966 0.070449285 -0.18851514 -0.065154806 0.29827157 -0.89379567
0.09590058 -0.0770466 -0.05420973 0.5762396 -0.33769962 0.235852 -0.09940807 -0.35740817
-0.35160553 -0.25879958 0.35637024 -0.25312537 -0.10124911 0.4621613 0.028737351 -0.05620299
-0.09037597 0.37871605 0.43837664 0.41614997 -0.13284743 0.031813253 -0.0019681645 0.078032464
0.21329255 0.035893258 -0.26031446 0.21457288 -0.42204252 -0.14557116 -0.24007268 -0.4543124
00000000: 5720 213f 9a1a 283e 6abd 213e 84b5 f33e
00000010: 7aed 093f 2051 fe3c 26d3 293e bab5 1f3f
00000020: 011a 7ebe 3994 9dbe 9a55 37bf b811 b2be
00000030: 1305 d6be 9192 c3bd 968e bfbe 4ab6 22bf
00000040: 5245 e5bd f1a1 b63e 5c9e b3bd e7db 75be
00000050: 7c68 c23e 95d7 04bf e08f b43e 07da e7be
00000060: 33ae 693e 8d40 563e c870 033f b747 903d
00000070: 1d0a 41be e26f 85bd 0db7 983e cbcf 64bf
00000080: 8667 c43d 9cca 9dbd 060b 5ebd 7084 133f
00000090: f7e6 acbe 3083 713e 7596 cbbd 34fe b6be
000000a0: a405 b4be 6181 84be 2976 b63e a699 81be
000000b0: b25b cfbd 68a0 ec3e 986a eb3c 1b35 66bd
000000c0: 0917 b9bd 12e7 c13e e772 e03e 9c11 d53e
000000d0: 2809 08be 9d4e 023d 52fc 00bb 7ccf 9f3d
000000e0: 5d69 5a3e cf04 133d f047 85be feb8 5b3e
000000f0: f515 d8be 9b10 15be 9dd5 75be a39b e8be

network.MLP.3.weight f4 [64]
0.98873615 1.4553084 1.1948025 1.8369268 0.9187951 1.7535485 1.8680558 0.8411985
1.3394018 1.7417704 1.0416284 0.964574 1.084844 1.588078 1.217442 0.7541395
1.3749523 1.1396309 1.3671825 1.8141224 1.596128 0.94672954 1.9868106 0.83136916
1.1269162 1.2566727 1.106677 1.1777482 1.560418 1.4026252 0.35321116 0.8527442
1.7690735 1.2693638 1.5972738 0.85813767 1.3462967 1.272576 0.84650147 1.5042987
1.0895997 1.2266401 1.6347016 1.6418226 1.4715326 0.9181877 1.587635 1.4744937
1.039571 0.9485061 1.0393264 1.7854536 1.3254879 1.920269 1.7800062 1.6099823
1.3745632 1.3519496 1.4576406 0.84614384 1.0723165 0.20503847 1.3848454 0.9465716
00000000: d01d 7d3f 8c47 ba3f 4aef 983f 6b20 eb3f
00000010: 2836 6b3f 4774 e03f 741c ef3f c958 573f
00000020: 8571 ab3f 55f2 de3f 1454 853f 52ee 763f
00000030: 2bdc 8a3f 2446 cb3f 24d5 9b3f 490f 413f
00000040: 70fe af3f 6ddf 913f d6ff ae3f 2a35 e83f
00000050: ec4d cc3f de5c 723f cf4f fe3f 9cd4 543f
00000060: ca3e 903f a7da a03f 98a7 8d3f 74c0 963f
00000070: c7bb c73f 3989 b33f 18d8 b43e 724d 5a3f
00000080: 0071 e23f 837a a23f 7873 cc3f e9ae 5b3f
00000090: 7353 ac3f c5e3 a23f 52b4 583f dc8c c03f
000000a0: 0178 8b3f 8b02 9d3f e73d d13f 3e27 d23f
000000b0: 2e5b bc3f 590e 6b3f a037 cb3f 36bc bc3f
000000c0: aa10 853f 4cd1 723f a608 853f be89 e43f
000000d0: 96a9 a93f 60cb f53f 3ed7 e33f e613 ce3f
000000e0: b0f1 af3f af0c ad3f f893 ba3f e29c 583f
000000f0: ab41 893f 9bf5 513e 9d42 b13f 8452 723f

network.MLP.3.bias f4 [64]
0.19276142 0.1449888 -0.0021197682 0.01136093 -0.16582674 -0.0554513 -0.030404728 -0.020796336
-0.07800599 -0.05640658 -0.17677185 0.05170185 -0.08190734 -0.031828377 -0.09347003 -0.1456783
-0.15253687 0.029173758 -0.02040234 0.045241803 -0.012579472 -0.17416357 -0.06307307 0.021724956
0.108867295 -0.09854828 0.0776467 -0.086265735 -0.15414047 0.19311938 -0.4362156 -0.06540016
0.0899636 0.040597025 0.21294409 0.123292655 -0.044895113 -0.06680719 -0.08175851 -0.011648415
-0.06815698 -0.06305677 -0.003258381 -0.10219833 -0.14390835 0.16502368 -0.12534788 -0.08414034
-0.084954344 0.1739193 -0.11219659 -0.063899204 0.001189287 0.017726107 -0.09464087 -0.09365581
-0.1525234 -0.0045435424 -0.083116785 0.26802748 -0.25544852 -0.6431589 -0.14122687 -0.1580764
00000000: 4063 453e f277 143e cfeb 0abb 3223 3a3c
00000010: 7cce 29be e720 63bd 5613 f9bc 145d aabc
00000020: 9bc1 9fbd 960a 67bd ae03 35be 52c5 533d
00000030: 09bf a7bd 795e 02bd 376d bfbd b12c 15be
00000040: a032 1cbe cefd ee3c cf22 a7bc 784f 393d
00000050: 211a 4ebc ef57 32be 742c 81bd 89f8 b13c
00000060: d1f5 de3d aed3 c9bd 3c05 9f3d 17ac b0bd
00000070: 00d7 1dbe 16c1 453e a757 dfbe 85f0 85bd
00000080: d63e b83d 1149 263d 040e 5a3e dc80 fc3d
00000090: f0e3 37bd 35d2 88bd 0171 a7bd fed8 3ebc
000000a0: e395 8bbd e823 81bd 908a 55bb 5c4d d1bd
000000b0: b65c 13be f8fb 283e 325b 00be c551 acbd
000000c0: 8bfc adbd e717 323e 53c7 e5bd 96dd 82bd
000000d0: dae1 9b3a 5736 913c 13d3 c1bd 9ece bfbd
000000e0: 182f 1cbe ffe1 94bb 2239 aabd e63a 893e
000000f0: 26ca 82be 10a6 24bf c79d 10be c8de 21be

critic.0.weight f4 [1, 64]
0.080419436 0.022980085 0.0023670823 -0.030171812 -0.018785072 -0.006406495 -0.06268386 -0.0029869121
-0.061369095 0.0075903875 -0.45802078 -0.06051661 -0.02812314 0.037335977 -0.08785016 -0.19119781
0.004991636 0.0013852578 -0.04535692 -0.005374312 -0.0028754123 -0.2379372 0.03219747 -0.23243997
-0.030931577 -0.0018843154 0.003923368 -0.05254854 -0.058365468 -0.034346472 0.08130277 -0.24890257
0.012629978 0.011202467 -0.018455857 0.2511475 0.018075101 -0.048696175 -0.0027700455 -0.039320126
-0.022710592 -0.0603866 -0.010851156 -0.016200388 -0.02197721 0.31452647 -0.03447472 -0.0035223723
-0.06461871 0.28197274 -0.01924989 0.03645181 -0.02057167 -0.020893857 0.005720554 -0.055387683
-0.013657626 0.0059406036 -0.05639329 0.006294965 -0.107696556 -0.09072295 -0.03907018 -0.22081488
00000000: f2b2 a43d bb40 bc3c 0d21 1b3b e02a f7bc
00000010: 27e3 99bc 93ed d1bb 6560 80bd 12c0 43bb
00000020: 295e 7bbd c9b8 f83b b381 eabe 44e0 77bd
00000030: 8062 e6bc 9ced 183d c9ea b3bd 5cc9 43be
00000040: e190 a33b 8a91 b53a 2ec8 39bd ff1a b0bb
00000050: 6a71 3cbb cfa5 73be 7fe1 033d be04 6ebe
00000060: 3864 fdbc 22fb f6ba 998f 803b 233d 57bd
00000070: a110 6fbd e3ae 0cbd 1182 a63d 51e0 7ebe
00000080: f8ed 4e3c 8d8a 373c bd30 97bc 6896 803e
00000090: 3c12 943c a475 47bd a789 35bb 240e 21bd
000000a0: 900b babc f157 77bd 0cc9 31bc adb6 84bc
000000b0: 8d09 b4bc 9d09 a13e 5d35 0dbd 9ad7 66bb
000000c0: d056 84bd bb5e 903e f2b1 9dbc 7e4e 153d
000000d0: eb85 a8bc 9829 abbc 7c73 bb3b 32de 62bd
000000e0: 3cc4 5fbc 65a9 c23b a7fc 66bd fe45 ce3b
000000f0: 0390 dcbd f4cc b9bd 0e08 20bd 4c1d 62be

actor.0.weight f4 [22, 64]
0.17747623 0.22522986 0.084027626 -0.5859726 -0.28360686 0.7125476 0.7223494 0.2041946
0.10824623 0.2619405 -0.14097758 0.4436271 -0.14010178 0.056343533 0.06696462 0.04842325
-0.62519485 0.09092143 0.32654718 0.45566905 -0.08195272 -0.2333715 -0.5992355 -0.09635745
0.18819539 -0.3226117 0.20360726 0.47361198 -0.085767545 -0.02101284 0.13736323 -0.09830592
0.6226921 0.19311467 0.67118484 0.106200166 0.43208548 -0.25640294 -0.23573112 -0.18336846
-0.13457546 0.14442249 0.32264286 -0.7459236 -0.5351908 0.3219138 -0.1129827 -0.5401
-0.10262079 0.3209654 -0.2195477 -0.38112774 0.19483528 0.14520611 -0.119965315 -0.2552828
-0.20339052 -0.46958277 -0.12057495 0.28193933 -0.08373144 0.003443401 -0.24286416 -0.1563889
0.20535263 0.11439311 -0.455208 -0.37792495 -0.13925207 0.1970242 -0.1935369 0.14174901
-0.2382583 0.24153519 -0.038343526 -0.04052807 -0.13910173 0.57823384 -0.49829778 0.03461607
0.09432437 0.22365959 0.3918552 0.8065204 -0.5557065 -0.14413933 -0.5842695 -0.106980994
0.26090726 0.04353019 0.060430836 -0.21087427 -0.00034462282 -0.39769822 0.13067892 -0.073013656
0.09740856 -0.24441561 0.17368045 0.11890646 -0.027694646 -0.23316707 -0.45382074 0.427499
0.030109482 0.066262126 -0.24124043 -0.27139968 0.89340246 0.10904513 -0.28604716 0.006606184
-0.030010672 -0.029301556 -0.083695054 -0.019686576 -0.07094679 0.08037896 0.7527703 -0.007842087
-0.2638978 -0.12223376 -0.027321948 -0.10695542 -0.25151426 0.091544695 0.05889231 -0.2382409
0.027288401 -0.39259398 0.21094447 -0.09794291 -0.043876644 -0.16173436 -0.03665479 0.0673467
0.38921857 -0.64852643 -0.09938763 -0.3020703 0.20870768 -0.23805845 0.000132119 -0.066448234
0.18548933 -0.48629874 0.24626039 -0.030531436 -0.39376926 0.07282128 -0.16554645 -0.08136775
-0.18902178 0.21943776 0.33355293 -0.16707478 -0.17729257 -0.033725902 0.10712817 -0.07143356
0.062033564 0.37045044 0.25122765 0.12912084 0.1821563 0.16740341 0.21780856 -0.012248746
-0.00038721194 0.066721044 -0.0052871034 0.23595586 -0.061685342 -0.089007065 -0.2969836 -0.041982226
0.120856635 0.08297068 0.061587024 -0.36251634 0.13456112 0.047959164 0.030332148 -0.015322818
0.28863275 0.10378043 0.5801079 -0.31155577 0.2251537 -0.010787346 -0.06462155 -0.21634221
0.16001533 0.266616 0.15250556 0.31406012 -0.13953567 0.16437611 0.35209414 0.08844522
-0.24548118 0.39294237 0.0147667155 -0.10466039 -0.070080765 0.23903798 -0.1063643 -0.008094137
-0.058057133 0.08061385 -0.32821482 -0.3325458 0.17065048 -0.14805861 0.31738833 -0.039913222
0.25016698 -0.3121943 -0.1667807 -0.128955 0.30803883 -0.014189411 0.037225284 -0.030814378
0.07011561 -0.37670702 0.09368596 0.031036027 -0.12088823 -0.05830811 -0.2828568 0.06485475
0.0056971116 -0.1633013 0.110267855 -0.04383195 0.18600373 0.0020315384 0.3922358 0.019780608
0.036176737 -0.07917879 0.09246669 0.5076973 -0.49692902 0.55117494 0.29424983 0.38960102
-0.24181584 0.10494003 -0.46125087 -0.12718004 -0.22207548 0.025877226 -0.33908615 -0.082479954
00000000: 54bc 353e a8a2 663e ad16 ac3d 4d02 16bf
00000010: eb34 91be 8569 363f e4eb 383f 6418 513e
00000020: 33b0 dd3d 111d 863e 6d5c 10be 1723 e33e
00000030: d776 0fbe 7ac8 663d bf24 893d 7557 463d
00000040: c50c 20bf 0435 ba3d 3131 a73e 744d e93e
00000050: d4d6 a7bd f0f8 6ebe 7f67 19bf 0e57 c5bd
00000060: 4bb6 403e 5c2d a5be 6c7e 503e 457d f23e
00000070: e5a6 afbd 1f23 acbc f2a8 0c3e 9d54 c9bd
00000080: c068 1f3f dabf 453e c5d2 2b3f 797f d93d
00000090: 4f3a dd3e 3f47 83be 8063 71be f1c4 3bbe
000000a0: 26ce 09be 7de3 133e 7231 a53e d9f4 3ebf
000000b0: 4402 09bf e3d1 a43e 7963 e7bd fe43 0abf
000000c0: d92a d2bd 9455 a43e 1dd1 60be 2d23 c3be
000000d0: e682 473e e9b0 143e 60b0 f5bd 6db4 82be
000000e0: 9b45 50be 276d f0be 00f0 f6bd 5a5a 903e
000000f0: 647b abbd afaa 613b 62b1 78be 6924 20be
00000100: f647 523e ef46 ea3d 0611 e9be 617f c1be
00000110: 1898 0ebe b6c0 493e 8a2e 46be a726 113e
00000120: fcf9 73be 0055 773e 1a0e 1dbd c300 26bd
00000130: af70 0ebe 2207 143f e320 ffbe 95c9 0d3d
00000140: 232d c13d 0507 653e 3fa1 c83e 1f78 4e3f
00000150: c842 0ebf 4399 13be b092 15bf da18 dbbd
00000160: a395 853e b64c 323d 5386 773d 6def 57be
00000170: 7eae b4b9 1a9f cbbe b2d0 053e 2f88 95bd
00000180: 247e c73d 1648 7abe 4ad9 313e 3b85 f33d
00000190: e2df e2bc 59c3 6ebe 315b e8be 26e1 da3e
000001a0: 29a8 f63c 70b4 873d bb07 77be e6f4 8abe
000001b0: 06b6 643f 0e53 df3d c674 92be b078 d83b
000001c0: f1d8 f5bc d109 f0bc 5068 abbd be45 a1bc
000001d0: 8d4c 91bd b99d a43d 8eb5 403f 197c 00bc
000001e0: 9d1d 87be b255 fabd 47d2 dfbc 710b dbbd
000001f0: 7ac6 80be c97b bb3d 1039 713d 6cf5 73be
00000200: ed8b df3c 1402 c9be d401 583e 4b96 c8bd
00000210: ffb7 33bd b19d 25be 5523 16bd 11ed 893d
00000220: a847 c73e d405 26bf be8b cbbd f5a8 9abe
00000230: 77b7 553e 98c5 73be 6d89 0a39 0316 88bd
00000240: eaf0 3d3e 26fc f8be af2b 7c3e 101d fabc
00000250: 209c c9be 5323 953d 0285 29be 23a4 a6bd
00000260: ed8e 41be 4bb4 603e 73c7 aa3e a715 2bbe
00000270: 2f8c 35be 2c24 0abd 0466 db3d c24b 92bd
00000280: e816 7e3d aeab bd3e e9a0 803e 4138 043e
00000290: 2e87 3a3e cd6b 2b3e 3509 5f3e f7ae 48bc
000002a0: b502 cbb9 0ba5 883d 703f adbb 6a9e 713e
000002b0: c5a9 7cbd 5649 b6bd 3c0e 98be 8ef5 2bbd
000002c0: af83 f73d 88ec a93d ad42 7c3d be9b b9be
000002d0: 64ca 093e d470 443d 207b f83c 8f0c 7bbc
000002e0: acc7 933e d68a d43d f481 143f 3d84 9fbe
000002f0: b18e 663e 69bd 30bc 4e58 84bd d088 5dbe
00000300: 0fdb 233e e481 883e 6b2a 1c3e 7dcc a03e
00000310: 70e2 0ebe 3652 283e af45 b43e c422 b53d
00000320: 6b5f 7bbe be2f c93e 18f0 713c 3058 d6bd
00000330: 8186 8fbd 5fc6 743e 87d5 d9bd 459d 04bc
00000340: 51cd 6dbd e018 a53d c60b a8be 7143 aabe
00000350: 00bf 2e3e ad9c 17be b980 a23e 0c7c 23bd
00000360: e315 803e eed7 9fbe 8fc8 2abe c80c 04be
00000370: 44b7 9d3e b47a 68bc 8a79 183d 6f6e fcbc
00000380: c698 8f3d bedf c0be 6dde bf3d 443f fe3c
00000390: 4094 f7bd 7cd4 6ebd 9bd2 90be 91d2 843d
000003a0: d6ae ba3b 7538 27be 1dd4 e13d 2189 33bd
000003b0: c377 3e3e 8f23 053b 21d3 c83e f10a a23c
000003c0: 0f2e 143d 7d28 a2bd 2d5f bd3d 73f8 013f
000003d0: 7b6d febe cd19 0d3f eaa7 963e c979 c73e
000003e0: 929e 77be ccea d63d 1329 ecbe 7c3b 02be
000003f0: c167 63be 7afc d33c b39c adbe 40eb a8bd

actor.0.bias f4 [22]
0.10008424 0.0828292 0.0819045 -0.010089617 0.0135418875 -0.004340902 0.020675417 -0.009604859
-0.050241217 -0.16522418 -0.032020923 0.089042984 0.0017249293 0.0891795 0.043021243 0.0018948816
-0.04815314 0.019918015 -0.12122996 -0.032984313 0.010659006 0.040664274
00000000: f7f8 cc3d 5ba2 a93d 8cbd a73d ec4e 25bc
00000010: cbde 5d3c 203e 8ebb 7e5f a93c b35d 1dbc
00000020: bcc9 4dbd 8730 29be 5f28 03bd 2b5c b63d
00000030: 0617 e23a bea3 b63d 0b37 303d ad5d f83a
00000040: 3a3c 45bd 1b2b a33c 6a47 f8bd 8f1a 07bd
00000050: 1da3 2e3c 958f 263d
