paper/training_results/seed-9/momarl/checkpoints/mlp_(negotiation=False)_(num_agents=12)_(window=False)_(reduced_space=False)_(fixed_savings_rate=False)_(rewards=['inverse_global_temperature', 'global_economic_output'])(wgen=uniform)(num_ensembles=1)(seed=9)_2025-01-18_06:47:18_w=[0.7999 0.2001].pt (torch, 38168 bytes, 9 tensors)

network.MLP.0.weight f4 [64, 18]
0	0xbee13ec1	-0.4399319
1	0x3ebbe786	0.36700076
2	0xbd655491	-0.055988852
3	0xbf373d9c	-0.71578383
4	0x3eea72f9	0.45790842
5	0x3d807c03	0.06273653
6	0x3d10f511	0.035389964
7	0x3d819873	0.063279055
8	0x3e81fdd2	0.25388962
9	0x3e6bc691	0.23024966
10	0x3ea788a0	0.32721424
11	0x3e926226	0.28590506
12	0x3ef11154	0.47083533
13	0x3ddb8f5c	0.10720703
14	0x3e91781e	0.28411955
15	0x3e269ab2	0.16269949
16	0x3ecd1188	0.40052438
17	0x3e583bf7	0.21116625
18	0xbc4b9736	-0.012426188
19	0xbee5c0c1	-0.44873622
20	0x3c390d5d	0.01129469
21	0x3e862b2a	0.26204807
22	0xc12d1ccf	-10.819533
23	0x3f01c3d2	0.50689423
24	0xbd105361	-0.035235766
25	0x3d9d8302	0.076910034
26	0xbd1fc9b2	-0.03901071
27	0xbc2409a9	-0.010012069
28	0xbdcbfd58	-0.09960431
29	0x3ce2e9e0	0.02769941
30	0xbdeaf4dd	-0.11472485
31	0x3dafda0b	0.0858651
32	0x3d964de5	0.07339076
33	0xbcff7d23	-0.0311876
34	0x3d826685	0.0636721
35	0x3db6a990	0.0891906
36	0x3b118fdd	0.0022210993
37	0x3e7b75b7	0.24556623
38	0x3d546671	0.05185551
39	0xbe41a68d	-0.1891119
40	0x3e9c0eae	0.3047995
41	0xbeccd28f	-0.40004393
42	0xbd991694	-0.074750096
43	0x3b0b1a5b	0.0021225426
44	0x3e88966a	0.26677257
45	0x3d0f5597	0.034993734
46	0x3e47cbd4	0.19511348
47	0x3c3e5857	0.011617742
48	0x3e8720b4	0.26392138
49	0x3cc4a905	0.024006376
50	0x3e6cd796	0.23129115
51	0x3e28a2c0	0.16468334
52	0x3d80d4e7	0.06290608
53	0x3e1396f5	0.14413054
54	0xbd7e2598	-0.06204757
55	0x3ee787fa	0.4522093
56	0xbd38516a	-0.044999518
57	0xc0249991	-2.571873
58	0xbd5786d0	-0.0526188
59	0xbf07a86b	-0.5299136
60	0x3d379052	0.04481537
61	0x3ef8b4fc	0.4857558
62	0xbd643acd	-0.05572014
63	0xbece74a3	-0.40323362
64	0xbec8d966	-0.39228362
65	0xbe8bf800	-0.27337646
66	0xbb05db12	-0.0020424766
67	0xbc673fc2	-0.014114322
68	0x3eb77d68	0.35837865
69	0x3e0cc61b	0.13747446
70	0xbe745924	-0.2386213
71	0xbd91a8ab	-0.07112249
72	0x3d999f24	0.07501057
73	0x3e78fc51	0.24315001
74	0xbe31bdba	-0.17357531
75	0xbf06b6ee	-0.5262288
76	0xbf458f15	-0.7717145
77	0x3ee56235	0.4480149
78	0x3c961910	0.018322498
79	0x3a91fccd	0.0011137963
80	0xbde238c4	-0.110459834
81	0x3d572ff0	0.05253595
82	0xbd8bfbd1	-0.068351395
83	0xbb22e14c	-0.0024853526
84	0x3d44fd70	0.04809326
85	0xbd6c33d7	-0.057666626
86	0xbe70e0ed	-0.23523302
87	0x3e4c1284	0.19928938
88	0xbc8bd165	-0.01706762
89	0x3e043391	0.12910296
90	0x3cf11f00	0.029433727
91	0xbd43b65f	-0.047781345
92	0xbaad041e	-0.001320008
93	0xbe67464f	-0.22585414
94	0xbcb8f1d4	-0.02257625
95	0x3f1ece29	0.62033325
96	0x3e9c4cb7	0.3052728
97	0xbdc0f508	-0.09421736
98	0x3dcc1e15	0.09966675
99	0x3e126c05	0.14299019
100	0x3d6a754f	0.05724078
101	0x3a322413	0.00067955366
102	0xbd4d0c6e	-0.050060682
103	0xbe02d0fb	-0.12775032
104	0xbe0867fa	-0.13320914
105	0x3dd1152b	0.102091156
106	0x3d5b9791	0.053611342
107	0xbdeb0069	-0.114746876
108	0xbc8e77be	-0.017391082
109	0x3cdc9e81	0.02693105
110	0xbe110ce1	-0.14165069
111	0xbe5573e3	-0.20844989
112	0xbdb77710	-0.08958256
113	0xbe0758a5	-0.13217409
114	0xbd870885	-0.06593422
115	0xbe5292ed	-0.2056386
116	0x3beead19	0.0072838184
117	0xbced1d59	-0.028944658
118	0x3e422306	0.18958673
119	0x3cdb3176	0.026756983
120	0x3d911834	0.070846945
121	0xbbd7a087	-0.0065804156
122	0xbe6f6a60	-0.23380423
123	0x3e6413ca	0.22273174
124	0xbccedfa5	-0.025253126
125	0xbcc452e9	-0.023965316
126	0xbc025390	-0.007954493
127	0x3e6c8ea5	0.2310129
128	0x3d0abcb3	0.033871364
129	0xbf230a43	-0.63687533
130	0xbe87f555	-0.2655436
131	0xbcfa8155	-0.030579248
132	0xbe9653bc	-0.2936076
133	0x3ef6e60a	0.4822238
134	0x3d956b01	0.072958
135	0xbec8a8a9	-0.39191177
136	0xbecdc24d	-0.40187302
137	0xbe9a8960	-0.30182934
138	0xbe376413	-0.17909269
139	0xbdf03c8a	-0.11730297
140	0x3e2442a4	0.16041046
141	0xbe88733d	-0.2665042
142	0x3cc5e42d	0.024156654
143	0xbe6912d1	-0.22761084
144	0xbdb0d04a	-0.08633478
145	0xbc90e367	-0.017686559
146	0x3db5aded	0.08871064
147	0xbe011777	-0.12606607
148	0xbedc22b4	-0.42995226
149	0x3e0e6137	0.13904272
150	0x3dc1b342	0.09458019
151	0xbd615055	-0.05500825
152	0xbf87d5e8	-1.0612154
153	0xbf550cfa	-0.83222926
154	0x3dc166f9	0.094434686
155	0x3e47bd59	0.19505824
156	0xbafccd44	-0.0019287248
157	0xbf2e43ba	-0.6807209
158	0x3edee7c8	0.4353621
159	0xbf40ad80	-0.7526474
160	0xbf0118e4	-0.50428605
161	0xbc904402	-0.017610554
162	0xbcf1ad2e	-0.029501524
163	0x3e45da68	0.19321597
164	0x3c671c5a	0.014105881
165	0xbef05afe	-0.46944422
166	0xbdfef5eb	-0.12449249
167	0xbd9723e7	-0.07379895
168	0xbf56d4c4	-0.83918405
169	0x3ed10234	0.40821993
170	0x3db5ba0b	0.088733755
171	0xbdb4e1ef	-0.08832156
172	0xbf29f374	-0.66387105
173	0x3db01d1d	0.08599303
174	0x3e2d5997	0.16928707
175	0xbf7a674e	-0.9781388
176	0x3f1f8bbd	0.623226
177	0x3de9a2ce	0.11408006
178	0x3de899ff	0.113574974
179	0x3f2c8aa3	0.6739904
180	0x3c85623c	0.016282193
181	0xbfd2b615	-1.6461817
182	0xbcb06ee2	-0.021537248
183	0x3de5ce3b	0.11220976
184	0xc08cf187	-4.4044833
185	0x3f3659df	0.7123088
186	0xbdb82bf5	-0.08992759
187	0xbd77e5e0	-0.06052196
188	0xbe7b6c8b	-0.24553125
189	0xbe594476	-0.21217522
190	0xbeb9e9d7	-0.36311218
191	0xbe7c0479	-0.24611081
192	0xbe27de74	-0.16393453
193	0xbe5f7b53	-0.21824388
194	0xbe6afc1b	-0.22947733
195	0xbcaf0c3c	-0.021368138
196	0xbe22349d	-0.15840383
197	0xbe0c57cc	-0.13705367
198	0x3c8804bb	0.016603818
199	0x3d1faff1	0.03898615
200	0x3d06b822	0.032890446
201	0xbfad03e7	-1.3516816
202	0x3c7f778f	0.01559247
203	0xbf371cd0	-0.7152834
204	0x3d5debc2	0.054179914
205	0x3e073234	0.13202745
206	0x3d8e3201	0.06943131
207	0x3d2977db	0.04137407
208	0x3b259072	0.0025263098
209	0xbd5a5fe0	-0.05331409
210	0x3de38526	0.111093804
211	0x3d9fd44d	0.07804165
212	0xbceb8ac8	-0.0287527
213	0x3db075b7	0.08616202
214	0x3d87b6d4	0.066266686
215	0x3dcc039c	0.09961626
216	0xb6acaf8c	-5.146436e-06
217	0x3dce07bd	0.1006007
218	0x3c563823	0.0130749075
219	0xbe79161b	-0.24324839
220	0xbc126913	-0.008936184
221	0x3ee247f9	0.44195536
222	0xbe497933	-0.1967514
223	0xbdc169e1	-0.09444023
224	0x3dcb4696	0.099255726
225	0x3e56490b	0.20926301
226	0xbd670aed	-0.056406904
227	0xbd28ebd9	-0.041240547
228	0x3c5d66e6	0.013513302
229	0xbe879449	-0.2648032
230	0x3e874578	0.26420188
231	0x3df7079c	0.12061998
232	0xbc6450c0	-0.013935268
233	0x3e4c97da	0.19979802
234	0xbe646605	-0.22304542
235	0xbe3af3a8	-0.1825701
236	0x3df9ec7f	0.12203311
237	0x3fa2e21c	1.2725253
238	0xbeaa1b44	-0.33223927
239	0x3e991e77	0.29906055
240	0xbdc15592	-0.09440149
241	0xbe83fcba	-0.25778753
242	0xbe2e89e2	-0.17044786
243	0xbe8b069d	-0.27153483
244	0x3dd240f8	0.10266298
245	0xbe8493e6	-0.25894088
246	0xbe18c269	-0.14917912
247	0xbd3f79f4	-0.046747163
248	0x3af843ea	0.0018941138
249	0x3dfc45df	0.12318014
250	0xbd716d79	-0.058942292
251	0xbddafb80	-0.10692501
252	0xbe1d7f80	-0.15380669
253	0xbe61271b	-0.21987574
254	0x3e0814eb	0.1328923
255	0x3f07c167	0.53029484

network.MLP.0.bias f4 [64]
0	0x3f03a8f4	0.51429677
1	0xbf7e0c35	-0.99237376
2	0x3f1485fa	0.5801693
3	0x3f117a4c	0.56827235
4	0xbeff5b4a	-0.49874336
5	0xbf134b81	-0.57537085
6	0x3e491726	0.19637737
7	0x3f02c3fc	0.510803
8	0x3da30663	0.079602025
9	0xbe6f91e7	-0.23395501
10	0xbfb4c743	-1.412331
11	0x3f370e46	0.71506155
12	0xbf171a01	-0.59024054
13	0xbf2fb34b	-0.68632954
14	0xbe94f080	-0.29089737
15	0x3daf684d	0.08564816
16	0xbf058e27	-0.5217003
17	0x3e27a2b6	0.16370663
18	0xbbcede4e	-0.006313122
19	0xbda4f0e4	-0.08053759
20	0xbea32604	-0.3186494
21	0x3e128e98	0.14312208
22	0x3f0f924f	0.56082624
23	0xbe236f5b	-0.15960447
24	0x3dcf6afd	0.10127828
25	0x3ea8efa6	0.32995337
26	0xbe8209f8	-0.2539823
27	0x3ddfd36e	0.10928999
28	0x3f2f5a4b	0.6849715
29	0xbe9276ed	-0.28606358
30	0x3f00e20f	0.5034494
31	0xbd8311a5	-0.0639985
32	0x3eaf04a9	0.34183243
33	0xbe91ba15	-0.28462282
34	0xbd881031	-0.06643713
35	0x3f4858dc	0.7826059
36	0x3ea71b95	0.3263823
37	0x3e9de7dc	0.30840957
38	0x3e30138f	0.17194961
39	0xbf039380	-0.5139694
40	0x3e95e4dd	0.2927617
41	0x3e755684	0.23958784
42	0x3e5bbe48	0.21459305
43	0xbcbe4c7a	-0.023229826
44	0xbe68e3af	-0.22743104
45	0x3e9fde80	0.31224442
46	0x3c067e83	0.008208874
47	0xbd188266	-0.037233733
48	0x3ec9d256	0.39418286
49	0x3e73dec6	0.2381545
50	0x3eab9021	0.335084
51	0xbed52ced	-0.41635838
52	0xbda61d3a	-0.08111043
53	0xbe49880b	-0.19680803
54	0x3e9b8d94	0.30381453
55	0xbdbf5025	-0.09341458
56	0xbec6417b	-0.38721833
57	0x3e01197f	0.12607382
58	0xbd9616df	-0.07328581
59	0x3e41462d	0.18874426
60	0x3df780cd	0.12085114
61	0xbb75ee24	-0.0037525976
62	0xbf3c0ec4	-0.7346003
63	0x3eb86d04	0.36020672

network.MLP.2.weight f4 [64, 64]
0	0x3e2b2fa8	0.16717398
1	0xbddb6f55	-0.10714594
2	0xbde3a316	-0.111150905
3	0x3db734b1	0.08945597
4	0xbe0cfe6d	-0.1376893
5	0xbdb2e4be	-0.08735035
6	0xbe15ab4c	-0.14616126
7	0x3c9dcd05	0.0192628
8	0xbe9cff03	-0.30663309
9	0x3e7d8cf7	0.24760805
10	0x3e0aafc6	0.13543615
11	0xbe68ed0a	-0.22746673
12	0xbdd87460	-0.10569072
13	0x3e563388	0.20918095
14	0xbda1fddf	-0.0790975
15	0xbe50a069	-0.20373692
16	0x3d2d578c	0.04231982
17	0x3d7b9da8	0.06142965
18	0xbe7a530c	-0.24445742
19	0xbe91068c	-0.28325307
20	0x3dc1452e	0.09437023
21	0x3d35a9a7	0.044351246
22	0xbe2dc5d0	-0.1696999
23	0x3db64d7c	0.08901498
24	0xbbe5cac3	-0.0070126965
25	0xbdc7cbc0	-0.09755659
26	0x3e84e7c3	0.2595807
27	0xbe58dff8	-0.21179187
28	0x3db4c7fb	0.08827206
29	0xbe9971a5	-0.29969516
30	0xbe372b64	-0.17887646
31	0x3d6aa518	0.057286352
32	0xbe436810	-0.19082665
33	0xbe296283	-0.16541485
34	0x3ee1e68a	0.441212
35	0xbdb225de	-0.08698629
36	0xbe24ede7	-0.16106378
37	0xbd6cff68	-0.057860762
38	0x3e1daad6	0.153972
39	0x3de4fe73	0.11181345
40	0xbca81386	-0.020517122
41	0x3e963c7f	0.2934303
42	0x3e51adc7	0.20476447
43	0xbdaffe4c	-0.08593425
44	0xbdf59224	-0.11990765
45	0x3e50b6f2	0.20382288
46	0x3ccd204a	0.02503981
47	0xbba37aa0	-0.0049889833
48	0x3d528520	0.05139649
49	0xbe4d6c15	-0.20060761
50	0xbdefc46c	-0.117073864
51	0x3eaba710	0.33525896
52	0xbd954c70	-0.0728997
53	0xbc5fbb50	-0.013655499
54	0x3e665bf5	0.22496016
55	0x3e7f7e09	0.24950422
56	0xbd9f22fd	-0.07770345
57	0x3ec14703	0.3774949
58	0x3e71ca6f	0.23612379
59	0x3e912571	0.28348878
60	0xbd25f6fd	-0.04051875
61	0xbe245568	-0.16048205
62	0x3e92f38a	0.2870143
63	0xbe10f5c5	-0.14156254
64	0x3e496cc9	0.19670404
65	0x3e55f2c7	0.20893393
66	0x3e571824	0.21005303
67	0xbc1a4594	-0.009416003
68	0xbd8663bb	-0.06561991
69	0x3d90dd13	0.070734166
70	0x3e075c1b	0.13218729
71	0x3e657a29	0.22409882
72	0x3d5b5b69	0.053553972
73	0x3a743391	0.00093155453
74	0xbf07ac7e	-0.5299758
75	0xbe86eefd	-0.2635421
76	0xbd3261aa	-0.04355017
77	0x3c8a5b29	0.016889172
78	0x3d7bf5e6	0.061513804
79	0x3dba657a	0.09101386
80	0xbce135ae	-0.027491417
81	0x3e64c532	0.22340849
82	0x3f0e7301	0.5564423
83	0x3d1936ac	0.037405655
84	0x3a19df06	0.000586972
85	0xbdc974e2	-0.09836747
86	0x3db59c39	0.08867688
87	0xbcf7adb8	-0.030234203
88	0x3e541cff	0.20714186
89	0xbd37e90a	-0.044899978
90	0xbed72598	-0.4202087
91	0x3edf1aaa	0.4357503
92	0xbe07bcab	-0.13255565
93	0xbe1fc8f4	-0.15604001
94	0x3dc1e227	0.09466963
95	0x3d46d768	0.04854527
96	0x3e5d454d	0.21608467
97	0x3d9804b2	0.074227706
98	0x3dc28353	0.09497704
99	0x3d33df52	0.043914147
100	0xbe37ec79	-0.17961301
101	0x3dc52e18	0.09627932
102	0xbe7bdf21	-0.24596836
103	0x3d863723	0.06553485
104	0x3e8b4cff	0.2720718
105	0xbe31c1db	-0.17359106
106	0x3db88224	0.09009197
107	0xbda49bba	-0.08037515
108	0xbd4e20cb	-0.050324243
109	0xbeabf27a	-0.33583432
110	0x3e6691a9	0.22516502
111	0x3ca44240	0.020051122
112	0xbe639e42	-0.2222834
113	0x3ea06e3e	0.31334108
114	0x3e440df0	0.19145942
115	0xbea9c3a3	-0.3315707
116	0xbd8f70d2	-0.07003941
117	0x3d130118	0.035889715
118	0x3e45e764	0.1932655
119	0x3e525a02	0.20542148
120	0xbd9481f2	-0.072513476
121	0xbeff256c	-0.49833238
122	0xbc000519	-0.007813715
123	0x3b9e0aef	0.0048230807
124	0xbe5171c0	-0.20453548
125	0xbe7e5baf	-0.24839662
126	0x3cbbb70b	0.02291443
127	0x3e051e40	0.1299982
128	0x3ca89e34	0.02058325
129	0x402f1bd4	2.7360735
130	0xbec3cad7	-0.38240692
131	0x3e4bb6ff	0.19894026
132	0x3bfb09a3	0.007661061
133	0xbf46d6cb	-0.776715
134	0xbbd4fc81	-0.0064998274
135	0xbeb39ddb	-0.35081372
136	0xbdc0f6a4	-0.09422043
137	0xbdb603a1	-0.08887411
138	0x403caeff	2.948181
139	0x3ee3fe5e	0.44530004
140	0xbf14a34a	-0.5806166
141	0x3eab6171	0.3347278
142	0xbeeb384d	-0.45941392
143	0xbe3ef8a3	-0.18649535
144	0xbf646985	-0.8922351
145	0x3ec5736f	0.3856463
146	0x3dab83ed	0.08374772
147	0xbe4c6a56	-0.19962439
148	0xbf4a4d2a	-0.79023993
149	0x3d01dfc6	0.031707548
150	0xbf0e7eb4	-0.55662084
151	0xbde34ea8	-0.11098987
152	0x3dcece36	0.10097925
153	0xbf055c5f	-0.5209407
154	0x3cab5253	0.020913279
155	0xbcf08c7f	-0.029363869
156	0xbec57409	-0.3856509
157	0x3f045bdb	0.5170266
158	0xbed5c9f4	-0.4175564
159	0xbba91ae0	-0.0051606745
160	0x3df0d00c	0.11758432
161	0x3e06bd7c	0.1315822
162	0x3d60d93b	0.054894667
163	0xbefd056c	-0.494182
164	0xbd1a5258	-0.037676185
165	0x3e0aebed	0.13566561
166	0xbe6ecd34	-0.23320466
167	0xbea5123f	-0.32240483
168	0x3e115c3c	0.14195341
169	0xbe345ce3	-0.17613558
170	0x3ebc18d9	0.36737707
171	0xbbec3540	-0.0072084963
172	0xbe8d5051	-0.2760034
173	0xbe912345	-0.2834722
174	0x3e822e17	0.2542579
175	0x3d92e8ec	0.071733326
176	0xbe8949c2	-0.26814085
177	0xbdab7af3	-0.0837306
178	0xbdbb35f8	-0.09141153
179	0xbe4d2a47	-0.20035659
180	0xbd801c62	-0.062554136
181	0xbdee7006	-0.116424605
182	0xbe34a259	-0.17640056
183	0x3dad509f	0.08462643
184	0x3e91141f	0.28335664
185	0x3e806027	0.25073358
186	0xbe1b0086	-0.15136918
187	0x3e6b6a5d	0.22989793
188	0xbe5c779a	-0.2153
189	0x3e540c05	0.2070771
190	0xbef15301	-0.4713364
191	0x3dc2480e	0.094863996
192	0xbd011f6c	-0.031524107
193	0xc03c0cf9	-2.9382918
194	0x3e984339	0.29738787
195	0xbe816ba7	-0.25277445
196	0xbc0f9132	-0.008762645
197	0x3f49e2f2	0.78861916
198	0xbd55d9c8	-0.052209646
199	0x3e8cf0c1	0.2752743
200	0xbd1cc4f2	-0.03827376
201	0xbc86c97b	-0.016453495
202	0xc025dda3	-2.5916526
203	0xbecdf88f	-0.40228698
204	0x3ed7ea55	0.4217097
205	0xbed83c73	-0.4223362
206	0x3edbb34b	0.42910227
207	0x3df62915	0.120195545
208	0x3f30b667	0.69028324
209	0xbefda38e	-0.49538845
210	0xbdc05d8d	-0.093928434
211	0x3e9cd851	0.30633786
212	0x3f65177d	0.89488965
213	0x3deb2028	0.11480743
214	0x3e722b83	0.23649411
215	0x3d8e7e56	0.069576904
216	0xbd611acc	-0.054957196
217	0x3f20b575	0.6277688
218	0xbd4e98b8	-0.050438613
219	0x3db33e7a	0.08752151
220	0x3e9c193e	0.30488008
221	0xbf32c0f6	-0.69825685
222	0x3ebd0404	0.36917126
223	0x3dd12c18	0.10213488
224	0xbe06773e	-0.13131425
225	0x3e8de576	0.27714127
226	0x3e071f1d	0.13195463
227	0x3ea83ae9	0.32857445
228	0x3da7d52a	0.08194955
229	0x3b8103ec	0.003937235
230	0x3e1cc0f8	0.15307987
231	0x3e9ce236	0.30641335
232	0xbc9f9111	-0.019478353
233	0x3d537e62	0.0516342
234	0xbed8ef72	-0.42370182
235	0xbd960622	-0.073253885
236	0xbd37a44a	-0.044834413
237	0x3e36bacd	0.17844696
238	0xbe852cf3	-0.26010856
239	0xbd0dd910	-0.034630835
240	0x3ecbe2cd	0.39821473
241	0x3d65fdb1	0.056150142
242	0xbc5ff734	-0.013669778
243	0x3d8118d3	0.06303563
244	0x3d360d18	0.04444608
245	0x3dc88b48	0.09792191
246	0x3e19df06	0.15026483
247	0xbde299c3	-0.11064484
248	0xbf6ebb98	-0.93254995
249	0xbe9ebe45	-0.3100454
250	0x3e094b2b	0.1340758
251	0xbdab8381	-0.08374692
252	0x3f426f8e	0.7595147
253	0xbdf76128	-0.12079078
254	0x3e2e8767	0.1704384
255	0x3da231ad	0.07919631

network.MLP.2.bias f4 [64]
0	0xbd03bb07	-0.032160785
1	0xbe31d376	-0.17365822
2	0xbe31fc7d	-0.17381473
3	0x3ea0175e	0.31267828
4	0x3bfed026	0.007776278
5	0x3f47362f	0.7781705
6	0xbf0064d8	-0.50153875
7	0xbe5585af	-0.20851777
8	0x3d605e31	0.054777328
9	0xbdafa4f9	-0.08576388
10	0x3eb6ee80	0.35728836
11	0xbdc8e065	-0.09808425
12	0x3e70349a	0.23457566
13	0xbeaa7f10	-0.33300066
14	0x3e11b7fe	0.14230344
15	0xbf051ada	-0.519941
16	0x3ec7028a	0.38869125
17	0x3d9b99b3	0.07597675
18	0x3d9fc958	0.07802075
19	0xbe0a64a5	-0.13514955
20	0xbe799ac9	-0.24375452
21	0xbf0dd5d3	-0.55404395
22	0x3bf3e925	0.0074435645
23	0xbef5316c	-0.47889268
24	0x3e5df362	0.21674874
25	0x3e498b74	0.19682103
26	0xbe9b7394	-0.30361617
27	0xbf0c2cd4	-0.547559
28	0xbe479fc7	-0.19494544
29	0xbe3f0cd4	-0.18657237
30	0x3ea6f9c5	0.32612434
31	0xbe89af7f	-0.26891705
32	0xbe122ceb	-0.14274947
33	0x3e871a93	0.26387462
34	0xbe4e9469	-0.20173801
35	0xbe964276	-0.2934758
36	0xbe46ee69	-0.19426884
37	0x3e01a3e9	0.12660183
38	0x3e54b4d4	0.20772105
39	0x3e59c962	0.21268228
40	0xbf8a8e16	-1.0824611
41	0xbe470fbe	-0.19439599
42	0x3f249a51	0.6429797
43	0x3d9a0599	0.07520599
44	0x3f3a8722	0.72862446
45	0x3f149c35	0.58050853
46	0xbe01bc94	-0.12669593
47	0xbde42952	-0.11140694
48	0xbe65f0f3	-0.22455196
49	0x3e05c477	0.13063227
50	0xbf207659	-0.62680584
51	0x3f080f3f	0.53148264
52	0x3eb64b3f	0.35604283
53	0xbe2cbbd1	-0.16868521
54	0xbe6cbb4d	-0.23118325
55	0xbca1ec76	-0.019766074
56	0xbe33cfc1	-0.1755972
57	0xbc0c4e65	-0.008563613
58	0xbd7fbe41	-0.0624373
59	0xbe463644	-0.19356638
60	0xbe11089b	-0.14163439
61	0x3e184d0d	0.14873143
62	0xbe2e6ad0	-0.17032933
63	0x3f2d83ba	0.67779124

network.MLP.3.weight f4 [64]
0	0x3fca91f1	1.5825788
1	0x3fbb4b67	1.4632386
2	0x3ee481e9	0.44630364
3	0x3f166633	0.58749694
4	0x3fab3cf8	1.3377981
5	0x3f4b1466	0.79328
6	0x3f3f0fb4	0.74633336
7	0x3fb76e87	1.4330605
8	0x3fa86dd3	1.3158516
9	0x3fb2635f	1.3936576
10	0x3fbd6bda	1.4798539
11	0x3fb600fc	1.421905
12	0x3fa1a468	1.2628298
13	0x3fab60d7	1.3388928
14	0x3f8b8284	1.0899205
15	0x3f7c843b	0.9863927
16	0x3f82bdd5	1.0214182
17	0x3fdc41c9	1.7207576
18	0x3fb76935	1.4328982
19	0x3fa72ec2	1.3061144
20	0x3fc969a4	1.5735364
21	0x3f4eec75	0.80829555
22	0x3fb28231	1.3945981
23	0x3fd6c889	1.6779948
24	0x3fab217f	1.3369597
25	0x3fd485b7	1.6603307
26	0x3fb7c445	1.4356772
27	0x3f6b91d5	0.920194
28	0x3fb7c8ed	1.4358193
29	0x3fdf6c6d	1.7454964
30	0x3ff7b968	1.9353456
31	0x3fbc508e	1.4712083
32	0x3fbd42c1	1.4785997
33	0x3fe76535	1.8077761
34	0x3fd3e2c8	1.6553583
35	0x3fc33e98	1.5253477
36	0x3fcb123f	1.5864943
37	0x3fc4cdce	1.5375307
38	0x3fcacae8	1.5843172
39	0x3f4ee7d8	0.80822515
40	0x3f3d0dfd	0.7384947
41	0x3fceca8a	1.615556
42	0x3f78b3d0	0.9714937
43	0x3fcb70b5	1.589377
44	0x3f7ce984	0.98793817
45	0x3f70d4ce	0.94074714
46	0x3f80d2b0	1.0064297
47	0x3fe86cb7	1.8158177
48	0x3fe05fb4	1.7529206
49	0x3fb4d077	1.4126118
50	0x3f8b58d0	1.0886478
51	0x3f3ecd1f	0.7453174
52	0x3f9ce990	1.2258778
53	0x3fb2c9ca	1.3967831
54	0x3fe3ac0c	1.778688
55	0x3f8fd8ce	1.1238039
56	0x3fd1e660	1.639843
57	0x3fe5440f	1.7911395
58	0x3fb9454b	1.4474272
59	0x3fd300bd	1.64846
60	0x3fc5d2f2	1.5455
61	0x3faaacf3	1.333403
62	0x3feb576f	1.8386058
63	0x3f84ee6b	1.0385259

network.MLP.3.bias f4 [64]
0	0x3de1b415	0.11020676
1	0xbcbec0dd	-0.023285324
2	0x3ec384ee	0.38187355
3	0xbe867b13	-0.26265773
4	0x3d02fe44	0.031980768
5	0xbcedcec0	-0.02902925
6	0xbd94ead5	-0.07271353
7	0x3dc5dbd4	0.096610695
8	0xbcc39957	-0.02387683
9	0x3c30fcee	0.010802491
10	0x3df00385	0.11719421
11	0x3d6f7d8d	0.058469344
12	0xbce2871c	-0.027652316
13	0xbdb43da8	-0.088008225
14	0xbd564fff	-0.052322384
15	0xbd75e6cc	-0.06003456
16	0x3ddb73a6	0.107154176
17	0xbd84f985	-0.064929046
18	0x3d7217ed	0.05910485
19	0x3e8227e5	0.25421062
20	0xbdab0793	-0.08351054
21	0xbdec8b86	-0.115500495
22	0x3e03ba82	0.12864116
23	0x3bbe9d16	0.005817066
24	0xbcbbdf41	-0.022933604
25	0xbba24dad	-0.0049531073
26	0x3e0bc1bb	0.13648121
27	0x3dbd3002	0.092376724
28	0xbda035c7	-0.07822757
29	0x3c629011	0.013828293
30	0x3d682565	0.056676287
31	0x3e00f9be	0.12595269
32	0xbdca61c3	-0.09881928
33	0xbb99938b	-0.004686778
34	0xba04e903	-0.0005070122
35	0x3e27120b	0.16315477
36	0x3d2867dd	0.041114677
37	0x3e42cea4	0.1902414
38	0x3dcf2e63	0.101162694
39	0xbc0abb05	-0.0084674405
40	0x3d2701c7	0.04077318
41	0xbdc1f491	-0.094704755
42	0x3e50d695	0.20394357
43	0x3d78ae72	0.06071324
44	0x3e2c2432	0.16810682
45	0x3e23bd9b	0.15990297
46	0x3d276bf5	0.04087444
47	0x3dad1687	0.084515624
48	0x3b5f5ad1	0.003408123
49	0x3e46c93c	0.19412702
50	0xbe3d0003	-0.18457036
51	0x3decdf7e	0.11566065
52	0x3df9a4d2	0.1218964
53	0x3d468dbc	0.048475012
54	0xbde462f4	-0.11151686
55	0x3e30514b	0.17218511
56	0xbd0f3048	-0.034958154
57	0xbcf23c73	-0.02956984
58	0xbb46f9b4	-0.0030361237
59	0x3c7e2197	0.015510938
60	0x3d1d968f	0.038473662
61	0x3e065ded	0.13121767
62	0x3ce48525	0.02789552
63	0x3e44777a	0.19186202

critic.0.weight f4 [1, 64]
0	0x3ca7b362	0.020471279
1	0x3a9336b1	0.0011231509
2	0xbdf9c97b	-0.121966325
3	0x3e20aa9b	0.15690081
4	0x3cf13ccc	0.029447936
5	0x3e676887	0.22598468
6	0xbda49764	-0.08036688
7	0x3c9cc12f	0.019135086
8	0x3bcea0e2	0.0063058
9	0x3d398d97	0.045301046
10	0x3d62e969	0.05539838
11	0x3c97b814	0.018520392
12	0x3c66ea65	0.01409397
13	0xbc5cad70	-0.013469085
14	0x3cdd89ce	0.02704325
15	0xbd80d489	-0.06290538
16	0x3d83e4e3	0.06440141
17	0xbba856b2	-0.005137288
18	0xbc8384a9	-0.016054468
19	0xbc350f01	-0.0110509405
20	0xbb8c5731	-0.004282855
21	0xbe4d6651	-0.20058562
22	0x3d52ff50	0.051513016
23	0xbd695438	-0.056965083
24	0x3a6986fb	0.0008908358
25	0x3bcc727a	0.0062392326
26	0xbd708d94	-0.05872877
27	0xbc5ee3a4	-0.013604078
28	0xbc89cbf6	-0.016820889
29	0x3c5855e7	0.013204074
30	0x3ca5e47a	0.020250548
31	0xbd05730e	-0.032580428
32	0x3cf2818b	0.029602787
33	0x3d2f7faf	0.042846378
34	0x3b759f09	0.0037478826
35	0x39228883	0.00015500379
36	0xbc28fbcb	-0.010313938
37	0x3ce31966	0.027722072
38	0x3d064b4f	0.032786664
39	0x3ce111e4	0.027474351
40	0xbe414f61	-0.18877937
41	0x3bd90246	0.0066225855
42	0x3ec618c5	0.38690773
43	0x3d1233bb	0.035693865
44	0x3e8df035	0.27722326
45	0x3ebdb021	0.37048438
46	0xbc99d72f	-0.018779365
47	0x3cbe1969	0.023205476
48	0xbb9775bc	-0.0046221893
49	0x3d405cec	0.046963617
50	0xbee163dc	-0.440215
51	0x3e55bfc5	0.20873936
52	0x3d8862ad	0.06659446
53	0x3c6fd34e	0.014637781
54	0xbce726f0	-0.028216809
55	0x3c47180b	0.012151728
56	0xbc199606	-0.009374147
57	0xbc6d93a0	-0.014500529
58	0x3c881c75	0.016615132
59	0xbca0d731	-0.019633861
60	0xbd2f44be	-0.042790167
61	0x3c0e642b	0.008690874
62	0xbca4b23f	-0.020104526
63	0x3eb79d41	0.35862163

actor.0.weight f4 [22, 64]
0	0x3f274967	0.6534638
1	0xbf14be01	-0.5810242
2	0xbd415425	-0.047199387
3	0x3d888f77	0.06667989
4	0x3e96a0d2	0.2941957
5	0x3d30c8df	0.043160316
6	0xbd1c506d	-0.038162638
7	0xbd273ac1	-0.040827516
8	0xbeac02ac	-0.33595788
9	0xbeb0fdd1	-0.34568647
10	0xbe1111a2	-0.14166883
11	0x3efec222	0.49757487
12	0xbe556c66	-0.20842132
13	0x3e4e7773	0.20162754
14	0xbdd3bb5f	-0.103384726
15	0x3bbef79c	0.005827857
16	0xbe039179	-0.12848462
17	0xbe527286	-0.205515
18	0xbe21aa67	-0.1578766
19	0xbe085d0b	-0.13316743
20	0x3e4ec918	0.20193899
21	0x3c19ad42	0.009379687
22	0x3e101433	0.14070205
23	0x3edf1d98	0.43577266
24	0x3ee9f54d	0.45694962
25	0x3eb9121e	0.36146635
26	0x3ec5a6de	0.38603872
27	0xbe05a888	-0.13052571
28	0xbebae297	-0.36501
29	0xbed19f08	-0.40941644
30	0xbea223e8	-0.3166802
31	0x3c56c6cf	0.013108923
32	0xbec9fad3	-0.39449176
33	0x3e90fc79	0.2831762
34	0x3e2c45c0	0.16823483
35	0xbef1c7fa	-0.47222883
36	0x3ea99d56	0.3312785
37	0x3e68cfa9	0.22735466
38	0x3ed3c758	0.41363025
39	0x3df9bb64	0.12193945
40	0xba8c3a0c	-0.0010698452
41	0x3f3a00a8	0.7265725
42	0x3e5e5788	0.21713078
43	0x3f07a1e2	0.5298139
44	0x3e3aa703	0.18227772
45	0x3d186c2a	0.03721253
46	0xbd601673	-0.05470891
47	0xbe5d0485	-0.21583755
48	0xbc6a13fd	-0.014286992
49	0x3e927edd	0.28612414
50	0xbd9c949b	-0.07645532
51	0xbcadc7fc	-0.021213524
52	0xbdf13122	-0.117769495
53	0xbd25c960	-0.04047525
54	0xbc28d8b8	-0.010305576
55	0x3ef16f17	0.47155067
56	0xbf3abf77	-0.729484
57	0xbf26ffb9	-0.6523395
58	0xbf378295	-0.7168363
59	0xbefa074a	-0.48833686
60	0xbe80ed59	-0.25181082
61	0xbe6984d8	-0.22804582
62	0xbe852647	-0.26005766
63	0x3e7f8555	0.24953206
64	0x3ea02964	0.3128158
65	0x3e94d476	0.29068345
66	0x3db46bcf	0.08809625
67	0xbd5bb42c	-0.053638622
68	0x3f237d58	0.63863134
69	0xbd19a97f	-0.03751516
70	0xbe46e20f	-0.19422172
71	0x3ebb4dcc	0.36582792
72	0xbf134ced	-0.57539254
73	0xbe3bbe4d	-0.18334313
74	0xbee352f3	-0.44399223
75	0xbe66e049	-0.22546495
76	0xbed620ff	-0.4182205
77	0xbdbf4395	-0.09339062
78	0x3e33060e	0.17482778
79	0xbd8a2288	-0.067448676
80	0x3e961fd7	0.29321167
81	0xbecf7653	-0.40519962
82	0xbed6db24	-0.41964066
83	0xbee3898d	-0.4444088
84	0xbe25ece3	-0.16203646
85	0xbe0a8cf3	-0.1353033
86	0x3e13ca9c	0.14432758
87	0x3f136b3e	0.57585514
88	0x3e977cb6	0.29587334
89	0xbd969f07	-0.07354551
90	0x3e881992	0.2658201
91	0xbe99db22	-0.30049998
92	0xbf3044c4	-0.6885493
93	0xbeb06adc	-0.34456527
94	0xbf01aaf9	-0.5065151
95	0xbe1f1e91	-0.15539004
96	0xbe18cf16	-0.14922747
97	0x3ddc1168	0.107455075
98	0xbe8190ed	-0.25305882
99	0x3e4f1c97	0.2022575
100	0x3e1090be	0.14117715
101	0x3ecad8e5	0.39618602
102	0xbedaf211	-0.42762807
103	0xbe235fbb	-0.15954487
104	0x3d7fcd4e	0.062451653
105	0x3ec27f5d	0.37987795
106	0x3dc488ee	0.0959643
107	0x3d88c75c	0.0667865
108	0x3d79afd8	0.060958713
109	0x3dea819b	0.114505015
110	0xbe0246c5	-0.12722309
111	0xbed24d15	-0.41074434
112	0x3ed08d7d	0.40732947
113	0x3ecc3de5	0.39890972
114	0xbda3ef87	-0.080046706
115	0x3de4f765	0.11179999
116	0x3f4446a5	0.76670295
117	0x3c1d2766	0.009591913
118	0x3da89fa3	0.08233573
119	0xbe12a454	-0.14320499
120	0xbe9ebc17	-0.31002876
121	0xbe7e84b8	-0.24855316
122	0x3e2b7c87	0.16746722
123	0x3e9d5c2e	0.3073439
124	0x3f5bfaff	0.85929865
125	0x3f029588	0.51009417
126	0xbf289dee	-0.6586598
127	0x3de6c7b9	0.11268563
128	0x3c129a50	0.008947924
129	0xbea4c3de	-0.32180685
130	0xbda38d0b	-0.07985886
131	0x3d9eb3c6	0.07749133
132	0xbe7981fa	-0.24365988
133	0x3dfbe04c	0.122986406
134	0xbd3d5362	-0.0462221
135	0xbd5fdd12	-0.05465419
136	0x3e7a284e	0.24429438
137	0x3d5b6d7b	0.053571206
138	0xbd479fe0	-0.048736453
139	0xbd42a96e	-0.047524862
140	0xbd09fc43	-0.03368784
141	0xbdea8017	-0.114502124
142	0xbf1a7046	-0.60327566
143	0x3e14a697	0.14516674
144	0xbe0f2f0a	-0.13982788
145	0x3e8f3242	0.2796803
146	0x3b8ff835	0.0043936023
147	0x3e44d45b	0.19221632
148	0xbec5de64	-0.38646233
149	0x3d1f260e	0.03885465
150	0x3e4c7e7d	0.19970126
151	0xbe889eab	-0.26683554
152	0x3e5f658b	0.2181608
153	0x3ec29238	0.3800218
154	0x3d82482f	0.06361424
155	0xbeb03c19	-0.3442085
156	0xbe767abe	-0.2407026
157	0x3a46a8ac	0.00075782347
158	0x3cb8d491	0.022562297
159	0xbb9a1dcb	-0.0047032586
160	0xbe9f7192	-0.31141335
161	0x3d937a85	0.07201103
162	0x3ea99ffd	0.33129874
163	0xbe679e91	-0.22619082
164	0x3e8f6048	0.28003144
165	0x3d9b7583	0.07590773
166	0xbc8ea75f	-0.017413793
167	0x3db409e6	0.087909505
168	0xbdfe4241	-0.12414981
169	0xbbdfe34f	-0.006832517
170	0x3a8e9f1e	0.0010881161
171	0x3e06bbd7	0.13157593
172	0x3e3e9177	0.18610178
173	0xbe116216	-0.14197573
174	0x3d919bc7	0.0710979
175	0xbdb4c263	-0.08826139
176	0x3e7ca276	0.24671349
177	0xbdd53251	-0.10409988
178	0xbcd70a9c	-0.026250176
179	0x3d9038ed	0.07042108
180	0x3e25e6a2	0.1620126
181	0xbe59d3f8	-0.21272266
182	0xbd25da00	-0.040491104
183	0xbebc24cb	-0.3674682
184	0xbd972ff5	-0.07382194
185	0xbdc168ea	-0.09443839
186	0x3d404d3e	0.046948664
187	0xbead8ba4	-0.338956
188	0xbd155ab3	-0.03646345
189	0x3e68d41c	0.22737163
190	0x3e934483	0.28763208
191	0x3d2760f6	0.040863954
192	0xbea8b143	-0.3294774
193	0x3d0ed03d	0.03486656
194	0xbdd54d6e	-0.10415159
195	0x3df18131	0.117922194
196	0xbc2b5189	-0.010456451
197	0x3d1f7f01	0.03893948
198	0x3b42d141	0.0029726776
199	0x3daad3bc	0.083411664
200	0xbcea207e	-0.028579947
201	0xbdce3976	-0.100695536
202	0x3e00d6ea	0.12581983
203	0x3e1235d8	0.14278352
204	0x3e8c2cda	0.2737797
205	0x3e9e2fcd	0.30895844
206	0x3e89f6bd	0.2694606
207	0xbdff02cf	-0.124517076
208	0x3d958a24	0.07301739
209	0xbe1fbc41	-0.15599157
210	0xbe379f29	-0.17931809
211	0xbede2067	-0.43384096
212	0x3e825445	0.25454918
213	0x3cd57f57	0.026061697
214	0xbd6f0350	-0.05835277
215	0x3e077a6b	0.13230292
216	0xbdf07a9b	-0.11742135
217	0xbde6fb76	-0.11278431
218	0xbf0226a3	-0.50840205
219	0x3d6ef1c2	0.058336027
220	0x3d233f2c	0.039855167
221	0xbe9a2fb1	-0.3011451
222	0x3e6fced5	0.23418744
223	0x3d27c54f	0.040959653
224	0x3ee83a16	0.45356816
225	0xbd6016a1	-0.05470908
226	0xbbe7182c	-0.007052442
227	0x3e06e246	0.13172254
228	0xbe90e3cf	-0.28298804
229	0xbbbc2d05	-0.0057426714
230	0x3da1748e	0.07883559
231	0xbd694db4	-0.05695887
232	0xbe02c395	-0.12769921
233	0x3e25559a	0.16145936
234	0x3c8a01f9	0.016846644
235	0xbb9b30f1	-0.004736059
236	0x3ca0b9ea	0.0196199
237	0x3c5aaf40	0.013347447
238	0x3ecbd9fe	0.39814752
239	0x3dd6c720	0.10487199
240	0x3d8a6b86	0.0675879
241	0x3de09d96	0.10967557
242	0x3dd3720f	0.10324489
243	0x3d60001b	0.0546876
244	0xbea5001f	-0.32226655
245	0xbe8838bf	-0.26605794
246	0xbe849f42	-0.25902754
247	0xbeaaee89	-0.33385113
248	0xbea203ed	-0.3164362
249	0xbe008747	-0.12551604
250	0xbe26aa4b	-0.16275899
251	0x3d7de9aa	0.061990418
252	0xbea21cd1	-0.3166261
253	0xbe978ab0	-0.29597998
254	0x3e78eed2	0.24309853
255	0x3d4b0b13	0.049571108

actor.0.bias f4 [22]
0	0x3d8b8fbb	0.06814524
1	0xbd5d7a5b	-0.054071765
2	0x3d688af4	0.05677314
3	0x3d8ade44	0.06780675
4	0xbafad75d	-0.001913767
5	0x3ccc0b20	0.024907649
6	0xbd04782c	-0.032341167
7	0x3d2ff0d0	0.042954266
8	0x3b8dff91	0.0043334444
9	0xbcdb498f	-0.026768474
10	0xbd93b3df	-0.07212042
11	0xbd4d5639	-0.050131056
12	0x3c7c351f	0.015393524
13	0x3de0ec19	0.10982532
14	0xbd285fd0	-0.041107
15	0x3cb52500	0.02211237
16	0x3d917b3f	0.071035855
17	0x3c2910c9	0.010318943
18	0x3c5b74e5	0.013394569
19	0xbbb4019e	-0.005493357
20	0xbdc26038	-0.094910085
21	0x3daa2420	0.083076715
