paper/training_results/seed-9/momarl/checkpoints/mlp_(negotiation=False)_(num_agents=12)_(window=False)_(reduced_space=False)_(fixed_savings_rate=False)_(rewards=['inverse_global_temperature', 'global_economic_output'])(wgen=uniform)(num_ensembles=1)(seed=9)_2025-01-18_07:18:43_w=[0.9594 0.0406].pt (torch, 38168 bytes, 9 tensors)

network.MLP.0.weight f4 [64, 18]
000000 56 52 24 be 53 38 87 3d 72 87 b8 bd 38 a1 46 be
       -0.16047034 0.0660254 -0.09010209 -0.19397438
000010 42 95 5a be 95 3c 0b be 9c a1 db 3d 48 a3 ec 3d
       -0.21346 -0.13597329 0.10724184 0.11554581
000020 21 80 32 3d 33 ce 2f bd 2f 83 8b 3d 92 0b 03 be
       0.043579224 -0.042921256 0.06812131 -0.12797382
000030 a6 ce 79 3d d4 08 a1 3d d8 82 a7 3c 76 98 56 be
       0.06098809 0.07863012 0.020448133 -0.20956597
000040 0e 8d 6d 3e c8 42 3e bd 90 1f 52 be b1 08 dc bd
       0.2319834 -0.046450406 -0.20519853 -0.10743845
000050 20 9c ba 3d cf aa c9 bf 73 61 9a bd 45 b7 97 3e
       0.0911181 -1.5755252 -0.07538118 0.2963201
000060 78 5f 55 3d e8 1e 1d be f4 9f 77 bd b7 f8 c1 be
       0.052093 -0.15343821 -0.060455278 -0.37885067
000070 11 41 b9 3d 2d 0d 23 be a4 4e 6d be ae 8b 5d be
       0.090456136 -0.15922995 -0.2317453 -0.21635315
000080 d2 4c 33 be c7 88 98 be e4 49 b8 be 80 0a 2f bd
       -0.17509773 -0.29791853 -0.35993874 -0.042734623
000090 4e aa b5 3d 5b 90 94 3e 5d ca 41 bd 13 de c3 3e
       0.08870374 0.29016384 -0.04731213 0.38255367
0000a0 a6 60 de 3e 43 5f e8 bf e6 59 b5 3d 22 b7 11 bd
       0.43433112 -1.8154072 0.088550374 -0.03557504
0000b0 17 9d 2c 3e e0 b0 3e 3e a0 45 bf 3d fb 99 c5 bd
       0.168568 0.1862216 0.09339452 -0.0964851
0000c0 0c 03 96 3e 67 e9 6c 3d 9f 9c 34 3d 1f 96 98 bd
       0.292992 0.057839777 0.044094678 -0.07450508
0000d0 27 4b 62 bc 60 09 86 bd 6c a3 d9 be a7 c5 f6 3e
       -0.013811863 -0.06544757 -0.42507493 0.48197672
0000e0 e6 9c 0a 3e 97 02 71 c0 3c df 9f 3e 85 e8 e0 be
       0.13536415 -3.765783 0.31225002 -0.43927398
0000f0 53 86 ae bd 11 b4 df bd 4d ec 01 3e 79 3c 59 be
       -0.08521714 -0.10923017 0.12687798 -0.21214475
000100 df 15 82 bd 37 f3 03 be 5d 27 63 bc 86 9d e6 bc
       -0.06351828 -0.12885748 -0.013864365 -0.028151285
000110 c9 e1 b4 bd 8a f6 6e 3e 8d e2 34 be 92 55 90 bd
       -0.088321276 0.23336235 -0.17664547 -0.07047571
000120 0a c1 02 bc 26 3b 07 3e 4f 74 97 3c 94 53 a5 bf
       -0.007980594 0.13206157 0.018488077 -1.2916131
000130 90 88 9f 3d 08 63 41 bf 87 03 5a 39 b2 4c d0 3d
       0.07789719 -0.75541735 0.00020791414 0.101708785
000140 ed 8d 31 3e bb ff 68 3d 87 7a 2d 3d 94 35 e8 3d
       0.17339297 0.05688451 0.04235318 0.11338344
000150 25 3b d7 bd c8 97 54 3d 0c 1c 61 3d 0c 4c 63 3d
       -0.10509328 0.051902562 0.05495839 0.055492446
000160 dd c9 50 3d c8 44 f7 3c d6 4a 40 bd c6 61 9f 3e
       0.05097376 0.030184165 -0.04694637 0.31129283
000170 fb 08 fd 3c 56 e5 f9 be df f8 d3 bf d8 1f 8a be
       0.030888071 -0.48807782 -1.6560324 -0.2697742
000180 cc d5 98 3e aa 05 9e 3e cd 48 34 bf e0 fc af 3e
       0.29850614 0.30863696 -0.70423585 0.34372616
000190 0d 76 00 be 6f 7a 77 be 99 07 68 be ab dc 8e 3a
       -0.12545033 -0.24167798 -0.22659148 0.0010899504
0001a0 c6 a8 43 3e 99 1d b6 bd d4 69 f3 3d d4 4d 1d bc
       0.1910735 -0.08892364 0.118854195 -0.009601075
0001b0 bf 4f c8 bc d3 dc c8 3e 49 b0 6d 3c 82 60 1d bf
       -0.024452088 0.39230976 0.014507362 -0.61475384
0001c0 70 95 81 bf e3 f0 11 be 2f db 18 be 33 6c fd 3e
       -1.012373 -0.14252047 -0.14927362 0.49496612
0001d0 6a ff ae bd 8c 80 c6 3e db f3 39 bf bb a6 4b 3e
       -0.0854481 0.38769948 -0.7263772 0.19887821
0001e0 7f c8 b6 3e 37 40 69 be 60 07 04 be 29 c8 11 3f
       0.3569984 -0.22778402 -0.12893438 0.56946045
0001f0 c8 cd 33 be fa 6d a5 be 24 6c a5 3d 44 97 e7 bf
       -0.17558968 -0.32310468 0.08077267 -1.8093038
000200 be 4b 40 bd 3d 8f d3 be 5d 29 66 3e 23 8b 2a 3e
       -0.046947233 -0.4132022 0.22476716 0.16654639
000210 9a 9f 92 bd 0f 4c bf 3d a1 b4 f9 3d f4 44 2d 3e
       -0.07159348 0.09340679 0.12192655 0.16920835
000220 05 71 97 3e 09 12 27 3d b1 f7 40 be 99 ef 59 be
       0.29578415 0.040788684 -0.18844487 -0.21282806
000230 79 bc 59 3e 89 f6 06 bf 2c 40 8d be d0 2f a6 bd
       0.21263303 -0.5271993 -0.27588022 -0.08114588
000240 33 09 43 bd 34 2c 08 bd 62 2e 8b 3d 95 1b 94 be
       -0.047616195 -0.03324528 0.06795956 -0.28927293
000250 04 80 8b bc d4 ed c3 be d1 b8 27 3e bc 32 73 3e
       -0.017028816 -0.38267386 0.16379096 0.23749822
000260 0d 95 0f 3f be 24 24 bd 4e c9 72 be 8d d1 6e 3e
       0.5608681 -0.040074103 -0.23709604 0.23322125
000270 32 85 19 3b 09 c5 e5 be df 07 85 be 4c dc c4 bc
       0.0023425338 -0.44876888 -0.25982568 -0.024030827
000280 9b ba b2 bc b8 27 fd 3e e1 09 fd bc 7c c9 be bc
       -0.021817496 0.49444366 -0.0308885 -0.023289435
000290 6f dd ce 3c 89 70 8f be 69 ad 09 3e 19 39 08 bf
       0.025252072 -0.28015545 0.13445057 -0.53212124
0002a0 a1 95 a7 3e a6 59 97 bd 7d a1 45 3e e2 93 9a bd
       0.32731345 -0.07390146 0.19299884 -0.07547738
0002b0 fe c4 08 3f d7 2b bc 3d 47 d5 f9 be 77 af b5 bd
       0.53425586 0.09188049 -0.4879553 -0.08871358
0002c0 2e 61 5b 3e 3d d9 46 3d ab bd bc be 8b 5f 26 3f
       0.2142379 0.04854702 -0.36863455 0.64989537
0002d0 b9 d0 90 bc 10 95 13 3e 37 2a 12 3c 75 57 13 bf
       -0.017677652 0.14412332 0.008921198 -0.57555324
0002e0 f1 a6 5e bf 18 f9 d2 bc 0b a9 18 3e b4 33 dd 3e
       -0.8697348 -0.025753543 0.14908235 0.4320351
0002f0 84 80 67 be c6 3c 3d 3d 49 07 46 bc 20 87 2e 3f
       -0.22607619 0.046200536 -0.012086698 0.68174934
000300 6d 9a 2e 3f e9 94 ca 3c 16 5f 43 bf 7c 65 5b bf
       0.68204385 0.024729209 -0.76316965 -0.8570173
000310 2d f3 ef be e4 65 59 bf b8 b8 d5 3d 0b 18 07 3e
       -0.46865216 -0.849211 0.10435623 0.13192765
000320 f9 6e 89 3d 56 74 5f be e7 b3 86 3f 38 eb 2a bf
       0.067106195 -0.21821722 1.0523652 -0.66765165
000330 73 f8 e5 3c 73 f3 7e 3d 7c 8e e3 3c 92 7c 25 3d
       0.028072571 0.06224389 0.027777903 0.040402003
000340 d7 4f 1a bc 85 ce e9 bb 35 93 f9 bb d8 48 1a 3b
       -0.009418449 -0.0071352147 -0.0076164254 0.0023541953
000350 0b 23 14 3d 35 70 7f 3d 94 39 a3 3b 66 25 94 bd
       0.036166232 0.06236287 0.004981229 -0.07233696
000360 d0 a2 6d be 0c a3 38 be 89 68 7a bd ce 3a 5e bd
       -0.2320664 -0.18030947 -0.06113485 -0.0542553
000370 14 c5 df bd ae bc 66 3e 63 c1 24 bd 31 27 3f be
       -0.109262615 0.22532913 -0.04022349 -0.18667294
000380 7f 1f 01 be 1b 49 38 be ce 5a c2 bd 98 6c 54 3e
       -0.12609671 -0.17996638 -0.09489976 0.2074455
000390 5a 64 67 be 4f 5c 28 bd c3 05 20 3c 92 f6 a5 bc
       -0.22596875 -0.041103657 0.009766999 -0.020259175
0003a0 f6 c3 03 be 49 5b 8f bd bd ec 59 be f8 a7 3f be
       -0.12867722 -0.06999833 -0.21281715 -0.18716419
0003b0 41 f3 ba bd 74 8b 6f 3e 2b 05 0e 3e d2 12 96 3d
       -0.09128428 0.23393041 0.13869159 0.073278084
0003c0 86 31 a5 3c 70 04 cb 3d 77 86 0a be ab 77 d2 bd
       0.020165216 0.09912956 -0.13527857 -0.10276731
0003d0 a8 79 2d be 94 73 25 bc 14 8c 5d 3e 74 6c d7 3d
       -0.1694094 -0.010098357 0.21635467 0.10518733
0003e0 85 f0 34 be 3f 94 ef 3d bf 54 55 be 46 49 15 3e
       -0.17669876 0.116981976 -0.2083311 0.14578733
0003f0 dc c0 04 3d f4 6d 06 be e7 f3 66 3d 80 9e a2 be
       0.032410488 -0.13127881 0.056384947 -0.3176155

network.MLP.0.bias f4 [64]
000000 f1 b4 f8 bd 3a f5 0a 3e c1 35 e3 3e 6e 81 86 3c
       -0.12143887 0.13570109 0.44376948 0.016419139
000010 fe 5f 49 3f 86 4a 0c 3d 2c cf 4e bc 40 ac 04 3e
       0.786621 0.03425076 -0.012622636 0.12956333
000020 4b a8 b6 be 10 f1 cf 3e a3 13 1f be 85 4d 81 3e
       -0.35675272 0.40613604 -0.15534835 0.25254455
000030 38 dc 61 3e dd f3 3a ba 08 e9 91 3c 47 e7 9e 3c
       0.22056663 -0.00071316754 0.017811313 0.019397391
000040 02 3b ff be 47 58 18 be 03 1d ae be 21 30 90 bb
       -0.49849707 -0.14877425 -0.3400651 -0.0044002687
000050 9d d1 20 be 9a 00 91 bd 50 55 13 bd e8 da 67 3e
       -0.15704961 -0.07080193 -0.035970032 0.226421
000060 43 3e 54 be 65 c0 d7 3e c7 d4 ec 3e 6f e6 00 3d
       -0.20726876 0.42138973 0.46256086 0.03146976
000070 b2 70 b0 be 7c 00 8c 3e 46 e0 26 3e 12 f1 ea be
       -0.3446098 0.2734412 0.16296491 -0.45887047
000080 65 20 2b bf 20 00 01 bf 7d b0 77 3e e2 11 38 bf
       -0.66846305 -0.50390816 0.24188419 -0.71902287
000090 bc 51 ff be ab 18 56 bf 5e ac 47 3c 9e 5f 00 bf
       -0.49867046 -0.8363139 0.012187092 -0.501459
0000a0 38 06 5f bf aa 52 b0 3e 39 d7 2d 3f a3 df 59 be
       -0.87118864 0.34438068 0.6790653 -0.21276717
0000b0 00 7a 0a be 04 4c f5 3e d8 0c 8a 3e 5f 66 81 3e
       -0.13523102 0.47909558 0.26962924 0.25273415
0000c0 99 e7 c9 3e 14 8c 68 3e d7 29 bf be f4 53 da be
       0.39434507 0.22709686 -0.3733661 -0.42642176
0000d0 d6 68 96 3e d4 46 0c 3e ec 4c 25 3e 21 fb 98 3e
       0.29376858 0.13698894 0.16142625 0.29879096
0000e0 9c 99 af 3d fe 69 b3 bf 70 00 d7 be 66 31 8b bf
       0.085742205 -1.4016721 -0.4199252 -1.087445
0000f0 dc c5 be 3d 3c 55 74 3e a6 f6 4a be db 26 ec 3d
       0.093150824 0.2386064 -0.19820651 0.115308486

network.MLP.2.weight f4 [64, 64]
000000 a8 59 c7 bc 04 32 a9 bd ed 4f fb be 34 0e e8 3d
       -0.024334744 -0.08261493 -0.49084416 0.11330834
000010 41 76 92 bd 81 fa 8d 3e 95 46 49 be bf a0 17 3e
       -0.071514614 0.27730182 -0.19655831 0.14807414
000020 e5 a8 a3 be 7f 25 b6 3e 39 c7 46 3e 57 60 14 3e
       -0.31964794 0.35575482 0.19411935 0.14489876
000030 dc 49 ec bd b0 3e 2d 3d 17 55 f3 be 6c 81 5c 3e
       -0.11537525 0.04229611 -0.47525856 0.21533746
000040 ad e7 33 be e9 f0 8f be 09 5d 13 bd 0a bd 91 bd
       -0.17568846 -0.28113487 -0.035977397 -0.071161345
000050 ec 3b d0 bd 9e 85 98 bd 98 a6 75 3e 13 16 19 be
       -0.10167679 -0.074473605 0.23989332 -0.14949827
000060 36 9b 83 bd 72 26 ac 3e f0 34 ad 3e 38 24 06 bd
       -0.064260885 0.3362308 0.3382945 -0.032749385
000070 53 36 35 3d 4c 5d 9c bd d3 04 dd bd 13 91 2f bf
       0.04424126 -0.076349825 -0.10791936 -0.6858074
000080 93 71 ba 3d 1d 14 21 3e 92 66 ae bd 38 21 87 3e
       0.09103694 0.15730329 -0.085156575 0.2639253
000090 dd 33 28 3d 01 54 18 be 84 cc a9 bd 32 d1 6a bf
       0.041065086 -0.14875795 -0.082909614 -0.91725457
0000a0 12 00 99 3d ca 98 50 3e f2 0d 16 3e 7f e8 78 be
       0.074707165 0.20370784 0.14653757 -0.2430744
0000b0 d0 cd 61 be e5 a1 cb 3c 90 fe 13 3d 31 ac af bd
       -0.22051167 0.02485747 0.03613144 -0.08577765
0000c0 c6 2e cc bd 5a 9f 54 3d 41 87 a5 be ba 05 73 be
       -0.09969859 0.051909782 -0.32329753 -0.23732653
0000d0 12 de 0b be 32 a2 84 3d eb 90 a8 3d 53 27 af bd
       -0.13658932 0.06476249 0.08230766 -0.085524224
0000e0 e3 eb c9 bd 4b cf 29 be b5 1a 0f be 08 87 89 be
       -0.09859445 -0.16582982 -0.13975032 -0.26860833
0000f0 7f 47 85 3d e1 a9 5b 3e 12 d9 cd 3d 1d 10 6c 3e
       0.065077774 0.21451522 0.100511685 0.23053022
000100 6c 32 25 3d 16 f6 1b bd eb 52 02 3f 27 c8 5b bd
       0.04033129 -0.038076483 0.5090777 -0.053657677
000110 5a f6 88 bd 3d 2b 07 3c 63 ba 9e be 04 89 49 3e
       -0.06687613 0.008250055 -0.31001577 0.19681174
000120 04 2c 6d be 17 09 a7 bd 79 ec 22 3d 41 22 9c 3d
       -0.23161322 -0.081560306 0.0397763 0.07623721
000130 67 b8 7c 3d 2d 3b 10 be ff cf 85 bd d4 c4 13 3e
       0.061699297 -0.14085074 -0.06533813 0.14430553
000140 0d 61 87 3e d3 4f c8 3e 9e 24 69 be 2c dc 06 bd
       0.2644123 0.391234 -0.22767875 -0.032924816
000150 9f 1d 22 be 12 d4 e6 3d da a4 92 be 36 58 7b be
       -0.15831612 0.11270918 -0.28641397 -0.24545369
000160 c4 22 be be 3f 62 84 3e ce 05 e2 3c 7d 9f 71 3e
       -0.371359 0.25856206 0.027590659 0.23595996
000170 8a fa 98 bd 1f a4 b2 3d fa 0a 71 3d 5c 6e 82 3e
       -0.074696615 0.0872271 0.05884836 0.25474823
000180 e1 83 21 3d 13 2b ef bd c6 d7 25 3f 54 8f 23 be
       0.03943241 -0.11678138 0.6478237 -0.15972644
000190 29 d1 1e 3d d0 da ab 3e 4e 80 08 be 9c ed 43 bf
       0.03877369 0.33565378 -0.13330194 -0.7653444
0001a0 9a 5d eb bd 1b 50 10 3d df 0f a7 be 2a b9 71 be
       -0.114924625 0.035232645 -0.32629296 -0.2360579
0001b0 d9 81 44 bc 1f 82 2d bd 14 57 7d 3e ae d4 f9 3d
       -0.011993849 -0.04236042 0.24740249 0.121987686
0001c0 cb 34 9d bc ef cb fe 3d b8 fb 56 be 0b 87 b1 3d
       -0.019190213 0.12441241 -0.2099446 0.086683355
0001d0 cd 80 5a be fe a4 47 bd bd 49 80 3e 98 55 c6 3d
       -0.21338196 -0.048741333 0.25056258 0.096842945
0001e0 b5 1b a8 3e e0 dc f7 3d 9b e1 dd bc 2a 23 7e be
       0.3283364 0.121026754 -0.027085116 -0.24818102
0001f0 53 06 35 3d 52 fe 4f 3e 6e ce da bd b3 96 0c 3c
       0.044195484 0.20311859 -0.106839046 0.008580851
000200 18 c6 da 3d de 63 a5 be 70 5a af 3e d0 a9 5a 3e
       0.10682315 -0.32302755 0.34248686 0.21353841
000210 07 ed ee be 4b 70 50 bd 39 fc 13 3e 8e da 43 3e
       -0.46665213 -0.05088834 0.14451684 0.19126341
000220 b7 74 2b bd 2e 3f 25 3d 16 64 45 3d 18 77 92 b9
       -0.041859355 0.040343456 0.048191153 -0.00027936022
000230 fe 7d c2 3d 4c 88 86 3d eb ee 3e 3e c7 f2 fd 3d
       0.09496687 0.06568965 0.18645827 0.12399822
000240 56 48 d6 be ba c4 ad bd 37 b3 1c 3e e7 e6 07 bd
       -0.41852063 -0.08484788 0.1530274 -0.03317919
000250 f2 75 83 3d 88 75 29 3d 28 b8 e4 bd a7 f5 d6 3c
       0.06418981 0.041371852 -0.111679375 0.026240183
000260 d9 b9 ff 3e 58 01 c7 bd 47 d9 99 3b 37 97 48 be
       0.49946478 -0.09717053 0.004695091 -0.19588934
000270 40 d5 71 3e ac 43 28 3e 9f 22 19 3d 7f fa 80 be
       0.23616505 0.16432065 0.037386533 -0.25191113
000280 d8 75 2a be 27 a3 dd 3d 88 7d 7f be 40 6a 99 bc
       -0.16646516 0.108221345 -0.2495023 -0.018727422
000290 7a e4 44 bd b8 7c 15 bf 80 b1 cd bd b1 f8 ee 3e
       -0.048069455 -0.5839343 -0.10043621 0.4667411
0002a0 7d e5 09 bf 11 3f d3 3d a1 2e 0a 3f 7d a4 d0 3e
       -0.53865796 0.10314763 0.539774 0.40750495
0002b0 19 d6 1b be 87 58 a8 be 3b 27 d5 3d 0e 04 02 3e
       -0.1521839 -0.3288004 0.10407873 0.12696859
0002c0 99 e5 05 ba bb 68 21 bd 6d 38 82 3d f6 7a 28 3d
       -0.000510776 -0.03940652 0.063584186 0.04113289
0002d0 87 25 09 3e 3a 90 3c 3d a6 fe 85 bc 1b 9c 64 3d
       0.13393222 0.046035983 -0.016356777 0.055812936
0002e0 16 4f 77 bd a8 9c 6e be 0b 71 71 3e 07 cb df 3e
       -0.060378157 -0.23301947 0.23578279 0.43709585
0002f0 ac c9 46 bc aa 2c 98 3e e0 ed 4f bc ef 7a 39 3e
       -0.012133043 0.29721576 -0.012690991 0.18113302
000300 08 4e b2 3d fb 28 14 3e 11 87 45 be bf 5b 83 3e
       0.087062895 0.14468758 -0.19289805 0.25655934
000310 7d 00 7c bd f2 36 00 3e e8 68 9f 3d 86 21 89 be
       -0.061523903 0.1252096 0.07783681 -0.2678339
000320 de f0 3f 3e 61 58 8f be be 72 44 be 43 52 e7 3b
       0.18744227 -0.27997115 -0.19184396 0.007059367
000330 84 fd ed 3c de 81 85 bb 6b c6 68 3d b2 05 cc 3e
       0.02905155 -0.0040743193 0.05682985 0.39848095
000340 9d bc 12 bd 9b 0a cc 3d c4 71 16 be 0a f9 80 bd
       -0.035824407 0.0996296 -0.14691836 -0.062975004
000350 1e 62 6f 3d 00 7e e9 ba 3d 6b b9 be 13 40 26 be
       0.05844318 -0.001781404 -0.3621463 -0.1623538
000360 c0 61 ff bb 06 a2 0d be 08 84 9d bd 9d 9b 82 3e
       -0.007793635 -0.13831338 -0.076911986 0.2550935
000370 82 10 7d bd 17 2d bc 3c 71 ae 19 3d 78 f9 57 3d
       -0.06178332 0.02297072 0.037519876 0.052728146
000380 f5 88 e8 bd e8 81 98 3e ea bc 8f 3e fc 4b c6 3e
       -0.113542475 0.2978661 0.28073817 0.38729846
000390 16 d7 5e bd 92 7a 91 3d 2e e3 36 bc 86 9c 16 3e
       -0.05440434 0.071034566 -0.011162562 0.14708146
0003a0 4a 33 5b 3c d6 7f 6a be 21 17 cd be 58 ec 35 3d
       0.0133789275 -0.22900328 -0.40056708 0.044414848
0003b0 15 8a a6 3d 0d d1 94 3d 84 8f 9c bc b3 3a 0c 3e
       0.08131806 0.07266436 -0.019111402 0.13694267
0003c0 92 7c 31 3e 4d 7a 4e bc 5b 26 8d bb f2 1b 21 bb
       0.17332676 -0.012602401 -0.004307551 -0.0024583307
0003d0 2d 66 9d be ea b8 93 3d e3 77 a0 bb dd a9 0b 3e
       -0.30742016 0.07213004 -0.004897104 0.13639016
0003e0 a3 2a 42 3e 3c 9d 01 3e 2d 67 17 be d5 b4 76 3e
       0.18961577 0.12657636 -0.14785452 0.2409242
0003f0 f9 c1 75 3d b0 51 b0 be 74 6f e7 bd 1a 84 11 bf
       0.05999944 -0.34437323 -0.11300555 -0.56842196

network.MLP.2.bias f4 [64]
000000 e9 2d 79 bd e3 8f 23 bd 24 4d 9d 3d c8 3f 78 3d
       -0.0608348 -0.039932143 0.07680729 0.0606077
000010 ba f0 f9 3d ba c7 2d be f5 3c 9c bd 07 9f 38 be
       0.12204118 -0.16970721 -0.07628814 -0.18029414
000020 4e 36 06 3d 47 66 31 3d fe d1 f9 3e 0e f7 cc 3e
       0.032766633 0.04331043 0.48793024 0.40032238
000030 ae 62 cf 3d 98 00 d3 be 5d a1 5b bd 17 d4 5c be
       0.101262435 -0.4121139 -0.053620685 -0.21565281
000040 e3 79 c9 be 16 64 00 3e 70 f1 4d 3e b3 82 84 3c
       -0.39350805 0.1253818 0.20111632 0.016175603
000050 3c dc 48 bf a0 02 c1 bd 08 74 8e 3e fb db a9 bd
       -0.7846105 -0.09424329 0.278229 -0.08293911
000060 fc 3e d3 3e f0 b1 50 3e 8a 2d 7b 3e b2 88 68 be
       0.4125899 0.20380378 0.2452909 -0.22708395
000070 d8 f2 8a 3d 10 a6 6f be a7 07 1d 3d 94 c7 d7 bd
       0.067846 -0.23403192 0.038337376 -0.105361134
000080 af 16 0f 3e e9 d8 62 be e2 dd ec 3d c1 33 ae be
       0.13973497 -0.22153057 0.11565758 -0.3402386
000090 76 b8 91 3b ab c3 4f 3e c0 de 57 be 18 b9 f4 be
       0.0044470383 0.20289485 -0.21081066 -0.47797465
0000a0 0e ba f9 3e aa 79 89 be 5f 5f ce be 5b dc 11 3f
       0.4877476 -0.26850635 -0.40307137 0.5697686
0000b0 6d 28 37 be 3f 8f d2 be 24 91 4b be 2d 66 f7 be
       -0.17886515 -0.41124913 -0.19879586 -0.4832014
0000c0 be 04 38 bf 61 1e 33 3f 3b 47 9b be ea 56 10 3f
       -0.71882236 0.6996823 -0.30327782 0.5638262
0000d0 86 51 f3 bd fd 46 8e be 7e b5 d4 be 22 ce 4e 3e
       -0.11880784 -0.27788535 -0.41544718 0.20195821
0000e0 e7 89 15 3f 15 51 00 3f 30 2b 15 3e 06 56 a0 be
       0.5841355 0.5012372 0.14567256 -0.3131563
0000f0 c9 9d 00 be 07 58 48 bd 8f 1a 84 3e 3a c2 58 3d
       -0.1256019 -0.048912074 0.25801513 0.052919604

network.MLP.3.weight f4 [64]
000000 18 d2 c7 3f 09 37 a7 3f 5c 4d b5 3f 2a 4f a5 3f
       1.561099 1.306367 1.4164233 1.2914784
000010 7b a6 dc 3f f4 5d f1 3f 10 fd a3 3f 73 bf dd 3f
       1.7238306 1.8856797 1.2811604 1.7324051
000020 28 c5 a7 3f 82 22 91 3f e0 37 85 3f 3f 1b 90 3f
       1.3107042 1.1338656 1.0407677 1.1258315
000030 d9 fe b8 3f 29 f2 b5 3f 17 08 b2 3f 64 e4 b6 3f
       1.4452773 1.4214526 1.3908719 1.4288449
000040 02 c5 ad 3f f0 56 a7 3f 5b 73 96 3f d0 7d b1 3f
       1.3575747 1.3073406 1.1753954 1.386652
000050 90 3a 66 3f 5d 0b e0 3f 2e 48 c0 3f 74 5e a0 3f
       0.8993311 1.7503468 1.5022027 1.2528825
000060 23 8b 46 3f e4 c4 b2 3f 57 ef fc 3e 87 61 cd 3f
       0.77556056 1.3966336 0.49401352 1.6045388
000070 05 0b e5 3f 4d 16 ca 3f 2a 5b d7 3f 09 85 b6 3f
       1.7893988 1.5788056 1.6824696 1.4259349
000080 72 98 57 3f 7e 66 e8 3e 63 76 8d 3f 91 1e ce 3f
       0.8421699 0.45390695 1.1051754 1.6103078
000090 41 f4 da 3f 34 a6 da 3f 90 e5 b0 3f c1 48 72 3f
       1.710579 1.7081971 1.3820057 0.94642264
0000a0 9d 4b 80 3f 22 16 cf 3f ba 75 60 3f 49 bd 8a 3f
       1.0023075 1.6178629 0.87679636 1.0839015
0000b0 16 2d ac 3f d7 53 8a 3f 1b 8c e0 3f 69 62 31 3f
       1.3451259 1.0806836 1.7542757 0.69290787
0000c0 93 cd 55 3f 3e 94 7c 3f fd cb 97 3f 29 29 8b 3f
       0.83516806 0.986637 1.1859127 1.0871936
0000d0 d6 ba b3 3f 03 e7 8e 3f f1 a3 95 3f f1 ca a1 3f
       1.4041393 1.1164249 1.1690656 1.2640058
0000e0 a8 5e 27 3f df 54 36 3f e2 d4 b3 3f b7 1a a8 3f
       0.6537881 0.71223253 1.4049342 1.3133153
0000f0 b4 8c 3e 3f 09 15 93 3f d5 8c 9d 3f 3a 22 bd 3f
       0.74433446 1.1490794 1.2308604 1.477607

network.MLP.3.bias f4 [64]
000000 73 9f 8a bd f8 f2 3d bc 8c d2 6f 3e 90 95 d1 3c
       -0.06768694 -0.011593573 0.23420161 0.025584012
000010 bd b6 02 3e cf 5c 53 3d b6 15 b2 3c b7 da bc 3b
       0.12765022 0.05160218 0.021738868 0.0057633775
000020 80 3b 4a bd 56 30 65 be 8e 1d 5e 3e c0 e1 91 3d
       -0.04937315 -0.2238172 0.21690962 0.071231365
000030 8f bf 47 3d 4e a1 bc bd 51 d1 13 3d 87 ab 54 bd
       0.04876667 -0.09210454 0.03608829 -0.051921394
000040 91 ad 0d 3c 7f 32 0f be 3d 63 39 3d c3 30 d5 3b
       0.0086473385 -0.13984106 0.045260657 0.006506057
000050 0a 53 31 be 75 8c ff bc 8a bf 70 bd 11 5a 23 3e
       -0.17316833 -0.031194905 -0.058776416 0.15952326
000060 be 55 ed 3d cd 3b b4 3a 3d 5a af be 90 d8 06 bd
       0.1158862 0.0013750732 -0.34248534 -0.032921374
000070 70 cd 7f bd b0 e5 cb bd 6b ed 85 bd 65 f3 03 3d
       -0.06245178 -0.09955919 -0.065394245 0.03221454
000080 14 4f 46 3d 15 d3 ec 3e e1 52 96 bc 81 93 47 3d
       0.04841526 0.46254793 -0.018350067 0.048724655
000090 bb e3 87 3c 7a 9e 23 bd 2c 9f 35 3d d5 9f 57 be
       0.016588083 -0.039946057 0.04434125 -0.21057065
0000a0 5d 1d 6a 3e 71 c3 cb bd 73 41 0a be 7c 26 73 3e
       0.22862764 -0.09949387 -0.1350153 0.2374515
0000b0 a3 e8 1c bd 5f 07 93 bd 0d 61 e8 bd 52 a2 0f be
       -0.038307797 -0.0717914 -0.11346636 -0.14026764
0000c0 3a be 0c be df 6c 41 3e c6 17 59 3d aa b6 53 3e
       -0.1374444 0.18889187 0.053001188 0.2067515
0000d0 38 ad 64 bc d3 64 bf 3d 92 3f 36 bd 5a 98 10 3e
       -0.013957314 0.093454026 -0.04449422 0.14120618
0000e0 36 67 27 3e 5f 17 e5 3d 48 05 23 3c d3 f1 0e bd
       0.16347966 0.11186098 0.00994999 -0.03489859
0000f0 9d b2 84 3e be 4d 85 3e 42 1f 41 bd 48 d5 9b 3d
       0.2591752 0.26035875 -0.04714895 0.076090395

critic.0.weight f4 [1, 64]
000000 60 67 56 bd 6f 2c c9 bc 2b 84 49 bc 8a e9 2c bd
       -0.05234468 -0.02455732 -0.012299578 -0.042214908
000010 41 36 96 bb b3 d9 c2 bc 36 0d 30 3c dd 81 c6 3b
       -0.0045841043 -0.023785448 0.010745337 0.0060579614
000020 01 79 1c bc c4 75 a1 3a 35 88 4f 3e fe ec b0 3d
       -0.009550334 0.0012318422 0.20266803 0.08638953
000030 b2 80 61 3d 81 75 82 bd ad bc 89 3c 3a 55 7f bc
       0.055054374 -0.06370068 0.0168136 -0.015584284
000040 25 04 45 3c a6 8d 15 3c 77 38 1c 3d ce 3e b4 bc
       0.012024914 0.00912801 0.038139787 -0.022002604
000050 df ea b3 be 8c 7a f1 3b 15 aa 11 3d 93 b6 73 3c
       -0.3514013 0.007369345 0.035562593 0.014875072
000060 21 19 1c 3d 82 58 c2 39 ff 78 11 3e 3a 31 89 3c
       0.038109902 0.00037068507 0.14206313 0.016747106
000070 25 76 10 bd c2 db 0f 3c bb 4e 29 bb 4f e9 99 3b
       -0.03526892 0.008780422 -0.002583428 0.004697002
000080 7e 83 f2 3b 50 40 05 be 0a 60 23 bd f6 63 ad ba
       0.007400929 -0.13012815 -0.03988651 -0.0013228643
000090 f5 89 95 bb e4 6c 20 3c f7 b7 ad bc 30 03 63 be
       -0.004563565 0.009791587 -0.021205885 -0.22169185
0000a0 c7 e0 c3 3e 23 34 45 bd 00 ab f2 bd d1 89 f6 3e
       0.3825743 -0.048145425 -0.11849022 0.4815202
0000b0 05 d6 40 3c ac af 57 bd ba ce d1 bc 72 0e f6 bd
       0.011769776 -0.052657768 -0.02561127 -0.12014474
0000c0 c8 b1 88 be bd 80 a1 3e 54 f2 17 bd 28 8c 7a 3e
       -0.26698136 0.31543532 -0.037096336 0.24467528
0000d0 73 35 0f 3c bd 9c bd 3c 28 ec ec bc f2 33 b0 3d
       0.008740771 0.023146028 -0.028921202 0.08603658
0000e0 b4 c3 14 3e 7a fe 61 3d 2d a8 dc bb de 30 c3 bc
       0.1452778 0.05517433 -0.0067339153 -0.023827013
0000f0 f8 ae da bb 15 a1 36 3d 93 fc fd 3c f9 a4 c6 3b
       -0.00667369 0.044587214 0.031004226 0.0060621467

actor.0.weight f4 [22, 64]
000000 d6 b8 15 3f 19 7d 80 3c a5 47 d0 3e 1f 17 14 bf
       0.5848516 0.015684651 0.4067966 -0.5784778
000010 a0 62 8f bd 0e 3a 7e 3f 3a 15 2e 3e 98 f6 ff be
       -0.07001233 0.99307334 0.17000285 -0.49992824
000020 cc 7e b9 be 18 48 a0 be 68 e5 fc 3d c8 3f d1 3d
       -0.3622955 -0.31305003 0.12348443 0.102172434
000030 18 8e 7c 3d 3a a7 1a 3f 8a 89 c4 be aa 7a f1 3e
       0.06165895 0.6041142 -0.38386184 0.47163898
000040 78 1d 94 be d3 f4 07 be df 03 8d 3e d8 08 d5 be
       -0.28928733 -0.13276987 0.27542016 -0.4160831
000050 16 a8 1e bd e6 1d bd bd c3 60 88 be d3 c2 bb bc
       -0.038734518 -0.09234218 -0.26636323 -0.022920048
000060 4d a1 85 bd 18 26 3d be d0 9e 8b 3d b3 8e 44 bf
       -0.06524906 -0.18471563 0.068174005 -0.7678024
000070 59 5c a7 be 30 03 cf 3e 59 a3 9e 3e 3d 55 30 bf
       -0.32687643 0.4043212 0.30984 -0.68880063
000080 48 04 c2 be 60 94 c1 bd fe 0a 8d be c7 39 1d be
       -0.3789389 -0.094521284 -0.2754745 -0.15354072
000090 e4 80 34 3e 49 ee fc 3c d8 84 f8 be ab e0 33 3d
       0.17627293 0.030875342 -0.48538852 0.043915432
0000a0 fd 1d eb 3d 8d 13 a3 3d 3a 5b c6 be ba 51 8b 3e
       0.11480329 0.079627134 -0.38741475 0.2721079
0000b0 3c 01 38 3f b4 4b a1 be 99 67 23 3f 5d a5 27 be
       0.71876884 -0.3150307 0.6382995 -0.16371675
0000c0 36 22 c9 bd c8 04 19 3e 89 ca b6 3e ad 51 36 3e
       -0.09820978 0.1494323 0.35701397 0.17804594
0000d0 52 91 58 3e ae 7d ae 3e 55 f1 bc be 07 a1 d5 be
       0.21149185 0.3408026 -0.36902872 -0.41724417
0000e0 a6 b8 77 3d e6 4d a4 3e 24 0f ec 3d 5f 02 f7 3d
       0.06047883 0.32090682 0.11526325 0.12060999
0000f0 53 6f 6f 3e 2c 62 03 bf 0e ee 2a 3e 5e 90 66 3e
       0.2338231 -0.51321673 0.16692373 0.22516009
000100 de 19 16 bf 75 4f 7d be 3c 73 71 3e 53 ca ac bd
       -0.5863322 -0.24737342 0.23579115 -0.08437028
000110 b9 0c f6 3d 8a 53 d8 3e ef eb 94 3c 36 53 82 3e
       0.120141454 0.42251235 0.018178908 0.2545411
000120 75 a3 8d 3d c1 0c 4a be a8 a0 d7 bd cf 7a b3 3e
       0.069159426 -0.19731428 -0.105286896 0.35054633
000130 42 2f 85 3c 3f 45 18 3e 38 13 96 be a3 60 73 bc
       0.016257886 0.14870165 -0.29311538 -0.014854583
000140 e5 4a 1e bd 23 40 cb be 28 81 93 3e 90 c0 84 bd
       -0.038645644 -0.3969737 0.28809476 -0.06482041
000150 17 d7 58 bd e7 b6 24 bf f6 90 c5 3e f3 00 d8 bd
       -0.0529395 -0.64341587 0.3858716 -0.10547056
000160 69 2f 81 bd 13 b7 1d bf 36 b0 ab 3d 23 1c 93 3e
       -0.06307871 -0.61607474 0.08383219 0.28732404
000170 14 a9 8d 3e 10 a6 fd 3e 4b 3d be be ee 15 9f 3d
       0.2766806 0.49540758 -0.37156138 0.07767855
000180 3b c1 30 be 03 13 2f be 1a 8b 4a be 0c 6c af 3e
       -0.17261212 -0.17097096 -0.19779626 0.3426212
000190 88 ac 52 3f b0 62 28 3e bf 25 38 3e 6d fa 07 be
       0.8229451 0.16443896 0.17983149 -0.13279124
0001a0 4d 39 fc 3d bb de 1b 3e d3 bc 95 be 29 ea a0 bc
       0.12315617 0.15221684 -0.29245624 -0.019642906
0001b0 63 4b fb 3d a0 10 0f be e6 d5 a5 bd e9 41 d1 bb
       0.12270238 -0.13971186 -0.080974385 -0.006386031
0001c0 00 b8 c0 bd 42 5f 2a 3d 63 83 ac 3e 10 44 cd 3d
       -0.09410095 0.04159475 0.3369399 0.100227475
0001d0 21 55 cb 3d 8f d2 d8 3e e2 b1 6c bd 82 84 6e 3c
       0.099283464 0.42348143 -0.05778683 0.0145579595
0001e0 f4 76 5b 3e 08 a6 b9 bd 17 7f 76 be 66 69 73 be
       0.21432096 -0.09064871 -0.24071918 -0.23770675
0001f0 3a 98 c2 bd e7 0d 22 3e bb 8e b4 3e 22 f2 47 3d
       -0.09501691 0.15825616 0.35265145 0.0488149
000200 48 12 b2 be 46 9f 08 3d aa d6 a8 3e f7 79 f4 3c
       -0.34779572 0.03335502 0.32976276 0.029843314
000210 72 bf f6 be 9b a1 7b 3e b2 ce 33 be b5 33 27 3e
       -0.48192936 0.24573366 -0.17559317 0.16328318
000220 56 db 95 be 1a 65 7d bc d1 32 eb 3d 38 f1 bb 3e
       -0.29268903 -0.015465999 0.11484302 0.36707473
000230 8d 11 04 3f ff 8a bb be a0 bd 93 3e 69 1e 03 bd
       0.5158928 -0.36629483 0.2885561 -0.032011423
000240 96 19 0d 3f be 95 ff 3e d9 24 21 bd de 69 eb bd
       0.55117166 0.49918932 -0.03934178 -0.11494802
000250 23 d7 9e bd 3b 7c a1 be a1 e3 29 be 62 30 f5 bc
       -0.07755878 -0.31540093 -0.1659074 -0.029930297
000260 d5 c5 2b 3e 20 4b 9d bc dd 4f 3e 3d fa 82 cd be
       0.16774686 -0.019200861 0.046462882 -0.4013899
000270 d0 30 a4 be e9 30 82 3d 81 d6 a8 bc df 61 14 3b
       -0.3206849 0.06356985 -0.020610096 0.0022641344
000280 78 52 88 3d d8 d3 43 bc 0b e7 2f be bc a3 02 bf
       0.06656355 -0.011952363 -0.1717798 -0.5103109
000290 52 72 b0 3b be 0d 31 be c7 53 9c be 3d 8e 61 3e
       0.005384722 -0.17290398 -0.30532667 0.22026916
0002a0 6e bd 5e 3e 6e 93 37 be 82 99 6d 3e 70 4b 81 3d
       0.21751949 -0.17927334 0.2320309 0.06313217
0002b0 3d 42 15 be c6 2e 5a be b6 60 a8 3e 72 8e 53 be
       -0.14576049 -0.21306905 0.32886285 -0.20659807
0002c0 bb af 4b bd 16 2f 8a bd 77 5d eb be 49 01 50 3e
       -0.049728137 -0.06747262 -0.45969746 0.2031299
0002d0 75 88 5d 3e 06 c2 f4 bd 8f 0b b1 be 14 22 09 3e
       0.21634085 -0.119510695 -0.3457913 0.13391906
0002e0 ab e6 09 be ab 7b 61 bb ee ad d0 3e 6d 20 db be
       -0.13466899 -0.0034405987 0.40757698 -0.42798176
0002f0 5e 0d 77 3d 82 a9 8c 3e fb a7 f7 3e 4b f7 dd 3c
       0.060315482 0.27473074 0.48370346 0.027095458
000300 be e7 df 3d bb bd 91 be 60 ef 24 3d 91 06 a8 3d
       0.10932873 -0.28465065 0.04026735 0.082043774
000310 ff db dd 3d a7 11 31 3e 11 d2 69 be 92 1e ab 3e
       0.108329765 0.1729189 -0.2283404 0.3342176
000320 86 57 cd bd 58 4f f4 bd 60 65 e3 be 94 4b d1 be
       -0.100264594 -0.11929196 -0.4441328 -0.40877974
000330 72 b9 37 3d 95 78 30 bd 9a 1b 92 be a1 f1 d5 3e
       0.04485459 -0.043083746 -0.28536683 0.4178591
000340 26 85 94 be f1 ab 21 be d3 2d 48 3d 63 40 33 be
       -0.29007834 -0.15788247 0.048871826 -0.1750503
000350 31 49 4a bd 61 87 e8 bd 3e ed b7 bd 82 42 19 3d
       -0.049386207 -0.113539465 -0.08980797 0.037416942
000360 bc f0 82 bd 69 67 b2 bd 90 66 cf 3d 3d c0 11 bc
       -0.06393573 -0.0871113 0.10126984 -0.008895931
000370 29 6f da 3c 76 5b 3a 3e 4d f5 a8 3e 4c 70 59 3c
       0.026664333 0.18198952 0.3299965 0.013271403
000380 a7 2e f6 bd 2d be aa bd ea cc 3e 3e cf 05 44 3e
       -0.12020617 -0.083370544 0.18632856 0.19142841
000390 84 1b 33 3d 13 fb 84 3e ba e6 47 be af dd 51 3e
       0.043727413 0.25972804 -0.19521609 0.20494722
0003a0 61 e5 40 bd a9 a5 0c 3f f5 e8 03 be 0a 6c b8 bd
       -0.047093753 0.5494028 -0.12881835 -0.09004982
0003b0 16 34 64 3e da bb 6c 3c 3f 93 23 3f 32 5e a5 bc
       0.22285494 0.014449084 0.63896555 -0.020186517
0003c0 d9 48 03 bc eb f1 e4 bc 31 82 6c bd a2 9f 73 3e
       -0.008012974 -0.027947387 -0.057741348 0.23791364
0003d0 23 b7 81 bd 90 62 ad bd ae c5 00 3f 85 f8 75 3e
       -0.06333759 -0.08466065 0.50301635 0.24020584
0003e0 89 23 fc bd cb c8 bc 3a 70 b2 0b 3e 50 cf 9d bd
       -0.12311465 0.0014403103 0.13642287 -0.07705557
0003f0 5c bb c6 bd f6 19 75 be 1f 3d 4d 3e 10 09 b9 3c
       -0.09703705 -0.23935685 0.20042847 0.02258733

actor.0.bias f4 [22]
000000 7e c0 a4 3d 58 b9 62 3d d6 c1 51 3d 60 c9 7a 3c
       0.080445275 0.05535254 0.051210247 0.015306801
000010 67 79 e7 bc f6 fd 21 3d 61 2a ba bc 2b 03 9f bd
       -0.028256131 0.039548837 -0.022725286 -0.07764276
000020 cd 5a b3 bd e6 74 88 bd 06 f8 c7 3c e0 cd 9c bc
       -0.08757553 -0.066629216 0.024410259 -0.019141138
000030 bf b4 01 3e 7d e1 7a bc e5 bf 1d 3c 88 8a 49 3c
       0.12666605 -0.01531255 0.009628271 0.012301095
000040 84 f7 d6 bd 80 05 7b bd b6 0d 12 3c ea 61 a6 bc
       -0.104964286 -0.061284542 0.008914402 -0.020310361
000050 1e 57 df bd 53 c7 24 3e
       -0.10905288 0.16091661
