paper/training_results/seed-9/momarl/checkpoints/mlp_(negotiation=False)_(num_agents=12)_(window=False)_(reduced_space=False)_(fixed_savings_rate=False)_(rewards=['inverse_global_temperature', 'global_economic_output'])(wgen=uniform)(num_ensembles=1)(seed=9)_2025-01-16_22:59:17_w=[0.1301 0.8699].pt (torch, 38168 bytes, 9 tensors)

network.MLP.0.weight f4 [64, 18]
0	0xbc9f0a7c	-0.019414179
1	0x3e881d75	0.26584974
2	0x3d0d2926	0.03446307
3	0xbf2fc7f0	-0.68664455
4	0x3f0b8089	0.54493004
5	0xbe6ef494	-0.23335487
6	0x3e28c143	0.16479973
7	0xbf2a4c66	-0.66522825
8	0x3e1968c2	0.14981368
9	0xbe41a766	-0.18911514
10	0xbf2651d7	-0.6496863
11	0x3ec84806	0.3911745
12	0x3ea7335d	0.32656375
13	0xbedac516	-0.4272849
14	0x3e673339	0.22578134
15	0xbf2510f5	-0.64479
16	0xbee44a5c	-0.44587982
17	0x3ee09301	0.43862155
18	0x3c13c11b	0.009018208
19	0x3ee49ca5	0.4465076
20	0xbeb3351f	-0.35001466
21	0x3e4bf0dd	0.19916101
22	0xbf0feedc	-0.56223845
23	0xbe5906b6	-0.21193966
24	0x3e9b76f6	0.30364197
25	0x3e03ac83	0.12858777
26	0xbf2de553	-0.67928046
27	0x3e07bcf7	0.13255678
28	0xbefe4065	-0.49658504
29	0x3ee3aa7f	0.44466016
30	0xbf3a6ea8	-0.728251
31	0x3e94bc7f	0.2905006
32	0x3eb56ce4	0.3543464
33	0xbedecbbb	-0.4351481
34	0xbe11ac07	-0.1422578
35	0xbec0efc2	-0.3768292
36	0xbd62b8a4	-0.05535187
37	0xbe50acb5	-0.20378383
38	0x3e300bc5	0.1719199
39	0xbde4f615	-0.11179749
40	0xbcfcbc8e	-0.030851629
41	0xbdf35f0f	-0.11883365
42	0x3df0c837	0.11756938
43	0xbed0d0e2	-0.40784365
44	0xbded1a3d	-0.1157727
45	0xbd50855a	-0.050908424
46	0x3ebc285d	0.36749545
47	0xbef5a6b5	-0.4797875
48	0xbe288e11	-0.16460444
49	0xbedb2f91	-0.42809728
50	0x3d9d584c	0.07682857
51	0x3df3e395	0.11908642
52	0xbea1b9ae	-0.31586975
53	0xbebe31cb	-0.37147364
54	0xbd4ec2d9	-0.05047879
55	0xbf3d0137	-0.7382998
56	0x3dd2249e	0.102608904
57	0xbf0ea427	-0.55719227
58	0x3f3f6117	0.7475752
59	0xbe30a940	-0.17252064
60	0x3ea66664	0.32499993
61	0xbd176ebd	-0.036970843
62	0x3ec55069	0.3853791
63	0xbea7e481	-0.32791522
64	0x3d3c331f	0.04594719
65	0xbeb157b2	-0.3463722
66	0xbe884d26	-0.2662136
67	0xbefda64f	-0.49540946
68	0xbd3c67c5	-0.0459974
69	0x3dbd3673	0.09238901
70	0x3eb8e30e	0.3611073
71	0x3ddf48a2	0.109025255
72	0xbcab6e95	-0.020926753
73	0xbf283778	-0.6570964
74	0xbd63a0e6	-0.055573367
75	0x3edfc7cb	0.43707117
76	0xc1015188	-8.082405
77	0x3f160994	0.58608365
78	0xbbbc3937	-0.005744125
79	0xbe03239f	-0.12806557
80	0x3cb83b3e	0.022489186
81	0xbd848ce8	-0.06472188
82	0x3dc819eb	0.097705685
83	0xbd2b9339	-0.04188845
84	0x3ccfcf33	0.025367355
85	0xb9334078	-0.00017094787
86	0x3c3e1fd5	0.011604269
87	0xbdeb6742	-0.11494304
88	0x3d7dd829	0.061973725
89	0xbe1ad984	-0.15122038
90	0x3a6c4878	0.0009013484
91	0xbe2a26d6	-0.16616377
92	0xbe49196c	-0.19638604
93	0xbdbb0055	-0.09130923
94	0xbd0765a0	-0.0330559
95	0x3e80ee12	0.25181633
96	0x3d3a5254	0.04548867
97	0xbf8f2974	-1.1184525
98	0xbd7d3aad	-0.061823536
99	0xbee83fb4	-0.45361102
100	0x3d37ca79	0.044870827
101	0xbea02953	-0.31281528
102	0x3ec6e8bc	0.38849437
103	0x3f630058	0.886724
104	0x3f02d137	0.51100487
105	0x3dabdf50	0.08392203
106	0x3eaf9f10	0.34301043
107	0x3cfddf6f	0.03099033
108	0xbe1f9aa9	-0.15586342
109	0x3e758688	0.23977101
110	0x3e392951	0.18082167
111	0xbe945a1a	-0.28974992
112	0xbc200f99	-0.009769344
113	0xbf34d58a	-0.70638335
114	0xbe8f7836	-0.280214
115	0xbde3044e	-0.110848054
116	0x3e1b334d	0.15156288
117	0x3e807681	0.2509041
118	0x3d43161a	0.0476285
119	0xbd452d83	-0.048139106
120	0xbebeb232	-0.37245327
121	0xbeaf3bb4	-0.34225237
122	0xbe8d7ea9	-0.27635697
123	0xbed53590	-0.41642427
124	0xbc417848	-0.011808462
125	0x3e150d29	0.14555801
126	0xbcd700af	-0.026245443
127	0x3e6bc7f7	0.230255
128	0x3d6b2034	0.05740376
129	0xbf323c0c	-0.69622874
130	0x3ea95455	0.33072153
131	0xbe153970	-0.14572692
132	0xbedf4afe	-0.43611902
133	0x3e7e0f92	0.24810627
134	0xbec4ada3	-0.38413724
135	0xbe9f4496	-0.31107014
136	0x3e83c1e9	0.2573388
137	0xbee5304b	-0.44763407
138	0xbdbd473a	-0.09242101
139	0xbd350734	-0.044196323
140	0xbeb3e0fb	-0.35132584
141	0x3ecbac0f	0.39779708
142	0xbe0f7a68	-0.14011538
143	0xbe789844	-0.24276835
144	0xbdb57dca	-0.08861883
145	0x3de4bb99	0.11168594
146	0xbc414703	-0.011796716
147	0xbf6fb6e2	-0.9363843
148	0xbf3d9816	-0.7406019
149	0xbe3341d7	-0.17505585
150	0x3e5c3347	0.21503936
151	0x3e2bb27e	0.16767308
152	0x3e0244a7	0.12721501
153	0xbcce984c	-0.025219105
154	0x3ce0d564	0.027445503
155	0x3e39a261	0.18128349
156	0x3ef5581b	0.47918782
157	0x3c3abdad	0.011397761
158	0x3d997335	0.07492677
159	0x3e932ddf	0.28745934
160	0xbcae8da0	-0.021307766
161	0x3f27a6c6	0.6548885
162	0x3d78c3ef	0.06073373
163	0x3ecf3c70	0.40475798
164	0xbbd67d6a	-0.0065457122
165	0xbec44f07	-0.38341543
166	0x3fc3b39b	1.5289186
167	0xbda4b06e	-0.08041464
168	0x3e2d9e30	0.16954875
169	0xbe83e7fd	-0.2576293
170	0x3d9e00fe	0.07715033
171	0xbe87b1fd	-0.26502982
172	0x3e00c73d	0.12576003
173	0xbcccafeb	-0.024986228
174	0x3e845710	0.25847673
175	0xbd06d2e0	-0.03291595
176	0x3d87a9fc	0.06624219
177	0xbdee92b8	-0.11649078
178	0x3df8dc00	0.12151337
179	0x3e1cd560	0.15315771
180	0x3e243833	0.16037063
181	0x3c80d1d8	0.015725061
182	0xbee93241	-0.45546153
183	0xbeda4b29	-0.42635468
184	0x3e508523	0.20363288
185	0xbf9b9017	-1.2153348
186	0x3dcd44a1	0.100228556
187	0x3e870572	0.26371342
188	0x3f6dd063	0.928961
189	0x3daf34cb	0.08554991
190	0xbdabb80e	-0.08384715
191	0xbd7e8cbf	-0.062145945
192	0x3d9b59c0	0.07585478
193	0x3d0e733c	0.034777865
194	0xbcb01c91	-0.021497997
195	0x3e6ae8fe	0.22940442
196	0xbdd5f561	-0.10447193
197	0xbd993355	-0.07480494
198	0x3d86f323	0.065893434
199	0x3b2f812b	0.002677987
200	0xbe82ad0e	-0.25522655
201	0x3dcc47c7	0.09974628
202	0xbf5d0538	-0.8633609
203	0x3f0311df	0.51199144
204	0x3dfc85c7	0.123302035
205	0xbe8d35a1	-0.27579978
206	0x3c981f54	0.018569626
207	0xbdc12f4f	-0.094328515
208	0x3ea8e98a	0.32990676
209	0x3ddf4f65	0.10903815
210	0xbdcc1519	-0.099649616
211	0x3e5f6d39	0.21819009
212	0xbf5556c8	-0.8333554
213	0xbe8a5ebe	-0.27025408
214	0xbd632d72	-0.055463262
215	0xbdfe9a23	-0.12431743
216	0xbe90f4f0	-0.28311872
217	0x3df23268	0.118260205
218	0x3dbdc0c5	0.092652835
219	0xbf61bc42	-0.88177884
220	0x3ead84f2	0.33890492
221	0xbe9424a0	-0.28934193
222	0x3e246d79	0.16057386
223	0x3ee49df0	0.44651747
224	0xbe9aeb99	-0.30257872
225	0xbd54a4d4	-0.051915005
226	0x3d006bd5	0.031352837
227	0x3e95e13b	0.292734
228	0x3e92823f	0.28614995
229	0xbe93cdc7	-0.28867933
230	0xbdb4ae97	-0.08822363
231	0x3d79b477	0.06096312
232	0x3e38124b	0.17975728
233	0xbde53e80	-0.111935616
234	0x3cb13890	0.021633416
235	0x3e4a7d32	0.1977432
236	0x3c6f54d1	0.014607624
237	0xbf040096	-0.51563394
238	0x3f2e2f5f	0.6804103
239	0xbf649b95	-0.892999
240	0x3dde038c	0.1084052
241	0x3b4436f7	0.0029939988
242	0x3e94f095	0.290898
243	0x3e53a474	0.20668203
244	0xbe417d1b	-0.1889538
245	0xbdd3c37d	-0.10340021
246	0x3e814f5b	0.25255856
247	0x3e16a8c9	0.14712824
248	0x3f30de6a	0.69089377
249	0x3f21665d	0.6304682
250	0x3e3f9cf8	0.18712223
251	0x3eb74b15	0.3579947
252	0xbe51100f	-0.20416282
253	0x3e2a0031	0.16601636
254	0xbe45bf3e	-0.19311234
255	0x3e2c47db	0.16824286

network.MLP.0.bias f4 [64]
0	0xba6af7d1	-0.0008963319
1	0xbe7c1148	-0.24615967
2	0xbe4828ff	-0.19546889
3	0xbead3f1e	-0.33837217
4	0xbf84417e	-1.0332487
5	0x3ddb3cac	0.107049316
6	0xbe546faa	-0.20745721
7	0x3f1c7816	0.61120737
8	0x3f0c2163	0.54738444
9	0x3f5b0abe	0.85563266
10	0xbed219ec	-0.41035402
11	0xbe4d1a98	-0.20029676
12	0x3bff23f3	0.007786268
13	0x3e0336c7	0.12813865
14	0xbc7f4da5	-0.015582477
15	0xbf36fed3	-0.7148258
16	0x3f1b79e3	0.6073286
17	0x3e364611	0.17800166
18	0xbef859a3	-0.48505887
19	0xbf0fa085	-0.5610431
20	0xbdfe9426	-0.12430601
21	0xbf4ff751	-0.8123675
22	0x3effb488	0.49942422
23	0xbf844f10	-1.0336628
24	0xbe511e28	-0.2042166
25	0x3f3ab6c6	0.7293514
26	0x3d8d788c	0.06907758
27	0x3a80a0d3	0.0009813554
28	0x3e9683d4	0.29397452
29	0x3e48398b	0.19553201
30	0x3f384df5	0.71993953
31	0x3f5722dd	0.8403757
32	0x3c24dbff	0.010062217
33	0x3d7ed3a3	0.06221355
34	0xbeb3b32b	-0.35097632
35	0x3cde73d2	0.027154837
36	0xbd8f1809	-0.06987006
37	0xbe9f686f	-0.31134364
38	0x3c355966	0.0110686775
39	0xbe349b0e	-0.17637274
40	0x3e1ff8ca	0.15622249
41	0x3d82a7f5	0.063796915
42	0xbe5b1ed7	-0.21398483
43	0xbd9f0026	-0.077637
44	0xbea684fa	-0.32523328
45	0x3e188ff0	0.14898658
46	0x3f2f0277	0.68363136
47	0xbeb336f4	-0.35002863
48	0xbf6f3be9	-0.9345079
49	0xb8f64a28	-0.00011744007
50	0x3ec663a8	0.38747907
51	0x3ebf2a2a	0.37336856
52	0x3f15a650	0.584569
53	0x3dc30678	0.09522718
54	0x3ec2f32f	0.3807616
55	0xbdb78e4c	-0.08962688
56	0x3f0cc3a9	0.54986054
57	0xbdab319d	-0.08359072
58	0xbeb7b4a5	-0.35880008
59	0xbdbbe0c9	-0.09173734
60	0xbe6b61d6	-0.2298654
61	0xbddc8357	-0.107672386
62	0xbd4907ec	-0.04907982
63	0x3d869a8e	0.06572448

network.MLP.2.weight f4 [64, 64]
0	0x3e636cac	0.22209424
1	0x3e0c4ccb	0.13701169
2	0x3d9b2fd2	0.075774804
3	0x3df91b6d	0.12163434
4	0xbf64e1a6	-0.8940681
5	0xbe8d81b1	-0.2763801
6	0x3f7b2707	0.98106426
7	0x3e2ba8c8	0.16763604
8	0x3f1a573b	0.60289353
9	0x3f647244	0.89236856
10	0x3fa6d43f	1.3033522
11	0xbe830909	-0.2559283
12	0x3eb2ab71	0.34896424
13	0x3f869b40	1.0516129
14	0xbddc21ae	-0.107486114
15	0x3ee16674	0.44023478
16	0x3e2c946a	0.1685349
17	0xbe912ced	-0.28354588
18	0xbed83320	-0.42226505
19	0xbe64d147	-0.22345458
20	0x3db8f472	0.09030999
21	0x3ef0c585	0.47025695
22	0xbe6f3efb	-0.23363869
23	0xbdd23b86	-0.102652594
24	0xbdecd20f	-0.11563503
25	0xbdcf82f5	-0.101324
26	0x3edf038b	0.4355739
27	0x3d89d95b	0.067309104
28	0x3f00f85e	0.5037898
29	0x3f7c5008	0.9855962
30	0x3f2a3132	0.66481316
31	0xbf07fcb8	-0.53119993
32	0x3d779ccc	0.060452268
33	0xbde68c65	-0.11257247
34	0xbf321363	-0.6956083
35	0x3de2e0e3	0.1107805
36	0xbc642990	-0.013925925
37	0xbf3db046	-0.74097097
38	0x3e2b7519	0.16743888
39	0xbd4ff634	-0.050771907
40	0xbe5b556c	-0.21419305
41	0x3d6e257e	0.058141224
42	0xbddaf128	-0.10690528
43	0x3e30543d	0.17219634
44	0xbf96b0cb	-1.1772703
45	0x3f2c867b	0.673927
46	0x3f26bd70	0.6513281
47	0x3eb4ef13	0.3533865
48	0x3f071b1d	0.52775747
49	0xbca3cd06	-0.019995224
50	0x3e74ae0b	0.23894517
51	0x3dfb39ac	0.122668594
52	0x3d5ac7cf	0.05341321
53	0xbe033b8c	-0.12815684
54	0x3ee51d3a	0.4474886
55	0x3db3161e	0.08744453
56	0x3f2ef9d1	0.6834994
57	0x3d16d507	0.036824252
58	0x3e9f521b	0.3111733
59	0xbb9fbea0	-0.004875019
60	0x3f143e2b	0.5790736
61	0x3e34d9a2	0.17661145
62	0xbe11bc5a	-0.14232007
63	0x3eb102ee	0.34572548
64	0x3bb36c89	0.005475585
65	0x3e0a2be6	0.13493308
66	0x3d4f98a7	0.05068269
67	0x3e399b71	0.18125702
68	0x3e3a994f	0.18222545
69	0xbef69b36	-0.48165292
70	0xbef94e65	-0.48692623
71	0x3da74972	0.081683055
72	0xbb758a83	-0.0037466593
73	0xbd23daba	-0.040003516
74	0x3e9b3349	0.30312565
75	0xbd941bfd	-0.07231901
76	0x3d4a7fef	0.049438413
77	0xbeb57dd9	-0.35447577
78	0xbdf88950	-0.12135565
79	0x3ee81762	0.4533034
80	0xbd1f4602	-0.038885124
81	0x3e2fd570	0.17171264
82	0xb892f5d0	-7.007609e-05
83	0x3df02e13	0.11727538
84	0xbbb0555b	-0.005381269
85	0xbdf911ab	-0.12161573
86	0x3d262b69	0.040568743
87	0x3def9ac0	0.11699438
88	0xbe030b75	-0.1279734
89	0xbea43b96	-0.3207671
90	0x3cf593d6	0.02997772
91	0xbda3004a	-0.079590395
92	0x3cef7998	0.029232785
93	0x3e9f2160	0.3108015
94	0x3d99b026	0.07504301
95	0x3d32eb47	0.04368141
96	0xbe14fa88	-0.14548695
97	0x3cd373dd	0.025812084
98	0xbde0956f	-0.10966002
99	0x3e08d3ac	0.13361996
100	0x3dd7ca4e	0.105366334
101	0x3e12c085	0.14331253
102	0xbda55695	-0.08073155
103	0xbd74fc5c	-0.05981098
104	0x3daa8b3d	0.08327339
105	0x3d05b7a0	0.03264582
106	0xbdea1766	-0.11430244
107	0x3e3b154f	0.18269847
108	0x3eacbdf5	0.33738676
109	0xbedbe2b3	-0.42946395
110	0xbcd57dc4	-0.026060946
111	0xbaa0789e	-0.0012242978
112	0x3b02a703	0.0019935973
113	0x3b4d8806	0.0031361594
114	0x3d6834b8	0.0566909
115	0xbdadef20	-0.08492875
116	0xbe9eb122	-0.30994517
117	0xbe610fbe	-0.21978661
118	0xbd7dee61	-0.061994914
119	0x3e27cba3	0.16386275
120	0x3da80d1b	0.08205625
121	0xbe27558f	-0.16341232
122	0xbdf81ab1	-0.12114466
123	0x3de7135c	0.112829894
124	0xbea47553	-0.3212076
125	0xbe351f1a	-0.17687646
126	0xbe90acc9	-0.28256825
127	0x3da42646	0.080151126
128	0x3b17e7f2	0.0023179022
129	0x3e1fd8ad	0.15609999
130	0x3cd1fffb	0.025634756
131	0xbdc690cb	-0.09695586
132	0x3ef66eaf	0.4813132
133	0x3c5e8c8a	0.013583312
134	0xbc43f98e	-0.011961354
135	0x3d2c8d86	0.042127155
136	0x3e00cda5	0.12578447
137	0x3cb04cdf	0.02152103
138	0xbdb9725a	-0.09055014
139	0xbea1679d	-0.31524363
140	0xbc820b80	-0.015874624
141	0xbeca2d6a	-0.39487773
142	0xbba0e560	-0.004910156
143	0x3edfcfc6	0.43713206
144	0xbd0aab79	-0.033854935
145	0xbe414c33	-0.18876724
146	0x3e630a0a	0.22171798
147	0xbe19b6ca	-0.15011135
148	0x3d40e294	0.04709108
149	0xbe35c494	-0.1775077
150	0xbdaff891	-0.08592332
151	0x3e7c5786	0.24642763
152	0xbe1396c6	-0.14412984
153	0xbeb02762	-0.34405047
154	0xbdb6c85f	-0.089249365
155	0xbe0f6406	-0.14003
156	0x3c93a452	0.01802269
157	0x3d9ea834	0.07746926
158	0x3cfca511	0.030840429
159	0x3da74c7e	0.081688866
160	0xbe3a9acd	-0.18223114
161	0xbbdcc4b0	-0.006737314
162	0xbd1a4099	-0.03765926
163	0x3c8839ee	0.016629186
164	0xbda94fe8	-0.08267194
165	0xbc9dc146	-0.019257199
166	0xbd95a4ff	-0.07306861
167	0x3d0dd450	0.034626305
168	0x3d9be67f	0.07612323
169	0x3d094d77	0.03352114
170	0xbdce3cb4	-0.10070172
171	0x3da17574	0.078837305
172	0x3ca8d7e4	0.020610757
173	0xbe025007	-0.1272584
174	0xbe2ae6f8	-0.1668967
175	0x3bbd2c75	0.005773122
176	0xbd824475	-0.063607134
177	0xbd617dd7	-0.05505165
178	0x3d512395	0.051059324
179	0xbd101c47	-0.035183217
180	0x3e13a914	0.14419967
181	0xbe71217c	-0.2354793
182	0x3e4a6618	0.19765508
183	0x3dff72a0	0.12473035
184	0x3cbd7e4a	0.023131508
185	0x3d09c9a0	0.03363955
186	0x3d126d1d	0.03574859
187	0x3d6f69dc	0.058450565
188	0xbec84a74	-0.39119303
189	0xbd29a923	-0.041421067
190	0x3dff7cce	0.124749765
191	0xbed3beb0	-0.4135642
192	0x3c23f296	0.010006567
193	0xbe6db57c	-0.23213762
194	0xbdb95d3b	-0.090509854
195	0x3d83931b	0.064245425
196	0xbf17cc95	-0.5929654
197	0x3d7f9ebf	0.06240725
198	0xbd82853d	-0.063730694
199	0x3e413ad8	0.18870103
200	0xbe115d65	-0.14195783
201	0x3cbb0bb9	0.022832738
202	0xbe4d44c9	-0.2004577
203	0x3d700c89	0.058605704
204	0x3e699af0	0.2281301
205	0x3e564bb4	0.20927316
206	0xbd8c03d4	-0.06836668
207	0xbea97106	-0.33094043
208	0xbe6eff87	-0.23339663
209	0xbd4a96ba	-0.04946015
210	0xbe1bb0fb	-0.15204231
211	0x3e15a37e	0.14613149
212	0xbdf5cae6	-0.120015904
213	0x3cda29b5	0.026631216
214	0xbe040e10	-0.1289599
215	0xbe3d4baf	-0.18485902
216	0x3f099f1e	0.5375842
217	0xbde44ed1	-0.111478455
218	0xbe753822	-0.23947194
219	0xbe3770d1	-0.1791413
220	0xbdc42588	-0.09577471
221	0xbe76e1c9	-0.24109568
222	0x3e12b30f	0.14326118
223	0x3e19f96e	0.15036556
224	0x3e0c4ebd	0.13701911
225	0x3e23066b	0.15920417
226	0x3d4d12a6	0.050066613
227	0x3c77ba76	0.015120139
228	0xbd85d524	-0.06534794
229	0x3b85bd55	0.004081408
230	0x3e02ac84	0.12761122
231	0x3d70e228	0.05880943
232	0x3ddcb25a	0.10776205
233	0x3e8e7104	0.278206
234	0x3c8de700	0.017322063
235	0x3d6bbda4	0.057553902
236	0xbed0994d	-0.4074196
237	0x3d0bb975	0.034112412
238	0x3e2323d8	0.15931642
239	0x3ca26f13	0.019828355
240	0x3e7801cd	0.24219437
241	0xbbb58786	-0.0055398373
242	0xbca8a30e	-0.020585563
243	0xbe7b5d06	-0.24547204
244	0xbdf81cab	-0.12114843
245	0x39f862b0	0.00047375774
246	0xbe018e91	-0.12652041
247	0xbe3deb48	-0.18546784
248	0xbc565e17	-0.013083956
249	0x3a83ee49	0.0010065521
250	0x3e11e924	0.14249092
251	0x3d9b0d0c	0.07570848
252	0x3e016152	0.12634781
253	0xbeafcea2	-0.34337336
254	0xbe389bdf	-0.1802821
255	0x3c2ce78d	0.010553253

network.MLP.2.bias f4 [64]
0	0x3fb76b08	1.4329538
1	0xbe2ba5f5	-0.16762526
2	0xbdef50da	-0.11685343
3	0x3eb6a8d0	0.3567567
4	0x3e3222b2	0.17396048
5	0x3dabc1b9	0.08386559
6	0x3ecb5b5f	0.39718148
7	0xbe1505a3	-0.14552931
8	0xbca4f330	-0.020135492
9	0xbd2a1951	-0.04152805
10	0xbd22605f	-0.039642688
11	0xbd1f16ee	-0.038840227
12	0xbe6e1f9a	-0.23254243
13	0x3dc07e61	0.09399105
14	0xbf3341b8	-0.70022154
15	0x3e8c5330	0.27407217
16	0xbd399a0b	-0.045312922
17	0x3e1ec9e6	0.15506706
18	0x3c92c4f9	0.01791619
19	0xbe4be616	-0.1991199
20	0xbde6ba8e	-0.11266051
21	0x3f69c7fe	0.9132079
22	0xbcf99bec	-0.030469857
23	0x3e9cbf0b	0.30614504
24	0xbfa86775	-1.3156573
25	0x3dc76940	0.09736872
26	0x3e525880	0.20541573
27	0xbe6c165e	-0.23055407
28	0xbe658c91	-0.22416903
29	0x3dd19054	0.102326065
30	0xbce99595	-0.02851371
31	0xbe58bd3c	-0.21165937
32	0x3c030e85	0.007999067
33	0x3da781e5	0.08179072
34	0x3d931d16	0.07183282
35	0xbfdd2cbb	-1.7279276
36	0xbd2404f8	-0.0400438
37	0x3dfd59dc	0.12370655
38	0x3fbc76ec	1.4723792
39	0xbbc85f86	-0.006114903
40	0x3cf4d4c5	0.029886613
41	0x3e4d9b5f	0.200788
42	0xbe265eaf	-0.16247056
43	0xbf024c0b	-0.5089728
44	0x3d2a8507	0.04163077
45	0x3e4ec487	0.20192157
46	0x3c93f751	0.018062266
47	0x3e70a084	0.23498732
48	0xbc50249b	-0.01270404
49	0xbe2ca654	-0.16860324
50	0xbf60f3da	-0.8787209
51	0xbcff1ba7	-0.031141115
52	0xbea697a2	-0.32537562
53	0xbed80136	-0.42188424
54	0xbd81eab6	-0.06343596
55	0xbeabe008	-0.3356936
56	0xbd23b7a5	-0.03997006
57	0x3edbd17e	0.42933267
58	0xbb145d78	-0.002263872
59	0x3df6c4aa	0.120492294
60	0xbdee5ca1	-0.11638761
61	0xbe4c7f10	-0.19970345
62	0x3f018e38	0.50607634
63	0x3bfec7cd	0.007775283

network.MLP.3.weight f4 [64]
0	0x3f0e41fd	0.5556944
1	0x3fb6babc	1.4275737
2	0x3f61d134	0.88209844
3	0x3f8678cf	1.0505618
4	0x3fbbd4bd	1.4674298
5	0x3f3fa0fd	0.74855024
6	0x3f89f533	1.0777954
7	0x3f3b7d02	0.7323762
8	0x3fd6a8db	1.6770281
9	0x3faaa144	1.3330464
10	0x3fdc8630	1.7228451
11	0x3fbf57a2	1.4948618
12	0x3fd1c9c9	1.6389705
13	0x3fb12fd5	1.3842722
14	0x3f1f3976	0.62197053
15	0x3f3c3919	0.73524624
16	0x3f42f207	0.76150554
17	0x3fd4af38	1.6615973
18	0x3fcbb6a1	1.5915109
19	0x3f86947e	1.0514066
20	0x3e6d111e	0.23151061
21	0x3d95f2b0	0.073216796
22	0x3fa3d5d6	1.2799633
23	0x3f652167	0.8950409
24	0x3f2820b2	0.6567489
25	0x3fad1ebf	1.3525008
26	0x3fa8c9d8	1.3186598
27	0x3fc14414	1.5098901
28	0x3f93cceb	1.1546911
29	0x3fe0ce78	1.7563009
30	0x3faee752	1.3664343
31	0x3f8999f4	1.0750108
32	0x3fb01db5	1.3759066
33	0x3fb83a12	1.4392722
34	0x3fa98b02	1.3245547
35	0x3f38b24d	0.72147065
36	0x3f801f70	1.0009594
37	0x3fbef054	1.4917092
38	0x3e5e4b24	0.21708351
39	0x3fbfd736	1.4987552
40	0x3f9c8c95	1.2230402
41	0x3f5f48d3	0.87220496
42	0x3faf9c70	1.3719616
43	0x3f1f086e	0.6212224
44	0x3f8a0c44	1.0784993
45	0x3fa44135	1.28324
46	0x3f34be7d	0.7060316
47	0x3f92e9a2	1.1477549
48	0x3fc8a52c	1.5675406
49	0x3fc290e4	1.5200467
50	0x3f1b50a5	0.6066993
51	0x3fb9737e	1.448837
52	0x3fa98009	1.3242198
53	0x3f4cf993	0.8006832
54	0x3fa1c75f	1.2638968
55	0x3f880328	1.0625963
56	0x3f975775	1.1823565
57	0x3fa68bfd	1.3011471
58	0x3faa88e3	1.3323025
59	0x3f10aa34	0.5650971
60	0x3fb9f79e	1.4528692
61	0x3fa49f3d	1.2861096
62	0x3f4f4487	0.8096394
63	0x3fa87924	1.3161969

network.MLP.3.bias f4 [64]
0	0xbee38da7	-0.4444401
1	0x3e4b9109	0.19879545
2	0x3e076413	0.13221769
3	0xbeab6d03	-0.33481607
4	0xbe23a601	-0.15981294
5	0xbeb180a1	-0.3466845
6	0xbe574ea3	-0.21026091
7	0x3e1ea613	0.1549304
8	0xbdac996f	-0.08427703
9	0x3e52e5e5	0.2059551
10	0x3d8271fa	0.063693956
11	0x3d404ca8	0.046948105
12	0x3d850f7c	0.06497094
13	0x3d66f195	0.056382734
14	0x3e80d439	0.25161913
15	0xbe953d7c	-0.2914847
16	0x3dffe68e	0.12495147
17	0xbdc5e204	-0.0966225
18	0x3da6a0e6	0.08136158
19	0xbccdf6c3	-0.02514208
20	0xbe113e93	-0.14184026
21	0xbe00e249	-0.12586321
22	0xbdc27e1d	-0.094967104
23	0xbde8a143	-0.11358883
24	0x3ddb0130	0.10693586
25	0xbc3102d4	-0.010803897
26	0xbd80ca62	-0.062886015
27	0x3e6ca22c	0.23108739
28	0x3e21f759	0.15817012
29	0x3d08db62	0.033412345
30	0x3dff01c9	0.12451512
31	0x3e3a1694	0.18172675
32	0xbe0ea671	-0.1393068
33	0xbddc4366	-0.10755043
34	0xbdb28826	-0.087173745
35	0x3e530362	0.20606759
36	0x3db19096	0.08670156
37	0xbdb445ca	-0.08802374
38	0xbed36dc5	-0.41294685
39	0xbe3e5eaa	-0.18590799
40	0xbe66c533	-0.22536163
41	0xbe408c36	-0.18803486
42	0x3ddb1eb6	0.10699217
43	0x3e902666	0.28154296
44	0xbe3c0e57	-0.18364845
45	0xbe367269	-0.17817082
46	0xbdaff50f	-0.08591663
47	0xbe0999f2	-0.13437632
48	0x3e5543a3	0.20826583
49	0x3dba6dbf	0.09102964
50	0x3e8ad1fa	0.27113324
51	0xbe28bda0	-0.16478586
52	0x3e0673a9	0.13130058
53	0x3d96017b	0.07324501
54	0xbd855c6c	-0.06511769
55	0x3e2fbdcc	0.17162246
56	0xbda302cf	-0.0795952
57	0xbe1f48f0	-0.15555167
58	0xbde3a71d	-0.11115859
59	0xbe410c0c	-0.18852252
60	0xba975361	-0.0011545235
61	0x3e37731f	0.17915009
62	0x3b9d9087	0.004808489
63	0x3db5eb1e	0.08882736

critic.0.weight f4 [1, 64]
0	0x3e6fd0f5	0.23419555
1	0xbcba87ec	-0.02276989
2	0xbd5985f5	-0.053106267
3	0x3cc500fc	0.024048321
4	0xbc534c67	-0.012896634
5	0x3cd22325	0.025651524
6	0x3ba61490	0.005068369
7	0xbd5eea34	-0.054422572
8	0xbb1346fc	-0.002247273
9	0xbc932828	-0.017963484
10	0xbb8b74f0	-0.0042558834
11	0xbd665a6a	-0.05623857
12	0xbbdb079a	-0.006684256
13	0xbc6558ac	-0.013998192
14	0xbda8351f	-0.08213257
15	0x3a99230f	0.0011683422
16	0xbcd09ab2	-0.02546439
17	0xbd111c5c	-0.035427436
18	0xbca6314c	-0.020287178
19	0xbd0c7adc	-0.034296855
20	0xbc831088	-0.015999094
21	0xbcb31a89	-0.021863239
22	0xba655c6f	-0.00087494304
23	0xbd21ff83	-0.039550316
24	0xbe7151e6	-0.23566398
25	0x3b55f942	0.003264979
26	0xbd39e52b	-0.045384567
27	0xbd63d166	-0.05561962
28	0xbd0f3fff	-0.03497314
29	0xbc87d416	-0.016580623
30	0xbbfb9c94	-0.0076785777
31	0xbcb92af1	-0.022603484
32	0xbce3032e	-0.027711477
33	0xbce5d739	-0.028056728
34	0x3ba02486	0.0048871664
35	0xbe831052	-0.2559839
36	0xbd59cbde	-0.05317294
37	0xbce0940b	-0.027414342
38	0x3d3ee8d6	0.04660877
39	0x3ba98bdc	0.0051741432
40	0x3d207e24	0.039182797
41	0xbd35583f	-0.04427361
42	0xbc46e648	-0.012139864
43	0xbd3de13e	-0.046357386
44	0x3ce6a021	0.028152527
45	0xbc9ab925	-0.018887112
46	0xbce32f93	-0.027732646
47	0xbccc5571	-0.024943085
48	0xbd75be5a	-0.059995987
49	0xbca3db7f	-0.020002125
50	0xbd7e8477	-0.062138047
51	0xbbfe06f9	-0.007752296
52	0xbccffa62	-0.025387947
53	0xbe43a30a	-0.19105163
54	0xbc89b4c6	-0.016809832
55	0xbc520970	-0.012819633
56	0x3b9b85c9	0.004746173
57	0xbc05420c	-0.008133423
58	0xbd176817	-0.036964502
59	0x3cbc4eb1	0.022986742
60	0xbcdb7b55	-0.026792208
61	0xbc7c45b9	-0.015397483
62	0x3e719d52	0.23595169
63	0x3b4640b5	0.003025097

actor.0.weight f4 [22, 64]
0	0xbcd0932f	-0.025460808
1	0xbf263b9c	-0.64934707
2	0x3d0e9746	0.034812234
3	0x3dc4e27a	0.096135095
4	0x3e8e3e54	0.27781928
5	0x3e64006c	0.22265786
6	0x3e0c2ad2	0.1368821
7	0xbde2bf29	-0.11071617
8	0xbf2672dd	-0.6501902
9	0xbe4b45f3	-0.19850902
10	0x3e996674	0.29960978
11	0xbe50946f	-0.20369123
12	0x3f03adb1	0.5143691
13	0x3f266224	0.649935
14	0xbde3a45f	-0.11115336
15	0x3e0f7cf8	0.14012516
16	0xbeba92c6	-0.36440104
17	0x3ccc24e4	0.024919935
18	0x3db0203b	0.085998975
19	0x3c272b2f	0.010203167
20	0x3b778e88	0.0037774164
21	0xbb602032	-0.0034198877
22	0x3d73af7b	0.059493523
23	0x3e08aab2	0.13346365
24	0xbd1f658e	-0.03891521
25	0xbec1de24	-0.37864792
26	0xbeb944fa	-0.36185437
27	0xbd938e03	-0.07204821
28	0x3d49a166	0.049226187
29	0x3ea77e5a	0.32713586
30	0xbd62dc10	-0.05538565
31	0x3e20de86	0.15709886
32	0xbd9eeaec	-0.077596515
33	0x3d0fbb05	0.035090465
34	0x3e6d3f5a	0.23168698
35	0x3d411392	0.047137804
36	0x3df7a072	0.120911494
37	0x3f2cbe14	0.67477536
38	0xbc153600	-0.009107113
39	0xbe16603f	-0.14685152
40	0x3e0ad990	0.13559556
41	0x3e0bdc31	0.13658215
42	0xbe8acaa6	-0.27107733
43	0xbe45e915	-0.19327195
44	0x3e867afd	0.26265708
45	0xbd67a3b7	-0.056552615
46	0x3e776e2a	0.24163118
47	0x3ecaa5f2	0.3957973
48	0xbe98cb2f	-0.29842517
49	0x3c2b0d90	0.010440245
50	0x3ba5346a	0.0050416486
51	0x3eb35587	0.3502619
52	0x3d5a907f	0.05336046
53	0xbd8e4592	-0.06946863
54	0x3dc13cc2	0.09435417
55	0xbd37c1ca	-0.044862546
56	0xbcd7bf8c	-0.026336454
57	0x3bb686d8	0.005570274
58	0x3d96349b	0.073342524
59	0x3d9ecfff	0.07754516
60	0xbcc78b47	-0.024358405
61	0xbdcc41c2	-0.0997348
62	0x3d89a03b	0.06720015
63	0xbf0472e5	-0.51737815
64	0xbd00b6e5	-0.03142442
65	0xbe61e1fc	-0.22058862
66	0x3cc7c74a	0.02438702
67	0x3ecfcdcd	0.405867
68	0x3e65895d	0.22415681
69	0x3dac4e1a	0.08413334
70	0x3d8e7a39	0.06956906
71	0xbda5ff6f	-0.08105361
72	0x3dbaf1bd	0.09128139
73	0xbf02432f	-0.50883764
74	0xbe1ca125	-0.15295847
75	0xbeb75417	-0.35806343
76	0x3eef0e0c	0.46690404
77	0xbd313735	-0.04326554
78	0xbae3c9bc	-0.0017378847
79	0x3baee1c6	0.005336973
80	0xbe98d464	-0.2984954
81	0xbe648ae2	-0.22318605
82	0xbdd08541	-0.10181666
83	0x3e2df06f	0.1698625
84	0x3e9a442a	0.3013013
85	0xbc02a945	-0.007974927
86	0x3eb52474	0.35379374
87	0xbed5928a	-0.41713363
88	0x3d8abc6f	0.06774222
89	0x3edbae90	0.42906618
90	0xbc4094c9	-0.011754223
91	0x3e9dedec	0.30845582
92	0x3da328ba	0.07966752
93	0x3d31ad33	0.043378066
94	0xbea9ce12	-0.33165032
95	0xbe9fa5fa	-0.31181318
96	0x3e700a2a	0.23441377
97	0x3e90cb7e	0.28280252
98	0xbea5bf13	-0.3237234
99	0xbce9ab99	-0.028524207
100	0x3eb8fb6e	0.36129326
101	0x3c9e1bf1	0.019300433
102	0x3d94fccb	0.07274779
103	0x3d49f01b	0.049301248
104	0x3e8ee66c	0.27910173
105	0x3e57f969	0.21091236
106	0xbf03374f	-0.5125627
107	0xbdb1b650	-0.086773515
108	0xbd95061b	-0.07276555
109	0xbe0354c2	-0.12825301
110	0xbe2d33fc	-0.16914362
111	0x3d3a782c	0.04552476
112	0x3e62c37e	0.22144887
113	0xbe774e6d	-0.24151011
114	0x3e38d994	0.1805175
115	0x3ed1c505	0.40970626
116	0xbe0e2e9d	-0.13884969
117	0x3d999cc9	0.075006075
118	0xbf003855	-0.50085956
119	0xbe8e3392	-0.2777372
120	0xbeba0e67	-0.36339113
121	0xbcf5c287	-0.029999984
122	0x3da49099	0.08035392
123	0xbe41f5b3	-0.18941383
124	0xbe3a1b8a	-0.18174568
125	0xbcd2211c	-0.025650553
126	0x3bf201f8	0.0073854886
127	0x3eabe1c5	0.33570686
128	0x3cc6f1c6	0.024285208
129	0xbe5f227b	-0.21790497
130	0xbd8265c2	-0.06367065
131	0x3f1914b7	0.59797233
132	0x3f0259e8	0.50918436
133	0x3dfbdfd6	0.12298553
134	0xbecd2590	-0.4006772
135	0xbd7cf24d	-0.061754514
136	0x3e67284f	0.2257397
137	0xbe21b024	-0.15789849
138	0x3ec7f261	0.39052108
139	0x3d99f7c8	0.07517964
140	0x3ed32668	0.4124024
141	0xbdb531d2	-0.08847393
142	0xbdad2330	-0.08453977
143	0x3d294e1b	0.041334253
144	0xbceef43c	-0.029169194
145	0x3ed18e24	0.40928757
146	0xbeff7731	-0.49895623
147	0xbc167e1e	-0.009185342
148	0x3aa32c2a	0.0012449075
149	0x3d8bb725	0.068220414
150	0x3e4e57da	0.201507
151	0x3e974447	0.2954428
152	0xbcf3fa8b	-0.029782554
153	0xbe9719fc	-0.29512012
154	0xbe932cf0	-0.28745222
155	0xbeaa012e	-0.33204025
156	0xbe9c86a6	-0.3057148
157	0xbe2c4e4e	-0.16826746
158	0x3c971618	0.018443152
159	0xbeb5b1f1	-0.3548732
160	0xbee206cc	-0.4414581
161	0x3f211179	0.62917286
162	0xbe277dc2	-0.16356567
163	0x3d35d82b	0.044395607
164	0x3e01e9cc	0.12686843
165	0x3dffaa3d	0.12483642
166	0x3c6041ae	0.013687534
167	0x3d79dd16	0.06100186
168	0x3f1d6326	0.61479414
169	0xbdda05c4	-0.10645631
170	0xbe735a95	-0.23765023
171	0xbe8267c5	-0.25469795
172	0x3ce084cb	0.02740707
173	0x3e2a7159	0.16644801
174	0x3e5b409e	0.21411368
175	0xbebe8df0	-0.37217665
176	0xbe92734c	-0.2860359
177	0x3d2950ea	0.04133693
178	0xbd4e846e	-0.050419264
179	0xbe11af0a	-0.14226928
180	0xbeb05f41	-0.34447673
181	0xbc160d59	-0.009158456
182	0x3f044326	0.5166496
183	0xbdfa94ad	-0.12235389
184	0x3e73b027	0.23797666
185	0x3d6e6bf8	0.058208436
186	0x3ea18f69	0.31554726
187	0xbc7ec74f	-0.015550449
188	0x3eebc567	0.46049044
189	0x3dd9713f	0.10617303
190	0xbd84d2dd	-0.064855315
191	0xbdcc64ae	-0.099801406
192	0xbd9c7172	-0.076388255
193	0xbeecc2f4	-0.46242487
194	0xbe88b6d5	-0.2670199
195	0x3dc08377	0.09400075
196	0x3e099e3e	0.13439271
197	0x3eca6cd0	0.39536142
198	0x3ecf43e4	0.40481484
199	0xbe20c166	-0.15698776
200	0x3e60bbf8	0.21946704
201	0xbd1cce81	-0.038282875
202	0xbef1c87e	-0.47223276
203	0xbdf2c2ad	-0.11853538
204	0x3d90775b	0.07054015
205	0x3db3bd1c	0.08776304
206	0xbd8c8e5a	-0.06863089
207	0xbd17940d	-0.037006427
208	0xbe2e1f0f	-0.17004035
209	0xbe8d7417	-0.27627632
210	0xbe2d0ca0	-0.16899347
211	0x3d29e509	0.04147819
212	0x3c0aec30	0.008479163
213	0x3de65812	0.11247267
214	0x3edd47b3	0.43218765
215	0xbca58a3b	-0.020207515
216	0xbd8e5baf	-0.06951081
217	0x3de14761	0.109999426
218	0x3e96a114	0.29419768
219	0xbe938b53	-0.28817233
220	0x3e12a745	0.14321621
221	0xbea891f6	-0.3292386
222	0xbf07d278	-0.53055525
223	0x3e25d311	0.16193797
224	0x3e189044	0.14898783
225	0x3d9404d6	0.07227485
226	0x3e3e69dd	0.18595071
227	0xbd1109a2	-0.035409577
228	0x3e80e0ad	0.25171414
229	0x3ed784b8	0.42093444
230	0x3e122ec7	0.14275657
231	0x3e69f00a	0.22845474
232	0x3deaf0b4	0.11471692
233	0xbcb11096	-0.021614354
234	0x3e63921b	0.22223704
235	0x3b637765	0.0034708616
236	0xbe7197d6	-0.23593077
237	0x3e85df94	0.2614714
238	0x3e82759b	0.2548035
239	0x3ec4f963	0.38471517
240	0xbf0a8677	-0.5411143
241	0xbece341b	-0.40274128
242	0xbbe6029f	-0.0070193554
243	0x3caf76fc	0.02141904
244	0x3d35f0cb	0.04441909
245	0x3dd9092b	0.10597452
246	0xbea95d55	-0.3307902
247	0xbe9ad403	-0.30239877
248	0xbddbf236	-0.107395574
249	0x3e2d5515	0.16926987
250	0x3ea984c1	0.33109096
251	0x3d752b74	0.059855893
252	0x3ec0ffe8	0.3769524
253	0xbd98799c	-0.0744507
254	0xbda3ec9d	-0.08004115
255	0x3cdb1359	0.026742624

actor.0.bias f4 [22]
0	0xbe12f0c5	-0.14349659
1	0xbd953a23	-0.07286479
2	0xbdf065b1	-0.11738146
3	0xbe196b6b	-0.14982383
4	0xbcec9dde	-0.02888387
5	0x3ccf38f0	0.025295705
6	0x3e32e1db	0.1746897
7	0x3d468555	0.048467
8	0xbc3f383e	-0.011671124
9	0x3dd56de8	0.104213536
10	0x3e089920	0.13339663
11	0xbd197a68	-0.03747025
12	0x3d814ed3	0.06313863
13	0x3d8f2a74	0.06990519
14	0xbcf01ca2	-0.029310528
15	0x3bc5e5d2	0.0060393596
16	0xbd3c0a04	-0.04590799
17	0xbc72a7d0	-0.014810517
18	0x3cc7dd09	0.02439739
19	0xbd1cf689	-0.03832105
20	0xbdb205e7	-0.08692532
21	0x3db40b65	0.08791236
